…
I0629 12:44:43.779405 17825 net.cpp:51] Initializing net from parameters: 
name: "resnet_cifar10"
state {
  phase: TEST
}
layer {
  name: "Data1"
  type: "ImageData"
  top: "Data1"
  top: "Data2"
  include {
    phase: TEST
  }
  transform_param {
    scale: 0.0078125
    mirror: false
    crop_size: 32
    mean_value: 128
  }
  image_data_param {
    source: "/HOME/sysu_sc_ll/WORKSPACE/wenyp/0314/cifar-10/test/label.txt"
    batch_size: 1
    shuffle: false
    new_height: 40
    new_width: 40
    is_color: true
    root_folder: "/HOME/sysu_sc_ll/WORKSPACE/wenyp/0314/cifar-10/test/Img/"
  }
}
layer {
  name: "Convolution1"
  type: "Convolution"
  bottom: "Data1"
  top: "Convolution1"
  param {
    lr_mult: 1
    decay_mult: 1
  }
  param {
    lr_mult: 2
    decay_mult: 0
  }
  convolution_param {
    num_output: 16
    pad: 1
    kernel_size: 3
    stride: 1
    weight_filler {
      type: "msra"
    }
    bias_filler {
      type: "constant"
      value: 0
    }
  }
}
layer {
  name: "BatchNorm1"
  type: "BatchNorm"
  bottom: "Convolution1"
  top: "Convolution1"
  param {
    lr_mult: 0
    decay_mult: 0
  }
  param {
    lr_mult: 0
    decay_mult: 0
  }
  param {
    lr_mult: 0
    decay_mult: 0
  }
}
layer {
  name: "Scale1"
  type: "Scale"
  bottom: "Convolution1"
  top: "Convolution1"
  scale_param {
    bias_term: true
  }
}
layer {
  name: "ReLU1"
  type: "ReLU"
  bottom: "Convolution1"
  top: "Convolution1"
}
layer {
  name: "Convolution2"
  type: "Convolution"
  bottom: "Convolution1"
  top: "Convolution2"
  param {
    lr_mult: 1
    decay_mult: 1
  }
  param {
    lr_mult: 2
    decay_mult: 0
  }
  convolution_param {
    num_output: 16
    pad: 1
    kernel_size: 3
    stride: 1
    weight_filler {
      type: "msra"
    }
    bias_filler {
      type: "constant"
      value: 0
    }
  }
}
layer {
  name: "BatchNorm2"
  type: "BatchNorm"
  bottom: "Convolution2"
  top: "Convolution2"
  param {
    lr_mult: 0
    decay_mult: 0
  }
  param {
    lr_mult: 0
    decay_mult: 0
  }
  param {
    lr_mult: 0
    decay_mult: 0
  }
}
layer {
  name: "Scale2"
  type: "Scale"
  bottom: "Convolution2"
  top: "Convolution2"
  scale_param {
    bias_term: true
  }
}
layer {
  name: "ReLU2"
  type: "ReLU"
  bottom: "Convolution2"
  top: "Convolution2"
}
layer {
  name: "Convolution3"
  type: "Convolution"
  bottom: "Convolution2"
  top: "Convolution3"
  param {
    lr_mult: 1
    decay_mult: 1
  }
  param {
    lr_mult: 2
    decay_mult: 0
  }
  convolution_param {
    num_output: 16
    pad: 1
    kernel_size: 3
    stride: 1
    weight_filler {
      type: "msra"
    }
    bias_filler {
      type: "constant"
      value: 0
    }
  }
}
layer {
  name: "BatchNorm3"
  type: "BatchNorm"
  bottom: "Convolution3"
  top: "Convolution3"
  param {
    lr_mult: 0
    decay_mult: 0
  }
  param {
    lr_mult: 0
    decay_mult: 0
  }
  param {
    lr_mult: 0
    decay_mult: 0
  }
}
layer {
  name: "Scale3"
  type: "Scale"
  bottom: "Convolution3"
  top: "Convolution3"
  scale_param {
    bias_term: true
  }
}
layer {
  name: "Eltwise1"
  type: "Eltwise"
  bottom: "Convolution1"
  bottom: "Convolution3"
  top: "Eltwise1"
  eltwise_param {
    operation: SUM
  }
}
layer {
  name: "ReLU3"
  type: "ReLU"
  bottom: "Eltwise1"
  top: "Eltwise1"
}
layer {
  name: "Convolution4"
  type: "Convolution"
  bottom: "Eltwise1"
  top: "Convolution4"
  param {
    lr_mult: 1
    decay_mult: 1
  }
  param {
    lr_mult: 2
    decay_mult: 0
  }
  convolution_param {
    num_output: 16
    pad: 1
    kernel_size: 3
    stride: 1
    weight_filler {
      type: "msra"
    }
    bias_filler {
      type: "constant"
      value: 0
    }
  }
}
layer {
  name: "BatchNorm4"
  type: "BatchNorm"
  bottom: "Convolution4"
  top: "Convolution4"
  param {
    lr_mult: 0
    decay_mult: 0
  }
  param {
    lr_mult: 0
    decay_mult: 0
  }
  param {
    lr_mult: 0
    decay_mult: 0
  }
}
layer {
  name: "Scale4"
  type: "Scale"
  bottom: "Convolution4"
  top: "Convolution4"
  scale_param {
    bias_term: true
  }
}
layer {
  name: "ReLU4"
  type: "ReLU"
  bottom: "Convolution4"
  top: "Convolution4"
}
layer {
  name: "Convolution5"
  type: "Convolution"
  bottom: "Convolution4"
  top: "Convolution5"
  param {
    lr_mult: 1
    decay_mult: 1
  }
  param {
    lr_mult: 2
    decay_mult: 0
  }
  convolution_param {
    num_output: 16
    pad: 1
    kernel_size: 3
    stride: 1
    weight_filler {
      type: "msra"
    }
    bias_filler {
      type: "constant"
      value: 0
    }
  }
}
layer {
  name: "BatchNorm5"
  type: "BatchNorm"
  bottom: "Convolution5"
  top: "Convolution5"
  param {
    lr_mult: 0
    decay_mult: 0
  }
  param {
    lr_mult: 0
    decay_mult: 0
  }
  param {
    lr_mult: 0
    decay_mult: 0
  }
}
layer {
  name: "Scale5"
  type: "Scale"
  bottom: "Convolution5"
  top: "Convolution5"
  scale_param {
    bias_term: true
  }
}
layer {
  name: "Eltwise2"
  type: "Eltwise"
  bottom: "Eltwise1"
  bottom: "Convolution5"
  top: "Eltwise2"
  eltwise_param {
    operation: SUM
  }
}
layer {
  name: "ReLU5"
  type: "ReLU"
  bottom: "Eltwise2"
  top: "Eltwise2"
}
layer {
  name: "Convolution6"
  type: "Convolution"
  bottom: "Eltwise2"
  top: "Convolution6"
  param {
    lr_mult: 1
    decay_mult: 1
  }
  param {
    lr_mult: 2
    decay_mult: 0
  }
  convolution_param {
    num_output: 16
    pad: 1
    kernel_size: 3
    stride: 1
    weight_filler {
      type: "msra"
    }
    bias_filler {
      type: "constant"
      value: 0
    }
  }
}
layer {
  name: "BatchNorm6"
  type: "BatchNorm"
  bottom: "Convolution6"
  top: "Convolution6"
  param {
    lr_mult: 0
    decay_mult: 0
  }
  param {
    lr_mult: 0
    decay_mult: 0
  }
  param {
    lr_mult: 0
    decay_mult: 0
  }
}
layer {
  name: "Scale6"
  type: "Scale"
  bottom: "Convolution6"
  top: "Convolution6"
  scale_param {
    bias_term: true
  }
}
layer {
  name: "ReLU6"
  type: "ReLU"
  bottom: "Convolution6"
  top: "Convolution6"
}
layer {
  name: "Convolution7"
  type: "Convolution"
  bottom: "Convolution6"
  top: "Convolution7"
  param {
    lr_mult: 1
    decay_mult: 1
  }
  param {
    lr_mult: 2
    decay_mult: 0
  }
  convolution_param {
    num_output: 16
    pad: 1
    kernel_size: 3
    stride: 1
    weight_filler {
      type: "msra"
    }
    bias_filler {
      type: "constant"
      value: 0
    }
  }
}
layer {
  name: "BatchNorm7"
  type: "BatchNorm"
  bottom: "Convolution7"
  top: "Convolution7"
  param {
    lr_mult: 0
    decay_mult: 0
  }
  param {
    lr_mult: 0
    decay_mult: 0
  }
  param {
    lr_mult: 0
    decay_mult: 0
  }
}
layer {
  name: "Scale7"
  type: "Scale"
  bottom: "Convolution7"
  top: "Convolution7"
  scale_param {
    bias_term: true
  }
}
layer {
  name: "Eltwise3"
  type: "Eltwise"
  bottom: "Eltwise2"
  bottom: "Convolution7"
  top: "Eltwise3"
  eltwise_param {
    operation: SUM
  }
}
layer {
  name: "ReLU7"
  type: "ReLU"
  bottom: "Eltwise3"
  top: "Eltwise3"
}
layer {
  name: "Convolution8"
  type: "Convolution"
  bottom: "Eltwise3"
  top: "Convolution8"
  param {
    lr_mult: 1
    decay_mult: 1
  }
  param {
    lr_mult: 2
    decay_mult: 0
  }
  convolution_param {
    num_output: 32
    pad: 0
    kernel_size: 1
    stride: 2
    weight_filler {
      type: "msra"
    }
    bias_filler {
      type: "constant"
      value: 0
    }
  }
}
layer {
  name: "BatchNorm8"
  type: "BatchNorm"
  bottom: "Convolution8"
  top: "Convolution8"
  param {
    lr_mult: 0
    decay_mult: 0
  }
  param {
    lr_mult: 0
    decay_mult: 0
  }
  param {
    lr_mult: 0
    decay_mult: 0
  }
}
layer {
  name: "Scale8"
  type: "Scale"
  bottom: "Convolution8"
  top: "Convolution8"
  scale_param {
    bias_term: true
  }
}
layer {
  name: "Convolution9"
  type: "Convolution"
  bottom: "Eltwise3"
  top: "Convolution9"
  param {
    lr_mult: 1
    decay_mult: 1
  }
  param {
    lr_mult: 2
    decay_mult: 0
  }
  convolution_param {
    num_output: 32
    pad: 1
    kernel_size: 3
    stride: 2
    weight_filler {
      type: "msra"
    }
    bias_filler {
      type: "constant"
      value: 0
    }
  }
}
layer {
  name: "BatchNorm9"
  type: "BatchNorm"
  bottom: "Convolution9"
  top: "Convolution9"
  param {
    lr_mult: 0
    decay_mult: 0
  }
  param {
    lr_mult: 0
    decay_mult: 0
  }
  param {
    lr_mult: 0
    decay_mult: 0
  }
}
layer {
  name: "Scale9"
  type: "Scale"
  bottom: "Convolution9"
  top: "Convolution9"
  scale_param {
    bias_term: true
  }
}
layer {
  name: "ReLU8"
  type: "ReLU"
  bottom: "Convolution9"
  top: "Convolution9"
}
layer {
  name: "Convolution10"
  type: "Convolution"
  bottom: "Convolution9"
  top: "Convolution10"
  param {
    lr_mult: 1
    decay_mult: 1
  }
  param {
    lr_mult: 2
    decay_mult: 0
  }
  convolution_param {
    num_output: 32
    pad: 1
    kernel_size: 3
    stride: 1
    weight_filler {
      type: "msra"
    }
    bias_filler {
      type: "constant"
      value: 0
    }
  }
}
layer {
  name: "BatchNorm10"
  type: "BatchNorm"
  bottom: "Convolution10"
  top: "Convolution10"
  param {
    lr_mult: 0
    decay_mult: 0
  }
  param {
    lr_mult: 0
    decay_mult: 0
  }
  param {
    lr_mult: 0
    decay_mult: 0
  }
}
layer {
  name: "Scale10"
  type: "Scale"
  bottom: "Convolution10"
  top: "Convolution10"
  scale_param {
    bias_term: true
  }
}
layer {
  name: "Eltwise4"
  type: "Eltwise"
  bottom: "Convolution8"
  bottom: "Convolution10"
  top: "Eltwise4"
  eltwise_param {
    operation: SUM
  }
}
layer {
  name: "ReLU9"
  type: "ReLU"
  bottom: "Eltwise4"
  top: "Eltwise4"
}
layer {
  name: "Convolution11"
  type: "Convolution"
  bottom: "Eltwise4"
  top: "Convolution11"
  param {
    lr_mult: 1
    decay_mult: 1
  }
  param {
    lr_mult: 2
    decay_mult: 0
  }
  convolution_param {
    num_output: 32
    pad: 1
    kernel_size: 3
    stride: 1
    weight_filler {
      type: "msra"
    }
    bias_filler {
      type: "constant"
      value: 0
    }
  }
}
layer {
  name: "BatchNorm11"
  type: "BatchNorm"
  bottom: "Convolution11"
  top: "Convolution11"
  param {
    lr_mult: 0
    decay_mult: 0
  }
  param {
    lr_mult: 0
    decay_mult: 0
  }
  param {
    lr_mult: 0
    decay_mult: 0
  }
}
layer {
  name: "Scale11"
  type: "Scale"
  bottom: "Convolution11"
  top: "Convolution11"
  scale_param {
    bias_term: true
  }
}
layer {
  name: "ReLU10"
  type: "ReLU"
  bottom: "Convolution11"
  top: "Convolution11"
}
layer {
  name: "Convolution12"
  type: "Convolution"
  bottom: "Convolution11"
  top: "Convolution12"
  param {
    lr_mult: 1
    decay_mult: 1
  }
  param {
    lr_mult: 2
    decay_mult: 0
  }
  convolution_param {
    num_output: 32
    pad: 1
    kernel_size: 3
    stride: 1
    weight_filler {
      type: "msra"
    }
    bias_filler {
      type: "constant"
      value: 0
    }
  }
}
layer {
  name: "BatchNorm12"
  type: "BatchNorm"
  bottom: "Convolution12"
  top: "Convolution12"
  param {
    lr_mult: 0
    decay_mult: 0
  }
  param {
    lr_mult: 0
    decay_mult: 0
  }
  param {
    lr_mult: 0
    decay_mult: 0
  }
}
layer {
  name: "Scale12"
  type: "Scale"
  bottom: "Convolution12"
  top: "Convolution12"
  scale_param {
    bias_term: true
  }
}
layer {
  name: "Eltwise5"
  type: "Eltwise"
  bottom: "Eltwise4"
  bottom: "Convolution12"
  top: "Eltwise5"
  eltwise_param {
    operation: SUM
  }
}
layer {
  name: "ReLU11"
  type: "ReLU"
  bottom: "Eltwise5"
  top: "Eltwise5"
}
layer {
  name: "Convolution13"
  type: "Convolution"
  bottom: "Eltwise5"
  top: "Convolution13"
  param {
    lr_mult: 1
    decay_mult: 1
  }
  param {
    lr_mult: 2
    decay_mult: 0
  }
  convolution_param {
    num_output: 32
    pad: 1
    kernel_size: 3
    stride: 1
    weight_filler {
      type: "msra"
    }
    bias_filler {
      type: "constant"
      value: 0
    }
  }
}
layer {
  name: "BatchNorm13"
  type: "BatchNorm"
  bottom: "Convolution13"
  top: "Convolution13"
  param {
    lr_mult: 0
    decay_mult: 0
  }
  param {
    lr_mult: 0
    decay_mult: 0
  }
  param {
    lr_mult: 0
    decay_mult: 0
  }
}
layer {
  name: "Scale13"
  type: "Scale"
  bottom: "Convolution13"
  top: "Convolution13"
  scale_param {
    bias_term: true
  }
}
layer {
  name: "ReLU12"
  type: "ReLU"
  bottom: "Convolution13"
  top: "Convolution13"
}
layer {
  name: "Convolution14"
  type: "Convolution"
  bottom: "Convolution13"
  top: "Convolution14"
  param {
    lr_mult: 1
    decay_mult: 1
  }
  param {
    lr_mult: 2
    decay_mult: 0
  }
  convolution_param {
    num_output: 32
    pad: 1
    kernel_size: 3
    stride: 1
    weight_filler {
      type: "msra"
    }
    bias_filler {
      type: "constant"
      value: 0
    }
  }
}
layer {
  name: "BatchNorm14"
  type: "BatchNorm"
  bottom: "Convolution14"
  top: "Convolution14"
  param {
    lr_mult: 0
    decay_mult: 0
  }
  param {
    lr_mult: 0
    decay_mult: 0
  }
  param {
    lr_mult: 0
    decay_mult: 0
  }
}
layer {
  name: "Scale14"
  type: "Scale"
  bottom: "Convolution14"
  top: "Convolution14"
  scale_param {
    bias_term: true
  }
}
layer {
  name: "Eltwise6"
  type: "Eltwise"
  bottom: "Eltwise5"
  bottom: "Convolution14"
  top: "Eltwise6"
  eltwise_param {
    operation: SUM
  }
}
layer {
  name: "ReLU13"
  type: "ReLU"
  bottom: "Eltwise6"
  top: "Eltwise6"
}
layer {
  name: "Convolution15"
  type: "Convolution"
  bottom: "Eltwise6"
  top: "Convolution15"
  param {
    lr_mult: 1
    decay_mult: 1
  }
  param {
    lr_mult: 2
    decay_mult: 0
  }
  convolution_param {
    num_output: 64
    pad: 0
    kernel_size: 1
    stride: 2
    weight_filler {
      type: "msra"
    }
    bias_filler {
      type: "constant"
      value: 0
    }
  }
}
layer {
  name: "BatchNorm15"
  type: "BatchNorm"
  bottom: "Convolution15"
  top: "Convolution15"
  param {
    lr_mult: 0
    decay_mult: 0
  }
  param {
    lr_mult: 0
    decay_mult: 0
  }
  param {
    lr_mult: 0
    decay_mult: 0
  }
}
layer {
  name: "Scale15"
  type: "Scale"
  bottom: "Convolution15"
  top: "Convolution15"
  scale_param {
    bias_term: true
  }
}
layer {
  name: "Convolution16"
  type: "Convolution"
  bottom: "Eltwise6"
  top: "Convolution16"
  param {
    lr_mult: 1
    decay_mult: 1
  }
  param {
    lr_mult: 2
    decay_mult: 0
  }
  convolution_param {
    num_output: 64
    pad: 1
    kernel_size: 3
    stride: 2
    weight_filler {
      type: "msra"
    }
    bias_filler {
      type: "constant"
      value: 0
    }
  }
}
layer {
  name: "BatchNorm16"
  type: "BatchNorm"
  bottom: "Convolution16"
  top: "Convolution16"
  param {
    lr_mult: 0
    decay_mult: 0
  }
  param {
    lr_mult: 0
    decay_mult: 0
  }
  param {
    lr_mult: 0
    decay_mult: 0
  }
}
layer {
  name: "Scale16"
  type: "Scale"
  bottom: "Convolution16"
  top: "Convolution16"
  scale_param {
    bias_term: true
  }
}
layer {
  name: "ReLU14"
  type: "ReLU"
  bottom: "Convolution16"
  top: "Convolution16"
}
layer {
  name: "Convolution17"
  type: "Convolution"
  bottom: "Convolution16"
  top: "Convolution17"
  param {
    lr_mult: 1
    decay_mult: 1
  }
  param {
    lr_mult: 2
    decay_mult: 0
  }
  convolution_param {
    num_output: 64
    pad: 1
    kernel_size: 3
    stride: 1
    weight_filler {
      type: "msra"
    }
    bias_filler {
      type: "constant"
      value: 0
    }
  }
}
layer {
  name: "BatchNorm17"
  type: "BatchNorm"
  bottom: "Convolution17"
  top: "Convolution17"
  param {
    lr_mult: 0
    decay_mult: 0
  }
  param {
    lr_mult: 0
    decay_mult: 0
  }
  param {
    lr_mult: 0
    decay_mult: 0
  }
}
layer {
  name: "Scale17"
  type: "Scale"
  bottom: "Convolution17"
  top: "Convolution17"
  scale_param {
    bias_term: true
  }
}
layer {
  name: "Eltwise7"
  type: "Eltwise"
  bottom: "Convolution15"
  bottom: "Convolution17"
  top: "Eltwise7"
  eltwise_param {
    operation: SUM
  }
}
layer {
  name: "ReLU15"
  type: "ReLU"
  bottom: "Eltwise7"
  top: "Eltwise7"
}
layer {
  name: "Convolution18"
  type: "Convolution"
  bottom: "Eltwise7"
  top: "Convolution18"
  param {
    lr_mult: 1
    decay_mult: 1
  }
  param {
    lr_mult: 2
    decay_mult: 0
  }
  convolution_param {
    num_output: 64
    pad: 1
    kernel_size: 3
    stride: 1
    weight_filler {
      type: "msra"
    }
    bias_filler {
      type: "constant"
      value: 0
    }
  }
}
layer {
  name: "BatchNorm18"
  type: "BatchNorm"
  bottom: "Convolution18"
  top: "Convolution18"
  param {
    lr_mult: 0
    decay_mult: 0
  }
  param {
    lr_mult: 0
    decay_mult: 0
  }
  param {
    lr_mult: 0
    decay_mult: 0
  }
}
layer {
  name: "Scale18"
  type: "Scale"
  bottom: "Convolution18"
  top: "Convolution18"
  scale_param {
    bias_term: true
  }
}
layer {
  name: "ReLU16"
  type: "ReLU"
  bottom: "Convolution18"
  top: "Convolution18"
}
layer {
  name: "Convolution19"
  type: "Convolution"
  bottom: "Convolution18"
  top: "Convolution19"
  param {
    lr_mult: 1
    decay_mult: 1
  }
  param {
    lr_mult: 2
    decay_mult: 0
  }
  convolution_param {
    num_output: 64
    pad: 1
    kernel_size: 3
    stride: 1
    weight_filler {
      type: "msra"
    }
    bias_filler {
      type: "constant"
      value: 0
    }
  }
}
layer {
  name: "BatchNorm19"
  type: "BatchNorm"
  bottom: "Convolution19"
  top: "Convolution19"
  param {
    lr_mult: 0
    decay_mult: 0
  }
  param {
    lr_mult: 0
    decay_mult: 0
  }
  param {
    lr_mult: 0
    decay_mult: 0
  }
}
layer {
  name: "Scale19"
  type: "Scale"
  bottom: "Convolution19"
  top: "Convolution19"
  scale_param {
    bias_term: true
  }
}
layer {
  name: "Eltwise8"
  type: "Eltwise"
  bottom: "Eltwise7"
  bottom: "Convolution19"
  top: "Eltwise8"
  eltwise_param {
    operation: SUM
  }
}
layer {
  name: "ReLU17"
  type: "ReLU"
  bottom: "Eltwise8"
  top: "Eltwise8"
}
layer {
  name: "Convolution20"
  type: "Convolution"
  bottom: "Eltwise8"
  top: "Convolution20"
  param {
    lr_mult: 1
    decay_mult: 1
  }
  param {
    lr_mult: 2
    decay_mult: 0
  }
  convolution_param {
    num_output: 64
    pad: 1
    kernel_size: 3
    stride: 1
    weight_filler {
      type: "msra"
    }
    bias_filler {
      type: "constant"
      value: 0
    }
  }
}
layer {
  name: "BatchNorm20"
  type: "BatchNorm"
  bottom: "Convolution20"
  top: "Convolution20"
  param {
    lr_mult: 0
    decay_mult: 0
  }
  param {
    lr_mult: 0
    decay_mult: 0
  }
  param {
    lr_mult: 0
    decay_mult: 0
  }
}
layer {
  name: "Scale20"
  type: "Scale"
  bottom: "Convolution20"
  top: "Convolution20"
  scale_param {
    bias_term: true
  }
}
layer {
  name: "ReLU18"
  type: "ReLU"
  bottom: "Convolution20"
  top: "Convolution20"
}
layer {
  name: "Convolution21"
  type: "Convolution"
  bottom: "Convolution20"
  top: "Convolution21"
  param {
    lr_mult: 1
    decay_mult: 1
  }
  param {
    lr_mult: 2
    decay_mult: 0
  }
  convolution_param {
    num_output: 64
    pad: 1
    kernel_size: 3
    stride: 1
    weight_filler {
      type: "msra"
    }
    bias_filler {
      type: "constant"
      value: 0
    }
  }
}
layer {
  name: "BatchNorm21"
  type: "BatchNorm"
  bottom: "Convolution21"
  top: "Convolution21"
  param {
    lr_mult: 0
    decay_mult: 0
  }
  param {
    lr_mult: 0
    decay_mult: 0
  }
  param {
    lr_mult: 0
    decay_mult: 0
  }
}
layer {
  name: "Scale21"
  type: "Scale"
  bottom: "Convolution21"
  top: "Convolution21"
  scale_param {
    bias_term: true
  }
}
layer {
  name: "Eltwise9"
  type: "Eltwise"
  bottom: "Eltwise8"
  bottom: "Convolution21"
  top: "Eltwise9"
  eltwise_param {
    operation: SUM
  }
}
layer {
  name: "ReLU19"
  type: "ReLU"
  bottom: "Eltwise9"
  top: "Eltwise9"
}
layer {
  name: "Pooling1"
  type: "Pooling"
  bottom: "Eltwise9"
  top: "Pooling1"
  pooling_param {
    pool: AVE
    global_pooling: true
  }
}
layer {
  name: "InnerProduct1"
  type: "InnerProduct"
  bottom: "Pooling1"
  top: "InnerProduct1"
  param {
    lr_mult: 1
    decay_mult: 1
  }
  param {
    lr_mult: 2
    decay_mult: 1
  }
  inner_product_param {
    num_output: 10
    weight_filler {
      type: "msra"
    }
    bias_filler {
      type: "constant"
      value: 0
    }
  }
}
layer {
  name: "SoftmaxWithLoss1"
  type: "SoftmaxWithLoss"
  bottom: "InnerProduct1"
  bottom: "Data2"
  top: "SoftmaxWithLoss1"
}
layer {
  name: "Accuracy1"
  type: "Accuracy"
  bottom: "InnerProduct1"
  bottom: "Data2"
  top: "Accuracy1"
  include {
    phase: TEST
  }
}
I0629 12:44:43.781949 17825 layer_factory.hpp:77] Creating layer Data1
I0629 12:44:43.784941 17825 net.cpp:112] Creating Layer 0 : Data1
I0629 12:44:43.784972 17825 net.cpp:419] Data1 -> Data1
I0629 12:44:43.785064 17825 net.cpp:419] Data1 -> Data2
I0629 12:44:43.785349 17825 data_transformer.cpp:55] Here I am
I0629 12:44:43.785423 17825 image_data_layer.cpp:49] 0 MPI_Barrier 0
I0629 12:44:43.785436 17825 image_data_layer.cpp:51] 0: Opening file /HOME/sysu_sc_ll/WORKSPACE/wenyp/0314/cifar-10/test/label.txt
I0629 12:44:43.804770 17825 image_data_layer.cpp:58] List loaded
I0629 12:44:43.805284 17825 image_data_layer.cpp:69] 0: A total of 10000 images.
I0629 12:44:43.930512 17825 image_data_layer.cpp:96] output data size: 1,3,32,32
I0629 12:44:43.930667 17825 base_data_layer.cpp:69] Initializing prefetch
I0629 12:44:43.931506 17825 base_data_layer.cpp:72] Prefetch initialized.
I0629 12:44:43.931524 17825 net.cpp:156] Setting up Data1
I0629 12:44:43.931531 17825 net.cpp:159] 0 counting
I0629 12:44:43.931542 17825 net.cpp:164] Top shape: 1 3 32 32 (3072)
I0629 12:44:43.931599 17825 net.cpp:159] 0 counting
I0629 12:44:43.931610 17825 net.cpp:164] Top shape: 1 (1)
I0629 12:44:43.931619 17825 net.cpp:172] Memory required for data: 12292
I0629 12:44:43.931630 17825 layer_factory.hpp:77] Creating layer Data2_Data1_1_split
I0629 12:44:43.931691 17825 net.cpp:112] Creating Layer 1 : Data2_Data1_1_split
I0629 12:44:43.931707 17825 net.cpp:462] Data2_Data1_1_split <- Data2
I0629 12:44:43.931728 17825 net.cpp:419] Data2_Data1_1_split -> Data2_Data1_1_split_0
I0629 12:44:43.931746 17825 net.cpp:419] Data2_Data1_1_split -> Data2_Data1_1_split_1
I0629 12:44:43.931808 17825 net.cpp:156] Setting up Data2_Data1_1_split
I0629 12:44:43.931823 17825 net.cpp:159] 0 counting
I0629 12:44:43.931829 17825 net.cpp:164] Top shape: 1 (1)
I0629 12:44:43.931838 17825 net.cpp:159] 0 counting
I0629 12:44:43.931844 17825 net.cpp:164] Top shape: 1 (1)
I0629 12:44:43.931851 17825 net.cpp:172] Memory required for data: 12300
I0629 12:44:43.931869 17825 layer_factory.hpp:77] Creating layer Convolution1
I0629 12:44:43.931982 17825 net.cpp:112] Creating Layer 2 : Convolution1
I0629 12:44:43.931998 17825 net.cpp:462] Convolution1 <- Data1
I0629 12:44:43.932011 17825 net.cpp:419] Convolution1 -> Convolution1
I0629 12:44:43.933755 17825 base_conv_layer.cpp:174]  kernel_shape_data[0] = 3
I0629 12:44:43.933779 17825 base_conv_layer.cpp:174]  kernel_shape_data[1] = 3
I0629 12:44:43.934128 17825 net.cpp:156] Setting up Convolution1
I0629 12:44:43.934144 17825 net.cpp:159] 0 counting
I0629 12:44:43.934151 17825 net.cpp:164] Top shape: 1 16 32 32 (16384)
I0629 12:44:43.934162 17825 net.cpp:172] Memory required for data: 77836
I0629 12:44:43.934255 17825 layer_factory.hpp:77] Creating layer BatchNorm1
I0629 12:44:43.934317 17825 net.cpp:112] Creating Layer 3 : BatchNorm1
I0629 12:44:43.934335 17825 net.cpp:462] BatchNorm1 <- Convolution1
I0629 12:44:43.934350 17825 net.cpp:405] BatchNorm1 -> Convolution1 (in-place)
I0629 12:44:43.934561 17825 net.cpp:156] Setting up BatchNorm1
I0629 12:44:43.934576 17825 net.cpp:159] 0 counting
I0629 12:44:43.934582 17825 net.cpp:164] Top shape: 1 16 32 32 (16384)
I0629 12:44:43.934592 17825 net.cpp:172] Memory required for data: 143372
I0629 12:44:43.934653 17825 layer_factory.hpp:77] Creating layer Scale1
I0629 12:44:43.934712 17825 net.cpp:112] Creating Layer 4 : Scale1
I0629 12:44:43.934726 17825 net.cpp:462] Scale1 <- Convolution1
I0629 12:44:43.934741 17825 net.cpp:405] Scale1 -> Convolution1 (in-place)
I0629 12:44:43.935082 17825 layer_factory.hpp:77] Creating layer Scale1
I0629 12:44:43.939262 17825 net.cpp:156] Setting up Scale1
I0629 12:44:43.939285 17825 net.cpp:159] 0 counting
I0629 12:44:43.939292 17825 net.cpp:164] Top shape: 1 16 32 32 (16384)
I0629 12:44:43.939302 17825 net.cpp:172] Memory required for data: 208908
I0629 12:44:43.939316 17825 layer_factory.hpp:77] Creating layer ReLU1
I0629 12:44:43.939378 17825 net.cpp:112] Creating Layer 5 : ReLU1
I0629 12:44:43.939393 17825 net.cpp:462] ReLU1 <- Convolution1
I0629 12:44:43.939404 17825 net.cpp:405] ReLU1 -> Convolution1 (in-place)
I0629 12:44:43.939416 17825 net.cpp:156] Setting up ReLU1
I0629 12:44:43.939433 17825 net.cpp:159] 0 counting
I0629 12:44:43.939440 17825 net.cpp:164] Top shape: 1 16 32 32 (16384)
I0629 12:44:43.939450 17825 net.cpp:172] Memory required for data: 274444
I0629 12:44:43.939456 17825 layer_factory.hpp:77] Creating layer Convolution1_ReLU1_0_split
I0629 12:44:43.939466 17825 net.cpp:112] Creating Layer 6 : Convolution1_ReLU1_0_split
I0629 12:44:43.939473 17825 net.cpp:462] Convolution1_ReLU1_0_split <- Convolution1
I0629 12:44:43.939488 17825 net.cpp:419] Convolution1_ReLU1_0_split -> Convolution1_ReLU1_0_split_0
I0629 12:44:43.939503 17825 net.cpp:419] Convolution1_ReLU1_0_split -> Convolution1_ReLU1_0_split_1
I0629 12:44:43.939518 17825 net.cpp:156] Setting up Convolution1_ReLU1_0_split
I0629 12:44:43.939524 17825 net.cpp:159] 0 counting
I0629 12:44:43.939530 17825 net.cpp:164] Top shape: 1 16 32 32 (16384)
I0629 12:44:43.939538 17825 net.cpp:159] 0 counting
I0629 12:44:43.939543 17825 net.cpp:164] Top shape: 1 16 32 32 (16384)
I0629 12:44:43.939551 17825 net.cpp:172] Memory required for data: 405516
I0629 12:44:43.939558 17825 layer_factory.hpp:77] Creating layer Convolution2
I0629 12:44:43.939576 17825 net.cpp:112] Creating Layer 7 : Convolution2
I0629 12:44:43.939584 17825 net.cpp:462] Convolution2 <- Convolution1_ReLU1_0_split_0
I0629 12:44:43.939595 17825 net.cpp:419] Convolution2 -> Convolution2
I0629 12:44:43.941545 17825 base_conv_layer.cpp:174]  kernel_shape_data[0] = 3
I0629 12:44:43.941567 17825 base_conv_layer.cpp:174]  kernel_shape_data[1] = 3
I0629 12:44:43.941637 17825 net.cpp:156] Setting up Convolution2
I0629 12:44:43.941648 17825 net.cpp:159] 0 counting
I0629 12:44:43.941654 17825 net.cpp:164] Top shape: 1 16 32 32 (16384)
I0629 12:44:43.941664 17825 net.cpp:172] Memory required for data: 471052
I0629 12:44:43.941681 17825 layer_factory.hpp:77] Creating layer BatchNorm2
I0629 12:44:43.941699 17825 net.cpp:112] Creating Layer 8 : BatchNorm2
I0629 12:44:43.941707 17825 net.cpp:462] BatchNorm2 <- Convolution2
I0629 12:44:43.941718 17825 net.cpp:405] BatchNorm2 -> Convolution2 (in-place)
I0629 12:44:43.941747 17825 net.cpp:156] Setting up BatchNorm2
I0629 12:44:43.941756 17825 net.cpp:159] 0 counting
I0629 12:44:43.941762 17825 net.cpp:164] Top shape: 1 16 32 32 (16384)
I0629 12:44:43.941771 17825 net.cpp:172] Memory required for data: 536588
I0629 12:44:43.941787 17825 layer_factory.hpp:77] Creating layer Scale2
I0629 12:44:43.941799 17825 net.cpp:112] Creating Layer 9 : Scale2
I0629 12:44:43.941807 17825 net.cpp:462] Scale2 <- Convolution2
I0629 12:44:43.941815 17825 net.cpp:405] Scale2 -> Convolution2 (in-place)
I0629 12:44:43.941833 17825 layer_factory.hpp:77] Creating layer Scale2
I0629 12:44:43.941901 17825 net.cpp:156] Setting up Scale2
I0629 12:44:43.941912 17825 net.cpp:159] 0 counting
I0629 12:44:43.941918 17825 net.cpp:164] Top shape: 1 16 32 32 (16384)
I0629 12:44:43.941927 17825 net.cpp:172] Memory required for data: 602124
I0629 12:44:43.941939 17825 layer_factory.hpp:77] Creating layer ReLU2
I0629 12:44:43.941948 17825 net.cpp:112] Creating Layer 10 : ReLU2
I0629 12:44:43.941956 17825 net.cpp:462] ReLU2 <- Convolution2
I0629 12:44:43.941969 17825 net.cpp:405] ReLU2 -> Convolution2 (in-place)
I0629 12:44:43.941982 17825 net.cpp:156] Setting up ReLU2
I0629 12:44:43.941988 17825 net.cpp:159] 0 counting
I0629 12:44:43.941993 17825 net.cpp:164] Top shape: 1 16 32 32 (16384)
I0629 12:44:43.942001 17825 net.cpp:172] Memory required for data: 667660
I0629 12:44:43.942008 17825 layer_factory.hpp:77] Creating layer Convolution3
I0629 12:44:43.942032 17825 net.cpp:112] Creating Layer 11 : Convolution3
I0629 12:44:43.942042 17825 net.cpp:462] Convolution3 <- Convolution2
I0629 12:44:43.942054 17825 net.cpp:419] Convolution3 -> Convolution3
I0629 12:44:43.942165 17825 base_conv_layer.cpp:174]  kernel_shape_data[0] = 3
I0629 12:44:43.942178 17825 base_conv_layer.cpp:174]  kernel_shape_data[1] = 3
I0629 12:44:43.942240 17825 net.cpp:156] Setting up Convolution3
I0629 12:44:43.942251 17825 net.cpp:159] 0 counting
I0629 12:44:43.942267 17825 net.cpp:164] Top shape: 1 16 32 32 (16384)
I0629 12:44:43.942277 17825 net.cpp:172] Memory required for data: 733196
I0629 12:44:43.942289 17825 layer_factory.hpp:77] Creating layer BatchNorm3
I0629 12:44:43.942306 17825 net.cpp:112] Creating Layer 12 : BatchNorm3
I0629 12:44:43.942317 17825 net.cpp:462] BatchNorm3 <- Convolution3
I0629 12:44:43.942327 17825 net.cpp:405] BatchNorm3 -> Convolution3 (in-place)
I0629 12:44:43.942361 17825 net.cpp:156] Setting up BatchNorm3
I0629 12:44:43.942371 17825 net.cpp:159] 0 counting
I0629 12:44:43.942378 17825 net.cpp:164] Top shape: 1 16 32 32 (16384)
I0629 12:44:43.942386 17825 net.cpp:172] Memory required for data: 798732
I0629 12:44:43.942406 17825 layer_factory.hpp:77] Creating layer Scale3
I0629 12:44:43.942417 17825 net.cpp:112] Creating Layer 13 : Scale3
I0629 12:44:43.942425 17825 net.cpp:462] Scale3 <- Convolution3
I0629 12:44:43.942433 17825 net.cpp:405] Scale3 -> Convolution3 (in-place)
I0629 12:44:43.942451 17825 layer_factory.hpp:77] Creating layer Scale3
I0629 12:44:43.942486 17825 net.cpp:156] Setting up Scale3
I0629 12:44:43.942497 17825 net.cpp:159] 0 counting
I0629 12:44:43.942502 17825 net.cpp:164] Top shape: 1 16 32 32 (16384)
I0629 12:44:43.942510 17825 net.cpp:172] Memory required for data: 864268
I0629 12:44:43.942523 17825 layer_factory.hpp:77] Creating layer Eltwise1
I0629 12:44:43.942533 17825 net.cpp:112] Creating Layer 14 : Eltwise1
I0629 12:44:43.942541 17825 net.cpp:462] Eltwise1 <- Convolution1_ReLU1_0_split_1
I0629 12:44:43.942548 17825 net.cpp:462] Eltwise1 <- Convolution3
I0629 12:44:43.942564 17825 net.cpp:419] Eltwise1 -> Eltwise1
I0629 12:44:43.944030 17825 net.cpp:156] Setting up Eltwise1
I0629 12:44:43.944051 17825 net.cpp:159] 0 counting
I0629 12:44:43.944067 17825 net.cpp:164] Top shape: 1 16 32 32 (16384)
I0629 12:44:43.944077 17825 net.cpp:172] Memory required for data: 929804
I0629 12:44:43.944087 17825 layer_factory.hpp:77] Creating layer ReLU3
I0629 12:44:43.944097 17825 net.cpp:112] Creating Layer 15 : ReLU3
I0629 12:44:43.944105 17825 net.cpp:462] ReLU3 <- Eltwise1
I0629 12:44:43.944114 17825 net.cpp:405] ReLU3 -> Eltwise1 (in-place)
I0629 12:44:43.944126 17825 net.cpp:156] Setting up ReLU3
I0629 12:44:43.944133 17825 net.cpp:159] 0 counting
I0629 12:44:43.944139 17825 net.cpp:164] Top shape: 1 16 32 32 (16384)
I0629 12:44:43.944146 17825 net.cpp:172] Memory required for data: 995340
I0629 12:44:43.944152 17825 layer_factory.hpp:77] Creating layer Eltwise1_ReLU3_0_split
I0629 12:44:43.944164 17825 net.cpp:112] Creating Layer 16 : Eltwise1_ReLU3_0_split
I0629 12:44:43.944169 17825 net.cpp:462] Eltwise1_ReLU3_0_split <- Eltwise1
I0629 12:44:43.944187 17825 net.cpp:419] Eltwise1_ReLU3_0_split -> Eltwise1_ReLU3_0_split_0
I0629 12:44:43.944203 17825 net.cpp:419] Eltwise1_ReLU3_0_split -> Eltwise1_ReLU3_0_split_1
I0629 12:44:43.944216 17825 net.cpp:156] Setting up Eltwise1_ReLU3_0_split
I0629 12:44:43.944222 17825 net.cpp:159] 0 counting
I0629 12:44:43.944228 17825 net.cpp:164] Top shape: 1 16 32 32 (16384)
I0629 12:44:43.944236 17825 net.cpp:159] 0 counting
I0629 12:44:43.944242 17825 net.cpp:164] Top shape: 1 16 32 32 (16384)
I0629 12:44:43.944249 17825 net.cpp:172] Memory required for data: 1126412
I0629 12:44:43.944257 17825 layer_factory.hpp:77] Creating layer Convolution4
I0629 12:44:43.944278 17825 net.cpp:112] Creating Layer 17 : Convolution4
I0629 12:44:43.944293 17825 net.cpp:462] Convolution4 <- Eltwise1_ReLU3_0_split_0
I0629 12:44:43.944304 17825 net.cpp:419] Convolution4 -> Convolution4
I0629 12:44:43.944386 17825 base_conv_layer.cpp:174]  kernel_shape_data[0] = 3
I0629 12:44:43.944398 17825 base_conv_layer.cpp:174]  kernel_shape_data[1] = 3
I0629 12:44:43.944458 17825 net.cpp:156] Setting up Convolution4
I0629 12:44:43.944470 17825 net.cpp:159] 0 counting
I0629 12:44:43.944476 17825 net.cpp:164] Top shape: 1 16 32 32 (16384)
I0629 12:44:43.944485 17825 net.cpp:172] Memory required for data: 1191948
I0629 12:44:43.944497 17825 layer_factory.hpp:77] Creating layer BatchNorm4
I0629 12:44:43.944514 17825 net.cpp:112] Creating Layer 18 : BatchNorm4
I0629 12:44:43.944533 17825 net.cpp:462] BatchNorm4 <- Convolution4
I0629 12:44:43.944545 17825 net.cpp:405] BatchNorm4 -> Convolution4 (in-place)
I0629 12:44:43.944576 17825 net.cpp:156] Setting up BatchNorm4
I0629 12:44:43.944587 17825 net.cpp:159] 0 counting
I0629 12:44:43.944592 17825 net.cpp:164] Top shape: 1 16 32 32 (16384)
I0629 12:44:43.944602 17825 net.cpp:172] Memory required for data: 1257484
I0629 12:44:43.944615 17825 layer_factory.hpp:77] Creating layer Scale4
I0629 12:44:43.944629 17825 net.cpp:112] Creating Layer 19 : Scale4
I0629 12:44:43.944638 17825 net.cpp:462] Scale4 <- Convolution4
I0629 12:44:43.944648 17825 net.cpp:405] Scale4 -> Convolution4 (in-place)
I0629 12:44:43.944665 17825 layer_factory.hpp:77] Creating layer Scale4
I0629 12:44:43.944705 17825 net.cpp:156] Setting up Scale4
I0629 12:44:43.944716 17825 net.cpp:159] 0 counting
I0629 12:44:43.944722 17825 net.cpp:164] Top shape: 1 16 32 32 (16384)
I0629 12:44:43.944731 17825 net.cpp:172] Memory required for data: 1323020
I0629 12:44:43.944743 17825 layer_factory.hpp:77] Creating layer ReLU4
I0629 12:44:43.944752 17825 net.cpp:112] Creating Layer 20 : ReLU4
I0629 12:44:43.944759 17825 net.cpp:462] ReLU4 <- Convolution4
I0629 12:44:43.944767 17825 net.cpp:405] ReLU4 -> Convolution4 (in-place)
I0629 12:44:43.944777 17825 net.cpp:156] Setting up ReLU4
I0629 12:44:43.944783 17825 net.cpp:159] 0 counting
I0629 12:44:43.944788 17825 net.cpp:164] Top shape: 1 16 32 32 (16384)
I0629 12:44:43.944797 17825 net.cpp:172] Memory required for data: 1388556
I0629 12:44:43.944802 17825 layer_factory.hpp:77] Creating layer Convolution5
I0629 12:44:43.944823 17825 net.cpp:112] Creating Layer 21 : Convolution5
I0629 12:44:43.944833 17825 net.cpp:462] Convolution5 <- Convolution4
I0629 12:44:43.944849 17825 net.cpp:419] Convolution5 -> Convolution5
I0629 12:44:43.944929 17825 base_conv_layer.cpp:174]  kernel_shape_data[0] = 3
I0629 12:44:43.944941 17825 base_conv_layer.cpp:174]  kernel_shape_data[1] = 3
I0629 12:44:43.945003 17825 net.cpp:156] Setting up Convolution5
I0629 12:44:43.945013 17825 net.cpp:159] 0 counting
I0629 12:44:43.945021 17825 net.cpp:164] Top shape: 1 16 32 32 (16384)
I0629 12:44:43.945029 17825 net.cpp:172] Memory required for data: 1454092
I0629 12:44:43.945041 17825 layer_factory.hpp:77] Creating layer BatchNorm5
I0629 12:44:43.945051 17825 net.cpp:112] Creating Layer 22 : BatchNorm5
I0629 12:44:43.945065 17825 net.cpp:462] BatchNorm5 <- Convolution5
I0629 12:44:43.945077 17825 net.cpp:405] BatchNorm5 -> Convolution5 (in-place)
I0629 12:44:43.945109 17825 net.cpp:156] Setting up BatchNorm5
I0629 12:44:43.945119 17825 net.cpp:159] 0 counting
I0629 12:44:43.945125 17825 net.cpp:164] Top shape: 1 16 32 32 (16384)
I0629 12:44:43.945134 17825 net.cpp:172] Memory required for data: 1519628
I0629 12:44:43.945214 17825 layer_factory.hpp:77] Creating layer Scale5
I0629 12:44:43.945238 17825 net.cpp:112] Creating Layer 23 : Scale5
I0629 12:44:43.945246 17825 net.cpp:462] Scale5 <- Convolution5
I0629 12:44:43.945256 17825 net.cpp:405] Scale5 -> Convolution5 (in-place)
I0629 12:44:43.945274 17825 layer_factory.hpp:77] Creating layer Scale5
I0629 12:44:43.945312 17825 net.cpp:156] Setting up Scale5
I0629 12:44:43.945322 17825 net.cpp:159] 0 counting
I0629 12:44:43.945328 17825 net.cpp:164] Top shape: 1 16 32 32 (16384)
I0629 12:44:43.945338 17825 net.cpp:172] Memory required for data: 1585164
I0629 12:44:43.945349 17825 layer_factory.hpp:77] Creating layer Eltwise2
I0629 12:44:43.945359 17825 net.cpp:112] Creating Layer 24 : Eltwise2
I0629 12:44:43.945366 17825 net.cpp:462] Eltwise2 <- Eltwise1_ReLU3_0_split_1
I0629 12:44:43.945374 17825 net.cpp:462] Eltwise2 <- Convolution5
I0629 12:44:43.945389 17825 net.cpp:419] Eltwise2 -> Eltwise2
I0629 12:44:43.945405 17825 net.cpp:156] Setting up Eltwise2
I0629 12:44:43.945411 17825 net.cpp:159] 0 counting
I0629 12:44:43.945417 17825 net.cpp:164] Top shape: 1 16 32 32 (16384)
I0629 12:44:43.945425 17825 net.cpp:172] Memory required for data: 1650700
I0629 12:44:43.945431 17825 layer_factory.hpp:77] Creating layer ReLU5
I0629 12:44:43.945448 17825 net.cpp:112] Creating Layer 25 : ReLU5
I0629 12:44:43.945456 17825 net.cpp:462] ReLU5 <- Eltwise2
I0629 12:44:43.945466 17825 net.cpp:405] ReLU5 -> Eltwise2 (in-place)
I0629 12:44:43.945475 17825 net.cpp:156] Setting up ReLU5
I0629 12:44:43.945482 17825 net.cpp:159] 0 counting
I0629 12:44:43.945487 17825 net.cpp:164] Top shape: 1 16 32 32 (16384)
I0629 12:44:43.945494 17825 net.cpp:172] Memory required for data: 1716236
I0629 12:44:43.945502 17825 layer_factory.hpp:77] Creating layer Eltwise2_ReLU5_0_split
I0629 12:44:43.945509 17825 net.cpp:112] Creating Layer 26 : Eltwise2_ReLU5_0_split
I0629 12:44:43.945516 17825 net.cpp:462] Eltwise2_ReLU5_0_split <- Eltwise2
I0629 12:44:43.945524 17825 net.cpp:419] Eltwise2_ReLU5_0_split -> Eltwise2_ReLU5_0_split_0
I0629 12:44:43.945535 17825 net.cpp:419] Eltwise2_ReLU5_0_split -> Eltwise2_ReLU5_0_split_1
I0629 12:44:43.945552 17825 net.cpp:156] Setting up Eltwise2_ReLU5_0_split
I0629 12:44:43.945559 17825 net.cpp:159] 0 counting
I0629 12:44:43.945565 17825 net.cpp:164] Top shape: 1 16 32 32 (16384)
I0629 12:44:43.945577 17825 net.cpp:159] 0 counting
I0629 12:44:43.945583 17825 net.cpp:164] Top shape: 1 16 32 32 (16384)
I0629 12:44:43.945591 17825 net.cpp:172] Memory required for data: 1847308
I0629 12:44:43.945597 17825 layer_factory.hpp:77] Creating layer Convolution6
I0629 12:44:43.945622 17825 net.cpp:112] Creating Layer 27 : Convolution6
I0629 12:44:43.945632 17825 net.cpp:462] Convolution6 <- Eltwise2_ReLU5_0_split_0
I0629 12:44:43.945644 17825 net.cpp:419] Convolution6 -> Convolution6
I0629 12:44:43.945721 17825 base_conv_layer.cpp:174]  kernel_shape_data[0] = 3
I0629 12:44:43.945734 17825 base_conv_layer.cpp:174]  kernel_shape_data[1] = 3
I0629 12:44:43.945792 17825 net.cpp:156] Setting up Convolution6
I0629 12:44:43.945803 17825 net.cpp:159] 0 counting
I0629 12:44:43.945809 17825 net.cpp:164] Top shape: 1 16 32 32 (16384)
I0629 12:44:43.945818 17825 net.cpp:172] Memory required for data: 1912844
I0629 12:44:43.945830 17825 layer_factory.hpp:77] Creating layer BatchNorm6
I0629 12:44:43.945840 17825 net.cpp:112] Creating Layer 28 : BatchNorm6
I0629 12:44:43.945847 17825 net.cpp:462] BatchNorm6 <- Convolution6
I0629 12:44:43.945861 17825 net.cpp:405] BatchNorm6 -> Convolution6 (in-place)
I0629 12:44:43.945894 17825 net.cpp:156] Setting up BatchNorm6
I0629 12:44:43.945902 17825 net.cpp:159] 0 counting
I0629 12:44:43.945909 17825 net.cpp:164] Top shape: 1 16 32 32 (16384)
I0629 12:44:43.945922 17825 net.cpp:172] Memory required for data: 1978380
I0629 12:44:43.945936 17825 layer_factory.hpp:77] Creating layer Scale6
I0629 12:44:43.945946 17825 net.cpp:112] Creating Layer 29 : Scale6
I0629 12:44:43.945953 17825 net.cpp:462] Scale6 <- Convolution6
I0629 12:44:43.945966 17825 net.cpp:405] Scale6 -> Convolution6 (in-place)
I0629 12:44:43.945982 17825 layer_factory.hpp:77] Creating layer Scale6
I0629 12:44:43.946018 17825 net.cpp:156] Setting up Scale6
I0629 12:44:43.946028 17825 net.cpp:159] 0 counting
I0629 12:44:43.946034 17825 net.cpp:164] Top shape: 1 16 32 32 (16384)
I0629 12:44:43.946043 17825 net.cpp:172] Memory required for data: 2043916
I0629 12:44:43.946065 17825 layer_factory.hpp:77] Creating layer ReLU6
I0629 12:44:43.946076 17825 net.cpp:112] Creating Layer 30 : ReLU6
I0629 12:44:43.946084 17825 net.cpp:462] ReLU6 <- Convolution6
I0629 12:44:43.946091 17825 net.cpp:405] ReLU6 -> Convolution6 (in-place)
I0629 12:44:43.946101 17825 net.cpp:156] Setting up ReLU6
I0629 12:44:43.946107 17825 net.cpp:159] 0 counting
I0629 12:44:43.946113 17825 net.cpp:164] Top shape: 1 16 32 32 (16384)
I0629 12:44:43.946121 17825 net.cpp:172] Memory required for data: 2109452
I0629 12:44:43.946127 17825 layer_factory.hpp:77] Creating layer Convolution7
I0629 12:44:43.946148 17825 net.cpp:112] Creating Layer 31 : Convolution7
I0629 12:44:43.946159 17825 net.cpp:462] Convolution7 <- Convolution6
I0629 12:44:43.946173 17825 net.cpp:419] Convolution7 -> Convolution7
I0629 12:44:43.946250 17825 base_conv_layer.cpp:174]  kernel_shape_data[0] = 3
I0629 12:44:43.946269 17825 base_conv_layer.cpp:174]  kernel_shape_data[1] = 3
I0629 12:44:43.946336 17825 net.cpp:156] Setting up Convolution7
I0629 12:44:43.946347 17825 net.cpp:159] 0 counting
I0629 12:44:43.946353 17825 net.cpp:164] Top shape: 1 16 32 32 (16384)
I0629 12:44:43.946362 17825 net.cpp:172] Memory required for data: 2174988
I0629 12:44:43.946373 17825 layer_factory.hpp:77] Creating layer BatchNorm7
I0629 12:44:43.946386 17825 net.cpp:112] Creating Layer 32 : BatchNorm7
I0629 12:44:43.946393 17825 net.cpp:462] BatchNorm7 <- Convolution7
I0629 12:44:43.946408 17825 net.cpp:405] BatchNorm7 -> Convolution7 (in-place)
I0629 12:44:43.946439 17825 net.cpp:156] Setting up BatchNorm7
I0629 12:44:43.946449 17825 net.cpp:159] 0 counting
I0629 12:44:43.946454 17825 net.cpp:164] Top shape: 1 16 32 32 (16384)
I0629 12:44:43.946462 17825 net.cpp:172] Memory required for data: 2240524
I0629 12:44:43.946475 17825 layer_factory.hpp:77] Creating layer Scale7
I0629 12:44:43.946491 17825 net.cpp:112] Creating Layer 33 : Scale7
I0629 12:44:43.946499 17825 net.cpp:462] Scale7 <- Convolution7
I0629 12:44:43.946509 17825 net.cpp:405] Scale7 -> Convolution7 (in-place)
I0629 12:44:43.946528 17825 layer_factory.hpp:77] Creating layer Scale7
I0629 12:44:43.946560 17825 net.cpp:156] Setting up Scale7
I0629 12:44:43.946570 17825 net.cpp:159] 0 counting
I0629 12:44:43.946576 17825 net.cpp:164] Top shape: 1 16 32 32 (16384)
I0629 12:44:43.946585 17825 net.cpp:172] Memory required for data: 2306060
I0629 12:44:43.946596 17825 layer_factory.hpp:77] Creating layer Eltwise3
I0629 12:44:43.946610 17825 net.cpp:112] Creating Layer 34 : Eltwise3
I0629 12:44:43.946619 17825 net.cpp:462] Eltwise3 <- Eltwise2_ReLU5_0_split_1
I0629 12:44:43.946626 17825 net.cpp:462] Eltwise3 <- Convolution7
I0629 12:44:43.946635 17825 net.cpp:419] Eltwise3 -> Eltwise3
I0629 12:44:43.946647 17825 net.cpp:156] Setting up Eltwise3
I0629 12:44:43.946653 17825 net.cpp:159] 0 counting
I0629 12:44:43.946660 17825 net.cpp:164] Top shape: 1 16 32 32 (16384)
I0629 12:44:43.946667 17825 net.cpp:172] Memory required for data: 2371596
I0629 12:44:43.946673 17825 layer_factory.hpp:77] Creating layer ReLU7
I0629 12:44:43.946682 17825 net.cpp:112] Creating Layer 35 : ReLU7
I0629 12:44:43.946688 17825 net.cpp:462] ReLU7 <- Eltwise3
I0629 12:44:43.946702 17825 net.cpp:405] ReLU7 -> Eltwise3 (in-place)
I0629 12:44:43.946715 17825 net.cpp:156] Setting up ReLU7
I0629 12:44:43.946722 17825 net.cpp:159] 0 counting
I0629 12:44:43.946727 17825 net.cpp:164] Top shape: 1 16 32 32 (16384)
I0629 12:44:43.946734 17825 net.cpp:172] Memory required for data: 2437132
I0629 12:44:43.946740 17825 layer_factory.hpp:77] Creating layer Eltwise3_ReLU7_0_split
I0629 12:44:43.946749 17825 net.cpp:112] Creating Layer 36 : Eltwise3_ReLU7_0_split
I0629 12:44:43.946755 17825 net.cpp:462] Eltwise3_ReLU7_0_split <- Eltwise3
I0629 12:44:43.946764 17825 net.cpp:419] Eltwise3_ReLU7_0_split -> Eltwise3_ReLU7_0_split_0
I0629 12:44:43.946774 17825 net.cpp:419] Eltwise3_ReLU7_0_split -> Eltwise3_ReLU7_0_split_1
I0629 12:44:43.946786 17825 net.cpp:156] Setting up Eltwise3_ReLU7_0_split
I0629 12:44:43.946792 17825 net.cpp:159] 0 counting
I0629 12:44:43.946797 17825 net.cpp:164] Top shape: 1 16 32 32 (16384)
I0629 12:44:43.946805 17825 net.cpp:159] 0 counting
I0629 12:44:43.946810 17825 net.cpp:164] Top shape: 1 16 32 32 (16384)
I0629 12:44:43.946818 17825 net.cpp:172] Memory required for data: 2568204
I0629 12:44:43.946825 17825 layer_factory.hpp:77] Creating layer Convolution8
I0629 12:44:43.946843 17825 net.cpp:112] Creating Layer 37 : Convolution8
I0629 12:44:43.946853 17825 net.cpp:462] Convolution8 <- Eltwise3_ReLU7_0_split_0
I0629 12:44:43.946866 17825 net.cpp:419] Convolution8 -> Convolution8
I0629 12:44:43.946902 17825 base_conv_layer.cpp:174]  kernel_shape_data[0] = 1
I0629 12:44:43.946914 17825 base_conv_layer.cpp:174]  kernel_shape_data[1] = 1
I0629 12:44:43.946975 17825 net.cpp:156] Setting up Convolution8
I0629 12:44:43.946986 17825 net.cpp:159] 0 counting
I0629 12:44:43.946992 17825 net.cpp:164] Top shape: 1 32 16 16 (8192)
I0629 12:44:43.947007 17825 net.cpp:172] Memory required for data: 2600972
I0629 12:44:43.947021 17825 layer_factory.hpp:77] Creating layer BatchNorm8
I0629 12:44:43.947041 17825 net.cpp:112] Creating Layer 38 : BatchNorm8
I0629 12:44:43.947051 17825 net.cpp:462] BatchNorm8 <- Convolution8
I0629 12:44:43.947079 17825 net.cpp:405] BatchNorm8 -> Convolution8 (in-place)
I0629 12:44:43.947109 17825 net.cpp:156] Setting up BatchNorm8
I0629 12:44:43.947119 17825 net.cpp:159] 0 counting
I0629 12:44:43.947125 17825 net.cpp:164] Top shape: 1 32 16 16 (8192)
I0629 12:44:43.947134 17825 net.cpp:172] Memory required for data: 2633740
I0629 12:44:43.947151 17825 layer_factory.hpp:77] Creating layer Scale8
I0629 12:44:43.947163 17825 net.cpp:112] Creating Layer 39 : Scale8
I0629 12:44:43.947171 17825 net.cpp:462] Scale8 <- Convolution8
I0629 12:44:43.947180 17825 net.cpp:405] Scale8 -> Convolution8 (in-place)
I0629 12:44:43.947202 17825 layer_factory.hpp:77] Creating layer Scale8
I0629 12:44:43.947237 17825 net.cpp:156] Setting up Scale8
I0629 12:44:43.947247 17825 net.cpp:159] 0 counting
I0629 12:44:43.947252 17825 net.cpp:164] Top shape: 1 32 16 16 (8192)
I0629 12:44:43.947260 17825 net.cpp:172] Memory required for data: 2666508
I0629 12:44:43.947273 17825 layer_factory.hpp:77] Creating layer Convolution9
I0629 12:44:43.947298 17825 net.cpp:112] Creating Layer 40 : Convolution9
I0629 12:44:43.947307 17825 net.cpp:462] Convolution9 <- Eltwise3_ReLU7_0_split_1
I0629 12:44:43.947320 17825 net.cpp:419] Convolution9 -> Convolution9
I0629 12:44:43.947434 17825 base_conv_layer.cpp:174]  kernel_shape_data[0] = 3
I0629 12:44:43.947446 17825 base_conv_layer.cpp:174]  kernel_shape_data[1] = 3
I0629 12:44:43.947510 17825 net.cpp:156] Setting up Convolution9
I0629 12:44:43.947520 17825 net.cpp:159] 0 counting
I0629 12:44:43.947526 17825 net.cpp:164] Top shape: 1 32 16 16 (8192)
I0629 12:44:43.947535 17825 net.cpp:172] Memory required for data: 2699276
I0629 12:44:43.947551 17825 layer_factory.hpp:77] Creating layer BatchNorm9
I0629 12:44:43.947561 17825 net.cpp:112] Creating Layer 41 : BatchNorm9
I0629 12:44:43.947568 17825 net.cpp:462] BatchNorm9 <- Convolution9
I0629 12:44:43.947579 17825 net.cpp:405] BatchNorm9 -> Convolution9 (in-place)
I0629 12:44:43.947603 17825 net.cpp:156] Setting up BatchNorm9
I0629 12:44:43.947612 17825 net.cpp:159] 0 counting
I0629 12:44:43.947618 17825 net.cpp:164] Top shape: 1 32 16 16 (8192)
I0629 12:44:43.947633 17825 net.cpp:172] Memory required for data: 2732044
I0629 12:44:43.947646 17825 layer_factory.hpp:77] Creating layer Scale9
I0629 12:44:43.947656 17825 net.cpp:112] Creating Layer 42 : Scale9
I0629 12:44:43.947664 17825 net.cpp:462] Scale9 <- Convolution9
I0629 12:44:43.947675 17825 net.cpp:405] Scale9 -> Convolution9 (in-place)
I0629 12:44:43.947692 17825 layer_factory.hpp:77] Creating layer Scale9
I0629 12:44:43.947724 17825 net.cpp:156] Setting up Scale9
I0629 12:44:43.947734 17825 net.cpp:159] 0 counting
I0629 12:44:43.947741 17825 net.cpp:164] Top shape: 1 32 16 16 (8192)
I0629 12:44:43.947755 17825 net.cpp:172] Memory required for data: 2764812
I0629 12:44:43.947767 17825 layer_factory.hpp:77] Creating layer ReLU8
I0629 12:44:43.947777 17825 net.cpp:112] Creating Layer 43 : ReLU8
I0629 12:44:43.947783 17825 net.cpp:462] ReLU8 <- Convolution9
I0629 12:44:43.947793 17825 net.cpp:405] ReLU8 -> Convolution9 (in-place)
I0629 12:44:43.947801 17825 net.cpp:156] Setting up ReLU8
I0629 12:44:43.947808 17825 net.cpp:159] 0 counting
I0629 12:44:43.947813 17825 net.cpp:164] Top shape: 1 32 16 16 (8192)
I0629 12:44:43.947820 17825 net.cpp:172] Memory required for data: 2797580
I0629 12:44:43.947826 17825 layer_factory.hpp:77] Creating layer Convolution10
I0629 12:44:43.947850 17825 net.cpp:112] Creating Layer 44 : Convolution10
I0629 12:44:43.947860 17825 net.cpp:462] Convolution10 <- Convolution9
I0629 12:44:43.947873 17825 net.cpp:419] Convolution10 -> Convolution10
I0629 12:44:43.948084 17825 base_conv_layer.cpp:174]  kernel_shape_data[0] = 3
I0629 12:44:43.948097 17825 base_conv_layer.cpp:174]  kernel_shape_data[1] = 3
I0629 12:44:43.948179 17825 net.cpp:156] Setting up Convolution10
I0629 12:44:43.948190 17825 net.cpp:159] 0 counting
I0629 12:44:43.948197 17825 net.cpp:164] Top shape: 1 32 16 16 (8192)
I0629 12:44:43.948205 17825 net.cpp:172] Memory required for data: 2830348
I0629 12:44:43.948231 17825 layer_factory.hpp:77] Creating layer BatchNorm10
I0629 12:44:43.948251 17825 net.cpp:112] Creating Layer 45 : BatchNorm10
I0629 12:44:43.948261 17825 net.cpp:462] BatchNorm10 <- Convolution10
I0629 12:44:43.948271 17825 net.cpp:405] BatchNorm10 -> Convolution10 (in-place)
I0629 12:44:43.948297 17825 net.cpp:156] Setting up BatchNorm10
I0629 12:44:43.948307 17825 net.cpp:159] 0 counting
I0629 12:44:43.948313 17825 net.cpp:164] Top shape: 1 32 16 16 (8192)
I0629 12:44:43.948321 17825 net.cpp:172] Memory required for data: 2863116
I0629 12:44:43.948338 17825 layer_factory.hpp:77] Creating layer Scale10
I0629 12:44:43.948348 17825 net.cpp:112] Creating Layer 46 : Scale10
I0629 12:44:43.948355 17825 net.cpp:462] Scale10 <- Convolution10
I0629 12:44:43.948364 17825 net.cpp:405] Scale10 -> Convolution10 (in-place)
I0629 12:44:43.948386 17825 layer_factory.hpp:77] Creating layer Scale10
I0629 12:44:43.948417 17825 net.cpp:156] Setting up Scale10
I0629 12:44:43.948427 17825 net.cpp:159] 0 counting
I0629 12:44:43.948433 17825 net.cpp:164] Top shape: 1 32 16 16 (8192)
I0629 12:44:43.948441 17825 net.cpp:172] Memory required for data: 2895884
I0629 12:44:43.948453 17825 layer_factory.hpp:77] Creating layer Eltwise4
I0629 12:44:43.948467 17825 net.cpp:112] Creating Layer 47 : Eltwise4
I0629 12:44:43.948473 17825 net.cpp:462] Eltwise4 <- Convolution8
I0629 12:44:43.948482 17825 net.cpp:462] Eltwise4 <- Convolution10
I0629 12:44:43.948490 17825 net.cpp:419] Eltwise4 -> Eltwise4
I0629 12:44:43.948503 17825 net.cpp:156] Setting up Eltwise4
I0629 12:44:43.948509 17825 net.cpp:159] 0 counting
I0629 12:44:43.948514 17825 net.cpp:164] Top shape: 1 32 16 16 (8192)
I0629 12:44:43.948523 17825 net.cpp:172] Memory required for data: 2928652
I0629 12:44:43.948529 17825 layer_factory.hpp:77] Creating layer ReLU9
I0629 12:44:43.948544 17825 net.cpp:112] Creating Layer 48 : ReLU9
I0629 12:44:43.948552 17825 net.cpp:462] ReLU9 <- Eltwise4
I0629 12:44:43.948561 17825 net.cpp:405] ReLU9 -> Eltwise4 (in-place)
I0629 12:44:43.948571 17825 net.cpp:156] Setting up ReLU9
I0629 12:44:43.948577 17825 net.cpp:159] 0 counting
I0629 12:44:43.948582 17825 net.cpp:164] Top shape: 1 32 16 16 (8192)
I0629 12:44:43.948590 17825 net.cpp:172] Memory required for data: 2961420
I0629 12:44:43.948596 17825 layer_factory.hpp:77] Creating layer Eltwise4_ReLU9_0_split
I0629 12:44:43.948606 17825 net.cpp:112] Creating Layer 49 : Eltwise4_ReLU9_0_split
I0629 12:44:43.948611 17825 net.cpp:462] Eltwise4_ReLU9_0_split <- Eltwise4
I0629 12:44:43.948624 17825 net.cpp:419] Eltwise4_ReLU9_0_split -> Eltwise4_ReLU9_0_split_0
I0629 12:44:43.948635 17825 net.cpp:419] Eltwise4_ReLU9_0_split -> Eltwise4_ReLU9_0_split_1
I0629 12:44:43.948647 17825 net.cpp:156] Setting up Eltwise4_ReLU9_0_split
I0629 12:44:43.948653 17825 net.cpp:159] 0 counting
I0629 12:44:43.948658 17825 net.cpp:164] Top shape: 1 32 16 16 (8192)
I0629 12:44:43.948667 17825 net.cpp:159] 0 counting
I0629 12:44:43.948673 17825 net.cpp:164] Top shape: 1 32 16 16 (8192)
I0629 12:44:43.948679 17825 net.cpp:172] Memory required for data: 3026956
I0629 12:44:43.948686 17825 layer_factory.hpp:77] Creating layer Convolution11
I0629 12:44:43.948705 17825 net.cpp:112] Creating Layer 50 : Convolution11
I0629 12:44:43.948715 17825 net.cpp:462] Convolution11 <- Eltwise4_ReLU9_0_split_0
I0629 12:44:43.948726 17825 net.cpp:419] Convolution11 -> Convolution11
I0629 12:44:43.948931 17825 base_conv_layer.cpp:174]  kernel_shape_data[0] = 3
I0629 12:44:43.948945 17825 base_conv_layer.cpp:174]  kernel_shape_data[1] = 3
I0629 12:44:43.949012 17825 net.cpp:156] Setting up Convolution11
I0629 12:44:43.949023 17825 net.cpp:159] 0 counting
I0629 12:44:43.949029 17825 net.cpp:164] Top shape: 1 32 16 16 (8192)
I0629 12:44:43.949049 17825 net.cpp:172] Memory required for data: 3059724
I0629 12:44:43.949067 17825 layer_factory.hpp:77] Creating layer BatchNorm11
I0629 12:44:43.949084 17825 net.cpp:112] Creating Layer 51 : BatchNorm11
I0629 12:44:43.949091 17825 net.cpp:462] BatchNorm11 <- Convolution11
I0629 12:44:43.949101 17825 net.cpp:405] BatchNorm11 -> Convolution11 (in-place)
I0629 12:44:43.949128 17825 net.cpp:156] Setting up BatchNorm11
I0629 12:44:43.949137 17825 net.cpp:159] 0 counting
I0629 12:44:43.949143 17825 net.cpp:164] Top shape: 1 32 16 16 (8192)
I0629 12:44:43.949159 17825 net.cpp:172] Memory required for data: 3092492
I0629 12:44:43.949173 17825 layer_factory.hpp:77] Creating layer Scale11
I0629 12:44:43.949185 17825 net.cpp:112] Creating Layer 52 : Scale11
I0629 12:44:43.949193 17825 net.cpp:462] Scale11 <- Convolution11
I0629 12:44:43.949203 17825 net.cpp:405] Scale11 -> Convolution11 (in-place)
I0629 12:44:43.949220 17825 layer_factory.hpp:77] Creating layer Scale11
I0629 12:44:43.949250 17825 net.cpp:156] Setting up Scale11
I0629 12:44:43.949261 17825 net.cpp:159] 0 counting
I0629 12:44:43.949267 17825 net.cpp:164] Top shape: 1 32 16 16 (8192)
I0629 12:44:43.949276 17825 net.cpp:172] Memory required for data: 3125260
I0629 12:44:43.949287 17825 layer_factory.hpp:77] Creating layer ReLU10
I0629 12:44:43.949301 17825 net.cpp:112] Creating Layer 53 : ReLU10
I0629 12:44:43.949311 17825 net.cpp:462] ReLU10 <- Convolution11
I0629 12:44:43.949319 17825 net.cpp:405] ReLU10 -> Convolution11 (in-place)
I0629 12:44:43.949329 17825 net.cpp:156] Setting up ReLU10
I0629 12:44:43.949335 17825 net.cpp:159] 0 counting
I0629 12:44:43.949340 17825 net.cpp:164] Top shape: 1 32 16 16 (8192)
I0629 12:44:43.949348 17825 net.cpp:172] Memory required for data: 3158028
I0629 12:44:43.949355 17825 layer_factory.hpp:77] Creating layer Convolution12
I0629 12:44:43.949378 17825 net.cpp:112] Creating Layer 54 : Convolution12
I0629 12:44:43.949388 17825 net.cpp:462] Convolution12 <- Convolution11
I0629 12:44:43.949400 17825 net.cpp:419] Convolution12 -> Convolution12
I0629 12:44:43.949607 17825 base_conv_layer.cpp:174]  kernel_shape_data[0] = 3
I0629 12:44:43.949620 17825 base_conv_layer.cpp:174]  kernel_shape_data[1] = 3
I0629 12:44:43.949689 17825 net.cpp:156] Setting up Convolution12
I0629 12:44:43.949699 17825 net.cpp:159] 0 counting
I0629 12:44:43.949707 17825 net.cpp:164] Top shape: 1 32 16 16 (8192)
I0629 12:44:43.949714 17825 net.cpp:172] Memory required for data: 3190796
I0629 12:44:43.949726 17825 layer_factory.hpp:77] Creating layer BatchNorm12
I0629 12:44:43.949741 17825 net.cpp:112] Creating Layer 55 : BatchNorm12
I0629 12:44:43.949750 17825 net.cpp:462] BatchNorm12 <- Convolution12
I0629 12:44:43.949759 17825 net.cpp:405] BatchNorm12 -> Convolution12 (in-place)
I0629 12:44:43.949784 17825 net.cpp:156] Setting up BatchNorm12
I0629 12:44:43.949793 17825 net.cpp:159] 0 counting
I0629 12:44:43.949800 17825 net.cpp:164] Top shape: 1 32 16 16 (8192)
I0629 12:44:43.949807 17825 net.cpp:172] Memory required for data: 3223564
I0629 12:44:43.949823 17825 layer_factory.hpp:77] Creating layer Scale12
I0629 12:44:43.949834 17825 net.cpp:112] Creating Layer 56 : Scale12
I0629 12:44:43.949841 17825 net.cpp:462] Scale12 <- Convolution12
I0629 12:44:43.949849 17825 net.cpp:405] Scale12 -> Convolution12 (in-place)
I0629 12:44:43.949872 17825 layer_factory.hpp:77] Creating layer Scale12
I0629 12:44:43.949901 17825 net.cpp:156] Setting up Scale12
I0629 12:44:43.949911 17825 net.cpp:159] 0 counting
I0629 12:44:43.949918 17825 net.cpp:164] Top shape: 1 32 16 16 (8192)
I0629 12:44:43.949926 17825 net.cpp:172] Memory required for data: 3256332
I0629 12:44:43.949937 17825 layer_factory.hpp:77] Creating layer Eltwise5
I0629 12:44:43.949950 17825 net.cpp:112] Creating Layer 57 : Eltwise5
I0629 12:44:43.949959 17825 net.cpp:462] Eltwise5 <- Eltwise4_ReLU9_0_split_1
I0629 12:44:43.949965 17825 net.cpp:462] Eltwise5 <- Convolution12
I0629 12:44:43.949975 17825 net.cpp:419] Eltwise5 -> Eltwise5
I0629 12:44:43.949987 17825 net.cpp:156] Setting up Eltwise5
I0629 12:44:43.950001 17825 net.cpp:159] 0 counting
I0629 12:44:43.950006 17825 net.cpp:164] Top shape: 1 32 16 16 (8192)
I0629 12:44:43.950027 17825 net.cpp:172] Memory required for data: 3289100
I0629 12:44:43.950034 17825 layer_factory.hpp:77] Creating layer ReLU11
I0629 12:44:43.950043 17825 net.cpp:112] Creating Layer 58 : ReLU11
I0629 12:44:43.950050 17825 net.cpp:462] ReLU11 <- Eltwise5
I0629 12:44:43.950065 17825 net.cpp:405] ReLU11 -> Eltwise5 (in-place)
I0629 12:44:43.950076 17825 net.cpp:156] Setting up ReLU11
I0629 12:44:43.950083 17825 net.cpp:159] 0 counting
I0629 12:44:43.950088 17825 net.cpp:164] Top shape: 1 32 16 16 (8192)
I0629 12:44:43.950096 17825 net.cpp:172] Memory required for data: 3321868
I0629 12:44:43.950103 17825 layer_factory.hpp:77] Creating layer Eltwise5_ReLU11_0_split
I0629 12:44:43.950110 17825 net.cpp:112] Creating Layer 59 : Eltwise5_ReLU11_0_split
I0629 12:44:43.950120 17825 net.cpp:462] Eltwise5_ReLU11_0_split <- Eltwise5
I0629 12:44:43.950129 17825 net.cpp:419] Eltwise5_ReLU11_0_split -> Eltwise5_ReLU11_0_split_0
I0629 12:44:43.950140 17825 net.cpp:419] Eltwise5_ReLU11_0_split -> Eltwise5_ReLU11_0_split_1
I0629 12:44:43.950155 17825 net.cpp:156] Setting up Eltwise5_ReLU11_0_split
I0629 12:44:43.950161 17825 net.cpp:159] 0 counting
I0629 12:44:43.950166 17825 net.cpp:164] Top shape: 1 32 16 16 (8192)
I0629 12:44:43.950182 17825 net.cpp:159] 0 counting
I0629 12:44:43.950189 17825 net.cpp:164] Top shape: 1 32 16 16 (8192)
I0629 12:44:43.950196 17825 net.cpp:172] Memory required for data: 3387404
I0629 12:44:43.950202 17825 layer_factory.hpp:77] Creating layer Convolution13
I0629 12:44:43.950224 17825 net.cpp:112] Creating Layer 60 : Convolution13
I0629 12:44:43.950233 17825 net.cpp:462] Convolution13 <- Eltwise5_ReLU11_0_split_0
I0629 12:44:43.950249 17825 net.cpp:419] Convolution13 -> Convolution13
I0629 12:44:43.950453 17825 base_conv_layer.cpp:174]  kernel_shape_data[0] = 3
I0629 12:44:43.950466 17825 base_conv_layer.cpp:174]  kernel_shape_data[1] = 3
I0629 12:44:43.950536 17825 net.cpp:156] Setting up Convolution13
I0629 12:44:43.950546 17825 net.cpp:159] 0 counting
I0629 12:44:43.950552 17825 net.cpp:164] Top shape: 1 32 16 16 (8192)
I0629 12:44:43.950562 17825 net.cpp:172] Memory required for data: 3420172
I0629 12:44:43.950572 17825 layer_factory.hpp:77] Creating layer BatchNorm13
I0629 12:44:43.950583 17825 net.cpp:112] Creating Layer 61 : BatchNorm13
I0629 12:44:43.950589 17825 net.cpp:462] BatchNorm13 <- Convolution13
I0629 12:44:43.950604 17825 net.cpp:405] BatchNorm13 -> Convolution13 (in-place)
I0629 12:44:43.950631 17825 net.cpp:156] Setting up BatchNorm13
I0629 12:44:43.950642 17825 net.cpp:159] 0 counting
I0629 12:44:43.950649 17825 net.cpp:164] Top shape: 1 32 16 16 (8192)
I0629 12:44:43.950656 17825 net.cpp:172] Memory required for data: 3452940
I0629 12:44:43.950670 17825 layer_factory.hpp:77] Creating layer Scale13
I0629 12:44:43.950682 17825 net.cpp:112] Creating Layer 62 : Scale13
I0629 12:44:43.950691 17825 net.cpp:462] Scale13 <- Convolution13
I0629 12:44:43.950700 17825 net.cpp:405] Scale13 -> Convolution13 (in-place)
I0629 12:44:43.950716 17825 layer_factory.hpp:77] Creating layer Scale13
I0629 12:44:43.950749 17825 net.cpp:156] Setting up Scale13
I0629 12:44:43.950759 17825 net.cpp:159] 0 counting
I0629 12:44:43.950765 17825 net.cpp:164] Top shape: 1 32 16 16 (8192)
I0629 12:44:43.950773 17825 net.cpp:172] Memory required for data: 3485708
I0629 12:44:43.950785 17825 layer_factory.hpp:77] Creating layer ReLU12
I0629 12:44:43.950794 17825 net.cpp:112] Creating Layer 63 : ReLU12
I0629 12:44:43.950800 17825 net.cpp:462] ReLU12 <- Convolution13
I0629 12:44:43.950811 17825 net.cpp:405] ReLU12 -> Convolution13 (in-place)
I0629 12:44:43.950822 17825 net.cpp:156] Setting up ReLU12
I0629 12:44:43.950829 17825 net.cpp:159] 0 counting
I0629 12:44:43.950834 17825 net.cpp:164] Top shape: 1 32 16 16 (8192)
I0629 12:44:43.950842 17825 net.cpp:172] Memory required for data: 3518476
I0629 12:44:43.950848 17825 layer_factory.hpp:77] Creating layer Convolution14
I0629 12:44:43.950876 17825 net.cpp:112] Creating Layer 64 : Convolution14
I0629 12:44:43.950894 17825 net.cpp:462] Convolution14 <- Convolution13
I0629 12:44:43.950913 17825 net.cpp:419] Convolution14 -> Convolution14
I0629 12:44:43.951134 17825 base_conv_layer.cpp:174]  kernel_shape_data[0] = 3
I0629 12:44:43.951148 17825 base_conv_layer.cpp:174]  kernel_shape_data[1] = 3
I0629 12:44:43.951215 17825 net.cpp:156] Setting up Convolution14
I0629 12:44:43.951226 17825 net.cpp:159] 0 counting
I0629 12:44:43.951232 17825 net.cpp:164] Top shape: 1 32 16 16 (8192)
I0629 12:44:43.951241 17825 net.cpp:172] Memory required for data: 3551244
I0629 12:44:43.951256 17825 layer_factory.hpp:77] Creating layer BatchNorm14
I0629 12:44:43.951267 17825 net.cpp:112] Creating Layer 65 : BatchNorm14
I0629 12:44:43.951273 17825 net.cpp:462] BatchNorm14 <- Convolution14
I0629 12:44:43.951282 17825 net.cpp:405] BatchNorm14 -> Convolution14 (in-place)
I0629 12:44:43.951306 17825 net.cpp:156] Setting up BatchNorm14
I0629 12:44:43.951316 17825 net.cpp:159] 0 counting
I0629 12:44:43.951323 17825 net.cpp:164] Top shape: 1 32 16 16 (8192)
I0629 12:44:43.951339 17825 net.cpp:172] Memory required for data: 3584012
I0629 12:44:43.951352 17825 layer_factory.hpp:77] Creating layer Scale14
I0629 12:44:43.951364 17825 net.cpp:112] Creating Layer 66 : Scale14
I0629 12:44:43.951371 17825 net.cpp:462] Scale14 <- Convolution14
I0629 12:44:43.951383 17825 net.cpp:405] Scale14 -> Convolution14 (in-place)
I0629 12:44:43.951401 17825 layer_factory.hpp:77] Creating layer Scale14
I0629 12:44:43.951432 17825 net.cpp:156] Setting up Scale14
I0629 12:44:43.951443 17825 net.cpp:159] 0 counting
I0629 12:44:43.951448 17825 net.cpp:164] Top shape: 1 32 16 16 (8192)
I0629 12:44:43.951462 17825 net.cpp:172] Memory required for data: 3616780
I0629 12:44:43.951475 17825 layer_factory.hpp:77] Creating layer Eltwise6
I0629 12:44:43.951485 17825 net.cpp:112] Creating Layer 67 : Eltwise6
I0629 12:44:43.951493 17825 net.cpp:462] Eltwise6 <- Eltwise5_ReLU11_0_split_1
I0629 12:44:43.951499 17825 net.cpp:462] Eltwise6 <- Convolution14
I0629 12:44:43.951511 17825 net.cpp:419] Eltwise6 -> Eltwise6
I0629 12:44:43.951525 17825 net.cpp:156] Setting up Eltwise6
I0629 12:44:43.951531 17825 net.cpp:159] 0 counting
I0629 12:44:43.951537 17825 net.cpp:164] Top shape: 1 32 16 16 (8192)
I0629 12:44:43.951545 17825 net.cpp:172] Memory required for data: 3649548
I0629 12:44:43.951551 17825 layer_factory.hpp:77] Creating layer ReLU13
I0629 12:44:43.951560 17825 net.cpp:112] Creating Layer 68 : ReLU13
I0629 12:44:43.951566 17825 net.cpp:462] ReLU13 <- Eltwise6
I0629 12:44:43.951575 17825 net.cpp:405] ReLU13 -> Eltwise6 (in-place)
I0629 12:44:43.951584 17825 net.cpp:156] Setting up ReLU13
I0629 12:44:43.951589 17825 net.cpp:159] 0 counting
I0629 12:44:43.951596 17825 net.cpp:164] Top shape: 1 32 16 16 (8192)
I0629 12:44:43.951602 17825 net.cpp:172] Memory required for data: 3682316
I0629 12:44:43.951608 17825 layer_factory.hpp:77] Creating layer Eltwise6_ReLU13_0_split
I0629 12:44:43.951623 17825 net.cpp:112] Creating Layer 69 : Eltwise6_ReLU13_0_split
I0629 12:44:43.951632 17825 net.cpp:462] Eltwise6_ReLU13_0_split <- Eltwise6
I0629 12:44:43.951642 17825 net.cpp:419] Eltwise6_ReLU13_0_split -> Eltwise6_ReLU13_0_split_0
I0629 12:44:43.951653 17825 net.cpp:419] Eltwise6_ReLU13_0_split -> Eltwise6_ReLU13_0_split_1
I0629 12:44:43.951664 17825 net.cpp:156] Setting up Eltwise6_ReLU13_0_split
I0629 12:44:43.951670 17825 net.cpp:159] 0 counting
I0629 12:44:43.951675 17825 net.cpp:164] Top shape: 1 32 16 16 (8192)
I0629 12:44:43.951684 17825 net.cpp:159] 0 counting
I0629 12:44:43.951689 17825 net.cpp:164] Top shape: 1 32 16 16 (8192)
I0629 12:44:43.951696 17825 net.cpp:172] Memory required for data: 3747852
I0629 12:44:43.951704 17825 layer_factory.hpp:77] Creating layer Convolution15
I0629 12:44:43.951726 17825 net.cpp:112] Creating Layer 70 : Convolution15
I0629 12:44:43.951735 17825 net.cpp:462] Convolution15 <- Eltwise6_ReLU13_0_split_0
I0629 12:44:43.951746 17825 net.cpp:419] Convolution15 -> Convolution15
I0629 12:44:43.951813 17825 base_conv_layer.cpp:174]  kernel_shape_data[0] = 1
I0629 12:44:43.951835 17825 base_conv_layer.cpp:174]  kernel_shape_data[1] = 1
I0629 12:44:43.951896 17825 net.cpp:156] Setting up Convolution15
I0629 12:44:43.951907 17825 net.cpp:159] 0 counting
I0629 12:44:43.951915 17825 net.cpp:164] Top shape: 1 64 8 8 (4096)
I0629 12:44:43.951923 17825 net.cpp:172] Memory required for data: 3764236
I0629 12:44:43.951936 17825 layer_factory.hpp:77] Creating layer BatchNorm15
I0629 12:44:43.951951 17825 net.cpp:112] Creating Layer 71 : BatchNorm15
I0629 12:44:43.951959 17825 net.cpp:462] BatchNorm15 <- Convolution15
I0629 12:44:43.951968 17825 net.cpp:405] BatchNorm15 -> Convolution15 (in-place)
I0629 12:44:43.951992 17825 net.cpp:156] Setting up BatchNorm15
I0629 12:44:43.952000 17825 net.cpp:159] 0 counting
I0629 12:44:43.952006 17825 net.cpp:164] Top shape: 1 64 8 8 (4096)
I0629 12:44:43.952014 17825 net.cpp:172] Memory required for data: 3780620
I0629 12:44:43.952028 17825 layer_factory.hpp:77] Creating layer Scale15
I0629 12:44:43.952041 17825 net.cpp:112] Creating Layer 72 : Scale15
I0629 12:44:43.952050 17825 net.cpp:462] Scale15 <- Convolution15
I0629 12:44:43.952065 17825 net.cpp:405] Scale15 -> Convolution15 (in-place)
I0629 12:44:43.952085 17825 layer_factory.hpp:77] Creating layer Scale15
I0629 12:44:43.952116 17825 net.cpp:156] Setting up Scale15
I0629 12:44:43.952127 17825 net.cpp:159] 0 counting
I0629 12:44:43.952133 17825 net.cpp:164] Top shape: 1 64 8 8 (4096)
I0629 12:44:43.952147 17825 net.cpp:172] Memory required for data: 3797004
I0629 12:44:43.952160 17825 layer_factory.hpp:77] Creating layer Convolution16
I0629 12:44:43.952188 17825 net.cpp:112] Creating Layer 73 : Convolution16
I0629 12:44:43.952199 17825 net.cpp:462] Convolution16 <- Eltwise6_ReLU13_0_split_1
I0629 12:44:43.952215 17825 net.cpp:419] Convolution16 -> Convolution16
I0629 12:44:43.952605 17825 base_conv_layer.cpp:174]  kernel_shape_data[0] = 3
I0629 12:44:43.952618 17825 base_conv_layer.cpp:174]  kernel_shape_data[1] = 3
I0629 12:44:43.952684 17825 net.cpp:156] Setting up Convolution16
I0629 12:44:43.952694 17825 net.cpp:159] 0 counting
I0629 12:44:43.952700 17825 net.cpp:164] Top shape: 1 64 8 8 (4096)
I0629 12:44:43.952709 17825 net.cpp:172] Memory required for data: 3813388
I0629 12:44:43.952720 17825 layer_factory.hpp:77] Creating layer BatchNorm16
I0629 12:44:43.952733 17825 net.cpp:112] Creating Layer 74 : BatchNorm16
I0629 12:44:43.952741 17825 net.cpp:462] BatchNorm16 <- Convolution16
I0629 12:44:43.952750 17825 net.cpp:405] BatchNorm16 -> Convolution16 (in-place)
I0629 12:44:43.952774 17825 net.cpp:156] Setting up BatchNorm16
I0629 12:44:43.952783 17825 net.cpp:159] 0 counting
I0629 12:44:43.952790 17825 net.cpp:164] Top shape: 1 64 8 8 (4096)
I0629 12:44:43.952797 17825 net.cpp:172] Memory required for data: 3829772
I0629 12:44:43.952811 17825 layer_factory.hpp:77] Creating layer Scale16
I0629 12:44:43.952827 17825 net.cpp:112] Creating Layer 75 : Scale16
I0629 12:44:43.952838 17825 net.cpp:462] Scale16 <- Convolution16
I0629 12:44:43.952850 17825 net.cpp:405] Scale16 -> Convolution16 (in-place)
I0629 12:44:43.952868 17825 layer_factory.hpp:77] Creating layer Scale16
I0629 12:44:43.952898 17825 net.cpp:156] Setting up Scale16
I0629 12:44:43.952908 17825 net.cpp:159] 0 counting
I0629 12:44:43.952914 17825 net.cpp:164] Top shape: 1 64 8 8 (4096)
I0629 12:44:43.952922 17825 net.cpp:172] Memory required for data: 3846156
I0629 12:44:43.952934 17825 layer_factory.hpp:77] Creating layer ReLU14
I0629 12:44:43.952942 17825 net.cpp:112] Creating Layer 76 : ReLU14
I0629 12:44:43.952950 17825 net.cpp:462] ReLU14 <- Convolution16
I0629 12:44:43.952958 17825 net.cpp:405] ReLU14 -> Convolution16 (in-place)
I0629 12:44:43.952968 17825 net.cpp:156] Setting up ReLU14
I0629 12:44:43.952975 17825 net.cpp:159] 0 counting
I0629 12:44:43.952980 17825 net.cpp:164] Top shape: 1 64 8 8 (4096)
I0629 12:44:43.952986 17825 net.cpp:172] Memory required for data: 3862540
I0629 12:44:43.952993 17825 layer_factory.hpp:77] Creating layer Convolution17
I0629 12:44:43.953028 17825 net.cpp:112] Creating Layer 77 : Convolution17
I0629 12:44:43.953042 17825 net.cpp:462] Convolution17 <- Convolution16
I0629 12:44:43.953063 17825 net.cpp:419] Convolution17 -> Convolution17
I0629 12:44:43.953832 17825 base_conv_layer.cpp:174]  kernel_shape_data[0] = 3
I0629 12:44:43.953847 17825 base_conv_layer.cpp:174]  kernel_shape_data[1] = 3
I0629 12:44:43.953914 17825 net.cpp:156] Setting up Convolution17
I0629 12:44:43.953924 17825 net.cpp:159] 0 counting
I0629 12:44:43.953932 17825 net.cpp:164] Top shape: 1 64 8 8 (4096)
I0629 12:44:43.953940 17825 net.cpp:172] Memory required for data: 3878924
I0629 12:44:43.953951 17825 layer_factory.hpp:77] Creating layer BatchNorm17
I0629 12:44:43.953964 17825 net.cpp:112] Creating Layer 78 : BatchNorm17
I0629 12:44:43.953972 17825 net.cpp:462] BatchNorm17 <- Convolution17
I0629 12:44:43.953981 17825 net.cpp:405] BatchNorm17 -> Convolution17 (in-place)
I0629 12:44:43.954005 17825 net.cpp:156] Setting up BatchNorm17
I0629 12:44:43.954015 17825 net.cpp:159] 0 counting
I0629 12:44:43.954021 17825 net.cpp:164] Top shape: 1 64 8 8 (4096)
I0629 12:44:43.954030 17825 net.cpp:172] Memory required for data: 3895308
I0629 12:44:43.954042 17825 layer_factory.hpp:77] Creating layer Scale17
I0629 12:44:43.954063 17825 net.cpp:112] Creating Layer 79 : Scale17
I0629 12:44:43.954075 17825 net.cpp:462] Scale17 <- Convolution17
I0629 12:44:43.954085 17825 net.cpp:405] Scale17 -> Convolution17 (in-place)
I0629 12:44:43.954105 17825 layer_factory.hpp:77] Creating layer Scale17
I0629 12:44:43.954133 17825 net.cpp:156] Setting up Scale17
I0629 12:44:43.954144 17825 net.cpp:159] 0 counting
I0629 12:44:43.954149 17825 net.cpp:164] Top shape: 1 64 8 8 (4096)
I0629 12:44:43.954157 17825 net.cpp:172] Memory required for data: 3911692
I0629 12:44:43.954172 17825 layer_factory.hpp:77] Creating layer Eltwise7
I0629 12:44:43.954182 17825 net.cpp:112] Creating Layer 80 : Eltwise7
I0629 12:44:43.954190 17825 net.cpp:462] Eltwise7 <- Convolution15
I0629 12:44:43.954197 17825 net.cpp:462] Eltwise7 <- Convolution17
I0629 12:44:43.954205 17825 net.cpp:419] Eltwise7 -> Eltwise7
I0629 12:44:43.954218 17825 net.cpp:156] Setting up Eltwise7
I0629 12:44:43.954224 17825 net.cpp:159] 0 counting
I0629 12:44:43.954231 17825 net.cpp:164] Top shape: 1 64 8 8 (4096)
I0629 12:44:43.954246 17825 net.cpp:172] Memory required for data: 3928076
I0629 12:44:43.954253 17825 layer_factory.hpp:77] Creating layer ReLU15
I0629 12:44:43.954262 17825 net.cpp:112] Creating Layer 81 : ReLU15
I0629 12:44:43.954268 17825 net.cpp:462] ReLU15 <- Eltwise7
I0629 12:44:43.954277 17825 net.cpp:405] ReLU15 -> Eltwise7 (in-place)
I0629 12:44:43.954286 17825 net.cpp:156] Setting up ReLU15
I0629 12:44:43.954293 17825 net.cpp:159] 0 counting
I0629 12:44:43.954298 17825 net.cpp:164] Top shape: 1 64 8 8 (4096)
I0629 12:44:43.954305 17825 net.cpp:172] Memory required for data: 3944460
I0629 12:44:43.954311 17825 layer_factory.hpp:77] Creating layer Eltwise7_ReLU15_0_split
I0629 12:44:43.954322 17825 net.cpp:112] Creating Layer 82 : Eltwise7_ReLU15_0_split
I0629 12:44:43.954329 17825 net.cpp:462] Eltwise7_ReLU15_0_split <- Eltwise7
I0629 12:44:43.954337 17825 net.cpp:419] Eltwise7_ReLU15_0_split -> Eltwise7_ReLU15_0_split_0
I0629 12:44:43.954349 17825 net.cpp:419] Eltwise7_ReLU15_0_split -> Eltwise7_ReLU15_0_split_1
I0629 12:44:43.954360 17825 net.cpp:156] Setting up Eltwise7_ReLU15_0_split
I0629 12:44:43.954365 17825 net.cpp:159] 0 counting
I0629 12:44:43.954370 17825 net.cpp:164] Top shape: 1 64 8 8 (4096)
I0629 12:44:43.954378 17825 net.cpp:159] 0 counting
I0629 12:44:43.954385 17825 net.cpp:164] Top shape: 1 64 8 8 (4096)
I0629 12:44:43.954391 17825 net.cpp:172] Memory required for data: 3977228
I0629 12:44:43.954398 17825 layer_factory.hpp:77] Creating layer Convolution18
I0629 12:44:43.954422 17825 net.cpp:112] Creating Layer 83 : Convolution18
I0629 12:44:43.954434 17825 net.cpp:462] Convolution18 <- Eltwise7_ReLU15_0_split_0
I0629 12:44:43.954450 17825 net.cpp:419] Convolution18 -> Convolution18
I0629 12:44:43.955217 17825 base_conv_layer.cpp:174]  kernel_shape_data[0] = 3
I0629 12:44:43.955238 17825 base_conv_layer.cpp:174]  kernel_shape_data[1] = 3
I0629 12:44:43.955309 17825 net.cpp:156] Setting up Convolution18
I0629 12:44:43.955319 17825 net.cpp:159] 0 counting
I0629 12:44:43.955327 17825 net.cpp:164] Top shape: 1 64 8 8 (4096)
I0629 12:44:43.955335 17825 net.cpp:172] Memory required for data: 3993612
I0629 12:44:43.955348 17825 layer_factory.hpp:77] Creating layer BatchNorm18
I0629 12:44:43.955360 17825 net.cpp:112] Creating Layer 84 : BatchNorm18
I0629 12:44:43.955369 17825 net.cpp:462] BatchNorm18 <- Convolution18
I0629 12:44:43.955379 17825 net.cpp:405] BatchNorm18 -> Convolution18 (in-place)
I0629 12:44:43.955402 17825 net.cpp:156] Setting up BatchNorm18
I0629 12:44:43.955412 17825 net.cpp:159] 0 counting
I0629 12:44:43.955418 17825 net.cpp:164] Top shape: 1 64 8 8 (4096)
I0629 12:44:43.955426 17825 net.cpp:172] Memory required for data: 4009996
I0629 12:44:43.955440 17825 layer_factory.hpp:77] Creating layer Scale18
I0629 12:44:43.955456 17825 net.cpp:112] Creating Layer 85 : Scale18
I0629 12:44:43.955466 17825 net.cpp:462] Scale18 <- Convolution18
I0629 12:44:43.955476 17825 net.cpp:405] Scale18 -> Convolution18 (in-place)
I0629 12:44:43.955492 17825 layer_factory.hpp:77] Creating layer Scale18
I0629 12:44:43.955528 17825 net.cpp:156] Setting up Scale18
I0629 12:44:43.955538 17825 net.cpp:159] 0 counting
I0629 12:44:43.955544 17825 net.cpp:164] Top shape: 1 64 8 8 (4096)
I0629 12:44:43.955552 17825 net.cpp:172] Memory required for data: 4026380
I0629 12:44:43.955564 17825 layer_factory.hpp:77] Creating layer ReLU16
I0629 12:44:43.955576 17825 net.cpp:112] Creating Layer 86 : ReLU16
I0629 12:44:43.955584 17825 net.cpp:462] ReLU16 <- Convolution18
I0629 12:44:43.955591 17825 net.cpp:405] ReLU16 -> Convolution18 (in-place)
I0629 12:44:43.955602 17825 net.cpp:156] Setting up ReLU16
I0629 12:44:43.955608 17825 net.cpp:159] 0 counting
I0629 12:44:43.955613 17825 net.cpp:164] Top shape: 1 64 8 8 (4096)
I0629 12:44:43.955621 17825 net.cpp:172] Memory required for data: 4042764
I0629 12:44:43.955627 17825 layer_factory.hpp:77] Creating layer Convolution19
I0629 12:44:43.955651 17825 net.cpp:112] Creating Layer 87 : Convolution19
I0629 12:44:43.955662 17825 net.cpp:462] Convolution19 <- Convolution18
I0629 12:44:43.955673 17825 net.cpp:419] Convolution19 -> Convolution19
I0629 12:44:43.956442 17825 base_conv_layer.cpp:174]  kernel_shape_data[0] = 3
I0629 12:44:43.956456 17825 base_conv_layer.cpp:174]  kernel_shape_data[1] = 3
I0629 12:44:43.956531 17825 net.cpp:156] Setting up Convolution19
I0629 12:44:43.956542 17825 net.cpp:159] 0 counting
I0629 12:44:43.956548 17825 net.cpp:164] Top shape: 1 64 8 8 (4096)
I0629 12:44:43.956557 17825 net.cpp:172] Memory required for data: 4059148
I0629 12:44:43.956568 17825 layer_factory.hpp:77] Creating layer BatchNorm19
I0629 12:44:43.956578 17825 net.cpp:112] Creating Layer 88 : BatchNorm19
I0629 12:44:43.956585 17825 net.cpp:462] BatchNorm19 <- Convolution19
I0629 12:44:43.956598 17825 net.cpp:405] BatchNorm19 -> Convolution19 (in-place)
I0629 12:44:43.956624 17825 net.cpp:156] Setting up BatchNorm19
I0629 12:44:43.956634 17825 net.cpp:159] 0 counting
I0629 12:44:43.956638 17825 net.cpp:164] Top shape: 1 64 8 8 (4096)
I0629 12:44:43.956647 17825 net.cpp:172] Memory required for data: 4075532
I0629 12:44:43.956683 17825 layer_factory.hpp:77] Creating layer Scale19
I0629 12:44:43.956704 17825 net.cpp:112] Creating Layer 89 : Scale19
I0629 12:44:43.956713 17825 net.cpp:462] Scale19 <- Convolution19
I0629 12:44:43.956722 17825 net.cpp:405] Scale19 -> Convolution19 (in-place)
I0629 12:44:43.956740 17825 layer_factory.hpp:77] Creating layer Scale19
I0629 12:44:43.956764 17825 net.cpp:156] Setting up Scale19
I0629 12:44:43.956773 17825 net.cpp:159] 0 counting
I0629 12:44:43.956779 17825 net.cpp:164] Top shape: 1 64 8 8 (4096)
I0629 12:44:43.956794 17825 net.cpp:172] Memory required for data: 4091916
I0629 12:44:43.956807 17825 layer_factory.hpp:77] Creating layer Eltwise8
I0629 12:44:43.956817 17825 net.cpp:112] Creating Layer 90 : Eltwise8
I0629 12:44:43.956832 17825 net.cpp:462] Eltwise8 <- Eltwise7_ReLU15_0_split_1
I0629 12:44:43.956841 17825 net.cpp:462] Eltwise8 <- Convolution19
I0629 12:44:43.956853 17825 net.cpp:419] Eltwise8 -> Eltwise8
I0629 12:44:43.956866 17825 net.cpp:156] Setting up Eltwise8
I0629 12:44:43.956873 17825 net.cpp:159] 0 counting
I0629 12:44:43.956878 17825 net.cpp:164] Top shape: 1 64 8 8 (4096)
I0629 12:44:43.956887 17825 net.cpp:172] Memory required for data: 4108300
I0629 12:44:43.956893 17825 layer_factory.hpp:77] Creating layer ReLU17
I0629 12:44:43.956902 17825 net.cpp:112] Creating Layer 91 : ReLU17
I0629 12:44:43.956908 17825 net.cpp:462] ReLU17 <- Eltwise8
I0629 12:44:43.956915 17825 net.cpp:405] ReLU17 -> Eltwise8 (in-place)
I0629 12:44:43.956925 17825 net.cpp:156] Setting up ReLU17
I0629 12:44:43.956931 17825 net.cpp:159] 0 counting
I0629 12:44:43.956936 17825 net.cpp:164] Top shape: 1 64 8 8 (4096)
I0629 12:44:43.956944 17825 net.cpp:172] Memory required for data: 4124684
I0629 12:44:43.956950 17825 layer_factory.hpp:77] Creating layer Eltwise8_ReLU17_0_split
I0629 12:44:43.956959 17825 net.cpp:112] Creating Layer 92 : Eltwise8_ReLU17_0_split
I0629 12:44:43.956965 17825 net.cpp:462] Eltwise8_ReLU17_0_split <- Eltwise8
I0629 12:44:43.956979 17825 net.cpp:419] Eltwise8_ReLU17_0_split -> Eltwise8_ReLU17_0_split_0
I0629 12:44:43.956993 17825 net.cpp:419] Eltwise8_ReLU17_0_split -> Eltwise8_ReLU17_0_split_1
I0629 12:44:43.957005 17825 net.cpp:156] Setting up Eltwise8_ReLU17_0_split
I0629 12:44:43.957010 17825 net.cpp:159] 0 counting
I0629 12:44:43.957016 17825 net.cpp:164] Top shape: 1 64 8 8 (4096)
I0629 12:44:43.957024 17825 net.cpp:159] 0 counting
I0629 12:44:43.957029 17825 net.cpp:164] Top shape: 1 64 8 8 (4096)
I0629 12:44:43.957037 17825 net.cpp:172] Memory required for data: 4157452
I0629 12:44:43.957043 17825 layer_factory.hpp:77] Creating layer Convolution20
I0629 12:44:43.957078 17825 net.cpp:112] Creating Layer 93 : Convolution20
I0629 12:44:43.957092 17825 net.cpp:462] Convolution20 <- Eltwise8_ReLU17_0_split_0
I0629 12:44:43.957104 17825 net.cpp:419] Convolution20 -> Convolution20
I0629 12:44:43.957867 17825 base_conv_layer.cpp:174]  kernel_shape_data[0] = 3
I0629 12:44:43.957881 17825 base_conv_layer.cpp:174]  kernel_shape_data[1] = 3
I0629 12:44:43.957955 17825 net.cpp:156] Setting up Convolution20
I0629 12:44:43.957965 17825 net.cpp:159] 0 counting
I0629 12:44:43.957972 17825 net.cpp:164] Top shape: 1 64 8 8 (4096)
I0629 12:44:43.957980 17825 net.cpp:172] Memory required for data: 4173836
I0629 12:44:43.957993 17825 layer_factory.hpp:77] Creating layer BatchNorm20
I0629 12:44:43.958009 17825 net.cpp:112] Creating Layer 94 : BatchNorm20
I0629 12:44:43.958017 17825 net.cpp:462] BatchNorm20 <- Convolution20
I0629 12:44:43.958026 17825 net.cpp:405] BatchNorm20 -> Convolution20 (in-place)
I0629 12:44:43.958050 17825 net.cpp:156] Setting up BatchNorm20
I0629 12:44:43.958065 17825 net.cpp:159] 0 counting
I0629 12:44:43.958070 17825 net.cpp:164] Top shape: 1 64 8 8 (4096)
I0629 12:44:43.958079 17825 net.cpp:172] Memory required for data: 4190220
I0629 12:44:43.958092 17825 layer_factory.hpp:77] Creating layer Scale20
I0629 12:44:43.958107 17825 net.cpp:112] Creating Layer 95 : Scale20
I0629 12:44:43.958117 17825 net.cpp:462] Scale20 <- Convolution20
I0629 12:44:43.958125 17825 net.cpp:405] Scale20 -> Convolution20 (in-place)
I0629 12:44:43.958143 17825 layer_factory.hpp:77] Creating layer Scale20
I0629 12:44:43.958173 17825 net.cpp:156] Setting up Scale20
I0629 12:44:43.958184 17825 net.cpp:159] 0 counting
I0629 12:44:43.958189 17825 net.cpp:164] Top shape: 1 64 8 8 (4096)
I0629 12:44:43.958204 17825 net.cpp:172] Memory required for data: 4206604
I0629 12:44:43.958216 17825 layer_factory.hpp:77] Creating layer ReLU18
I0629 12:44:43.958225 17825 net.cpp:112] Creating Layer 96 : ReLU18
I0629 12:44:43.958232 17825 net.cpp:462] ReLU18 <- Convolution20
I0629 12:44:43.958240 17825 net.cpp:405] ReLU18 -> Convolution20 (in-place)
I0629 12:44:43.958250 17825 net.cpp:156] Setting up ReLU18
I0629 12:44:43.958263 17825 net.cpp:159] 0 counting
I0629 12:44:43.958269 17825 net.cpp:164] Top shape: 1 64 8 8 (4096)
I0629 12:44:43.958278 17825 net.cpp:172] Memory required for data: 4222988
I0629 12:44:43.958284 17825 layer_factory.hpp:77] Creating layer Convolution21
I0629 12:44:43.958308 17825 net.cpp:112] Creating Layer 97 : Convolution21
I0629 12:44:43.958319 17825 net.cpp:462] Convolution21 <- Convolution20
I0629 12:44:43.958333 17825 net.cpp:419] Convolution21 -> Convolution21
I0629 12:44:43.959125 17825 base_conv_layer.cpp:174]  kernel_shape_data[0] = 3
I0629 12:44:43.959139 17825 base_conv_layer.cpp:174]  kernel_shape_data[1] = 3
I0629 12:44:43.959210 17825 net.cpp:156] Setting up Convolution21
I0629 12:44:43.959221 17825 net.cpp:159] 0 counting
I0629 12:44:43.959228 17825 net.cpp:164] Top shape: 1 64 8 8 (4096)
I0629 12:44:43.959237 17825 net.cpp:172] Memory required for data: 4239372
I0629 12:44:43.959249 17825 layer_factory.hpp:77] Creating layer BatchNorm21
I0629 12:44:43.959259 17825 net.cpp:112] Creating Layer 98 : BatchNorm21
I0629 12:44:43.959266 17825 net.cpp:462] BatchNorm21 <- Convolution21
I0629 12:44:43.959280 17825 net.cpp:405] BatchNorm21 -> Convolution21 (in-place)
I0629 12:44:43.959306 17825 net.cpp:156] Setting up BatchNorm21
I0629 12:44:43.959316 17825 net.cpp:159] 0 counting
I0629 12:44:43.959321 17825 net.cpp:164] Top shape: 1 64 8 8 (4096)
I0629 12:44:43.959329 17825 net.cpp:172] Memory required for data: 4255756
I0629 12:44:43.959342 17825 layer_factory.hpp:77] Creating layer Scale21
I0629 12:44:43.959358 17825 net.cpp:112] Creating Layer 99 : Scale21
I0629 12:44:43.959367 17825 net.cpp:462] Scale21 <- Convolution21
I0629 12:44:43.959376 17825 net.cpp:405] Scale21 -> Convolution21 (in-place)
I0629 12:44:43.959395 17825 layer_factory.hpp:77] Creating layer Scale21
I0629 12:44:43.959429 17825 net.cpp:156] Setting up Scale21
I0629 12:44:43.959439 17825 net.cpp:159] 0 counting
I0629 12:44:43.959445 17825 net.cpp:164] Top shape: 1 64 8 8 (4096)
I0629 12:44:43.959453 17825 net.cpp:172] Memory required for data: 4272140
I0629 12:44:43.959465 17825 layer_factory.hpp:77] Creating layer Eltwise9
I0629 12:44:43.959482 17825 net.cpp:112] Creating Layer 100 : Eltwise9
I0629 12:44:43.959491 17825 net.cpp:462] Eltwise9 <- Eltwise8_ReLU17_0_split_1
I0629 12:44:43.959499 17825 net.cpp:462] Eltwise9 <- Convolution21
I0629 12:44:43.959508 17825 net.cpp:419] Eltwise9 -> Eltwise9
I0629 12:44:43.959522 17825 net.cpp:156] Setting up Eltwise9
I0629 12:44:43.959527 17825 net.cpp:159] 0 counting
I0629 12:44:43.959533 17825 net.cpp:164] Top shape: 1 64 8 8 (4096)
I0629 12:44:43.959542 17825 net.cpp:172] Memory required for data: 4288524
I0629 12:44:43.959548 17825 layer_factory.hpp:77] Creating layer ReLU19
I0629 12:44:43.959559 17825 net.cpp:112] Creating Layer 101 : ReLU19
I0629 12:44:43.959566 17825 net.cpp:462] ReLU19 <- Eltwise9
I0629 12:44:43.959574 17825 net.cpp:405] ReLU19 -> Eltwise9 (in-place)
I0629 12:44:43.959584 17825 net.cpp:156] Setting up ReLU19
I0629 12:44:43.959589 17825 net.cpp:159] 0 counting
I0629 12:44:43.959595 17825 net.cpp:164] Top shape: 1 64 8 8 (4096)
I0629 12:44:43.959602 17825 net.cpp:172] Memory required for data: 4304908
I0629 12:44:43.959609 17825 layer_factory.hpp:77] Creating layer Pooling1
I0629 12:44:43.959619 17825 net.cpp:112] Creating Layer 102 : Pooling1
I0629 12:44:43.959625 17825 net.cpp:462] Pooling1 <- Eltwise9
I0629 12:44:43.959640 17825 net.cpp:419] Pooling1 -> Pooling1
I0629 12:44:43.959744 17825 net.cpp:156] Setting up Pooling1
I0629 12:44:43.959758 17825 net.cpp:159] 0 counting
I0629 12:44:43.959765 17825 net.cpp:164] Top shape: 1 64 1 1 (64)
I0629 12:44:43.959774 17825 net.cpp:172] Memory required for data: 4305164
I0629 12:44:43.959781 17825 layer_factory.hpp:77] Creating layer InnerProduct1
I0629 12:44:43.959794 17825 net.cpp:112] Creating Layer 103 : InnerProduct1
I0629 12:44:43.959801 17825 net.cpp:462] InnerProduct1 <- Pooling1
I0629 12:44:43.959815 17825 net.cpp:419] InnerProduct1 -> InnerProduct1
I0629 12:44:43.959985 17825 net.cpp:156] Setting up InnerProduct1
I0629 12:44:43.960007 17825 net.cpp:159] 0 counting
I0629 12:44:43.960016 17825 net.cpp:164] Top shape: 1 10 (10)
I0629 12:44:43.960024 17825 net.cpp:172] Memory required for data: 4305204
I0629 12:44:43.960037 17825 layer_factory.hpp:77] Creating layer InnerProduct1_InnerProduct1_0_split
I0629 12:44:43.960048 17825 net.cpp:112] Creating Layer 104 : InnerProduct1_InnerProduct1_0_split
I0629 12:44:43.960062 17825 net.cpp:462] InnerProduct1_InnerProduct1_0_split <- InnerProduct1
I0629 12:44:43.960073 17825 net.cpp:419] InnerProduct1_InnerProduct1_0_split -> InnerProduct1_InnerProduct1_0_split_0
I0629 12:44:43.960095 17825 net.cpp:419] InnerProduct1_InnerProduct1_0_split -> InnerProduct1_InnerProduct1_0_split_1
I0629 12:44:43.960114 17825 net.cpp:156] Setting up InnerProduct1_InnerProduct1_0_split
I0629 12:44:43.960121 17825 net.cpp:159] 0 counting
I0629 12:44:43.960127 17825 net.cpp:164] Top shape: 1 10 (10)
I0629 12:44:43.960135 17825 net.cpp:159] 0 counting
I0629 12:44:43.960140 17825 net.cpp:164] Top shape: 1 10 (10)
I0629 12:44:43.960147 17825 net.cpp:172] Memory required for data: 4305284
I0629 12:44:43.960155 17825 layer_factory.hpp:77] Creating layer SoftmaxWithLoss1
I0629 12:44:43.960209 17825 net.cpp:112] Creating Layer 105 : SoftmaxWithLoss1
I0629 12:44:43.960224 17825 net.cpp:462] SoftmaxWithLoss1 <- InnerProduct1_InnerProduct1_0_split_0
I0629 12:44:43.960233 17825 net.cpp:462] SoftmaxWithLoss1 <- Data2_Data1_1_split_0
…
