…
I0702 00:34:48.884871 32261 net.cpp:49] Initializing net from parameters: 
name: "resnet_cifar10"
state {
  phase: TRAIN
}
layer {
  name: "Data1"
  type: "ImageData"
  top: "Data1"
  top: "Data2"
  include {
    phase: TRAIN
  }
  transform_param {
    scale: 0.0078125
    mirror: true
    crop_size: 32
    mean_value: 128
  }
  image_data_param {
    source: "/HOME/sysu_sc_ll/WORKSPACE/wenyp/0314/cifar-10/train/label.txt"
    batch_size: 32
    shuffle: true
    new_height: 40
    new_width: 40
    is_color: true
    root_folder: "/HOME/sysu_sc_ll/WORKSPACE/wenyp/0314/cifar-10/train/Img/"
  }
}
layer {
  name: "Convolution1"
  type: "Convolution"
  bottom: "Data1"
  top: "Convolution1"
  param {
    lr_mult: 1
    decay_mult: 1
  }
  param {
    lr_mult: 2
    decay_mult: 0
  }
  convolution_param {
    num_output: 16
    pad: 1
    kernel_size: 3
    stride: 1
    weight_filler {
      type: "msra"
    }
    bias_filler {
      type: "constant"
      value: 0
    }
  }
}
layer {
  name: "BatchNorm1"
  type: "BatchNorm"
  bottom: "Convolution1"
  top: "Convolution1"
  param {
    lr_mult: 0
    decay_mult: 0
  }
  param {
    lr_mult: 0
    decay_mult: 0
  }
  param {
    lr_mult: 0
    decay_mult: 0
  }
}
layer {
  name: "Scale1"
  type: "Scale"
  bottom: "Convolution1"
  top: "Convolution1"
  scale_param {
    bias_term: true
  }
}
layer {
  name: "ReLU1"
  type: "ReLU"
  bottom: "Convolution1"
  top: "Convolution1"
}
layer {
  name: "Convolution2"
  type: "Convolution"
  bottom: "Convolution1"
  top: "Convolution2"
  param {
    lr_mult: 1
    decay_mult: 1
  }
  param {
    lr_mult: 2
    decay_mult: 0
  }
  convolution_param {
    num_output: 16
    pad: 1
    kernel_size: 3
    stride: 1
    weight_filler {
      type: "msra"
    }
    bias_filler {
      type: "constant"
      value: 0
    }
  }
}
layer {
  name: "BatchNorm2"
  type: "BatchNorm"
  bottom: "Convolution2"
  top: "Convolution2"
  param {
    lr_mult: 0
    decay_mult: 0
  }
  param {
    lr_mult: 0
    decay_mult: 0
  }
  param {
    lr_mult: 0
    decay_mult: 0
  }
}
layer {
  name: "Scale2"
  type: "Scale"
  bottom: "Convolution2"
  top: "Convolution2"
  scale_param {
    bias_term: true
  }
}
layer {
  name: "ReLU2"
  type: "ReLU"
  bottom: "Convolution2"
  top: "Convolution2"
}
layer {
  name: "Convolution3"
  type: "Convolution"
  bottom: "Convolution2"
  top: "Convolution3"
  param {
    lr_mult: 1
    decay_mult: 1
  }
  param {
    lr_mult: 2
    decay_mult: 0
  }
  convolution_param {
    num_output: 16
    pad: 1
    kernel_size: 3
    stride: 1
    weight_filler {
      type: "msra"
    }
    bias_filler {
      type: "constant"
      value: 0
    }
  }
}
layer {
  name: "BatchNorm3"
  type: "BatchNorm"
  bottom: "Convolution3"
  top: "Convolution3"
  param {
    lr_mult: 0
    decay_mult: 0
  }
  param {
    lr_mult: 0
    decay_mult: 0
  }
  param {
    lr_mult: 0
    decay_mult: 0
  }
}
layer {
  name: "Scale3"
  type: "Scale"
  bottom: "Convolution3"
  top: "Convolution3"
  scale_param {
    bias_term: true
  }
}
layer {
  name: "Eltwise1"
  type: "Eltwise"
  bottom: "Convolution1"
  bottom: "Convolution3"
  top: "Eltwise1"
  eltwise_param {
    operation: SUM
  }
}
layer {
  name: "ReLU3"
  type: "ReLU"
  bottom: "Eltwise1"
  top: "Eltwise1"
}
layer {
  name: "Convolution4"
  type: "Convolution"
  bottom: "Eltwise1"
  top: "Convolution4"
  param {
    lr_mult: 1
    decay_mult: 1
  }
  param {
    lr_mult: 2
    decay_mult: 0
  }
  convolution_param {
    num_output: 16
    pad: 1
    kernel_size: 3
    stride: 1
    weight_filler {
      type: "msra"
    }
    bias_filler {
      type: "constant"
      value: 0
    }
  }
}
layer {
  name: "BatchNorm4"
  type: "BatchNorm"
  bottom: "Convolution4"
  top: "Convolution4"
  param {
    lr_mult: 0
    decay_mult: 0
  }
  param {
    lr_mult: 0
    decay_mult: 0
  }
  param {
    lr_mult: 0
    decay_mult: 0
  }
}
layer {
  name: "Scale4"
  type: "Scale"
  bottom: "Convolution4"
  top: "Convolution4"
  scale_param {
    bias_term: true
  }
}
layer {
  name: "ReLU4"
  type: "ReLU"
I0702 00:34:48.884889  4664 net.cpp:49] Initializing net from parameters: 
name: "resnet_cifar10"
state {
  phase: TRAIN
}
layer {
  name: "Data1"
  type: "ImageData"
  top: "Data1"
  top: "Data2"
  include {
    phase: TRAIN
  }
  transform_param {
    scale: 0.0078125
    mirror: true
    crop_size: 32
    mean_value: 128
  }
  image_data_param {
    source: "/HOME/sysu_sc_ll/WORKSPACE/wenyp/0314/cifar-10/train/label.txt"
    batch_size: 32
    shuffle: true
    new_height: 40
    new_width: 40
    is_color: true
    root_folder: "/HOME/sysu_sc_ll/WORKSPACE/wenyp/0314/cifar-10/train/Img/"
  }
}
layer {
  name: "Convolution1"
  type: "Convolution"
  bottom: "Data1"
  top: "Convolution1"
  param {
    lr_mult: 1
    decay_mult: 1
  }
  param {
    lr_mult: 2
    decay_mult: 0
  }
  convolution_param {
    num_output: 16
    pad: 1
    kernel_size: 3
    stride: 1
    weight_filler {
      type: "msra"
    }
    bias_filler {
      type: "constant"
      value: 0
    }
  }
}
layer {
  name: "BatchNorm1"
  bottom: "Convolution4"
  top: "Convolution4"
}
layer {
  name: "Convolution5"
  type: "Convolution"
  bottom: "Convolution4"
  top: "Convolution5"
  param {
    lr_mult: 1
    decay_mult: 1
  }
  param {
    lr_mult: 2
    decay_mult: 0
  }
  convolution_param {
    num_output: 16
    pad: 1
    kernel_size: 3
    stride: 1
    weight_filler {
      type: "msra"
    }
    bias_filler {
      type: "constant"
      value: 0
    }
  }
}
layer {
  name: "BatchNorm5"
  type: "BatchNorm"
  bottom: "Convolution5"
  top: "Convolution5"
  param {
    lr_mult: 0
    decay_mult: 0
  }
  param {
    lr_mult: 0
    decay_mult: 0
  }
  param {
    lr_mult: 0
    decay_mult: 0
  }
}
layer {
  name: "Scale5"
  type: "Scale"
  bottom: "Convolution5"
  top: "Convolution5"
  scale_param {
    bias_term: true
  }
}
layer {
  name: "Eltwise2"
  type: "Eltwise"
  bottom: "Eltwise1"
  bottom: "Convolution5"
  top: "Eltwise2"
  eltwise_param {
    operation: SUM
  }
}
layer {
  name: "ReLU5"
  type: "ReLU"
  bottom: "Eltwise2"
  type: "BatchNorm"
  bottom: "Convolution1"
  top: "Convolution1"
  param {
    lr_mult: 0
    decay_mult: 0
  }
  param {
    lr_mult: 0
    decay_mult: 0
  }
  param {
    lr_mult: 0
    decay_mult: 0
  }
}
layer {
  name: "Scale1"
  type: "Scale"
  bottom: "Convolution1"
  top: "Convolution1"
  scale_param {
    bias_term: true
  }
}
layer {
  name: "ReLU1"
  type: "ReLU"
  bottom: "Convolution1"
  top: "Convolution1"
}
layer {
  name: "Convolution2"
  type: "Convolution"
  bottom: "Convolution1"
  top: "Convolution2"
  param {
    lr_mult: 1
    decay_mult: 1
  }
  param {
    lr_mult: 2
    decay_mult: 0
  }
  convolution_param {
    num_output: 16
    pad: 1
    kernel_size: 3
    stride: 1
    weight_filler {
      type: "msra"
    }
    bias_filler {
      type: "constant"
      value: 0
    }
  }
}
layer {
  name: "BatchNorm2"
  type: "BatchNorm"
  bottom: "Convolution2"
  top: "Convolution2"
  param {
    lr_mult: 0
    decay_mult: 0
  }
  param {
    lr_mult: 0
    decay_mult: 0
  }
  param {
  top: "Eltwise2"
}
layer {
  name: "Convolution6"
  type: "Convolution"
  bottom: "Eltwise2"
  top: "Convolution6"
  param {
    lr_mult: 1
    decay_mult: 1
  }
  param {
    lr_mult: 2
    decay_mult: 0
  }
  convolution_param {
    num_output: 16
    pad: 1
    kernel_size: 3
    stride: 1
    weight_filler {
      type: "msra"
    }
    bias_filler {
      type: "constant"
      value: 0
    }
  }
}
layer {
  name: "BatchNorm6"
  type: "BatchNorm"
  bottom: "Convolution6"
  top: "Convolution6"
  param {
    lr_mult: 0
    decay_mult: 0
  }
  param {
    lr_mult: 0
    decay_mult: 0
  }
  param {
    lr_mult: 0
    decay_mult: 0
  }
}
layer {
  name: "Scale6"
  type: "Scale"
  bottom: "Convolution6"
  top: "Convolution6"
  scale_param {
    bias_term: true
  }
}
layer {
  name: "ReLU6"
  type: "ReLU"
  bottom: "Convolution6"
  top: "Convolution6"
}
layer {
  name: "Convolution7"
  type: "Convolution"
  bottom: "Convolution6"
  top: "Convolution7"
  param {
    lr_mult: 1
    decay_mult: 1
  }
  param {
    lr_mult: 2
    decay_mult: 0
  }
  convolution_param {
    num_output: 16
    pad: 1
    kernel_size: 3
    stride: 1
    weight_filler {
      type: "msra"
    }
    bias_filler {
      type: "constant"
      value: 0
    }
  }
}
layer {
  name: "BatchNorm7"
  type: "BatchNorm"
  bottom: "Convolution7"
  top: "Convolution7"
  param {
    lr_mult: 0
    decay_mult: 0
  }
  param {
    lr_mult: 0
    decay_mult: 0
  }
  param {
    lr_mult: 0
    decay_mult: 0
  }
}
layer {
  name: "Scale7"
  type: "Scale"
  bottom: "Convolution7"
  top: "Convolution7"
  scale_param {
    bias_term: true
  }
}
layer {
  name: "Eltwise3"
  type: "Eltwise"
  bottom: "Eltwise2"
  bottom: "Convolution7"
  top: "Eltwise3"
  eltwise_param {
    operation: SUM
  }
}
layer {
  name: "ReLU7"
  type: "ReLU"
  bottom: "Eltwise3"
  top: "Eltwise3"
}
layer {
  name: "Convolution8"
  type: "Convolution"
  bottom: "Eltwise3"
  top: "Convolution8"
  param {
    lr_mult: 1
    decay_mult: 1
  }
  param {
    lr_mult: 2
    decay_mult: 0
  }
  convolution_param {
    num_output: 32
    pad: 0
    kernel_size: 1
    stride: 2
    weight_filler {
      type: "msra"
    }
    bias_filler {
      type: "constant"
      value: 0
    }
  }
}
layer {
  name: "BatchNorm8"
  type: "BatchNorm"
  bottom: "Convolution8"
  top: "Convolution8"
  param {
    lr_mult: 0
    decay_mult: 0
  }
  param {
    lr_mult: 0
    decay_mult: 0
  }
  param {
    lr_mult: 0
    decay_mult: 0
  }
}
layer {
  name: "Scale8"
  type: "Scale"
  bottom: "Convolution8"
  top: "Convolution8"
  scale_param {
    bias_term: true
  }
}
layer {
  name: "Convolution9"
  type: "Convolution"
  bottom: "Eltwise3"
  top: "Convolution9"
  param {
    lr_mult: 1
    decay_mult: 1
  }
  param {
    lr_mult: 2
    decay_mult: 0
  }
  convolution_param {
    num_output: 32
    pad: 1
    kernel_size: 3
    stride: 2
    weight_filler {
      type: "msra"
    }
    bias_filler {
      type: "constant"
      value: 0
    }
  }
}
layer {
  name: "BatchNorm9"
  type: "BatchNorm"
    lr_mult: 0
    decay_mult: 0
  }
}
layer {
  name: "Scale2"
  type: "Scale"
  bottom: "Convolution2"
  top: "Convolution2"
  scale_param {
    bias_term: true
  }
}
layer {
  name: "ReLU2"
  type: "ReLU"
  bottom: "Convolution2"
  top: "Convolution2"
}
layer {
  name: "Convolution3"
  type: "Convolution"
  bottom: "Convolution2"
  top: "Convolution3"
  param {
    lr_mult: 1
    decay_mult: 1
  }
  param {
    lr_mult: 2
    decay_mult: 0
  }
  convolution_param {
    num_output: 16
    pad: 1
    kernel_size: 3
    stride: 1
    weight_filler {
      type: "msra"
    }
    bias_filler {
      type: "constant"
      value: 0
    }
  }
}
layer {
  name: "BatchNorm3"
  type: "BatchNorm"
  bottom: "Convolution3"
  top: "Convolution3"
  param {
    lr_mult: 0
    decay_mult: 0
  }
  param {
    lr_mult: 0
    decay_mult: 0
  }
  param {
    lr_mult: 0
    decay_mult: 0
  }
}
layer {
  name: "Scale3"
  type: "Scale"
  bottom: "Convolution3"
  top: "Convolution3"
  scale_param {
    bias_term: true
  }
}
  bottom: "Convolution9"
  top: "Convolution9"
  param {
    lr_mult: 0
    decay_mult: 0
  }
  param {
    lr_mult: 0
    decay_mult: 0
  }
  param {
    lr_mult: 0
    decay_mult: 0
  }
}
layer {
  name: "Scale9"
  type: "Scale"
  bottom: "Convolution9"
  top: "Convolution9"
  scale_param {
    bias_term: true
  }
}
layer {
  name: "ReLU8"
  type: "ReLU"
  bottom: "Convolution9"
  top: "Convolution9"
}
layer {
  name: "Convolution10"
  type: "Convolution"
  bottom: "Convolution9"
  top: "Convolution10"
  param {
    lr_mult: 1
    decay_mult: 1
  }
  param {
    lr_mult: 2
    decay_mult: 0
  }
  convolution_param {
    num_output: 32
    pad: 1
    kernel_size: 3
    stride: 1
    weight_filler {
      type: "msra"
    }
    bias_filler {
      type: "constant"
      value: 0
    }
  }
}
layer {
  name: "BatchNorm10"
  type: "BatchNorm"
  bottom: "Convolution10"
  top: "Convolution10"
  param {
    lr_mult: 0
    decay_mult: 0
  }
  param {
    lr_mult: 0
    decay_mult: 0
  }
  param {
    lr_mult: 0
layer {
  name: "Eltwise1"
  type: "Eltwise"
  bottom: "Convolution1"
  bottom: "Convolution3"
  top: "Eltwise1"
  eltwise_param {
    operation: SUM
  }
}
layer {
  name: "ReLU3"
  type: "ReLU"
  bottom: "Eltwise1"
  top: "Eltwise1"
}
layer {
  name: "Convolution4"
  type: "Convolution"
  bottom: "Eltwise1"
  top: "Convolution4"
  param {
    lr_mult: 1
    decay_mult: 1
  }
  param {
    lr_mult: 2
    decay_mult: 0
  }
  convolution_param {
    num_output: 16
    pad: 1
    kernel_size: 3
    stride: 1
    weight_filler {
      type: "msra"
    }
    bias_filler {
      type: "constant"
      value: 0
    }
  }
}
layer {
  name: "BatchNorm4"
  type: "BatchNorm"
  bottom: "Convolution4"
  top: "Convolution4"
  param {
    lr_mult: 0
    decay_mult: 0
  }
  param {
    lr_mult: 0
    decay_mult: 0
  }
  param {
    lr_mult: 0
    decay_mult: 0
  }
}
layer {
  name: "Scale4"
  type: "Scale"
  bottom: "Convolution4"
  top: "Convolution4"
  scale_param {
    bias_term: true
  }
}
layer {
  name: "ReLU4"
    decay_mult: 0
  }
}
layer {
  name: "Scale10"
  type: "Scale"
  bottom: "Convolution10"
  top: "Convolution10"
  scale_param {
    bias_term: true
  }
}
layer {
  name: "Eltwise4"
  type: "Eltwise"
  bottom: "Convolution8"
  bottom: "Convolution10"
  top: "Eltwise4"
  eltwise_param {
    operation: SUM
  }
}
layer {
  name: "ReLU9"
  type: "ReLU"
  bottom: "Eltwise4"
  top: "Eltwise4"
}
layer {
  name: "Convolution11"
  type: "Convolution"
  bottom: "Eltwise4"
  top: "Convolution11"
  param {
    lr_mult: 1
    decay_mult: 1
  }
  param {
    lr_mult: 2
    decay_mult: 0
  }
  convolution_param {
    num_output: 32
    pad: 1
    kernel_size: 3
    stride: 1
    weight_filler {
      type: "msra"
    }
    bias_filler {
      type: "constant"
      value: 0
    }
  }
}
layer {
  name: "BatchNorm11"
  type: "BatchNorm"
  bottom: "Convolution11"
  top: "Convolution11"
  param {
    lr_mult: 0
    decay_mult: 0
  }
  param {
    lr_mult: 0
    decay_mult: 0
  }
  param {
    lr_mult: 0
    decay_mult: 0
  type: "ReLU"
  }
}
layer {
  name: "Scale11"
  type: "Scale"
  bottom: "Convolution11"
  top: "Convolution11"
  scale_param {
    bias_term: true
  }
}
layer {
  name: "ReLU10"
  type: "ReLU"
  bottom: "Convolution11"
  top: "Convolution11"
}
layer {
  name: "Convolution12"
  type: "Convolution"
  bottom: "Convolution11"
  top: "Convolution12"
  param {
    lr_mult: 1
    decay_mult: 1
  }
  param {
    lr_mult: 2
    decay_mult: 0
  }
  convolution_param {
    num_output: 32
    pad: 1
    kernel_size: 3
    stride: 1
    weight_filler {
      type: "msra"
    }
    bias_filler {
      type: "constant"
      value: 0
    }
  }
}
layer {
  name: "BatchNorm12"
  type: "BatchNorm"
  bottom: "Convolution12"
  top: "Convolution12"
  param {
    lr_mult: 0
    decay_mult: 0
  }
  param {
    lr_mult: 0
    decay_mult: 0
  }
  param {
    lr_mult: 0
    decay_mult: 0
  }
}
layer {
  name: "Scale12"
  type: "Scale"
  bottom: "Convolution12"
  top: "Convolution12"
  scale_param {
    bias_term: true
  }
}
layer {
  bottom: "Convolution4"
  top: "Convolution4"
}
layer {
  name: "Convolution5"
  type: "Convolution"
  bottom: "Convolution4"
  top: "Convolution5"
  param {
    lr_mult: 1
    decay_mult: 1
  }
  param {
    lr_mult: 2
    decay_mult: 0
  }
  convolution_param {
    num_output: 16
    pad: 1
    kernel_size: 3
    stride: 1
    weight_filler {
      type: "msra"
    }
    bias_filler {
      type: "constant"
      value: 0
    }
  }
}
layer {
  name: "BatchNorm5"
  type: "BatchNorm"
  bottom: "Convolution5"
  top: "Convolution5"
  param {
    lr_mult: 0
    decay_mult: 0
  }
  param {
    lr_mult: 0
    decay_mult: 0
  }
  param {
    lr_mult: 0
    decay_mult: 0
  }
}
layer {
  name: "Scale5"
  type: "Scale"
  bottom: "Convolution5"
  top: "Convolution5"
  scale_param {
    bias_term: true
  }
}
layer {
  name: "Eltwise2"
  type: "Eltwise"
  bottom: "Eltwise1"
  bottom: "Convolution5"
  top: "Eltwise2"
  eltwise_param {
    operation: SUM
  }
}
layer {
  name: "ReLU5"
  type: "ReLU"
  bottom: "Eltwise2"
I0702 00:34:48.886167 13010 net.cpp:49] Initializing net from parameters: 
name: "resnet_cifar10"
state {
  phase: TRAIN
}
layer {
  name: "Data1"
  type: "ImageData"
  top: "Data1"
  top: "Data2"
  include {
    phase: TRAIN
  }
  transform_param {
    scale: 0.0078125
    mirror: true
    crop_size: 32
    mean_value: 128
  }
  image_data_param {
    source: "/HOME/sysu_sc_ll/WORKSPACE/wenyp/0314/cifar-10/train/label.txt"
    batch_size: 32
    shuffle: true
    new_height: 40
    new_width: 40
    is_color: true
    root_folder: "/HOME/sysu_sc_ll/WORKSPACE/wenyp/0314/cifar-10/train/Img/"
  }
}
layer {
  name: "Convolution1"
  type: "Convolution"
  bottom: "Data1"
  top: "Convolution1"
  param {
    lr_mult: 1
    decay_mult: 1
  }
  param {
    lr_mult: 2
    decay_mult: 0
  }
  convolution_param {
    num_output: 16
    pad: 1
    kernel_size: 3
    stride: 1
    weight_filler {
      type: "msra"
    }
    bias_filler {
      type: "constant"
      value: 0
    }
  }
}
layer {
  name: "BatchNorm1"
  name: "Eltwise5"
  type: "Eltwise"
  bottom: "Eltwise4"
  bottom: "Convolution12"
  top: "Eltwise5"
  eltwise_param {
    operation: SUM
  }
}
layer {
  name: "ReLU11"
  type: "ReLU"
  bottom: "Eltwise5"
  top: "Eltwise5"
}
layer {
  name: "Convolution13"
  type: "Convolution"
  bottom: "Eltwise5"
  top: "Convolution13"
  param {
    lr_mult: 1
    decay_mult: 1
  }
  param {
    lr_mult: 2
    decay_mult: 0
  }
  convolution_param {
    num_output: 32
    pad: 1
    kernel_size: 3
    stride: 1
    weight_filler {
      type: "msra"
    }
    bias_filler {
      type: "constant"
      value: 0
    }
  }
}
layer {
  name: "BatchNorm13"
  type: "BatchNorm"
  bottom: "Convolution13"
  top: "Convolution13"
  param {
    lr_mult: 0
    decay_mult: 0
  }
  param {
    lr_mult: 0
    decay_mult: 0
  }
  param {
    lr_mult: 0
    decay_mult: 0
  }
}
layer {
  name: "Scale13"
  type: "Scale"
  bottom: "Convolution13"
  top: "Convolution13"
  scale_param {
    bias_term: true
  }
}
layer {
  name: "ReLU12"
  top: "Eltwise2"
}
layer {
  name: "Convolution6"
  type: "Convolution"
  bottom: "Eltwise2"
  top: "Convolution6"
  param {
    lr_mult: 1
    decay_mult: 1
  }
  param {
    lr_mult: 2
    decay_mult: 0
  }
  convolution_param {
    num_output: 16
    pad: 1
    kernel_size: 3
    stride: 1
    weight_filler {
      type: "msra"
    }
    bias_filler {
      type: "constant"
      value: 0
    }
  }
}
layer {
  name: "BatchNorm6"
  type: "BatchNorm"
  bottom: "Convolution6"
  top: "Convolution6"
  param {
    lr_mult: 0
    decay_mult: 0
  }
  param {
    lr_mult: 0
    decay_mult: 0
  }
  param {
    lr_mult: 0
    decay_mult: 0
  }
}
layer {
  name: "Scale6"
  type: "Scale"
  bottom: "Convolution6"
  top: "Convolution6"
  scale_param {
    bias_term: true
  }
}
layer {
  name: "ReLU6"
  type: "ReLU"
  bottom: "Convolution6"
  top: "Convolution6"
}
layer {
  name: "Convolution7"
  type: "Convolution"
  bottom: "Convolution6"
  top: "Convolution7"
  param {
    lr_mult: 1
    decay_mult: 1
  }
  param {
  type: "ReLU"
    lr_mult: 2
    decay_mult: 0
  }
  convolution_param {
    num_output: 16
    pad: 1
    kernel_size: 3
    stride: 1
    weight_filler {
      type: "msra"
    }
    bias_filler {
      type: "constant"
      value: 0
    }
  }
}
layer {
  name: "BatchNorm7"
  type: "BatchNorm"
  bottom: "Convolution7"
  top: "Convolution7"
  param {
    lr_mult: 0
    decay_mult: 0
  }
  param {
    lr_mult: 0
    decay_mult: 0
  }
  param {
    lr_mult: 0
    decay_mult: 0
  }
}
layer {
  name: "Scale7"
  type: "Scale"
  bottom: "Convolution7"
  top: "Convolution7"
  scale_param {
    bias_term: true
  }
}
layer {
  name: "Eltwise3"
  type: "Eltwise"
  bottom: "Eltwise2"
  bottom: "Convolution7"
  top: "Eltwise3"
  eltwise_param {
    operation: SUM
  }
}
layer {
  name: "ReLU7"
  type: "ReLU"
  bottom: "Eltwise3"
  top: "Eltwise3"
}
layer {
  name: "Convolution8"
  type: "Convolution"
  bottom: "Eltwise3"
  top: "Convolution8"
  param {
    lr_mult: 1
    decay_mult: 1
  }
  param {
    lr_mult: 2
    decay_mult: 0
  type: "BatchNorm"
  bottom: "Convolution1"
  top: "Convolution1"
  param {
    lr_mult: 0
    decay_mult: 0
  }
  param {
    lr_mult: 0
    decay_mult: 0
  }
  param {
    lr_mult: 0
    decay_mult: 0
  }
}
layer {
  name: "Scale1"
  type: "Scale"
  bottom: "Convolution1"
  top: "Convolution1"
  scale_param {
    bias_term: true
  }
}
layer {
  name: "ReLU1"
  type: "ReLU"
  bottom: "Convolution1"
  top: "Convolution1"
}
layer {
  name: "Convolution2"
  type: "Convolution"
  bottom: "Convolution1"
  top: "Convolution2"
  param {
    lr_mult: 1
    decay_mult: 1
  }
  param {
    lr_mult: 2
    decay_mult: 0
  }
  convolution_param {
    num_output: 16
    pad: 1
    kernel_size: 3
    stride: 1
    weight_filler {
      type: "msra"
    }
    bias_filler {
      type: "constant"
      value: 0
    }
  }
}
layer {
  name: "BatchNorm2"
  type: "BatchNorm"
  bottom: "Convolution2"
  top: "Convolution2"
  param {
    lr_mult: 0
    decay_mult: 0
  }
  param {
    lr_mult: 0
    decay_mult: 0
  }
  param {
I0702 00:34:48.885951 20914 net.cpp:49] Initializing net from parameters: 
name: "resnet_cifar10"
state {
  phase: TRAIN
}
layer {
  name: "Data1"
  type: "ImageData"
  top: "Data1"
  top: "Data2"
  include {
    phase: TRAIN
  }
  transform_param {
    scale: 0.0078125
    mirror: true
    crop_size: 32
    mean_value: 128
  }
  image_data_param {
    source: "/HOME/sysu_sc_ll/WORKSPACE/wenyp/0314/cifar-10/train/label.txt"
    batch_size: 32
    shuffle: true
    new_height: 40
    new_width: 40
    is_color: true
    root_folder: "/HOME/sysu_sc_ll/WORKSPACE/wenyp/0314/cifar-10/train/Img/"
  }
}
layer {
  name: "Convolution1"
  type: "Convolution"
  bottom: "Data1"
  top: "Convolution1"
  param {
    lr_mult: 1
    decay_mult: 1
  }
  param {
    lr_mult: 2
    decay_mult: 0
  }
  convolution_param {
    num_output: 16
    pad: 1
    kernel_size: 3
    stride: 1
    weight_filler {
      type: "msra"
    }
    bias_filler {
      type: "constant"
      value: 0
    }
  }
}
layer {
  name: "BatchNorm1"
  bottom: "Convolution13"
  top: "Convolution13"
}
layer {
  name: "Convolution14"
  type: "Convolution"
  bottom: "Convolution13"
  top: "Convolution14"
  param {
    lr_mult: 1
    decay_mult: 1
  }
  param {
    lr_mult: 2
    decay_mult: 0
  }
  convolution_param {
    num_output: 32
    pad: 1
    kernel_size: 3
    stride: 1
    weight_filler {
      type: "msra"
    }
    bias_filler {
      type: "constant"
      value: 0
    }
  }
}
layer {
  name: "BatchNorm14"
  type: "BatchNorm"
  bottom: "Convolution14"
  top: "Convolution14"
  param {
    lr_mult: 0
    decay_mult: 0
  }
  param {
    lr_mult: 0
    decay_mult: 0
  }
  param {
    lr_mult: 0
    decay_mult: 0
  }
}
layer {
  name: "Scale14"
  type: "Scale"
  bottom: "Convolution14"
  top: "Convolution14"
  scale_param {
    bias_term: true
  }
}
layer {
  name: "Eltwise6"
  type: "Eltwise"
  bottom: "Eltwise5"
  bottom: "Convolution14"
  top: "Eltwise6"
  eltwise_param {
    operation: SUM
  }
}
layer {
  name: "ReLU13"
  type: "ReLU"
  }
  convolution_param {
    num_output: 32
    pad: 0
    kernel_size: 1
    stride: 2
    weight_filler {
      type: "msra"
    }
    bias_filler {
      type: "constant"
      value: 0
    }
  }
}
layer {
  name: "BatchNorm8"
  type: "BatchNorm"
  bottom: "Convolution8"
  top: "Convolution8"
  param {
    lr_mult: 0
    decay_mult: 0
  }
  param {
    lr_mult: 0
    decay_mult: 0
  }
  param {
    lr_mult: 0
    decay_mult: 0
  }
}
layer {
  name: "Scale8"
  type: "Scale"
  bottom: "Convolution8"
  top: "Convolution8"
  scale_param {
    bias_term: true
  }
}
layer {
  name: "Convolution9"
  type: "Convolution"
  bottom: "Eltwise3"
  top: "Convolution9"
  param {
    lr_mult: 1
    decay_mult: 1
  }
  param {
    lr_mult: 2
    decay_mult: 0
  }
  convolution_param {
    num_output: 32
    pad: 1
    kernel_size: 3
    stride: 2
    weight_filler {
      type: "msra"
    }
    bias_filler {
      type: "constant"
      value: 0
    }
  }
}
layer {
  name: "BatchNorm9"
  type: "BatchNorm"
    lr_mult: 0
    decay_mult: 0
  }
}
layer {
  name: "Scale2"
  type: "Scale"
  bottom: "Convolution2"
  top: "Convolution2"
  scale_param {
    bias_term: true
  }
}
layer {
  name: "ReLU2"
  type: "ReLU"
  bottom: "Convolution2"
  top: "Convolution2"
}
layer {
  name: "Convolution3"
  type: "Convolution"
  bottom: "Convolution2"
  top: "Convolution3"
  param {
    lr_mult: 1
    decay_mult: 1
  }
  param {
    lr_mult: 2
    decay_mult: 0
  }
  convolution_param {
    num_output: 16
    pad: 1
    kernel_size: 3
    stride: 1
    weight_filler {
      type: "msra"
    }
    bias_filler {
      type: "constant"
      value: 0
    }
  }
}
layer {
  name: "BatchNorm3"
  type: "BatchNorm"
  bottom: "Convolution3"
  top: "Convolution3"
  param {
    lr_mult: 0
    decay_mult: 0
  }
  param {
    lr_mult: 0
    decay_mult: 0
  }
  param {
    lr_mult: 0
    decay_mult: 0
  }
}
layer {
  name: "Scale3"
  type: "Scale"
  bottom: "Convolution3"
  top: "Convolution3"
  scale_param {
    bias_term: true
  }
}
  bottom: "Eltwise6"
  top: "Eltwise6"
}
layer {
  name: "Convolution15"
  type: "Convolution"
  bottom: "Eltwise6"
  top: "Convolution15"
  param {
    lr_mult: 1
    decay_mult: 1
  }
  param {
    lr_mult: 2
    decay_mult: 0
  }
  convolution_param {
    num_output: 64
    pad: 0
    kernel_size: 1
    stride: 2
    weight_filler {
      type: "msra"
    }
    bias_filler {
      type: "constant"
      value: 0
    }
  }
}
layer {
  name: "BatchNorm15"
  type: "BatchNorm"
  bottom: "Convolution15"
  top: "Convolution15"
  param {
    lr_mult: 0
    decay_mult: 0
  }
  param {
    lr_mult: 0
    decay_mult: 0
  }
  param {
    lr_mult: 0
    decay_mult: 0
  }
}
layer {
  name: "Scale15"
  type: "Scale"
  bottom: "Convolution15"
  top: "Convolution15"
  scale_param {
    bias_term: true
  }
}
layer {
  name: "Convolution16"
  type: "Convolution"
  bottom: "Eltwise6"
  top: "Convolution16"
  param {
    lr_mult: 1
    decay_mult: 1
  }
  param {
    lr_mult: 2
    decay_mult: 0
  }
  convolution_param {
  bottom: "Convolution9"
  top: "Convolution9"
  param {
    lr_mult: 0
    decay_mult: 0
  }
  param {
    lr_mult: 0
    decay_mult: 0
  }
  param {
    lr_mult: 0
    decay_mult: 0
  }
}
layer {
  name: "Scale9"
  type: "Scale"
  bottom: "Convolution9"
  top: "Convolution9"
  scale_param {
    bias_term: true
  }
}
layer {
  name: "ReLU8"
  type: "ReLU"
  bottom: "Convolution9"
  top: "Convolution9"
}
layer {
  name: "Convolution10"
  type: "Convolution"
  bottom: "Convolution9"
  top: "Convolution10"
  param {
    lr_mult: 1
    decay_mult: 1
  }
  param {
    lr_mult: 2
    decay_mult: 0
  }
  convolution_param {
    num_output: 32
    pad: 1
    kernel_size: 3
    stride: 1
    weight_filler {
      type: "msra"
    }
    bias_filler {
      type: "constant"
      value: 0
    }
  }
}
layer {
  name: "BatchNorm10"
  type: "BatchNorm"
  bottom: "Convolution10"
  top: "Convolution10"
  param {
    lr_mult: 0
    decay_mult: 0
  }
  param {
    lr_mult: 0
    decay_mult: 0
  }
  param {
    lr_mult: 0
layer {
  name: "Eltwise1"
  type: "Eltwise"
  bottom: "Convolution1"
  bottom: "Convolution3"
  top: "Eltwise1"
  eltwise_param {
    operation: SUM
  }
}
layer {
  name: "ReLU3"
  type: "ReLU"
  bottom: "Eltwise1"
  top: "Eltwise1"
}
layer {
  name: "Convolution4"
  type: "Convolution"
  bottom: "Eltwise1"
  top: "Convolution4"
  param {
    lr_mult: 1
    decay_mult: 1
  }
  param {
    lr_mult: 2
    decay_mult: 0
  }
  convolution_param {
    num_output: 16
    pad: 1
    kernel_size: 3
    stride: 1
    weight_filler {
      type: "msra"
    }
    bias_filler {
      type: "constant"
      value: 0
    }
  }
}
layer {
  name: "BatchNorm4"
  type: "BatchNorm"
  bottom: "Convolution4"
  top: "Convolution4"
  param {
    lr_mult: 0
    decay_mult: 0
  }
  param {
    lr_mult: 0
    decay_mult: 0
  }
  param {
    lr_mult: 0
    decay_mult: 0
  }
}
layer {
  name: "Scale4"
  type: "Scale"
  bottom: "Convolution4"
  top: "Convolution4"
  scale_param {
    bias_term: true
  }
}
layer {
  name: "ReLU4"
  type: "BatchNorm"
  bottom: "Convolution1"
  top: "Convolution1"
  param {
    lr_mult: 0
    decay_mult: 0
  }
  param {
    lr_mult: 0
    decay_mult: 0
  }
  param {
    lr_mult: 0
    decay_mult: 0
  }
}
layer {
  name: "Scale1"
  type: "Scale"
  bottom: "Convolution1"
  top: "Convolution1"
  scale_param {
    bias_term: true
  }
}
layer {
  name: "ReLU1"
  type: "ReLU"
  bottom: "Convolution1"
  top: "Convolution1"
}
layer {
  name: "Convolution2"
  type: "Convolution"
  bottom: "Convolution1"
  top: "Convolution2"
  param {
    lr_mult: 1
    decay_mult: 1
  }
  param {
    lr_mult: 2
    decay_mult: 0
  }
  convolution_param {
    num_output: 16
    pad: 1
    kernel_size: 3
    stride: 1
    weight_filler {
      type: "msra"
    }
    bias_filler {
      type: "constant"
      value: 0
    }
  }
}
layer {
  name: "BatchNorm2"
  type: "BatchNorm"
  bottom: "Convolution2"
  top: "Convolution2"
  param {
    lr_mult: 0
    decay_mult: 0
  }
  param {
    lr_mult: 0
    decay_mult: 0
  }
  param {
    num_output: 64
    pad: 1
    kernel_size: 3
    stride: 2
    weight_filler {
      type: "msra"
    }
    bias_filler {
      type: "constant"
      value: 0
    }
  }
}
layer {
  name: "BatchNorm16"
  type: "BatchNorm"
  bottom: "Convolution16"
  top: "Convolution16"
  param {
    lr_mult: 0
    decay_mult: 0
  }
  param {
    lr_mult: 0
    decay_mult: 0
  }
  param {
    lr_mult: 0
    decay_mult: 0
  }
}
layer {
  name: "Scale16"
  type: "Scale"
  bottom: "Convolution16"
  top: "Convolution16"
  scale_param {
    bias_term: true
  }
}
layer {
  name: "ReLU14"
  type: "ReLU"
  bottom: "Convolution16"
  top: "Convolution16"
}
layer {
  name: "Convolution17"
  type: "Convolution"
  bottom: "Convolution16"
  top: "Convolution17"
  param {
    lr_mult: 1
    decay_mult: 1
  }
  param {
    lr_mult: 2
    decay_mult: 0
  }
  convolution_param {
    num_output: 64
    pad: 1
    kernel_size: 3
    stride: 1
    weight_filler {
      type: "msra"
    }
    bias_filler {
      type: "constant"
    decay_mult: 0
  }
}
layer {
  name: "Scale10"
  type: "Scale"
  bottom: "Convolution10"
  top: "Convolution10"
  scale_param {
    bias_term: true
  }
}
layer {
  name: "Eltwise4"
  type: "Eltwise"
  bottom: "Convolution8"
  bottom: "Convolution10"
  top: "Eltwise4"
  eltwise_param {
    operation: SUM
  }
}
layer {
  name: "ReLU9"
  type: "ReLU"
  bottom: "Eltwise4"
  top: "Eltwise4"
}
layer {
  name: "Convolution11"
  type: "Convolution"
  bottom: "Eltwise4"
  top: "Convolution11"
  param {
    lr_mult: 1
    decay_mult: 1
  }
  param {
    lr_mult: 2
    decay_mult: 0
  }
  convolution_param {
    num_output: 32
    pad: 1
    kernel_size: 3
    stride: 1
    weight_filler {
      type: "msra"
    }
    bias_filler {
      type: "constant"
      value: 0
    }
  }
}
layer {
  name: "BatchNorm11"
  type: "BatchNorm"
  bottom: "Convolution11"
  top: "Convolution11"
  param {
    lr_mult: 0
    decay_mult: 0
  }
  param {
    lr_mult: 0
    decay_mult: 0
  }
  param {
    lr_mult: 0
    decay_mult: 0
  type: "ReLU"
    lr_mult: 0
    decay_mult: 0
  }
}
layer {
  name: "Scale2"
  type: "Scale"
  bottom: "Convolution2"
  top: "Convolution2"
  scale_param {
    bias_term: true
  }
}
layer {
  name: "ReLU2"
  type: "ReLU"
  bottom: "Convolution2"
  top: "Convolution2"
}
layer {
  name: "Convolution3"
  type: "Convolution"
  bottom: "Convolution2"
  top: "Convolution3"
  param {
    lr_mult: 1
    decay_mult: 1
  }
  param {
    lr_mult: 2
    decay_mult: 0
  }
  convolution_param {
    num_output: 16
    pad: 1
    kernel_size: 3
    stride: 1
    weight_filler {
      type: "msra"
    }
    bias_filler {
      type: "constant"
      value: 0
    }
  }
}
layer {
  name: "BatchNorm3"
  type: "BatchNorm"
  bottom: "Convolution3"
  top: "Convolution3"
  param {
    lr_mult: 0
    decay_mult: 0
  }
  param {
    lr_mult: 0
    decay_mult: 0
  }
  param {
    lr_mult: 0
    decay_mult: 0
  }
}
layer {
  name: "Scale3"
  type: "Scale"
  bottom: "Convolution3"
  top: "Convolution3"
  scale_param {
    bias_term: true
  }
}
      value: 0
    }
  }
}
layer {
  name: "BatchNorm17"
  type: "BatchNorm"
  bottom: "Convolution17"
  top: "Convolution17"
  param {
    lr_mult: 0
    decay_mult: 0
  }
  param {
    lr_mult: 0
    decay_mult: 0
  }
  param {
    lr_mult: 0
    decay_mult: 0
  }
}
layer {
  name: "Scale17"
  type: "Scale"
  bottom: "Convolution17"
  top: "Convolution17"
  scale_param {
    bias_term: true
  }
}
layer {
  name: "Eltwise7"
  type: "Eltwise"
  bottom: "Convolution15"
  bottom: "Convolution17"
  top: "Eltwise7"
  eltwise_param {
    operation: SUM
  }
}
layer {
  name: "ReLU15"
  type: "ReLU"
  bottom: "Eltwise7"
  top: "Eltwise7"
}
layer {
  name: "Convolution18"
  type: "Convolution"
  bottom: "Eltwise7"
  top: "Convolution18"
  param {
    lr_mult: 1
    decay_mult: 1
  }
  param {
    lr_mult: 2
    decay_mult: 0
  }
  convolution_param {
    num_output: 64
    pad: 1
    kernel_size: 3
    stride: 1
    weight_filler {
      type: "msra"
    }
    bias_filler {
      type: "constant"
      value: 0
  }
}
layer {
  name: "Scale11"
  type: "Scale"
  bottom: "Convolution11"
  top: "Convolution11"
  scale_param {
    bias_term: true
  }
}
layer {
  name: "ReLU10"
  type: "ReLU"
  bottom: "Convolution11"
  top: "Convolution11"
}
layer {
  name: "Convolution12"
  type: "Convolution"
  bottom: "Convolution11"
  top: "Convolution12"
  param {
    lr_mult: 1
    decay_mult: 1
  }
  param {
    lr_mult: 2
    decay_mult: 0
  }
  convolution_param {
    num_output: 32
    pad: 1
    kernel_size: 3
    stride: 1
    weight_filler {
      type: "msra"
    }
    bias_filler {
      type: "constant"
      value: 0
    }
  }
}
layer {
  name: "BatchNorm12"
  type: "BatchNorm"
  bottom: "Convolution12"
  top: "Convolution12"
  param {
    lr_mult: 0
    decay_mult: 0
  }
  param {
    lr_mult: 0
    decay_mult: 0
  }
  param {
    lr_mult: 0
    decay_mult: 0
  }
}
layer {
  name: "Scale12"
  type: "Scale"
  bottom: "Convolution12"
  top: "Convolution12"
  scale_param {
    bias_term: true
  }
}
layer {
  bottom: "Convolution4"
  top: "Convolution4"
}
layer {
  name: "Convolution5"
  type: "Convolution"
  bottom: "Convolution4"
  top: "Convolution5"
  param {
    lr_mult: 1
    decay_mult: 1
  }
  param {
    lr_mult: 2
    decay_mult: 0
  }
  convolution_param {
    num_output: 16
    pad: 1
    kernel_size: 3
    stride: 1
    weight_filler {
      type: "msra"
    }
    bias_filler {
      type: "constant"
      value: 0
    }
  }
}
layer {
  name: "BatchNorm5"
  type: "BatchNorm"
  bottom: "Convolution5"
  top: "Convolution5"
  param {
    lr_mult: 0
    decay_mult: 0
  }
  param {
    lr_mult: 0
    decay_mult: 0
  }
  param {
    lr_mult: 0
    decay_mult: 0
  }
}
layer {
  name: "Scale5"
  type: "Scale"
  bottom: "Convolution5"
  top: "Convolution5"
  scale_param {
    bias_term: true
  }
}
layer {
  name: "Eltwise2"
  type: "Eltwise"
  bottom: "Eltwise1"
  bottom: "Convolution5"
  top: "Eltwise2"
  eltwise_param {
    operation: SUM
  }
}
layer {
  name: "ReLU5"
  type: "ReLU"
  bottom: "Eltwise2"
layer {
  name: "Eltwise1"
  type: "Eltwise"
  bottom: "Convolution1"
  bottom: "Convolution3"
  top: "Eltwise1"
  eltwise_param {
    operation: SUM
  }
}
layer {
  name: "ReLU3"
  type: "ReLU"
  bottom: "Eltwise1"
  top: "Eltwise1"
}
layer {
  name: "Convolution4"
  type: "Convolution"
  bottom: "Eltwise1"
  top: "Convolution4"
  param {
    lr_mult: 1
    decay_mult: 1
  }
  param {
    lr_mult: 2
    decay_mult: 0
  }
  convolution_param {
    num_output: 16
    pad: 1
    kernel_size: 3
    stride: 1
    weight_filler {
      type: "msra"
    }
    bias_filler {
      type: "constant"
      value: 0
    }
  }
}
layer {
  name: "BatchNorm4"
  type: "BatchNorm"
  bottom: "Convolution4"
  top: "Convolution4"
  param {
    lr_mult: 0
    decay_mult: 0
  }
  param {
    lr_mult: 0
    decay_mult: 0
  }
  param {
    lr_mult: 0
    decay_mult: 0
  }
}
layer {
  name: "Scale4"
  type: "Scale"
  bottom: "Convolution4"
  top: "Convolution4"
  scale_param {
    bias_term: true
  }
}
layer {
  name: "ReLU4"
    }
  }
}
layer {
  name: "Eltwise5"
  type: "Eltwise"
  bottom: "Eltwise4"
  bottom: "Convolution12"
  top: "Eltwise5"
  eltwise_param {
    operation: SUM
  }
}
layer {
  name: "ReLU11"
  type: "ReLU"
  bottom: "Eltwise5"
  top: "Eltwise5"
}
layer {
  name: "Convolution13"
  type: "Convolution"
  bottom: "Eltwise5"
  top: "Convolution13"
  param {
    lr_mult: 1
    decay_mult: 1
  }
  param {
    lr_mult: 2
    decay_mult: 0
  }
  convolution_param {
    num_output: 32
    pad: 1
    kernel_size: 3
    stride: 1
    weight_filler {
      type: "msra"
    }
    bias_filler {
      type: "constant"
      value: 0
    }
  }
}
layer {
  name: "BatchNorm13"
  type: "BatchNorm"
  bottom: "Convolution13"
  top: "Convolution13"
  param {
    lr_mult: 0
    decay_mult: 0
  }
  param {
    lr_mult: 0
    decay_mult: 0
  }
  param {
    lr_mult: 0
    decay_mult: 0
  }
}
layer {
  name: "Scale13"
  type: "Scale"
  bottom: "Convolution13"
  top: "Convolution13"
  scale_param {
    bias_term: true
  }
}
layer {
  name: "ReLU12"
  top: "Eltwise2"
}
layer {
  name: "Convolution6"
  type: "Convolution"
  bottom: "Eltwise2"
  top: "Convolution6"
  param {
    lr_mult: 1
    decay_mult: 1
  }
  param {
    lr_mult: 2
    decay_mult: 0
  }
  convolution_param {
    num_output: 16
    pad: 1
    kernel_size: 3
    stride: 1
    weight_filler {
      type: "msra"
    }
    bias_filler {
      type: "constant"
      value: 0
    }
  }
}
layer {
  name: "BatchNorm6"
  type: "BatchNorm"
  bottom: "Convolution6"
  top: "Convolution6"
  param {
    lr_mult: 0
    decay_mult: 0
  }
  param {
    lr_mult: 0
    decay_mult: 0
  }
  param {
    lr_mult: 0
    decay_mult: 0
  }
}
layer {
  name: "Scale6"
  type: "Scale"
  bottom: "Convolution6"
  top: "Convolution6"
  scale_param {
    bias_term: true
  }
}
layer {
  name: "ReLU6"
  type: "ReLU"
  bottom: "Convolution6"
  top: "Convolution6"
}
layer {
  name: "Convolution7"
  type: "Convolution"
  bottom: "Convolution6"
  top: "Convolution7"
  param {
    lr_mult: 1
    decay_mult: 1
  }
  param {
  type: "ReLU"
  name: "BatchNorm18"
  type: "BatchNorm"
  bottom: "Convolution18"
  top: "Convolution18"
  param {
    lr_mult: 0
    decay_mult: 0
  }
  param {
    lr_mult: 0
    decay_mult: 0
  }
  param {
    lr_mult: 0
    decay_mult: 0
  }
}
layer {
  name: "Scale18"
  type: "Scale"
  bottom: "Convolution18"
  top: "Convolution18"
  scale_param {
    bias_term: true
  }
}
layer {
  name: "ReLU16"
  type: "ReLU"
  bottom: "Convolution18"
  top: "Convolution18"
}
layer {
  name: "Convolution19"
  type: "Convolution"
  bottom: "Convolution18"
  top: "Convolution19"
  param {
    lr_mult: 1
    decay_mult: 1
  }
  param {
    lr_mult: 2
    decay_mult: 0
  }
  convolution_param {
    num_output: 64
    pad: 1
    kernel_size: 3
    stride: 1
    weight_filler {
      type: "msra"
    }
    bias_filler {
      type: "constant"
      value: 0
    }
  }
}
layer {
  name: "BatchNorm19"
  type: "BatchNorm"
  bottom: "Convolution19"
  top: "Convolution19"
  param {
    lr_mult: 0
    decay_mult: 0
  }
  param {
  type: "ReLU"
    lr_mult: 2
    decay_mult: 0
  }
  convolution_param {
    num_output: 16
    pad: 1
    kernel_size: 3
    stride: 1
    weight_filler {
      type: "msra"
    }
    bias_filler {
      type: "constant"
      value: 0
    }
  }
}
layer {
  name: "BatchNorm7"
  type: "BatchNorm"
  bottom: "Convolution7"
  top: "Convolution7"
  param {
    lr_mult: 0
    decay_mult: 0
  }
  param {
    lr_mult: 0
    decay_mult: 0
  }
  param {
    lr_mult: 0
    decay_mult: 0
  }
}
layer {
  name: "Scale7"
  type: "Scale"
  bottom: "Convolution7"
  top: "Convolution7"
  scale_param {
    bias_term: true
  }
}
layer {
  name: "Eltwise3"
  type: "Eltwise"
  bottom: "Eltwise2"
  bottom: "Convolution7"
  top: "Eltwise3"
  eltwise_param {
    operation: SUM
  }
}
layer {
  name: "ReLU7"
  type: "ReLU"
  bottom: "Eltwise3"
  top: "Eltwise3"
}
layer {
  name: "Convolution8"
  type: "Convolution"
  bottom: "Eltwise3"
  top: "Convolution8"
  param {
    lr_mult: 1
    decay_mult: 1
  }
  param {
    lr_mult: 2
    decay_mult: 0
  bottom: "Convolution4"
  top: "Convolution4"
}
layer {
  name: "Convolution5"
  type: "Convolution"
  bottom: "Convolution4"
  top: "Convolution5"
  param {
    lr_mult: 1
    decay_mult: 1
  }
  param {
    lr_mult: 2
    decay_mult: 0
  }
  convolution_param {
    num_output: 16
    pad: 1
    kernel_size: 3
    stride: 1
    weight_filler {
      type: "msra"
    }
    bias_filler {
      type: "constant"
      value: 0
    }
  }
}
layer {
  name: "BatchNorm5"
  type: "BatchNorm"
  bottom: "Convolution5"
  top: "Convolution5"
  param {
    lr_mult: 0
    decay_mult: 0
  }
  param {
    lr_mult: 0
    decay_mult: 0
  }
  param {
    lr_mult: 0
    decay_mult: 0
  }
}
layer {
  name: "Scale5"
  type: "Scale"
  bottom: "Convolution5"
  top: "Convolution5"
  scale_param {
    bias_term: true
  }
}
layer {
  name: "Eltwise2"
  type: "Eltwise"
  bottom: "Eltwise1"
  bottom: "Convolution5"
  top: "Eltwise2"
  eltwise_param {
    operation: SUM
  }
}
layer {
  name: "ReLU5"
  type: "ReLU"
  bottom: "Eltwise2"
    lr_mult: 0
    decay_mult: 0
  }
  param {
    lr_mult: 0
    decay_mult: 0
  }
}
layer {
  name: "Scale19"
  type: "Scale"
  bottom: "Convolution19"
  top: "Convolution19"
  scale_param {
    bias_term: true
  }
}
layer {
  name: "Eltwise8"
  type: "Eltwise"
  bottom: "Eltwise7"
  bottom: "Convolution19"
  top: "Eltwise8"
  eltwise_param {
    operation: SUM
  }
}
layer {
  name: "ReLU17"
  type: "ReLU"
  bottom: "Eltwise8"
  top: "Eltwise8"
}
layer {
  name: "Convolution20"
  type: "Convolution"
  bottom: "Eltwise8"
  top: "Convolution20"
  param {
    lr_mult: 1
    decay_mult: 1
  }
  param {
    lr_mult: 2
    decay_mult: 0
  }
  convolution_param {
    num_output: 64
    pad: 1
    kernel_size: 3
    stride: 1
    weight_filler {
      type: "msra"
    }
    bias_filler {
      type: "constant"
      value: 0
    }
  }
}
layer {
  name: "BatchNorm20"
  type: "BatchNorm"
  bottom: "Convolution20"
  top: "Convolution20"
  param {
    lr_mult: 0
    decay_mult: 0
  }
  param {
    lr_mult: 0
  bottom: "Convolution13"
  top: "Convolution13"
}
layer {
  name: "Convolution14"
  type: "Convolution"
  bottom: "Convolution13"
  top: "Convolution14"
  param {
    lr_mult: 1
    decay_mult: 1
  }
  param {
    lr_mult: 2
    decay_mult: 0
  }
  convolution_param {
    num_output: 32
    pad: 1
    kernel_size: 3
    stride: 1
    weight_filler {
      type: "msra"
    }
    bias_filler {
      type: "constant"
      value: 0
    }
  }
}
layer {
  name: "BatchNorm14"
  type: "BatchNorm"
  bottom: "Convolution14"
  top: "Convolution14"
  param {
    lr_mult: 0
    decay_mult: 0
  }
  param {
    lr_mult: 0
    decay_mult: 0
  }
  param {
    lr_mult: 0
    decay_mult: 0
  }
}
layer {
  name: "Scale14"
  type: "Scale"
  bottom: "Convolution14"
  top: "Convolution14"
  scale_param {
    bias_term: true
  }
}
layer {
  name: "Eltwise6"
  type: "Eltwise"
  bottom: "Eltwise5"
  bottom: "Convolution14"
  top: "Eltwise6"
  eltwise_param {
    operation: SUM
  }
}
layer {
  name: "ReLU13"
  type: "ReLU"
  }
  convolution_param {
    num_output: 32
    pad: 0
    kernel_size: 1
    stride: 2
    weight_filler {
      type: "msra"
    }
    bias_filler {
      type: "constant"
      value: 0
    }
  }
}
layer {
  name: "BatchNorm8"
  type: "BatchNorm"
  bottom: "Convolution8"
  top: "Convolution8"
  param {
    lr_mult: 0
    decay_mult: 0
  }
  param {
    lr_mult: 0
    decay_mult: 0
  }
  param {
    lr_mult: 0
    decay_mult: 0
  }
}
layer {
  name: "Scale8"
  type: "Scale"
  bottom: "Convolution8"
  top: "Convolution8"
  scale_param {
    bias_term: true
  }
}
layer {
  name: "Convolution9"
  type: "Convolution"
  bottom: "Eltwise3"
  top: "Convolution9"
  param {
    lr_mult: 1
    decay_mult: 1
  }
  param {
    lr_mult: 2
    decay_mult: 0
  }
  convolution_param {
    num_output: 32
    pad: 1
    kernel_size: 3
    stride: 2
    weight_filler {
      type: "msra"
    }
    bias_filler {
      type: "constant"
      value: 0
    }
  }
}
layer {
  name: "BatchNorm9"
  type: "BatchNorm"
  top: "Eltwise2"
}
layer {
  name: "Convolution6"
  type: "Convolution"
  bottom: "Eltwise2"
  top: "Convolution6"
  param {
    lr_mult: 1
    decay_mult: 1
  }
  param {
    lr_mult: 2
    decay_mult: 0
  }
  convolution_param {
    num_output: 16
    pad: 1
    kernel_size: 3
    stride: 1
    weight_filler {
      type: "msra"
    }
    bias_filler {
      type: "constant"
      value: 0
    }
  }
}
layer {
  name: "BatchNorm6"
  type: "BatchNorm"
  bottom: "Convolution6"
  top: "Convolution6"
  param {
    lr_mult: 0
    decay_mult: 0
  }
  param {
    lr_mult: 0
    decay_mult: 0
  }
  param {
    lr_mult: 0
    decay_mult: 0
  }
}
layer {
  name: "Scale6"
  type: "Scale"
  bottom: "Convolution6"
  top: "Convolution6"
  scale_param {
    bias_term: true
  }
}
layer {
  name: "ReLU6"
  type: "ReLU"
  bottom: "Convolution6"
  top: "Convolution6"
}
layer {
  name: "Convolution7"
  type: "Convolution"
  bottom: "Convolution6"
  top: "Convolution7"
  param {
    lr_mult: 1
    decay_mult: 1
  }
  param {
    decay_mult: 0
  }
  param {
    lr_mult: 0
    decay_mult: 0
  }
}
layer {
  name: "Scale20"
  type: "Scale"
  bottom: "Convolution20"
  top: "Convolution20"
  scale_param {
    bias_term: true
  }
}
layer {
  name: "ReLU18"
  type: "ReLU"
  bottom: "Convolution20"
  top: "Convolution20"
}
layer {
  name: "Convolution21"
  type: "Convolution"
  bottom: "Convolution20"
  top: "Convolution21"
  param {
    lr_mult: 1
    decay_mult: 1
  }
  param {
    lr_mult: 2
    decay_mult: 0
  }
  convolution_param {
    num_output: 64
    pad: 1
    kernel_size: 3
    stride: 1
    weight_filler {
      type: "msra"
    }
    bias_filler {
      type: "constant"
      value: 0
    }
  }
}
layer {
  name: "BatchNorm21"
  type: "BatchNorm"
  bottom: "Convolution21"
  top: "Convolution21"
  param {
    lr_mult: 0
    decay_mult: 0
  }
  param {
    lr_mult: 0
    decay_mult: 0
  }
  param {
    lr_mult: 0
    decay_mult: 0
  }
}
layer {
  name: "Scale21"
  type: "Scale"
  bottom: "Convolution21"
  top: "Convolution21"
  bottom: "Eltwise6"
  top: "Eltwise6"
}
layer {
  name: "Convolution15"
  type: "Convolution"
  bottom: "Eltwise6"
  top: "Convolution15"
  param {
    lr_mult: 1
    decay_mult: 1
  }
  param {
    lr_mult: 2
    decay_mult: 0
  }
  convolution_param {
    num_output: 64
    pad: 0
    kernel_size: 1
    stride: 2
    weight_filler {
      type: "msra"
    }
    bias_filler {
      type: "constant"
      value: 0
    }
  }
}
layer {
  name: "BatchNorm15"
  type: "BatchNorm"
  bottom: "Convolution15"
  top: "Convolution15"
  param {
    lr_mult: 0
    decay_mult: 0
  }
  param {
    lr_mult: 0
    decay_mult: 0
  }
  param {
    lr_mult: 0
    decay_mult: 0
  }
}
layer {
  name: "Scale15"
  type: "Scale"
  bottom: "Convolution15"
  top: "Convolution15"
  scale_param {
    bias_term: true
  }
}
layer {
  name: "Convolution16"
  type: "Convolution"
  bottom: "Eltwise6"
  top: "Convolution16"
  param {
    lr_mult: 1
    decay_mult: 1
  }
  param {
    lr_mult: 2
    decay_mult: 0
  }
  convolution_param {
  bottom: "Convolution9"
  top: "Convolution9"
  param {
    lr_mult: 0
    decay_mult: 0
  }
  param {
    lr_mult: 0
    decay_mult: 0
  }
  param {
    lr_mult: 0
    decay_mult: 0
  }
}
layer {
  name: "Scale9"
  type: "Scale"
  bottom: "Convolution9"
  top: "Convolution9"
  scale_param {
    bias_term: true
  }
}
layer {
  name: "ReLU8"
  type: "ReLU"
  bottom: "Convolution9"
  top: "Convolution9"
}
layer {
  name: "Convolution10"
  type: "Convolution"
  bottom: "Convolution9"
  top: "Convolution10"
  param {
    lr_mult: 1
    decay_mult: 1
  }
  param {
    lr_mult: 2
    decay_mult: 0
  }
  convolution_param {
    num_output: 32
    pad: 1
    kernel_size: 3
    stride: 1
    weight_filler {
      type: "msra"
    }
    bias_filler {
      type: "constant"
      value: 0
    }
  }
}
layer {
  name: "BatchNorm10"
  type: "BatchNorm"
  bottom: "Convolution10"
  top: "Convolution10"
  param {
    lr_mult: 0
    decay_mult: 0
  }
  param {
    lr_mult: 0
    decay_mult: 0
  }
  param {
    lr_mult: 0
    lr_mult: 2
    decay_mult: 0
  }
  convolution_param {
    num_output: 16
    pad: 1
    kernel_size: 3
    stride: 1
    weight_filler {
      type: "msra"
    }
    bias_filler {
      type: "constant"
      value: 0
    }
  }
}
layer {
  name: "BatchNorm7"
  type: "BatchNorm"
  bottom: "Convolution7"
  top: "Convolution7"
  param {
    lr_mult: 0
    decay_mult: 0
  }
  param {
    lr_mult: 0
    decay_mult: 0
  }
  param {
    lr_mult: 0
    decay_mult: 0
  }
}
layer {
  name: "Scale7"
  type: "Scale"
  bottom: "Convolution7"
  top: "Convolution7"
  scale_param {
    bias_term: true
  }
}
layer {
  name: "Eltwise3"
  type: "Eltwise"
  bottom: "Eltwise2"
  bottom: "Convolution7"
  top: "Eltwise3"
  eltwise_param {
    operation: SUM
  }
}
layer {
  name: "ReLU7"
  type: "ReLU"
  bottom: "Eltwise3"
  top: "Eltwise3"
}
layer {
  name: "Convolution8"
  type: "Convolution"
  bottom: "Eltwise3"
  top: "Convolution8"
  param {
    lr_mult: 1
    decay_mult: 1
  }
  param {
    lr_mult: 2
    decay_mult: 0
  scale_param {
    bias_term: true
  }
}
layer {
  name: "Eltwise9"
  type: "Eltwise"
  bottom: "Eltwise8"
  bottom: "Convolution21"
  top: "Eltwise9"
  eltwise_param {
    operation: SUM
  }
}
layer {
  name: "ReLU19"
  type: "ReLU"
  bottom: "Eltwise9"
  top: "Eltwise9"
}
layer {
  name: "Pooling1"
  type: "Pooling"
  bottom: "Eltwise9"
  top: "Pooling1"
  pooling_param {
    pool: AVE
    global_pooling: true
  }
}
layer {
  name: "InnerProduct1"
  type: "InnerProduct"
  bottom: "Pooling1"
  top: "InnerProduct1"
  param {
    lr_mult: 1
    decay_mult: 1
  }
  param {
    lr_mult: 2
    decay_mult: 1
  }
  inner_product_param {
    num_output: 10
    weight_filler {
      type: "msra"
    }
    bias_filler {
      type: "constant"
      value: 0
    }
  }
}
layer {
  name: "SoftmaxWithLoss1"
  type: "SoftmaxWithLoss"
  bottom: "InnerProduct1"
  bottom: "Data2"
  top: "SoftmaxWithLoss1"
}
    num_output: 64
    pad: 1
    kernel_size: 3
    stride: 2
    weight_filler {
      type: "msra"
    }
    bias_filler {
      type: "constant"
      value: 0
    }
  }
}
layer {
  name: "BatchNorm16"
  type: "BatchNorm"
  bottom: "Convolution16"
  top: "Convolution16"
  param {
    lr_mult: 0
    decay_mult: 0
  }
  param {
    lr_mult: 0
    decay_mult: 0
  }
  param {
    lr_mult: 0
    decay_mult: 0
  }
}
layer {
  name: "Scale16"
  type: "Scale"
  bottom: "Convolution16"
  top: "Convolution16"
  scale_param {
    bias_term: true
  }
}
layer {
  name: "ReLU14"
  type: "ReLU"
  bottom: "Convolution16"
  top: "Convolution16"
}
layer {
  name: "Convolution17"
  type: "Convolution"
  bottom: "Convolution16"
  top: "Convolution17"
  param {
    lr_mult: 1
    decay_mult: 1
  }
  param {
    lr_mult: 2
    decay_mult: 0
  }
  convolution_param {
    num_output: 64
    pad: 1
    kernel_size: 3
    stride: 1
    weight_filler {
      type: "msra"
    }
    bias_filler {
      type: "constant"
    decay_mult: 0
  }
}
layer {
  name: "Scale10"
  type: "Scale"
  bottom: "Convolution10"
  top: "Convolution10"
  scale_param {
    bias_term: true
  }
}
layer {
  name: "Eltwise4"
  type: "Eltwise"
  bottom: "Convolution8"
  bottom: "Convolution10"
  top: "Eltwise4"
  eltwise_param {
    operation: SUM
  }
}
layer {
  name: "ReLU9"
  type: "ReLU"
  bottom: "Eltwise4"
  top: "Eltwise4"
}
layer {
  name: "Convolution11"
  type: "Convolution"
  bottom: "Eltwise4"
  top: "Convolution11"
  param {
    lr_mult: 1
    decay_mult: 1
  }
  param {
    lr_mult: 2
    decay_mult: 0
  }
  convolution_param {
    num_output: 32
    pad: 1
    kernel_size: 3
    stride: 1
    weight_filler {
      type: "msra"
    }
    bias_filler {
      type: "constant"
      value: 0
    }
  }
}
layer {
  name: "BatchNorm11"
  type: "BatchNorm"
  bottom: "Convolution11"
  top: "Convolution11"
  param {
    lr_mult: 0
    decay_mult: 0
  }
  param {
    lr_mult: 0
    decay_mult: 0
  }
  param {
    lr_mult: 0
    decay_mult: 0
  }
  convolution_param {
    num_output: 32
    pad: 0
    kernel_size: 1
    stride: 2
    weight_filler {
      type: "msra"
    }
    bias_filler {
      type: "constant"
      value: 0
    }
  }
}
layer {
  name: "BatchNorm8"
  type: "BatchNorm"
  bottom: "Convolution8"
  top: "Convolution8"
  param {
    lr_mult: 0
    decay_mult: 0
  }
  param {
    lr_mult: 0
    decay_mult: 0
  }
  param {
    lr_mult: 0
    decay_mult: 0
  }
}
layer {
  name: "Scale8"
  type: "Scale"
  bottom: "Convolution8"
  top: "Convolution8"
  scale_param {
    bias_term: true
  }
}
layer {
  name: "Convolution9"
  type: "Convolution"
  bottom: "Eltwise3"
  top: "Convolution9"
  param {
    lr_mult: 1
    decay_mult: 1
  }
  param {
    lr_mult: 2
    decay_mult: 0
  }
  convolution_param {
    num_output: 32
    pad: 1
    kernel_size: 3
    stride: 2
    weight_filler {
      type: "msra"
    }
    bias_filler {
      type: "constant"
      value: 0
    }
  }
}
layer {
  name: "BatchNorm9"
  type: "BatchNorm"
I0702 00:34:48.887032 32261 layer_factory.hpp:77] Creating layer Data1
      value: 0
    }
  }
}
layer {
  name: "BatchNorm17"
  type: "BatchNorm"
  bottom: "Convolution17"
  top: "Convolution17"
  param {
    lr_mult: 0
    decay_mult: 0
  }
  param {
    lr_mult: 0
    decay_mult: 0
  }
  param {
    lr_mult: 0
    decay_mult: 0
  }
}
layer {
  name: "Scale17"
  type: "Scale"
  bottom: "Convolution17"
  top: "Convolution17"
  scale_param {
    bias_term: true
  }
}
layer {
  name: "Eltwise7"
  type: "Eltwise"
  bottom: "Convolution15"
  bottom: "Convolution17"
  top: "Eltwise7"
  eltwise_param {
    operation: SUM
  }
}
layer {
  name: "ReLU15"
  type: "ReLU"
  bottom: "Eltwise7"
  top: "Eltwise7"
}
layer {
  name: "Convolution18"
  type: "Convolution"
  bottom: "Eltwise7"
  top: "Convolution18"
  param {
    lr_mult: 1
    decay_mult: 1
  }
  param {
    lr_mult: 2
    decay_mult: 0
  }
  convolution_param {
    num_output: 64
    pad: 1
    kernel_size: 3
    stride: 1
    weight_filler {
      type: "msra"
    }
    bias_filler {
      type: "constant"
      value: 0
  }
}
layer {
  name: "Scale11"
  type: "Scale"
  bottom: "Convolution11"
  top: "Convolution11"
  scale_param {
    bias_term: true
  }
}
layer {
  name: "ReLU10"
  type: "ReLU"
  bottom: "Convolution11"
  top: "Convolution11"
}
layer {
  name: "Convolution12"
  type: "Convolution"
  bottom: "Convolution11"
  top: "Convolution12"
  param {
    lr_mult: 1
    decay_mult: 1
  }
  param {
    lr_mult: 2
    decay_mult: 0
  }
  convolution_param {
    num_output: 32
    pad: 1
    kernel_size: 3
    stride: 1
    weight_filler {
      type: "msra"
    }
    bias_filler {
      type: "constant"
      value: 0
    }
  }
}
layer {
  name: "BatchNorm12"
  type: "BatchNorm"
  bottom: "Convolution12"
  top: "Convolution12"
  param {
    lr_mult: 0
    decay_mult: 0
  }
  param {
    lr_mult: 0
    decay_mult: 0
  }
  param {
    lr_mult: 0
    decay_mult: 0
  }
}
layer {
  name: "Scale12"
  type: "Scale"
  bottom: "Convolution12"
  top: "Convolution12"
  scale_param {
    bias_term: true
  }
}
layer {
  bottom: "Convolution9"
  top: "Convolution9"
  param {
    lr_mult: 0
    decay_mult: 0
  }
  param {
    lr_mult: 0
    decay_mult: 0
  }
  param {
    lr_mult: 0
    decay_mult: 0
  }
}
layer {
  name: "Scale9"
  type: "Scale"
  bottom: "Convolution9"
  top: "Convolution9"
  scale_param {
    bias_term: true
  }
}
layer {
  name: "ReLU8"
  type: "ReLU"
  bottom: "Convolution9"
  top: "Convolution9"
}
layer {
  name: "Convolution10"
  type: "Convolution"
  bottom: "Convolution9"
  top: "Convolution10"
  param {
    lr_mult: 1
    decay_mult: 1
  }
  param {
    lr_mult: 2
    decay_mult: 0
  }
  convolution_param {
    num_output: 32
    pad: 1
    kernel_size: 3
    stride: 1
    weight_filler {
      type: "msra"
    }
    bias_filler {
      type: "constant"
      value: 0
    }
  }
}
layer {
  name: "BatchNorm10"
  type: "BatchNorm"
  bottom: "Convolution10"
  top: "Convolution10"
  param {
    lr_mult: 0
    decay_mult: 0
  }
  param {
    lr_mult: 0
    decay_mult: 0
  }
  param {
    lr_mult: 0
    }
  }
}
layer {
  name: "Eltwise5"
  type: "Eltwise"
  bottom: "Eltwise4"
  bottom: "Convolution12"
  top: "Eltwise5"
  eltwise_param {
    operation: SUM
  }
}
layer {
  name: "ReLU11"
  type: "ReLU"
  bottom: "Eltwise5"
  top: "Eltwise5"
}
layer {
  name: "Convolution13"
  type: "Convolution"
  bottom: "Eltwise5"
  top: "Convolution13"
  param {
    lr_mult: 1
    decay_mult: 1
  }
  param {
    lr_mult: 2
    decay_mult: 0
  }
  convolution_param {
    num_output: 32
    pad: 1
    kernel_size: 3
    stride: 1
    weight_filler {
      type: "msra"
    }
    bias_filler {
      type: "constant"
      value: 0
    }
  }
}
layer {
  name: "BatchNorm13"
  type: "BatchNorm"
  bottom: "Convolution13"
  top: "Convolution13"
  param {
    lr_mult: 0
    decay_mult: 0
  }
  param {
    lr_mult: 0
    decay_mult: 0
  }
  param {
    lr_mult: 0
    decay_mult: 0
  }
}
layer {
  name: "Scale13"
  type: "Scale"
  bottom: "Convolution13"
  top: "Convolution13"
  scale_param {
    bias_term: true
  }
}
layer {
  name: "ReLU12"
    decay_mult: 0
  }
}
layer {
  name: "Scale10"
  type: "Scale"
  bottom: "Convolution10"
  top: "Convolution10"
  scale_param {
    bias_term: true
  }
}
layer {
  name: "Eltwise4"
  type: "Eltwise"
  bottom: "Convolution8"
  bottom: "Convolution10"
  top: "Eltwise4"
  eltwise_param {
    operation: SUM
  }
}
layer {
  name: "ReLU9"
  type: "ReLU"
  bottom: "Eltwise4"
  top: "Eltwise4"
}
layer {
  name: "Convolution11"
  type: "Convolution"
  bottom: "Eltwise4"
  top: "Convolution11"
  param {
    lr_mult: 1
    decay_mult: 1
  }
  param {
    lr_mult: 2
    decay_mult: 0
  }
  convolution_param {
    num_output: 32
    pad: 1
    kernel_size: 3
    stride: 1
    weight_filler {
      type: "msra"
    }
    bias_filler {
      type: "constant"
      value: 0
    }
  }
}
layer {
  name: "BatchNorm11"
  type: "BatchNorm"
  bottom: "Convolution11"
  top: "Convolution11"
  param {
    lr_mult: 0
    decay_mult: 0
  }
  param {
    lr_mult: 0
    decay_mult: 0
  }
  param {
    lr_mult: 0
    decay_mult: 0
  name: "BatchNorm18"
  type: "BatchNorm"
  bottom: "Convolution18"
  top: "Convolution18"
  param {
    lr_mult: 0
    decay_mult: 0
  }
  param {
    lr_mult: 0
    decay_mult: 0
  }
  param {
    lr_mult: 0
    decay_mult: 0
  }
}
layer {
  name: "Scale18"
  type: "Scale"
  bottom: "Convolution18"
  top: "Convolution18"
  scale_param {
    bias_term: true
  }
}
layer {
  name: "ReLU16"
  type: "ReLU"
  bottom: "Convolution18"
  top: "Convolution18"
}
layer {
  name: "Convolution19"
  type: "Convolution"
  bottom: "Convolution18"
  top: "Convolution19"
  param {
    lr_mult: 1
    decay_mult: 1
  }
  param {
    lr_mult: 2
    decay_mult: 0
  }
  convolution_param {
    num_output: 64
    pad: 1
    kernel_size: 3
    stride: 1
    weight_filler {
      type: "msra"
    }
    bias_filler {
      type: "constant"
      value: 0
    }
  }
}
layer {
  name: "BatchNorm19"
  type: "BatchNorm"
  bottom: "Convolution19"
  top: "Convolution19"
  param {
    lr_mult: 0
    decay_mult: 0
  }
  param {
  type: "ReLU"
  }
}
layer {
  name: "Scale11"
  type: "Scale"
  bottom: "Convolution11"
  top: "Convolution11"
  scale_param {
    bias_term: true
  }
}
layer {
  name: "ReLU10"
  type: "ReLU"
  bottom: "Convolution11"
  top: "Convolution11"
}
layer {
  name: "Convolution12"
  type: "Convolution"
  bottom: "Convolution11"
  top: "Convolution12"
  param {
    lr_mult: 1
    decay_mult: 1
  }
  param {
    lr_mult: 2
    decay_mult: 0
  }
  convolution_param {
    num_output: 32
    pad: 1
    kernel_size: 3
    stride: 1
    weight_filler {
      type: "msra"
    }
    bias_filler {
      type: "constant"
      value: 0
    }
  }
}
layer {
  name: "BatchNorm12"
  type: "BatchNorm"
  bottom: "Convolution12"
  top: "Convolution12"
  param {
    lr_mult: 0
    decay_mult: 0
  }
  param {
    lr_mult: 0
    decay_mult: 0
  }
  param {
    lr_mult: 0
    decay_mult: 0
  }
}
layer {
  name: "Scale12"
  type: "Scale"
  bottom: "Convolution12"
  top: "Convolution12"
  scale_param {
    bias_term: true
  }
}
layer {
    lr_mult: 0
    decay_mult: 0
  }
  param {
    lr_mult: 0
    decay_mult: 0
  }
}
layer {
  name: "Scale19"
  type: "Scale"
  bottom: "Convolution19"
  top: "Convolution19"
  scale_param {
    bias_term: true
  }
}
layer {
  name: "Eltwise8"
  type: "Eltwise"
  bottom: "Eltwise7"
  bottom: "Convolution19"
  top: "Eltwise8"
  eltwise_param {
    operation: SUM
  }
}
layer {
  name: "ReLU17"
  type: "ReLU"
  bottom: "Eltwise8"
  top: "Eltwise8"
}
layer {
  name: "Convolution20"
  type: "Convolution"
  bottom: "Eltwise8"
  top: "Convolution20"
  param {
    lr_mult: 1
    decay_mult: 1
  }
  param {
    lr_mult: 2
    decay_mult: 0
  }
  convolution_param {
    num_output: 64
    pad: 1
    kernel_size: 3
    stride: 1
    weight_filler {
      type: "msra"
    }
    bias_filler {
      type: "constant"
      value: 0
    }
  }
}
layer {
  name: "BatchNorm20"
  type: "BatchNorm"
  bottom: "Convolution20"
  top: "Convolution20"
  param {
    lr_mult: 0
    decay_mult: 0
  }
  param {
    lr_mult: 0
  bottom: "Convolution13"
  top: "Convolution13"
}
layer {
  name: "Convolution14"
  type: "Convolution"
  bottom: "Convolution13"
  top: "Convolution14"
  param {
    lr_mult: 1
    decay_mult: 1
  }
  param {
    lr_mult: 2
    decay_mult: 0
  }
  convolution_param {
    num_output: 32
    pad: 1
    kernel_size: 3
    stride: 1
    weight_filler {
      type: "msra"
    }
    bias_filler {
      type: "constant"
      value: 0
    }
  }
}
layer {
  name: "BatchNorm14"
  type: "BatchNorm"
  bottom: "Convolution14"
  top: "Convolution14"
  param {
    lr_mult: 0
    decay_mult: 0
  }
  param {
    lr_mult: 0
    decay_mult: 0
  }
  param {
    lr_mult: 0
    decay_mult: 0
  }
}
layer {
  name: "Scale14"
  type: "Scale"
  bottom: "Convolution14"
  top: "Convolution14"
  scale_param {
    bias_term: true
  }
}
layer {
  name: "Eltwise6"
  type: "Eltwise"
  bottom: "Eltwise5"
  bottom: "Convolution14"
  top: "Eltwise6"
  eltwise_param {
    operation: SUM
  }
}
layer {
  name: "ReLU13"
  type: "ReLU"
  name: "Eltwise5"
  type: "Eltwise"
  bottom: "Eltwise4"
  bottom: "Convolution12"
  top: "Eltwise5"
  eltwise_param {
    operation: SUM
  }
}
layer {
  name: "ReLU11"
  type: "ReLU"
  bottom: "Eltwise5"
  top: "Eltwise5"
}
layer {
  name: "Convolution13"
  type: "Convolution"
  bottom: "Eltwise5"
  top: "Convolution13"
  param {
    lr_mult: 1
    decay_mult: 1
  }
  param {
    lr_mult: 2
    decay_mult: 0
  }
  convolution_param {
    num_output: 32
    pad: 1
    kernel_size: 3
    stride: 1
    weight_filler {
      type: "msra"
    }
    bias_filler {
      type: "constant"
      value: 0
    }
  }
}
layer {
  name: "BatchNorm13"
  type: "BatchNorm"
  bottom: "Convolution13"
  top: "Convolution13"
  param {
    lr_mult: 0
    decay_mult: 0
  }
  param {
    lr_mult: 0
    decay_mult: 0
  }
  param {
    lr_mult: 0
    decay_mult: 0
  }
}
layer {
  name: "Scale13"
  type: "Scale"
  bottom: "Convolution13"
  top: "Convolution13"
  scale_param {
    bias_term: true
  }
}
layer {
  name: "ReLU12"
    decay_mult: 0
  }
  param {
    lr_mult: 0
    decay_mult: 0
  }
}
layer {
  name: "Scale20"
  type: "Scale"
  bottom: "Convolution20"
  top: "Convolution20"
  scale_param {
    bias_term: true
  }
}
layer {
  name: "ReLU18"
  type: "ReLU"
  bottom: "Convolution20"
  top: "Convolution20"
}
layer {
  name: "Convolution21"
  type: "Convolution"
  bottom: "Convolution20"
  top: "Convolution21"
  param {
    lr_mult: 1
    decay_mult: 1
  }
  param {
    lr_mult: 2
    decay_mult: 0
  }
  convolution_param {
    num_output: 64
    pad: 1
    kernel_size: 3
    stride: 1
    weight_filler {
      type: "msra"
    }
    bias_filler {
      type: "constant"
      value: 0
    }
  }
}
layer {
  name: "BatchNorm21"
  type: "BatchNorm"
  bottom: "Convolution21"
  top: "Convolution21"
  param {
    lr_mult: 0
    decay_mult: 0
  }
  param {
    lr_mult: 0
    decay_mult: 0
  }
  param {
    lr_mult: 0
    decay_mult: 0
  }
}
layer {
  name: "Scale21"
  type: "Scale"
  bottom: "Convolution21"
  top: "Convolution21"
  bottom: "Eltwise6"
  top: "Eltwise6"
}
layer {
  name: "Convolution15"
  type: "Convolution"
  bottom: "Eltwise6"
  top: "Convolution15"
  param {
    lr_mult: 1
    decay_mult: 1
  }
  param {
    lr_mult: 2
    decay_mult: 0
  }
  convolution_param {
    num_output: 64
    pad: 0
    kernel_size: 1
    stride: 2
    weight_filler {
      type: "msra"
    }
    bias_filler {
      type: "constant"
      value: 0
    }
  }
}
layer {
  name: "BatchNorm15"
  type: "BatchNorm"
  bottom: "Convolution15"
  top: "Convolution15"
  param {
    lr_mult: 0
    decay_mult: 0
  }
  param {
    lr_mult: 0
    decay_mult: 0
  }
  param {
    lr_mult: 0
    decay_mult: 0
  }
}
layer {
  name: "Scale15"
  type: "Scale"
  bottom: "Convolution15"
  top: "Convolution15"
  scale_param {
    bias_term: true
  }
}
layer {
  name: "Convolution16"
  type: "Convolution"
  bottom: "Eltwise6"
  top: "Convolution16"
  param {
    lr_mult: 1
    decay_mult: 1
  }
  param {
    lr_mult: 2
    decay_mult: 0
  }
  convolution_param {
  type: "ReLU"
  scale_param {
    bias_term: true
  }
}
layer {
  name: "Eltwise9"
  type: "Eltwise"
  bottom: "Eltwise8"
  bottom: "Convolution21"
  top: "Eltwise9"
  eltwise_param {
    operation: SUM
  }
}
layer {
  name: "ReLU19"
  type: "ReLU"
  bottom: "Eltwise9"
  top: "Eltwise9"
}
layer {
  name: "Pooling1"
  type: "Pooling"
  bottom: "Eltwise9"
  top: "Pooling1"
  pooling_param {
    pool: AVE
    global_pooling: true
  }
}
layer {
  name: "InnerProduct1"
  type: "InnerProduct"
  bottom: "Pooling1"
  top: "InnerProduct1"
  param {
    lr_mult: 1
    decay_mult: 1
  }
  param {
    lr_mult: 2
    decay_mult: 1
  }
  inner_product_param {
    num_output: 10
    weight_filler {
      type: "msra"
    }
    bias_filler {
      type: "constant"
      value: 0
    }
  }
}
layer {
  name: "SoftmaxWithLoss1"
  type: "SoftmaxWithLoss"
  bottom: "InnerProduct1"
  bottom: "Data2"
  top: "SoftmaxWithLoss1"
}
    num_output: 64
    pad: 1
    kernel_size: 3
    stride: 2
    weight_filler {
      type: "msra"
    }
    bias_filler {
      type: "constant"
      value: 0
    }
  }
}
layer {
  name: "BatchNorm16"
  type: "BatchNorm"
  bottom: "Convolution16"
  top: "Convolution16"
  param {
    lr_mult: 0
    decay_mult: 0
  }
  param {
    lr_mult: 0
    decay_mult: 0
  }
  param {
    lr_mult: 0
    decay_mult: 0
  }
}
layer {
  name: "Scale16"
  type: "Scale"
  bottom: "Convolution16"
  top: "Convolution16"
  scale_param {
    bias_term: true
  }
}
layer {
  name: "ReLU14"
  type: "ReLU"
  bottom: "Convolution16"
  top: "Convolution16"
}
layer {
  name: "Convolution17"
  type: "Convolution"
  bottom: "Convolution16"
  top: "Convolution17"
  param {
    lr_mult: 1
    decay_mult: 1
  }
  param {
    lr_mult: 2
    decay_mult: 0
  }
  convolution_param {
    num_output: 64
    pad: 1
    kernel_size: 3
    stride: 1
    weight_filler {
      type: "msra"
    }
    bias_filler {
      type: "constant"
  bottom: "Convolution13"
  top: "Convolution13"
}
layer {
  name: "Convolution14"
  type: "Convolution"
  bottom: "Convolution13"
  top: "Convolution14"
  param {
    lr_mult: 1
    decay_mult: 1
  }
  param {
    lr_mult: 2
    decay_mult: 0
  }
  convolution_param {
    num_output: 32
    pad: 1
    kernel_size: 3
    stride: 1
    weight_filler {
      type: "msra"
    }
    bias_filler {
      type: "constant"
      value: 0
    }
  }
}
layer {
  name: "BatchNorm14"
  type: "BatchNorm"
  bottom: "Convolution14"
  top: "Convolution14"
  param {
    lr_mult: 0
    decay_mult: 0
  }
  param {
    lr_mult: 0
    decay_mult: 0
  }
  param {
    lr_mult: 0
    decay_mult: 0
  }
}
layer {
  name: "Scale14"
  type: "Scale"
  bottom: "Convolution14"
  top: "Convolution14"
  scale_param {
    bias_term: true
  }
}
layer {
  name: "Eltwise6"
  type: "Eltwise"
  bottom: "Eltwise5"
  bottom: "Convolution14"
  top: "Eltwise6"
  eltwise_param {
    operation: SUM
  }
}
layer {
  name: "ReLU13"
  type: "ReLU"
I0702 00:34:48.887178  4664 layer_factory.hpp:77] Creating layer Data1
      value: 0
    }
  }
}
layer {
  name: "BatchNorm17"
  type: "BatchNorm"
  bottom: "Convolution17"
  top: "Convolution17"
  param {
    lr_mult: 0
    decay_mult: 0
  }
  param {
    lr_mult: 0
    decay_mult: 0
  }
  param {
    lr_mult: 0
    decay_mult: 0
  }
}
layer {
  name: "Scale17"
  type: "Scale"
  bottom: "Convolution17"
  top: "Convolution17"
  scale_param {
    bias_term: true
  }
}
layer {
  name: "Eltwise7"
  type: "Eltwise"
  bottom: "Convolution15"
  bottom: "Convolution17"
  top: "Eltwise7"
  eltwise_param {
    operation: SUM
  }
}
layer {
  name: "ReLU15"
  type: "ReLU"
  bottom: "Eltwise7"
  top: "Eltwise7"
}
layer {
  name: "Convolution18"
  type: "Convolution"
  bottom: "Eltwise7"
  top: "Convolution18"
  param {
    lr_mult: 1
    decay_mult: 1
  }
  param {
    lr_mult: 2
    decay_mult: 0
  }
  convolution_param {
    num_output: 64
    pad: 1
    kernel_size: 3
    stride: 1
    weight_filler {
      type: "msra"
    }
    bias_filler {
      type: "constant"
      value: 0
  bottom: "Eltwise6"
  top: "Eltwise6"
}
layer {
  name: "Convolution15"
  type: "Convolution"
  bottom: "Eltwise6"
  top: "Convolution15"
  param {
    lr_mult: 1
    decay_mult: 1
  }
  param {
    lr_mult: 2
    decay_mult: 0
  }
  convolution_param {
    num_output: 64
    pad: 0
    kernel_size: 1
    stride: 2
    weight_filler {
      type: "msra"
    }
    bias_filler {
      type: "constant"
      value: 0
    }
  }
}
layer {
  name: "BatchNorm15"
  type: "BatchNorm"
  bottom: "Convolution15"
  top: "Convolution15"
  param {
    lr_mult: 0
    decay_mult: 0
  }
  param {
    lr_mult: 0
    decay_mult: 0
  }
  param {
    lr_mult: 0
    decay_mult: 0
  }
}
layer {
  name: "Scale15"
  type: "Scale"
  bottom: "Convolution15"
  top: "Convolution15"
  scale_param {
    bias_term: true
  }
}
layer {
  name: "Convolution16"
  type: "Convolution"
  bottom: "Eltwise6"
  top: "Convolution16"
  param {
    lr_mult: 1
    decay_mult: 1
  }
  param {
    lr_mult: 2
    decay_mult: 0
  }
  convolution_param {
    }
  }
}
layer {
    num_output: 64
    pad: 1
    kernel_size: 3
    stride: 2
    weight_filler {
      type: "msra"
    }
    bias_filler {
      type: "constant"
      value: 0
    }
  }
}
layer {
  name: "BatchNorm16"
  type: "BatchNorm"
  bottom: "Convolution16"
  top: "Convolution16"
  param {
    lr_mult: 0
    decay_mult: 0
  }
  param {
    lr_mult: 0
    decay_mult: 0
  }
  param {
    lr_mult: 0
    decay_mult: 0
  }
}
layer {
  name: "Scale16"
  type: "Scale"
  bottom: "Convolution16"
  top: "Convolution16"
  scale_param {
    bias_term: true
  }
}
layer {
  name: "ReLU14"
  type: "ReLU"
  bottom: "Convolution16"
  top: "Convolution16"
}
layer {
  name: "Convolution17"
  type: "Convolution"
  bottom: "Convolution16"
  top: "Convolution17"
  param {
    lr_mult: 1
    decay_mult: 1
  }
  param {
    lr_mult: 2
    decay_mult: 0
  }
  convolution_param {
    num_output: 64
    pad: 1
    kernel_size: 3
    stride: 1
    weight_filler {
      type: "msra"
    }
    bias_filler {
      type: "constant"
  name: "BatchNorm18"
  type: "BatchNorm"
  bottom: "Convolution18"
  top: "Convolution18"
  param {
    lr_mult: 0
    decay_mult: 0
  }
  param {
    lr_mult: 0
    decay_mult: 0
  }
  param {
    lr_mult: 0
    decay_mult: 0
  }
}
layer {
  name: "Scale18"
  type: "Scale"
  bottom: "Convolution18"
  top: "Convolution18"
  scale_param {
    bias_term: true
  }
}
layer {
  name: "ReLU16"
  type: "ReLU"
  bottom: "Convolution18"
  top: "Convolution18"
}
layer {
  name: "Convolution19"
  type: "Convolution"
  bottom: "Convolution18"
  top: "Convolution19"
  param {
    lr_mult: 1
    decay_mult: 1
  }
  param {
    lr_mult: 2
    decay_mult: 0
  }
  convolution_param {
    num_output: 64
    pad: 1
    kernel_size: 3
    stride: 1
    weight_filler {
      type: "msra"
    }
    bias_filler {
      type: "constant"
      value: 0
    }
  }
}
layer {
  name: "BatchNorm19"
  type: "BatchNorm"
  bottom: "Convolution19"
  top: "Convolution19"
  param {
    lr_mult: 0
    decay_mult: 0
  }
  param {
      value: 0
    }
  }
}
layer {
  name: "BatchNorm17"
  type: "BatchNorm"
  bottom: "Convolution17"
  top: "Convolution17"
  param {
    lr_mult: 0
    decay_mult: 0
  }
  param {
    lr_mult: 0
    decay_mult: 0
  }
  param {
    lr_mult: 0
    decay_mult: 0
  }
}
layer {
  name: "Scale17"
  type: "Scale"
  bottom: "Convolution17"
  top: "Convolution17"
  scale_param {
    bias_term: true
  }
}
layer {
  name: "Eltwise7"
  type: "Eltwise"
  bottom: "Convolution15"
  bottom: "Convolution17"
  top: "Eltwise7"
  eltwise_param {
    operation: SUM
  }
}
layer {
  name: "ReLU15"
  type: "ReLU"
  bottom: "Eltwise7"
  top: "Eltwise7"
}
layer {
  name: "Convolution18"
  type: "Convolution"
  bottom: "Eltwise7"
  top: "Convolution18"
  param {
    lr_mult: 1
    decay_mult: 1
  }
  param {
    lr_mult: 2
    decay_mult: 0
  }
  convolution_param {
    num_output: 64
    pad: 1
    kernel_size: 3
    stride: 1
    weight_filler {
      type: "msra"
    }
    bias_filler {
      type: "constant"
      value: 0
    lr_mult: 0
    decay_mult: 0
  }
  param {
    lr_mult: 0
    decay_mult: 0
  }
}
layer {
  name: "Scale19"
  type: "Scale"
  bottom: "Convolution19"
  top: "Convolution19"
  scale_param {
    bias_term: true
  }
}
layer {
  name: "Eltwise8"
  type: "Eltwise"
  bottom: "Eltwise7"
  bottom: "Convolution19"
  top: "Eltwise8"
  eltwise_param {
    operation: SUM
  }
}
layer {
  name: "ReLU17"
  type: "ReLU"
  bottom: "Eltwise8"
  top: "Eltwise8"
}
layer {
  name: "Convolution20"
  type: "Convolution"
  bottom: "Eltwise8"
  top: "Convolution20"
  param {
    lr_mult: 1
    decay_mult: 1
  }
  param {
    lr_mult: 2
    decay_mult: 0
  }
  convolution_param {
    num_output: 64
    pad: 1
    kernel_size: 3
    stride: 1
    weight_filler {
      type: "msra"
    }
    bias_filler {
      type: "constant"
      value: 0
    }
  }
}
layer {
  name: "BatchNorm20"
  type: "BatchNorm"
  bottom: "Convolution20"
  top: "Convolution20"
  param {
    lr_mult: 0
    decay_mult: 0
  }
  param {
    lr_mult: 0
    }
  }
}
layer {
    decay_mult: 0
  }
  param {
    lr_mult: 0
    decay_mult: 0
  }
}
layer {
  name: "Scale20"
  type: "Scale"
  bottom: "Convolution20"
  top: "Convolution20"
  scale_param {
    bias_term: true
  }
}
layer {
  name: "ReLU18"
  type: "ReLU"
  bottom: "Convolution20"
  top: "Convolution20"
}
layer {
  name: "Convolution21"
  type: "Convolution"
  bottom: "Convolution20"
  top: "Convolution21"
  param {
    lr_mult: 1
    decay_mult: 1
  }
  param {
    lr_mult: 2
    decay_mult: 0
  }
  convolution_param {
    num_output: 64
    pad: 1
    kernel_size: 3
    stride: 1
    weight_filler {
      type: "msra"
    }
    bias_filler {
      type: "constant"
      value: 0
    }
  }
}
layer {
  name: "BatchNorm21"
  type: "BatchNorm"
  bottom: "Convolution21"
  top: "Convolution21"
  param {
    lr_mult: 0
    decay_mult: 0
  }
  param {
    lr_mult: 0
    decay_mult: 0
  }
  param {
    lr_mult: 0
    decay_mult: 0
  }
}
layer {
  name: "Scale21"
  type: "Scale"
  bottom: "Convolution21"
  top: "Convolution21"
  name: "BatchNorm18"
  type: "BatchNorm"
  bottom: "Convolution18"
  top: "Convolution18"
  param {
    lr_mult: 0
    decay_mult: 0
  }
  param {
    lr_mult: 0
    decay_mult: 0
  }
  param {
    lr_mult: 0
    decay_mult: 0
  }
}
layer {
  name: "Scale18"
  type: "Scale"
  bottom: "Convolution18"
  top: "Convolution18"
  scale_param {
    bias_term: true
  }
}
layer {
  name: "ReLU16"
  type: "ReLU"
  bottom: "Convolution18"
  top: "Convolution18"
}
layer {
  name: "Convolution19"
  type: "Convolution"
  bottom: "Convolution18"
  top: "Convolution19"
  param {
    lr_mult: 1
    decay_mult: 1
  }
  param {
    lr_mult: 2
    decay_mult: 0
  }
  convolution_param {
    num_output: 64
    pad: 1
    kernel_size: 3
    stride: 1
    weight_filler {
      type: "msra"
    }
    bias_filler {
      type: "constant"
      value: 0
    }
  }
}
layer {
  name: "BatchNorm19"
  type: "BatchNorm"
  bottom: "Convolution19"
  top: "Convolution19"
  param {
    lr_mult: 0
    decay_mult: 0
  }
  param {
  scale_param {
    bias_term: true
  }
}
layer {
  name: "Eltwise9"
  type: "Eltwise"
  bottom: "Eltwise8"
  bottom: "Convolution21"
  top: "Eltwise9"
  eltwise_param {
    operation: SUM
  }
}
layer {
  name: "ReLU19"
  type: "ReLU"
  bottom: "Eltwise9"
  top: "Eltwise9"
}
layer {
  name: "Pooling1"
  type: "Pooling"
  bottom: "Eltwise9"
  top: "Pooling1"
  pooling_param {
    pool: AVE
    global_pooling: true
  }
}
layer {
  name: "InnerProduct1"
  type: "InnerProduct"
  bottom: "Pooling1"
  top: "InnerProduct1"
  param {
    lr_mult: 1
    decay_mult: 1
  }
  param {
    lr_mult: 2
    decay_mult: 1
  }
  inner_product_param {
    num_output: 10
    weight_filler {
      type: "msra"
    }
    bias_filler {
      type: "constant"
      value: 0
    }
  }
}
layer {
  name: "SoftmaxWithLoss1"
  type: "SoftmaxWithLoss"
  bottom: "InnerProduct1"
  bottom: "Data2"
  top: "SoftmaxWithLoss1"
}
    lr_mult: 0
    decay_mult: 0
  }
  param {
    lr_mult: 0
    decay_mult: 0
  }
}
layer {
  name: "Scale19"
  type: "Scale"
  bottom: "Convolution19"
  top: "Convolution19"
  scale_param {
    bias_term: true
  }
}
layer {
  name: "Eltwise8"
  type: "Eltwise"
  bottom: "Eltwise7"
  bottom: "Convolution19"
  top: "Eltwise8"
  eltwise_param {
    operation: SUM
  }
}
layer {
  name: "ReLU17"
  type: "ReLU"
  bottom: "Eltwise8"
  top: "Eltwise8"
}
layer {
  name: "Convolution20"
  type: "Convolution"
  bottom: "Eltwise8"
  top: "Convolution20"
  param {
    lr_mult: 1
    decay_mult: 1
  }
  param {
    lr_mult: 2
    decay_mult: 0
  }
  convolution_param {
    num_output: 64
    pad: 1
    kernel_size: 3
    stride: 1
    weight_filler {
      type: "msra"
    }
    bias_filler {
      type: "constant"
      value: 0
    }
  }
}
layer {
  name: "BatchNorm20"
  type: "BatchNorm"
  bottom: "Convolution20"
  top: "Convolution20"
  param {
    lr_mult: 0
    decay_mult: 0
  }
  param {
    lr_mult: 0
I0702 00:34:48.888371 13010 layer_factory.hpp:77] Creating layer Data1
    decay_mult: 0
  }
  param {
    lr_mult: 0
    decay_mult: 0
  }
}
layer {
  name: "Scale20"
  type: "Scale"
  bottom: "Convolution20"
  top: "Convolution20"
  scale_param {
    bias_term: true
  }
}
layer {
  name: "ReLU18"
  type: "ReLU"
  bottom: "Convolution20"
  top: "Convolution20"
}
layer {
  name: "Convolution21"
  type: "Convolution"
  bottom: "Convolution20"
  top: "Convolution21"
  param {
    lr_mult: 1
    decay_mult: 1
  }
  param {
    lr_mult: 2
    decay_mult: 0
  }
  convolution_param {
    num_output: 64
    pad: 1
    kernel_size: 3
    stride: 1
    weight_filler {
      type: "msra"
    }
    bias_filler {
      type: "constant"
      value: 0
    }
  }
}
layer {
  name: "BatchNorm21"
  type: "BatchNorm"
  bottom: "Convolution21"
  top: "Convolution21"
  param {
    lr_mult: 0
    decay_mult: 0
  }
  param {
    lr_mult: 0
    decay_mult: 0
  }
  param {
    lr_mult: 0
    decay_mult: 0
  }
}
layer {
  name: "Scale21"
  type: "Scale"
  bottom: "Convolution21"
  top: "Convolution21"
  scale_param {
    bias_term: true
  }
}
layer {
  name: "Eltwise9"
  type: "Eltwise"
  bottom: "Eltwise8"
  bottom: "Convolution21"
  top: "Eltwise9"
  eltwise_param {
    operation: SUM
  }
}
layer {
  name: "ReLU19"
  type: "ReLU"
  bottom: "Eltwise9"
  top: "Eltwise9"
}
layer {
  name: "Pooling1"
  type: "Pooling"
  bottom: "Eltwise9"
  top: "Pooling1"
  pooling_param {
    pool: AVE
    global_pooling: true
  }
}
layer {
  name: "InnerProduct1"
  type: "InnerProduct"
  bottom: "Pooling1"
  top: "InnerProduct1"
  param {
    lr_mult: 1
    decay_mult: 1
  }
  param {
    lr_mult: 2
    decay_mult: 1
  }
  inner_product_param {
    num_output: 10
    weight_filler {
      type: "msra"
    }
    bias_filler {
      type: "constant"
      value: 0
    }
  }
}
layer {
  name: "SoftmaxWithLoss1"
  type: "SoftmaxWithLoss"
  bottom: "InnerProduct1"
  bottom: "Data2"
  top: "SoftmaxWithLoss1"
}
I0702 00:34:48.888489 32261 net.cpp:106] Creating Layer Data1
I0702 00:34:48.888514 32261 net.cpp:411] Data1 -> Data1
I0702 00:34:48.888697  4664 net.cpp:106] Creating Layer Data1
I0702 00:34:48.888726  4664 net.cpp:411] Data1 -> Data1
I0702 00:34:48.889987 13010 net.cpp:106] Creating Layer Data1
I0702 00:34:48.890017 13010 net.cpp:411] Data1 -> Data1
I0702 00:34:48.889782 32261 net.cpp:411] Data1 -> Data2
…
I0702 00:34:49.056504 13010 image_data_layer.cpp:51] 3: Opening file /HOME/sysu_sc_ll/WORKSPACE/wenyp/0314/cifar-10/train/label.txt
I0702 00:34:49.086647 13010 image_data_layer.cpp:58] List loaded
I0702 00:34:49.086668 13010 image_data_layer.cpp:61] Shuffling data
I0702 00:34:49.092108 13010 image_data_layer.cpp:69] 3: A total of 50000 images.
I0702 00:34:49.120590 32261 image_data_layer.cpp:96] output data size: 32,3,32,32
I0702 00:34:49.121459 20914 image_data_layer.cpp:96] output data size: 32,3,32,32
I0702 00:34:49.122093 13010 image_data_layer.cpp:96] output data size: 32,3,32,32
I0702 00:34:49.121487 32261 net.cpp:150] Setting up Data1
I0702 00:34:49.121510 32261 net.cpp:157] Top shape: 32 3 32 32 (98304)
I0702 00:34:49.121577 32261 net.cpp:157] Top shape: 32 (32)
I0702 00:34:49.121588 32261 net.cpp:165] Memory required for data: 393344
I0702 00:34:49.121600 32261 layer_factory.hpp:77] Creating layer Convolution1
I0702 00:34:49.121637 32261 net.cpp:106] Creating Layer Convolution1
I0702 00:34:49.121649 32261 net.cpp:454] Convolution1 <- Data1
I0702 00:34:49.121672 32261 net.cpp:411] Convolution1 -> Convolution1
I0702 00:34:49.122468 20914 net.cpp:150] Setting up Data1
I0702 00:34:49.122488 20914 net.cpp:157] Top shape: 32 3 32 32 (98304)
I0702 00:34:49.122579 20914 net.cpp:157] Top shape: 32 (32)
I0702 00:34:49.122593 20914 net.cpp:165] Memory required for data: 393344
I0702 00:34:49.122606 20914 layer_factory.hpp:77] Creating layer Convolution1
I0702 00:34:49.122643 20914 net.cpp:106] Creating Layer Convolution1
I0702 00:34:49.122655 20914 net.cpp:454] Convolution1 <- Data1
I0702 00:34:49.122679 20914 net.cpp:411] Convolution1 -> Convolution1
I0702 00:34:49.122987 13010 net.cpp:150] Setting up Data1
I0702 00:34:49.123008 13010 net.cpp:157] Top shape: 32 3 32 32 (98304)
I0702 00:34:49.123093 13010 net.cpp:157] Top shape: 32 (32)
I0702 00:34:49.123107 13010 net.cpp:165] Memory required for data: 393344
I0702 00:34:49.123119 13010 layer_factory.hpp:77] Creating layer Convolution1
I0702 00:34:49.123155 13010 net.cpp:106] Creating Layer Convolution1
I0702 00:34:49.123168 13010 net.cpp:454] Convolution1 <- Data1
I0702 00:34:49.123191 13010 net.cpp:411] Convolution1 -> Convolution1
I0702 00:34:49.123625 32261 net.cpp:150] Setting up Convolution1
I0702 00:34:49.123647 32261 net.cpp:157] Top shape: 32 16 32 32 (524288)
I0702 00:34:49.123659 32261 net.cpp:165] Memory required for data: 2490496
I0702 00:34:49.123747 32261 layer_factory.hpp:77] Creating layer BatchNorm1
I0702 00:34:49.123805 32261 net.cpp:106] Creating Layer BatchNorm1
I0702 00:34:49.123819 32261 net.cpp:454] BatchNorm1 <- Convolution1
I0702 00:34:49.123831 32261 net.cpp:397] BatchNorm1 -> Convolution1 (in-place)
I0702 00:34:49.124747 20914 net.cpp:150] Setting up Convolution1
I0702 00:34:49.124768 20914 net.cpp:157] Top shape: 32 16 32 32 (524288)
I0702 00:34:49.124778 20914 net.cpp:165] Memory required for data: 2490496
I0702 00:34:49.125185 13010 net.cpp:150] Setting up Convolution1
I0702 00:34:49.125207 13010 net.cpp:157] Top shape: 32 16 32 32 (524288)
I0702 00:34:49.125219 13010 net.cpp:165] Memory required for data: 2490496
I0702 00:34:49.124899 20914 layer_factory.hpp:77] Creating layer BatchNorm1
I0702 00:34:49.125308 13010 layer_factory.hpp:77] Creating layer BatchNorm1
I0702 00:34:49.125366 13010 net.cpp:106] Creating Layer BatchNorm1
I0702 00:34:49.125012 20914 net.cpp:106] Creating Layer BatchNorm1
I0702 00:34:49.125028 20914 net.cpp:454] BatchNorm1 <- Convolution1
I0702 00:34:49.125381 13010 net.cpp:454] BatchNorm1 <- Convolution1
I0702 00:34:49.125062 20914 net.cpp:397] BatchNorm1 -> Convolution1 (in-place)
I0702 00:34:49.125392 13010 net.cpp:397] BatchNorm1 -> Convolution1 (in-place)
I0702 00:34:49.125111 32261 net.cpp:150] Setting up BatchNorm1
I0702 00:34:49.125138 32261 net.cpp:157] Top shape: 32 16 32 32 (524288)
I0702 00:34:49.125151 32261 net.cpp:165] Memory required for data: 4587648
I0702 00:34:49.125219 32261 layer_factory.hpp:77] Creating layer Scale1
I0702 00:34:49.125285 32261 net.cpp:106] Creating Layer Scale1
I0702 00:34:49.125300 32261 net.cpp:454] Scale1 <- Convolution1
I0702 00:34:49.125311 32261 net.cpp:397] Scale1 -> Convolution1 (in-place)
I0702 00:34:49.125396 32261 layer_factory.hpp:77] Creating layer Scale1
I0702 00:34:49.126410 13010 net.cpp:150] Setting up BatchNorm1
I0702 00:34:49.126432 13010 net.cpp:157] Top shape: 32 16 32 32 (524288)
I0702 00:34:49.126444 13010 net.cpp:165] Memory required for data: 4587648
I0702 00:34:49.126505 13010 layer_factory.hpp:77] Creating layer Scale1
I0702 00:34:49.126565 13010 net.cpp:106] Creating Layer Scale1
I0702 00:34:49.126580 13010 net.cpp:454] Scale1 <- Convolution1
I0702 00:34:49.126591 13010 net.cpp:397] Scale1 -> Convolution1 (in-place)
I0702 00:34:49.126240 20914 net.cpp:150] Setting up BatchNorm1
I0702 00:34:49.126268 20914 net.cpp:157] Top shape: 32 16 32 32 (524288)
I0702 00:34:49.126284 20914 net.cpp:165] Memory required for data: 4587648
I0702 00:34:49.126677 13010 layer_factory.hpp:77] Creating layer Scale1
I0702 00:34:49.126371 20914 layer_factory.hpp:77] Creating layer Scale1
I0702 00:34:49.126444 20914 net.cpp:106] Creating Layer Scale1
I0702 00:34:49.126459 20914 net.cpp:454] Scale1 <- Convolution1
I0702 00:34:49.126473 20914 net.cpp:397] Scale1 -> Convolution1 (in-place)
I0702 00:34:49.126591 20914 layer_factory.hpp:77] Creating layer Scale1
I0702 00:34:49.129623 32261 net.cpp:150] Setting up Scale1
I0702 00:34:49.129647 32261 net.cpp:157] Top shape: 32 16 32 32 (524288)
I0702 00:34:49.129657 32261 net.cpp:165] Memory required for data: 6684800
I0702 00:34:49.129673 32261 layer_factory.hpp:77] Creating layer ReLU1
I0702 00:34:49.129727 32261 net.cpp:106] Creating Layer ReLU1
I0702 00:34:49.129742 32261 net.cpp:454] ReLU1 <- Convolution1
I0702 00:34:49.129758 32261 net.cpp:397] ReLU1 -> Convolution1 (in-place)
I0702 00:34:49.129775 32261 net.cpp:150] Setting up ReLU1
I0702 00:34:49.129781 32261 net.cpp:157] Top shape: 32 16 32 32 (524288)
I0702 00:34:49.129792 32261 net.cpp:165] Memory required for data: 8781952
I0702 00:34:49.129799 32261 layer_factory.hpp:77] Creating layer Convolution1_ReLU1_0_split
I0702 00:34:49.129847 32261 net.cpp:106] Creating Layer Convolution1_ReLU1_0_split
I0702 00:34:49.129859 32261 net.cpp:454] Convolution1_ReLU1_0_split <- Convolution1
I0702 00:34:49.129869 32261 net.cpp:411] Convolution1_ReLU1_0_split -> Convolution1_ReLU1_0_split_0
I0702 00:34:49.129894 32261 net.cpp:411] Convolution1_ReLU1_0_split -> Convolution1_ReLU1_0_split_1
I0702 00:34:49.129912 32261 net.cpp:150] Setting up Convolution1_ReLU1_0_split
I0702 00:34:49.129921 32261 net.cpp:157] Top shape: 32 16 32 32 (524288)
I0702 00:34:49.129931 32261 net.cpp:157] Top shape: 32 16 32 32 (524288)
I0702 00:34:49.129940 32261 net.cpp:165] Memory required for data: 12976256
I0702 00:34:49.129946 32261 layer_factory.hpp:77] Creating layer Convolution2
I0702 00:34:49.129971 32261 net.cpp:106] Creating Layer Convolution2
I0702 00:34:49.129981 32261 net.cpp:454] Convolution2 <- Convolution1_ReLU1_0_split_0
I0702 00:34:49.129992 32261 net.cpp:411] Convolution2 -> Convolution2
I0702 00:34:49.130678 13010 net.cpp:150] Setting up Scale1
I0702 00:34:49.130699 13010 net.cpp:157] Top shape: 32 16 32 32 (524288)
I0702 00:34:49.130712 13010 net.cpp:165] Memory required for data: 6684800
I0702 00:34:49.130726 13010 layer_factory.hpp:77] Creating layer ReLU1
I0702 00:34:49.130779 13010 net.cpp:106] Creating Layer ReLU1
I0702 00:34:49.130792 13010 net.cpp:454] ReLU1 <- Convolution1
I0702 00:34:49.130803 13010 net.cpp:397] ReLU1 -> Convolution1 (in-place)
I0702 00:34:49.130816 13010 net.cpp:150] Setting up ReLU1
I0702 00:34:49.130823 13010 net.cpp:157] Top shape: 32 16 32 32 (524288)
I0702 00:34:49.130180 32261 net.cpp:150] Setting up Convolution2
I0702 00:34:49.130833 13010 net.cpp:165] Memory required for data: 8781952
I0702 00:34:49.130841 13010 layer_factory.hpp:77] Creating layer Convolution1_ReLU1_0_split
I0702 00:34:49.130197 32261 net.cpp:157] Top shape: 32 16 32 32 (524288)
I0702 00:34:49.130206 32261 net.cpp:165] Memory required for data: 15073408
I0702 00:34:49.130890 13010 net.cpp:106] Creating Layer Convolution1_ReLU1_0_split
I0702 00:34:49.130223 32261 layer_factory.hpp:77] Creating layer BatchNorm2
I0702 00:34:49.130904 13010 net.cpp:454] Convolution1_ReLU1_0_split <- Convolution1
I0702 00:34:49.130239 32261 net.cpp:106] Creating Layer BatchNorm2
I0702 00:34:49.130246 32261 net.cpp:454] BatchNorm2 <- Convolution2
I0702 00:34:49.130914 13010 net.cpp:411] Convolution1_ReLU1_0_split -> Convolution1_ReLU1_0_split_0
I0702 00:34:49.130264 32261 net.cpp:397] BatchNorm2 -> Convolution2 (in-place)
I0702 00:34:49.130939 13010 net.cpp:411] Convolution1_ReLU1_0_split -> Convolution1_ReLU1_0_split_1
I0702 00:34:49.130955 13010 net.cpp:150] Setting up Convolution1_ReLU1_0_split
I0702 00:34:49.130964 13010 net.cpp:157] Top shape: 32 16 32 32 (524288)
I0702 00:34:49.130296 32261 net.cpp:150] Setting up BatchNorm2
I0702 00:34:49.130620 20914 net.cpp:150] Setting up Scale1
I0702 00:34:49.130306 32261 net.cpp:157] Top shape: 32 16 32 32 (524288)
I0702 00:34:49.130647 20914 net.cpp:157] Top shape: 32 16 32 32 (524288)
I0702 00:34:49.130314 32261 net.cpp:165] Memory required for data: 17170560
I0702 00:34:49.130973 13010 net.cpp:157] Top shape: 32 16 32 32 (524288)
I0702 00:34:49.130659 20914 net.cpp:165] Memory required for data: 6684800
I0702 00:34:49.130673 20914 layer_factory.hpp:77] Creating layer ReLU1
I0702 00:34:49.130981 13010 net.cpp:165] Memory required for data: 12976256
I0702 00:34:49.130329 32261 layer_factory.hpp:77] Creating layer Scale2
I0702 00:34:49.130988 13010 layer_factory.hpp:77] Creating layer Convolution2
I0702 00:34:49.130734 20914 net.cpp:106] Creating Layer ReLU1
I0702 00:34:49.130347 32261 net.cpp:106] Creating Layer Scale2
I0702 00:34:49.131008 13010 net.cpp:106] Creating Layer Convolution2
I0702 00:34:49.130749 20914 net.cpp:454] ReLU1 <- Convolution1
I0702 00:34:49.130355 32261 net.cpp:454] Scale2 <- Convolution2
I0702 00:34:49.131018 13010 net.cpp:454] Convolution2 <- Convolution1_ReLU1_0_split_0
I0702 00:34:49.130760 20914 net.cpp:397] ReLU1 -> Convolution1 (in-place)
I0702 00:34:49.130364 32261 net.cpp:397] Scale2 -> Convolution2 (in-place)
I0702 00:34:49.131029 13010 net.cpp:411] Convolution2 -> Convolution2
I0702 00:34:49.130774 20914 net.cpp:150] Setting up ReLU1
I0702 00:34:49.130780 20914 net.cpp:157] Top shape: 32 16 32 32 (524288)
I0702 00:34:49.130383 32261 layer_factory.hpp:77] Creating layer Scale2
I0702 00:34:49.130789 20914 net.cpp:165] Memory required for data: 8781952
I0702 00:34:49.130797 20914 layer_factory.hpp:77] Creating layer Convolution1_ReLU1_0_split
I0702 00:34:49.130847 20914 net.cpp:106] Creating Layer Convolution1_ReLU1_0_split
I0702 00:34:49.130417 32261 net.cpp:150] Setting up Scale2
I0702 00:34:49.130861 20914 net.cpp:454] Convolution1_ReLU1_0_split <- Convolution1
I0702 00:34:49.130429 32261 net.cpp:157] Top shape: 32 16 32 32 (524288)
I0702 00:34:49.131216 13010 net.cpp:150] Setting up Convolution2
I0702 00:34:49.130875 20914 net.cpp:411] Convolution1_ReLU1_0_split -> Convolution1_ReLU1_0_split_0
I0702 00:34:49.130437 32261 net.cpp:165] Memory required for data: 19267712
I0702 00:34:49.130901 20914 net.cpp:411] Convolution1_ReLU1_0_split -> Convolution1_ReLU1_0_split_1
I0702 00:34:49.130450 32261 layer_factory.hpp:77] Creating layer ReLU2
I0702 00:34:49.130918 20914 net.cpp:150] Setting up Convolution1_ReLU1_0_split
I0702 00:34:49.130458 32261 net.cpp:106] Creating Layer ReLU2
I0702 00:34:49.131230 13010 net.cpp:157] Top shape: 32 16 32 32 (524288)
I0702 00:34:49.131243 13010 net.cpp:165] Memory required for data: 15073408
I0702 00:34:49.130928 20914 net.cpp:157] Top shape: 32 16 32 32 (524288)
I0702 00:34:49.130467 32261 net.cpp:454] ReLU2 <- Convolution2
I0702 00:34:49.131259 13010 layer_factory.hpp:77] Creating layer BatchNorm2
I0702 00:34:49.130937 20914 net.cpp:157] Top shape: 32 16 32 32 (524288)
I0702 00:34:49.130478 32261 net.cpp:397] ReLU2 -> Convolution2 (in-place)
I0702 00:34:49.131275 13010 net.cpp:106] Creating Layer BatchNorm2
I0702 00:34:49.130946 20914 net.cpp:165] Memory required for data: 12976256
I0702 00:34:49.130489 32261 net.cpp:150] Setting up ReLU2
I0702 00:34:49.131284 13010 net.cpp:454] BatchNorm2 <- Convolution2
I0702 00:34:49.130952 20914 layer_factory.hpp:77] Creating layer Convolution2
I0702 00:34:49.130497 32261 net.cpp:157] Top shape: 32 16 32 32 (524288)
I0702 00:34:49.130973 20914 net.cpp:106] Creating Layer Convolution2
I0702 00:34:49.130506 32261 net.cpp:165] Memory required for data: 21364864
I0702 00:34:49.131294 13010 net.cpp:397] BatchNorm2 -> Convolution2 (in-place)
I0702 00:34:49.130983 20914 net.cpp:454] Convolution2 <- Convolution1_ReLU1_0_split_0
I0702 00:34:49.130512 32261 layer_factory.hpp:77] Creating layer Convolution3
I0702 00:34:49.131325 13010 net.cpp:150] Setting up BatchNorm2
I0702 00:34:49.130995 20914 net.cpp:411] Convolution2 -> Convolution2
I0702 00:34:49.131333 13010 net.cpp:157] Top shape: 32 16 32 32 (524288)
I0702 00:34:49.130532 32261 net.cpp:106] Creating Layer Convolution3
I0702 00:34:49.131342 13010 net.cpp:165] Memory required for data: 17170560
I0702 00:34:49.130542 32261 net.cpp:454] Convolution3 <- Convolution2
I0702 00:34:49.131356 13010 layer_factory.hpp:77] Creating layer Scale2
I0702 00:34:49.130553 32261 net.cpp:411] Convolution3 -> Convolution3
I0702 00:34:49.131369 13010 net.cpp:106] Creating Layer Scale2
I0702 00:34:49.130679 32261 net.cpp:150] Setting up Convolution3
I0702 00:34:49.131376 13010 net.cpp:454] Scale2 <- Convolution2
I0702 00:34:49.130692 32261 net.cpp:157] Top shape: 32 16 32 32 (524288)
I0702 00:34:49.130705 32261 net.cpp:165] Memory required for data: 23462016
I0702 00:34:49.130717 32261 layer_factory.hpp:77] Creating layer BatchNorm3
I0702 00:34:49.130728 32261 net.cpp:106] Creating Layer BatchNorm3
I0702 00:34:49.131388 13010 net.cpp:397] Scale2 -> Convolution2 (in-place)
I0702 00:34:49.131417 13010 layer_factory.hpp:77] Creating layer Scale2
I0702 00:34:49.131459 13010 net.cpp:150] Setting up Scale2
I0702 00:34:49.130735 32261 net.cpp:454] BatchNorm3 <- Convolution3
I0702 00:34:49.131469 13010 net.cpp:157] Top shape: 32 16 32 32 (524288)
I0702 00:34:49.130748 32261 net.cpp:397] BatchNorm3 -> Convolution3 (in-place)
I0702 00:34:49.130771 32261 net.cpp:150] Setting up BatchNorm3
I0702 00:34:49.131175 20914 net.cpp:150] Setting up Convolution2
I0702 00:34:49.130780 32261 net.cpp:157] Top shape: 32 16 32 32 (524288)
I0702 00:34:49.130789 32261 net.cpp:165] Memory required for data: 25559168
I0702 00:34:49.131484 13010 net.cpp:165] Memory required for data: 19267712
I0702 00:34:49.131191 20914 net.cpp:157] Top shape: 32 16 32 32 (524288)
I0702 00:34:49.131207 20914 net.cpp:165] Memory required for data: 15073408
I0702 00:34:49.130808 32261 layer_factory.hpp:77] Creating layer Scale3
I0702 00:34:49.131495 13010 layer_factory.hpp:77] Creating layer ReLU2
I0702 00:34:49.131505 13010 net.cpp:106] Creating Layer ReLU2
I0702 00:34:49.131242 20914 layer_factory.hpp:77] Creating layer BatchNorm2
I0702 00:34:49.131511 13010 net.cpp:454] ReLU2 <- Convolution2
I0702 00:34:49.131258 20914 net.cpp:106] Creating Layer BatchNorm2
I0702 00:34:49.130820 32261 net.cpp:106] Creating Layer Scale3
I0702 00:34:49.131520 13010 net.cpp:397] ReLU2 -> Convolution2 (in-place)
I0702 00:34:49.131268 20914 net.cpp:454] BatchNorm2 <- Convolution2
I0702 00:34:49.130830 32261 net.cpp:454] Scale3 <- Convolution3
I0702 00:34:49.131531 13010 net.cpp:150] Setting up ReLU2
I0702 00:34:49.131278 20914 net.cpp:397] BatchNorm2 -> Convolution2 (in-place)
I0702 00:34:49.130841 32261 net.cpp:397] Scale3 -> Convolution3 (in-place)
I0702 00:34:49.131538 13010 net.cpp:157] Top shape: 32 16 32 32 (524288)
I0702 00:34:49.131309 20914 net.cpp:150] Setting up BatchNorm2
I0702 00:34:49.130857 32261 layer_factory.hpp:77] Creating layer Scale3
I0702 00:34:49.131547 13010 net.cpp:165] Memory required for data: 21364864
I0702 00:34:49.131323 20914 net.cpp:157] Top shape: 32 16 32 32 (524288)
I0702 00:34:49.130888 32261 net.cpp:150] Setting up Scale3
I0702 00:34:49.131553 13010 layer_factory.hpp:77] Creating layer Convolution3
I0702 00:34:49.131332 20914 net.cpp:165] Memory required for data: 17170560
I0702 00:34:49.130898 32261 net.cpp:157] Top shape: 32 16 32 32 (524288)
I0702 00:34:49.131347 20914 layer_factory.hpp:77] Creating layer Scale2
I0702 00:34:49.130910 32261 net.cpp:165] Memory required for data: 27656320
I0702 00:34:49.131572 13010 net.cpp:106] Creating Layer Convolution3
I0702 00:34:49.131361 20914 net.cpp:106] Creating Layer Scale2
I0702 00:34:49.131580 13010 net.cpp:454] Convolution3 <- Convolution2
I0702 00:34:49.131368 20914 net.cpp:454] Scale2 <- Convolution2
I0702 00:34:49.131593 13010 net.cpp:411] Convolution3 -> Convolution3
I0702 00:34:49.131382 20914 net.cpp:397] Scale2 -> Convolution2 (in-place)
I0702 00:34:49.130923 32261 layer_factory.hpp:77] Creating layer Eltwise1
I0702 00:34:49.131716 13010 net.cpp:150] Setting up Convolution3
I0702 00:34:49.131405 20914 layer_factory.hpp:77] Creating layer Scale2
I0702 00:34:49.130983 32261 net.cpp:106] Creating Layer Eltwise1
I0702 00:34:49.131727 13010 net.cpp:157] Top shape: 32 16 32 32 (524288)
I0702 00:34:49.131446 20914 net.cpp:150] Setting up Scale2
I0702 00:34:49.130997 32261 net.cpp:454] Eltwise1 <- Convolution1_ReLU1_0_split_1
I0702 00:34:49.131736 13010 net.cpp:165] Memory required for data: 23462016
I0702 00:34:49.131458 20914 net.cpp:157] Top shape: 32 16 32 32 (524288)
I0702 00:34:49.131006 32261 net.cpp:454] Eltwise1 <- Convolution3
I0702 00:34:49.131475 20914 net.cpp:165] Memory required for data: 19267712
I0702 00:34:49.131016 32261 net.cpp:411] Eltwise1 -> Eltwise1
I0702 00:34:49.131748 13010 layer_factory.hpp:77] Creating layer BatchNorm3
I0702 00:34:49.131489 20914 layer_factory.hpp:77] Creating layer ReLU2
I0702 00:34:49.131763 13010 net.cpp:106] Creating Layer BatchNorm3
I0702 00:34:49.131498 20914 net.cpp:106] Creating Layer ReLU2
I0702 00:34:49.131772 13010 net.cpp:454] BatchNorm3 <- Convolution3
I0702 00:34:49.131505 20914 net.cpp:454] ReLU2 <- Convolution2
I0702 00:34:49.131781 13010 net.cpp:397] BatchNorm3 -> Convolution3 (in-place)
I0702 00:34:49.131513 20914 net.cpp:397] ReLU2 -> Convolution2 (in-place)
I0702 00:34:49.131808 13010 net.cpp:150] Setting up BatchNorm3
I0702 00:34:49.131525 20914 net.cpp:150] Setting up ReLU2
I0702 00:34:49.131816 13010 net.cpp:157] Top shape: 32 16 32 32 (524288)
I0702 00:34:49.131531 20914 net.cpp:157] Top shape: 32 16 32 32 (524288)
I0702 00:34:49.131825 13010 net.cpp:165] Memory required for data: 25559168
I0702 00:34:49.131539 20914 net.cpp:165] Memory required for data: 21364864
I0702 00:34:49.131846 13010 layer_factory.hpp:77] Creating layer Scale3
I0702 00:34:49.131546 20914 layer_factory.hpp:77] Creating layer Convolution3
I0702 00:34:49.131858 13010 net.cpp:106] Creating Layer Scale3
I0702 00:34:49.131567 20914 net.cpp:106] Creating Layer Convolution3
I0702 00:34:49.131578 20914 net.cpp:454] Convolution3 <- Convolution2
I0702 00:34:49.131592 20914 net.cpp:411] Convolution3 -> Convolution3
I0702 00:34:49.131866 13010 net.cpp:454] Scale3 <- Convolution3
I0702 00:34:49.131875 13010 net.cpp:397] Scale3 -> Convolution3 (in-place)
I0702 00:34:49.131896 13010 layer_factory.hpp:77] Creating layer Scale3
I0702 00:34:49.131928 13010 net.cpp:150] Setting up Scale3
I0702 00:34:49.131938 13010 net.cpp:157] Top shape: 32 16 32 32 (524288)
I0702 00:34:49.131947 13010 net.cpp:165] Memory required for data: 27656320
I0702 00:34:49.131958 13010 layer_factory.hpp:77] Creating layer Eltwise1
I0702 00:34:49.132024 13010 net.cpp:106] Creating Layer Eltwise1
I0702 00:34:49.132038 13010 net.cpp:454] Eltwise1 <- Convolution1_ReLU1_0_split_1
I0702 00:34:49.132046 13010 net.cpp:454] Eltwise1 <- Convolution3
I0702 00:34:49.132056 13010 net.cpp:411] Eltwise1 -> Eltwise1
I0702 00:34:49.131783 20914 net.cpp:150] Setting up Convolution3
I0702 00:34:49.131799 20914 net.cpp:157] Top shape: 32 16 32 32 (524288)
I0702 00:34:49.131809 20914 net.cpp:165] Memory required for data: 23462016
I0702 00:34:49.131821 20914 layer_factory.hpp:77] Creating layer BatchNorm3
I0702 00:34:49.131839 20914 net.cpp:106] Creating Layer BatchNorm3
I0702 00:34:49.131847 20914 net.cpp:454] BatchNorm3 <- Convolution3
I0702 00:34:49.131857 20914 net.cpp:397] BatchNorm3 -> Convolution3 (in-place)
I0702 00:34:49.131889 20914 net.cpp:150] Setting up BatchNorm3
I0702 00:34:49.131899 20914 net.cpp:157] Top shape: 32 16 32 32 (524288)
I0702 00:34:49.131909 20914 net.cpp:165] Memory required for data: 25559168
I0702 00:34:49.131932 20914 layer_factory.hpp:77] Creating layer Scale3
I0702 00:34:49.131945 20914 net.cpp:106] Creating Layer Scale3
I0702 00:34:49.131953 20914 net.cpp:454] Scale3 <- Convolution3
I0702 00:34:49.131961 20914 net.cpp:397] Scale3 -> Convolution3 (in-place)
I0702 00:34:49.131984 20914 layer_factory.hpp:77] Creating layer Scale3
I0702 00:34:49.132025 20914 net.cpp:150] Setting up Scale3
I0702 00:34:49.132036 20914 net.cpp:157] Top shape: 32 16 32 32 (524288)
I0702 00:34:49.132045 20914 net.cpp:165] Memory required for data: 27656320
I0702 00:34:49.132056 20914 layer_factory.hpp:77] Creating layer Eltwise1
I0702 00:34:49.132128 20914 net.cpp:106] Creating Layer Eltwise1
I0702 00:34:49.132144 20914 net.cpp:454] Eltwise1 <- Convolution1_ReLU1_0_split_1
I0702 00:34:49.132153 20914 net.cpp:454] Eltwise1 <- Convolution3
I0702 00:34:49.132163 20914 net.cpp:411] Eltwise1 -> Eltwise1
I0702 00:34:49.132050 32261 net.cpp:150] Setting up Eltwise1
I0702 00:34:49.132073 32261 net.cpp:157] Top shape: 32 16 32 32 (524288)
I0702 00:34:49.132084 32261 net.cpp:165] Memory required for data: 29753472
I0702 00:34:49.132093 32261 layer_factory.hpp:77] Creating layer ReLU3
I0702 00:34:49.132104 32261 net.cpp:106] Creating Layer ReLU3
I0702 00:34:49.132112 32261 net.cpp:454] ReLU3 <- Eltwise1
I0702 00:34:49.132122 32261 net.cpp:397] ReLU3 -> Eltwise1 (in-place)
I0702 00:34:49.132134 32261 net.cpp:150] Setting up ReLU3
I0702 00:34:49.132141 32261 net.cpp:157] Top shape: 32 16 32 32 (524288)
I0702 00:34:49.132149 32261 net.cpp:165] Memory required for data: 31850624
I0702 00:34:49.132156 32261 layer_factory.hpp:77] Creating layer Eltwise1_ReLU3_0_split
I0702 00:34:49.132172 32261 net.cpp:106] Creating Layer Eltwise1_ReLU3_0_split
I0702 00:34:49.132182 32261 net.cpp:454] Eltwise1_ReLU3_0_split <- Eltwise1
I0702 00:34:49.132191 32261 net.cpp:411] Eltwise1_ReLU3_0_split -> Eltwise1_ReLU3_0_split_0
I0702 00:34:49.132205 32261 net.cpp:411] Eltwise1_ReLU3_0_split -> Eltwise1_ReLU3_0_split_1
I0702 00:34:49.132220 32261 net.cpp:150] Setting up Eltwise1_ReLU3_0_split
I0702 00:34:49.132226 32261 net.cpp:157] Top shape: 32 16 32 32 (524288)
I0702 00:34:49.132236 32261 net.cpp:157] Top shape: 32 16 32 32 (524288)
I0702 00:34:49.132243 32261 net.cpp:165] Memory required for data: 36044928
I0702 00:34:49.132249 32261 layer_factory.hpp:77] Creating layer Convolution4
I0702 00:34:49.132985 13010 net.cpp:150] Setting up Eltwise1
I0702 00:34:49.132288 32261 net.cpp:106] Creating Layer Convolution4
I0702 00:34:49.132302 32261 net.cpp:454] Convolution4 <- Eltwise1_ReLU3_0_split_0
I0702 00:34:49.133008 13010 net.cpp:157] Top shape: 32 16 32 32 (524288)
I0702 00:34:49.132313 32261 net.cpp:411] Convolution4 -> Convolution4
I0702 00:34:49.133019 13010 net.cpp:165] Memory required for data: 29753472
I0702 00:34:49.133028 13010 layer_factory.hpp:77] Creating layer ReLU3
I0702 00:34:49.133039 13010 net.cpp:106] Creating Layer ReLU3
I0702 00:34:49.133047 13010 net.cpp:454] ReLU3 <- Eltwise1
I0702 00:34:49.133057 13010 net.cpp:397] ReLU3 -> Eltwise1 (in-place)
I0702 00:34:49.133069 13010 net.cpp:150] Setting up ReLU3
I0702 00:34:49.133076 13010 net.cpp:157] Top shape: 32 16 32 32 (524288)
I0702 00:34:49.133085 13010 net.cpp:165] Memory required for data: 31850624
I0702 00:34:49.132444 32261 net.cpp:150] Setting up Convolution4
I0702 00:34:49.133091 13010 layer_factory.hpp:77] Creating layer Eltwise1_ReLU3_0_split
I0702 00:34:49.132457 32261 net.cpp:157] Top shape: 32 16 32 32 (524288)
I0702 00:34:49.132467 32261 net.cpp:165] Memory required for data: 38142080
I0702 00:34:49.133101 13010 net.cpp:106] Creating Layer Eltwise1_ReLU3_0_split
I0702 00:34:49.132479 32261 layer_factory.hpp:77] Creating layer BatchNorm4
I0702 00:34:49.133108 13010 net.cpp:454] Eltwise1_ReLU3_0_split <- Eltwise1
I0702 00:34:49.133122 13010 net.cpp:411] Eltwise1_ReLU3_0_split -> Eltwise1_ReLU3_0_split_0
I0702 00:34:49.133138 13010 net.cpp:411] Eltwise1_ReLU3_0_split -> Eltwise1_ReLU3_0_split_1
I0702 00:34:49.132493 32261 net.cpp:106] Creating Layer BatchNorm4
I0702 00:34:49.133153 13010 net.cpp:150] Setting up Eltwise1_ReLU3_0_split
I0702 00:34:49.132499 32261 net.cpp:454] BatchNorm4 <- Convolution4
I0702 00:34:49.133162 13010 net.cpp:157] Top shape: 32 16 32 32 (524288)
I0702 00:34:49.132513 32261 net.cpp:397] BatchNorm4 -> Convolution4 (in-place)
I0702 00:34:49.133170 13010 net.cpp:157] Top shape: 32 16 32 32 (524288)
I0702 00:34:49.133178 13010 net.cpp:165] Memory required for data: 36044928
I0702 00:34:49.132537 32261 net.cpp:150] Setting up BatchNorm4
I0702 00:34:49.132546 32261 net.cpp:157] Top shape: 32 16 32 32 (524288)
I0702 00:34:49.132555 32261 net.cpp:165] Memory required for data: 40239232
I0702 00:34:49.133185 13010 layer_factory.hpp:77] Creating layer Convolution4
I0702 00:34:49.132573 32261 layer_factory.hpp:77] Creating layer Scale4
I0702 00:34:49.133208 13010 net.cpp:106] Creating Layer Convolution4
I0702 00:34:49.133219 13010 net.cpp:454] Convolution4 <- Eltwise1_ReLU3_0_split_0
I0702 00:34:49.133229 13010 net.cpp:411] Convolution4 -> Convolution4
I0702 00:34:49.132947 20914 net.cpp:150] Setting up Eltwise1
I0702 00:34:49.132586 32261 net.cpp:106] Creating Layer Scale4
I0702 00:34:49.132593 32261 net.cpp:454] Scale4 <- Convolution4
I0702 00:34:49.132972 20914 net.cpp:157] Top shape: 32 16 32 32 (524288)
I0702 00:34:49.132983 20914 net.cpp:165] Memory required for data: 29753472
I0702 00:34:49.132602 32261 net.cpp:397] Scale4 -> Convolution4 (in-place)
I0702 00:34:49.132992 20914 layer_factory.hpp:77] Creating layer ReLU3
I0702 00:34:49.132622 32261 layer_factory.hpp:77] Creating layer Scale4
I0702 00:34:49.133360 13010 net.cpp:150] Setting up Convolution4
I0702 00:34:49.133003 20914 net.cpp:106] Creating Layer ReLU3
I0702 00:34:49.133010 20914 net.cpp:454] ReLU3 <- Eltwise1
I0702 00:34:49.133021 20914 net.cpp:397] ReLU3 -> Eltwise1 (in-place)
I0702 00:34:49.133033 20914 net.cpp:150] Setting up ReLU3
I0702 00:34:49.132663 32261 net.cpp:150] Setting up Scale4
I0702 00:34:49.133373 13010 net.cpp:157] Top shape: 32 16 32 32 (524288)
I0702 00:34:49.133383 13010 net.cpp:165] Memory required for data: 38142080
I0702 00:34:49.133040 20914 net.cpp:157] Top shape: 32 16 32 32 (524288)
I0702 00:34:49.132673 32261 net.cpp:157] Top shape: 32 16 32 32 (524288)
I0702 00:34:49.133395 13010 layer_factory.hpp:77] Creating layer BatchNorm4
I0702 00:34:49.133049 20914 net.cpp:165] Memory required for data: 31850624
I0702 00:34:49.132683 32261 net.cpp:165] Memory required for data: 42336384
I0702 00:34:49.133421 13010 net.cpp:106] Creating Layer BatchNorm4
I0702 00:34:49.133056 20914 layer_factory.hpp:77] Creating layer Eltwise1_ReLU3_0_split
I0702 00:34:49.132694 32261 layer_factory.hpp:77] Creating layer ReLU4
I0702 00:34:49.133430 13010 net.cpp:454] BatchNorm4 <- Convolution4
I0702 00:34:49.133065 20914 net.cpp:106] Creating Layer Eltwise1_ReLU3_0_split
I0702 00:34:49.132709 32261 net.cpp:106] Creating Layer ReLU4
I0702 00:34:49.133072 20914 net.cpp:454] Eltwise1_ReLU3_0_split <- Eltwise1
I0702 00:34:49.132716 32261 net.cpp:454] ReLU4 <- Convolution4
I0702 00:34:49.133090 20914 net.cpp:411] Eltwise1_ReLU3_0_split -> Eltwise1_ReLU3_0_split_0
I0702 00:34:49.132725 32261 net.cpp:397] ReLU4 -> Convolution4 (in-place)
I0702 00:34:49.133443 13010 net.cpp:397] BatchNorm4 -> Convolution4 (in-place)
I0702 00:34:49.133111 20914 net.cpp:411] Eltwise1_ReLU3_0_split -> Eltwise1_ReLU3_0_split_1
I0702 00:34:49.132735 32261 net.cpp:150] Setting up ReLU4
I0702 00:34:49.133471 13010 net.cpp:150] Setting up BatchNorm4
I0702 00:34:49.133126 20914 net.cpp:150] Setting up Eltwise1_ReLU3_0_split
I0702 00:34:49.133481 13010 net.cpp:157] Top shape: 32 16 32 32 (524288)
I0702 00:34:49.133134 20914 net.cpp:157] Top shape: 32 16 32 32 (524288)
I0702 00:34:49.133489 13010 net.cpp:165] Memory required for data: 40239232
I0702 00:34:49.133143 20914 net.cpp:157] Top shape: 32 16 32 32 (524288)
I0702 00:34:49.132742 32261 net.cpp:157] Top shape: 32 16 32 32 (524288)
I0702 00:34:49.133507 13010 layer_factory.hpp:77] Creating layer Scale4
I0702 00:34:49.133152 20914 net.cpp:165] Memory required for data: 36044928
I0702 00:34:49.132750 32261 net.cpp:165] Memory required for data: 44433536
I0702 00:34:49.133158 20914 layer_factory.hpp:77] Creating layer Convolution4
I0702 00:34:49.132757 32261 layer_factory.hpp:77] Creating layer Convolution5
I0702 00:34:49.133185 20914 net.cpp:106] Creating Layer Convolution4
I0702 00:34:49.132774 32261 net.cpp:106] Creating Layer Convolution5
I0702 00:34:49.133519 13010 net.cpp:106] Creating Layer Scale4
I0702 00:34:49.133198 20914 net.cpp:454] Convolution4 <- Eltwise1_ReLU3_0_split_0
I0702 00:34:49.132786 32261 net.cpp:454] Convolution5 <- Convolution4
I0702 00:34:49.133527 13010 net.cpp:454] Scale4 <- Convolution4
I0702 00:34:49.133210 20914 net.cpp:411] Convolution4 -> Convolution4
I0702 00:34:49.132797 32261 net.cpp:411] Convolution5 -> Convolution5
I0702 00:34:49.133536 13010 net.cpp:397] Scale4 -> Convolution4 (in-place)
I0702 00:34:49.133554 13010 layer_factory.hpp:77] Creating layer Scale4
I0702 00:34:49.133589 13010 net.cpp:150] Setting up Scale4
I0702 00:34:49.133599 13010 net.cpp:157] Top shape: 32 16 32 32 (524288)
I0702 00:34:49.132920 32261 net.cpp:150] Setting up Convolution5
I0702 00:34:49.133608 13010 net.cpp:165] Memory required for data: 42336384
I0702 00:34:49.132939 32261 net.cpp:157] Top shape: 32 16 32 32 (524288)
I0702 00:34:49.132949 32261 net.cpp:165] Memory required for data: 46530688
I0702 00:34:49.132961 32261 layer_factory.hpp:77] Creating layer BatchNorm5
I0702 00:34:49.132977 32261 net.cpp:106] Creating Layer BatchNorm5
I0702 00:34:49.133620 13010 layer_factory.hpp:77] Creating layer ReLU4
I0702 00:34:49.133358 20914 net.cpp:150] Setting up Convolution4
I0702 00:34:49.133631 13010 net.cpp:106] Creating Layer ReLU4
I0702 00:34:49.133373 20914 net.cpp:157] Top shape: 32 16 32 32 (524288)
I0702 00:34:49.133383 20914 net.cpp:165] Memory required for data: 38142080
I0702 00:34:49.132985 32261 net.cpp:454] BatchNorm5 <- Convolution5
I0702 00:34:49.133638 13010 net.cpp:454] ReLU4 <- Convolution4
I0702 00:34:49.133395 20914 layer_factory.hpp:77] Creating layer BatchNorm4
I0702 00:34:49.132994 32261 net.cpp:397] BatchNorm5 -> Convolution5 (in-place)
I0702 00:34:49.133649 13010 net.cpp:397] ReLU4 -> Convolution4 (in-place)
I0702 00:34:49.133412 20914 net.cpp:106] Creating Layer BatchNorm4
I0702 00:34:49.133024 32261 net.cpp:150] Setting up BatchNorm5
I0702 00:34:49.133661 13010 net.cpp:150] Setting up ReLU4
I0702 00:34:49.133424 20914 net.cpp:454] BatchNorm4 <- Convolution4
I0702 00:34:49.133033 32261 net.cpp:157] Top shape: 32 16 32 32 (524288)
I0702 00:34:49.133668 13010 net.cpp:157] Top shape: 32 16 32 32 (524288)
I0702 00:34:49.133436 20914 net.cpp:397] BatchNorm4 -> Convolution4 (in-place)
I0702 00:34:49.133042 32261 net.cpp:165] Memory required for data: 48627840
I0702 00:34:49.133677 13010 net.cpp:165] Memory required for data: 44433536
I0702 00:34:49.133467 20914 net.cpp:150] Setting up BatchNorm4
I0702 00:34:49.133683 13010 layer_factory.hpp:77] Creating layer Convolution5
I0702 00:34:49.133478 20914 net.cpp:157] Top shape: 32 16 32 32 (524288)
I0702 00:34:49.133700 13010 net.cpp:106] Creating Layer Convolution5
I0702 00:34:49.133486 20914 net.cpp:165] Memory required for data: 40239232
I0702 00:34:49.133062 32261 layer_factory.hpp:77] Creating layer Scale5
I0702 00:34:49.133709 13010 net.cpp:454] Convolution5 <- Convolution4
I0702 00:34:49.133503 20914 layer_factory.hpp:77] Creating layer Scale4
I0702 00:34:49.133075 32261 net.cpp:106] Creating Layer Scale5
I0702 00:34:49.133517 20914 net.cpp:106] Creating Layer Scale4
I0702 00:34:49.133082 32261 net.cpp:454] Scale5 <- Convolution5
I0702 00:34:49.133525 20914 net.cpp:454] Scale4 <- Convolution4
I0702 00:34:49.133093 32261 net.cpp:397] Scale5 -> Convolution5 (in-place)
I0702 00:34:49.133723 13010 net.cpp:411] Convolution5 -> Convolution5
I0702 00:34:49.133534 20914 net.cpp:397] Scale4 -> Convolution4 (in-place)
I0702 00:34:49.133112 32261 layer_factory.hpp:77] Creating layer Scale5
I0702 00:34:49.133848 13010 net.cpp:150] Setting up Convolution5
I0702 00:34:49.133553 20914 layer_factory.hpp:77] Creating layer Scale4
I0702 00:34:49.133147 32261 net.cpp:150] Setting up Scale5
I0702 00:34:49.133869 13010 net.cpp:157] Top shape: 32 16 32 32 (524288)
I0702 00:34:49.133592 20914 net.cpp:150] Setting up Scale4
I0702 00:34:49.133157 32261 net.cpp:157] Top shape: 32 16 32 32 (524288)
I0702 00:34:49.133879 13010 net.cpp:165] Memory required for data: 46530688
I0702 00:34:49.133605 20914 net.cpp:157] Top shape: 32 16 32 32 (524288)
I0702 00:34:49.133169 32261 net.cpp:165] Memory required for data: 50724992
I0702 00:34:49.133890 13010 layer_factory.hpp:77] Creating layer BatchNorm5
I0702 00:34:49.133613 20914 net.cpp:165] Memory required for data: 42336384
I0702 00:34:49.133903 13010 net.cpp:106] Creating Layer BatchNorm5
I0702 00:34:49.133625 20914 layer_factory.hpp:77] Creating layer ReLU4
I0702 00:34:49.133909 13010 net.cpp:454] BatchNorm5 <- Convolution5
I0702 00:34:49.133635 20914 net.cpp:106] Creating Layer ReLU4
I0702 00:34:49.133182 32261 layer_factory.hpp:77] Creating layer Eltwise2
I0702 00:34:49.133641 20914 net.cpp:454] ReLU4 <- Convolution4
I0702 00:34:49.133193 32261 net.cpp:106] Creating Layer Eltwise2
I0702 00:34:49.133200 32261 net.cpp:454] Eltwise2 <- Eltwise1_ReLU3_0_split_1
I0702 00:34:49.133656 20914 net.cpp:397] ReLU4 -> Convolution4 (in-place)
I0702 00:34:49.133208 32261 net.cpp:454] Eltwise2 <- Convolution5
I0702 00:34:49.133921 13010 net.cpp:397] BatchNorm5 -> Convolution5 (in-place)
I0702 00:34:49.133669 20914 net.cpp:150] Setting up ReLU4
I0702 00:34:49.133216 32261 net.cpp:411] Eltwise2 -> Eltwise2
I0702 00:34:49.133949 13010 net.cpp:150] Setting up BatchNorm5
I0702 00:34:49.133677 20914 net.cpp:157] Top shape: 32 16 32 32 (524288)
I0702 00:34:49.133229 32261 net.cpp:150] Setting up Eltwise2
I0702 00:34:49.133958 13010 net.cpp:157] Top shape: 32 16 32 32 (524288)
I0702 00:34:49.133685 20914 net.cpp:165] Memory required for data: 44433536
I0702 00:34:49.133237 32261 net.cpp:157] Top shape: 32 16 32 32 (524288)
I0702 00:34:49.133967 13010 net.cpp:165] Memory required for data: 48627840
I0702 00:34:49.133692 20914 layer_factory.hpp:77] Creating layer Convolution5
I0702 00:34:49.133246 32261 net.cpp:165] Memory required for data: 52822144
I0702 00:34:49.133990 13010 layer_factory.hpp:77] Creating layer Scale5
I0702 00:34:49.133713 20914 net.cpp:106] Creating Layer Convolution5
I0702 00:34:49.133253 32261 layer_factory.hpp:77] Creating layer ReLU5
I0702 00:34:49.134002 13010 net.cpp:106] Creating Layer Scale5
I0702 00:34:49.133723 20914 net.cpp:454] Convolution5 <- Convolution4
I0702 00:34:49.133270 32261 net.cpp:106] Creating Layer ReLU5
I0702 00:34:49.134009 13010 net.cpp:454] Scale5 <- Convolution5
I0702 00:34:49.133739 20914 net.cpp:411] Convolution5 -> Convolution5
I0702 00:34:49.133277 32261 net.cpp:454] ReLU5 <- Eltwise2
I0702 00:34:49.134018 13010 net.cpp:397] Scale5 -> Convolution5 (in-place)
I0702 00:34:49.133285 32261 net.cpp:397] ReLU5 -> Eltwise2 (in-place)
I0702 00:34:49.134035 13010 layer_factory.hpp:77] Creating layer Scale5
I0702 00:34:49.133296 32261 net.cpp:150] Setting up ReLU5
I0702 00:34:49.133301 32261 net.cpp:157] Top shape: 32 16 32 32 (524288)
I0702 00:34:49.133311 32261 net.cpp:165] Memory required for data: 54919296
I0702 00:34:49.133316 32261 layer_factory.hpp:77] Creating layer Eltwise2_ReLU5_0_split
I0702 00:34:49.133325 32261 net.cpp:106] Creating Layer Eltwise2_ReLU5_0_split
I0702 00:34:49.134069 13010 net.cpp:150] Setting up Scale5
I0702 00:34:49.133332 32261 net.cpp:454] Eltwise2_ReLU5_0_split <- Eltwise2
I0702 00:34:49.134079 13010 net.cpp:157] Top shape: 32 16 32 32 (524288)
I0702 00:34:49.134088 13010 net.cpp:165] Memory required for data: 50724992
I0702 00:34:49.134100 13010 layer_factory.hpp:77] Creating layer Eltwise2
I0702 00:34:49.133343 32261 net.cpp:411] Eltwise2_ReLU5_0_split -> Eltwise2_ReLU5_0_split_0
I0702 00:34:49.134110 13010 net.cpp:106] Creating Layer Eltwise2
I0702 00:34:49.133358 32261 net.cpp:411] Eltwise2_ReLU5_0_split -> Eltwise2_ReLU5_0_split_1
I0702 00:34:49.134119 13010 net.cpp:454] Eltwise2 <- Eltwise1_ReLU3_0_split_1
I0702 00:34:49.133878 20914 net.cpp:150] Setting up Convolution5
I0702 00:34:49.133368 32261 net.cpp:150] Setting up Eltwise2_ReLU5_0_split
I0702 00:34:49.134129 13010 net.cpp:454] Eltwise2 <- Convolution5
I0702 00:34:49.133901 20914 net.cpp:157] Top shape: 32 16 32 32 (524288)
I0702 00:34:49.133911 20914 net.cpp:165] Memory required for data: 46530688
I0702 00:34:49.133376 32261 net.cpp:157] Top shape: 32 16 32 32 (524288)
I0702 00:34:49.134140 13010 net.cpp:411] Eltwise2 -> Eltwise2
I0702 00:34:49.133924 20914 layer_factory.hpp:77] Creating layer BatchNorm5
I0702 00:34:49.133385 32261 net.cpp:157] Top shape: 32 16 32 32 (524288)
I0702 00:34:49.134153 13010 net.cpp:150] Setting up Eltwise2
I0702 00:34:49.133935 20914 net.cpp:106] Creating Layer BatchNorm5
I0702 00:34:49.133942 20914 net.cpp:454] BatchNorm5 <- Convolution5
I0702 00:34:49.133394 32261 net.cpp:165] Memory required for data: 59113600
I0702 00:34:49.134161 13010 net.cpp:157] Top shape: 32 16 32 32 (524288)
I0702 00:34:49.133958 20914 net.cpp:397] BatchNorm5 -> Convolution5 (in-place)
I0702 00:34:49.133400 32261 layer_factory.hpp:77] Creating layer Convolution6
I0702 00:34:49.134171 13010 net.cpp:165] Memory required for data: 52822144
I0702 00:34:49.133991 20914 net.cpp:150] Setting up BatchNorm5
I0702 00:34:49.133417 32261 net.cpp:106] Creating Layer Convolution6
I0702 00:34:49.134177 13010 layer_factory.hpp:77] Creating layer ReLU5
I0702 00:34:49.133427 32261 net.cpp:454] Convolution6 <- Eltwise2_ReLU5_0_split_0
I0702 00:34:49.134186 13010 net.cpp:106] Creating Layer ReLU5
I0702 00:34:49.134001 20914 net.cpp:157] Top shape: 32 16 32 32 (524288)
I0702 00:34:49.133438 32261 net.cpp:411] Convolution6 -> Convolution6
I0702 00:34:49.134192 13010 net.cpp:454] ReLU5 <- Eltwise2
I0702 00:34:49.134019 20914 net.cpp:165] Memory required for data: 48627840
I0702 00:34:49.134042 20914 layer_factory.hpp:77] Creating layer Scale5
I0702 00:34:49.133564 32261 net.cpp:150] Setting up Convolution6
I0702 00:34:49.134202 13010 net.cpp:397] ReLU5 -> Eltwise2 (in-place)
I0702 00:34:49.134212 13010 net.cpp:150] Setting up ReLU5
I0702 00:34:49.134054 20914 net.cpp:106] Creating Layer Scale5
I0702 00:34:49.133577 32261 net.cpp:157] Top shape: 32 16 32 32 (524288)
I0702 00:34:49.134218 13010 net.cpp:157] Top shape: 32 16 32 32 (524288)
I0702 00:34:49.134061 20914 net.cpp:454] Scale5 <- Convolution5
I0702 00:34:49.133586 32261 net.cpp:165] Memory required for data: 61210752
I0702 00:34:49.134227 13010 net.cpp:165] Memory required for data: 54919296
I0702 00:34:49.134070 20914 net.cpp:397] Scale5 -> Convolution5 (in-place)
I0702 00:34:49.133599 32261 layer_factory.hpp:77] Creating layer BatchNorm6
I0702 00:34:49.134232 13010 layer_factory.hpp:77] Creating layer Eltwise2_ReLU5_0_split
I0702 00:34:49.134093 20914 layer_factory.hpp:77] Creating layer Scale5
I0702 00:34:49.133616 32261 net.cpp:106] Creating Layer BatchNorm6
I0702 00:34:49.134241 13010 net.cpp:106] Creating Layer Eltwise2_ReLU5_0_split
I0702 00:34:49.134135 20914 net.cpp:150] Setting up Scale5
I0702 00:34:49.133625 32261 net.cpp:454] BatchNorm6 <- Convolution6
I0702 00:34:49.134248 13010 net.cpp:454] Eltwise2_ReLU5_0_split <- Eltwise2
I0702 00:34:49.134147 20914 net.cpp:157] Top shape: 32 16 32 32 (524288)
I0702 00:34:49.134156 20914 net.cpp:165] Memory required for data: 50724992
I0702 00:34:49.133635 32261 net.cpp:397] BatchNorm6 -> Convolution6 (in-place)
I0702 00:34:49.134256 13010 net.cpp:411] Eltwise2_ReLU5_0_split -> Eltwise2_ReLU5_0_split_0
I0702 00:34:49.134168 20914 layer_factory.hpp:77] Creating layer Eltwise2
I0702 00:34:49.133662 32261 net.cpp:150] Setting up BatchNorm6
I0702 00:34:49.134268 13010 net.cpp:411] Eltwise2_ReLU5_0_split -> Eltwise2_ReLU5_0_split_1
I0702 00:34:49.134184 20914 net.cpp:106] Creating Layer Eltwise2
I0702 00:34:49.133671 32261 net.cpp:157] Top shape: 32 16 32 32 (524288)
I0702 00:34:49.134279 13010 net.cpp:150] Setting up Eltwise2_ReLU5_0_split
I0702 00:34:49.134193 20914 net.cpp:454] Eltwise2 <- Eltwise1_ReLU3_0_split_1
I0702 00:34:49.133680 32261 net.cpp:165] Memory required for data: 63307904
I0702 00:34:49.134287 13010 net.cpp:157] Top shape: 32 16 32 32 (524288)
I0702 00:34:49.134202 20914 net.cpp:454] Eltwise2 <- Convolution5
I0702 00:34:49.133693 32261 layer_factory.hpp:77] Creating layer Scale6
I0702 00:34:49.134300 13010 net.cpp:157] Top shape: 32 16 32 32 (524288)
I0702 00:34:49.134212 20914 net.cpp:411] Eltwise2 -> Eltwise2
I0702 00:34:49.133708 32261 net.cpp:106] Creating Layer Scale6
I0702 00:34:49.134308 13010 net.cpp:165] Memory required for data: 59113600
I0702 00:34:49.134232 20914 net.cpp:150] Setting up Eltwise2
I0702 00:34:49.133723 32261 net.cpp:454] Scale6 <- Convolution6
I0702 00:34:49.134315 13010 layer_factory.hpp:77] Creating layer Convolution6
I0702 00:34:49.134240 20914 net.cpp:157] Top shape: 32 16 32 32 (524288)
I0702 00:34:49.134335 13010 net.cpp:106] Creating Layer Convolution6
I0702 00:34:49.134249 20914 net.cpp:165] Memory required for data: 52822144
I0702 00:34:49.134346 13010 net.cpp:454] Convolution6 <- Eltwise2_ReLU5_0_split_0
I0702 00:34:49.134256 20914 layer_factory.hpp:77] Creating layer ReLU5
I0702 00:34:49.133733 32261 net.cpp:397] Scale6 -> Convolution6 (in-place)
I0702 00:34:49.134356 13010 net.cpp:411] Convolution6 -> Convolution6
I0702 00:34:49.134265 20914 net.cpp:106] Creating Layer ReLU5
I0702 00:34:49.133750 32261 layer_factory.hpp:77] Creating layer Scale6
I0702 00:34:49.134272 20914 net.cpp:454] ReLU5 <- Eltwise2
I0702 00:34:49.133783 32261 net.cpp:150] Setting up Scale6
I0702 00:34:49.134280 20914 net.cpp:397] ReLU5 -> Eltwise2 (in-place)
I0702 00:34:49.133795 32261 net.cpp:157] Top shape: 32 16 32 32 (524288)
I0702 00:34:49.134498 13010 net.cpp:150] Setting up Convolution6
I0702 00:34:49.134291 20914 net.cpp:150] Setting up ReLU5
I0702 00:34:49.133803 32261 net.cpp:165] Memory required for data: 65405056
I0702 00:34:49.134512 13010 net.cpp:157] Top shape: 32 16 32 32 (524288)
I0702 00:34:49.134297 20914 net.cpp:157] Top shape: 32 16 32 32 (524288)
I0702 00:34:49.133814 32261 layer_factory.hpp:77] Creating layer ReLU6
I0702 00:34:49.134521 13010 net.cpp:165] Memory required for data: 61210752
I0702 00:34:49.134305 20914 net.cpp:165] Memory required for data: 54919296
I0702 00:34:49.133826 32261 net.cpp:106] Creating Layer ReLU6
I0702 00:34:49.134533 13010 layer_factory.hpp:77] Creating layer BatchNorm6
I0702 00:34:49.134312 20914 layer_factory.hpp:77] Creating layer Eltwise2_ReLU5_0_split
I0702 00:34:49.133831 32261 net.cpp:454] ReLU6 <- Convolution6
I0702 00:34:49.134544 13010 net.cpp:106] Creating Layer BatchNorm6
I0702 00:34:49.134321 20914 net.cpp:106] Creating Layer Eltwise2_ReLU5_0_split
I0702 00:34:49.133841 32261 net.cpp:397] ReLU6 -> Convolution6 (in-place)
I0702 00:34:49.134553 13010 net.cpp:454] BatchNorm6 <- Convolution6
I0702 00:34:49.134327 20914 net.cpp:454] Eltwise2_ReLU5_0_split <- Eltwise2
I0702 00:34:49.133850 32261 net.cpp:150] Setting up ReLU6
I0702 00:34:49.134565 13010 net.cpp:397] BatchNorm6 -> Convolution6 (in-place)
I0702 00:34:49.134341 20914 net.cpp:411] Eltwise2_ReLU5_0_split -> Eltwise2_ReLU5_0_split_0
I0702 00:34:49.133857 32261 net.cpp:157] Top shape: 32 16 32 32 (524288)
I0702 00:34:49.134594 13010 net.cpp:150] Setting up BatchNorm6
I0702 00:34:49.134357 20914 net.cpp:411] Eltwise2_ReLU5_0_split -> Eltwise2_ReLU5_0_split_1
I0702 00:34:49.133869 32261 net.cpp:165] Memory required for data: 67502208
I0702 00:34:49.134603 13010 net.cpp:157] Top shape: 32 16 32 32 (524288)
I0702 00:34:49.134371 20914 net.cpp:150] Setting up Eltwise2_ReLU5_0_split
I0702 00:34:49.133877 32261 layer_factory.hpp:77] Creating layer Convolution7
I0702 00:34:49.134616 13010 net.cpp:165] Memory required for data: 63307904
I0702 00:34:49.134379 20914 net.cpp:157] Top shape: 32 16 32 32 (524288)
I0702 00:34:49.133895 32261 net.cpp:106] Creating Layer Convolution7
I0702 00:34:49.134630 13010 layer_factory.hpp:77] Creating layer Scale6
I0702 00:34:49.134388 20914 net.cpp:157] Top shape: 32 16 32 32 (524288)
I0702 00:34:49.133904 32261 net.cpp:454] Convolution7 <- Convolution6
I0702 00:34:49.134642 13010 net.cpp:106] Creating Layer Scale6
I0702 00:34:49.134397 20914 net.cpp:165] Memory required for data: 59113600
I0702 00:34:49.133919 32261 net.cpp:411] Convolution7 -> Convolution7
I0702 00:34:49.134658 13010 net.cpp:454] Scale6 <- Convolution6
I0702 00:34:49.134403 20914 layer_factory.hpp:77] Creating layer Convolution6
I0702 00:34:49.134671 13010 net.cpp:397] Scale6 -> Convolution6 (in-place)
I0702 00:34:49.134423 20914 net.cpp:106] Creating Layer Convolution6
I0702 00:34:49.134690 13010 layer_factory.hpp:77] Creating layer Scale6
I0702 00:34:49.134435 20914 net.cpp:454] Convolution6 <- Eltwise2_ReLU5_0_split_0
I0702 00:34:49.134045 32261 net.cpp:150] Setting up Convolution7
I0702 00:34:49.134446 20914 net.cpp:411] Convolution6 -> Convolution6
I0702 00:34:49.134057 32261 net.cpp:157] Top shape: 32 16 32 32 (524288)
I0702 00:34:49.134066 32261 net.cpp:165] Memory required for data: 69599360
I0702 00:34:49.134721 13010 net.cpp:150] Setting up Scale6
I0702 00:34:49.134078 32261 layer_factory.hpp:77] Creating layer BatchNorm7
I0702 00:34:49.134732 13010 net.cpp:157] Top shape: 32 16 32 32 (524288)
I0702 00:34:49.134088 32261 net.cpp:106] Creating Layer BatchNorm7
I0702 00:34:49.134739 13010 net.cpp:165] Memory required for data: 65405056
I0702 00:34:49.134096 32261 net.cpp:454] BatchNorm7 <- Convolution7
I0702 00:34:49.134754 13010 layer_factory.hpp:77] Creating layer ReLU6
I0702 00:34:49.134109 32261 net.cpp:397] BatchNorm7 -> Convolution7 (in-place)
I0702 00:34:49.134765 13010 net.cpp:106] Creating Layer ReLU6
I0702 00:34:49.134136 32261 net.cpp:150] Setting up BatchNorm7
I0702 00:34:49.134773 13010 net.cpp:454] ReLU6 <- Convolution6
I0702 00:34:49.134579 20914 net.cpp:150] Setting up Convolution6
I0702 00:34:49.134145 32261 net.cpp:157] Top shape: 32 16 32 32 (524288)
I0702 00:34:49.134780 13010 net.cpp:397] ReLU6 -> Convolution6 (in-place)
I0702 00:34:49.134593 20914 net.cpp:157] Top shape: 32 16 32 32 (524288)
I0702 00:34:49.134603 20914 net.cpp:165] Memory required for data: 61210752
I0702 00:34:49.134157 32261 net.cpp:165] Memory required for data: 71696512
I0702 00:34:49.134790 13010 net.cpp:150] Setting up ReLU6
I0702 00:34:49.134614 20914 layer_factory.hpp:77] Creating layer BatchNorm6
I0702 00:34:49.134171 32261 layer_factory.hpp:77] Creating layer Scale7
I0702 00:34:49.134798 13010 net.cpp:157] Top shape: 32 16 32 32 (524288)
I0702 00:34:49.134630 20914 net.cpp:106] Creating Layer BatchNorm6
I0702 00:34:49.134639 20914 net.cpp:454] BatchNorm6 <- Convolution6
I0702 00:34:49.134805 13010 net.cpp:165] Memory required for data: 67502208
I0702 00:34:49.134649 20914 net.cpp:397] BatchNorm6 -> Convolution6 (in-place)
I0702 00:34:49.134187 32261 net.cpp:106] Creating Layer Scale7
I0702 00:34:49.134811 13010 layer_factory.hpp:77] Creating layer Convolution7
I0702 00:34:49.134677 20914 net.cpp:150] Setting up BatchNorm6
I0702 00:34:49.134196 32261 net.cpp:454] Scale7 <- Convolution7
I0702 00:34:49.134829 13010 net.cpp:106] Creating Layer Convolution7
I0702 00:34:49.134687 20914 net.cpp:157] Top shape: 32 16 32 32 (524288)
I0702 00:34:49.134205 32261 net.cpp:397] Scale7 -> Convolution7 (in-place)
I0702 00:34:49.134837 13010 net.cpp:454] Convolution7 <- Convolution6
I0702 00:34:49.134697 20914 net.cpp:165] Memory required for data: 63307904
I0702 00:34:49.134222 32261 layer_factory.hpp:77] Creating layer Scale7
I0702 00:34:49.134848 13010 net.cpp:411] Convolution7 -> Convolution7
I0702 00:34:49.134711 20914 layer_factory.hpp:77] Creating layer Scale6
I0702 00:34:49.134261 32261 net.cpp:150] Setting up Scale7
I0702 00:34:49.134726 20914 net.cpp:106] Creating Layer Scale6
I0702 00:34:49.134272 32261 net.cpp:157] Top shape: 32 16 32 32 (524288)
I0702 00:34:49.134973 13010 net.cpp:150] Setting up Convolution7
I0702 00:34:49.134742 20914 net.cpp:454] Scale6 <- Convolution6
I0702 00:34:49.134281 32261 net.cpp:165] Memory required for data: 73793664
I0702 00:34:49.134984 13010 net.cpp:157] Top shape: 32 16 32 32 (524288)
I0702 00:34:49.134752 20914 net.cpp:397] Scale6 -> Convolution6 (in-place)
I0702 00:34:49.134294 32261 layer_factory.hpp:77] Creating layer Eltwise3
I0702 00:34:49.134994 13010 net.cpp:165] Memory required for data: 69599360
I0702 00:34:49.134769 20914 layer_factory.hpp:77] Creating layer Scale6
I0702 00:34:49.134304 32261 net.cpp:106] Creating Layer Eltwise3
I0702 00:34:49.135007 13010 layer_factory.hpp:77] Creating layer BatchNorm7
I0702 00:34:49.134807 20914 net.cpp:150] Setting up Scale6
I0702 00:34:49.134312 32261 net.cpp:454] Eltwise3 <- Eltwise2_ReLU5_0_split_1
I0702 00:34:49.135020 13010 net.cpp:106] Creating Layer BatchNorm7
I0702 00:34:49.134819 20914 net.cpp:157] Top shape: 32 16 32 32 (524288)
I0702 00:34:49.134320 32261 net.cpp:454] Eltwise3 <- Convolution7
I0702 00:34:49.135026 13010 net.cpp:454] BatchNorm7 <- Convolution7
I0702 00:34:49.134829 20914 net.cpp:165] Memory required for data: 65405056
I0702 00:34:49.135036 13010 net.cpp:397] BatchNorm7 -> Convolution7 (in-place)
I0702 00:34:49.134840 20914 layer_factory.hpp:77] Creating layer ReLU6
I0702 00:34:49.135063 13010 net.cpp:150] Setting up BatchNorm7
I0702 00:34:49.134331 32261 net.cpp:411] Eltwise3 -> Eltwise3
I0702 00:34:49.135071 13010 net.cpp:157] Top shape: 32 16 32 32 (524288)
I0702 00:34:49.134850 20914 net.cpp:106] Creating Layer ReLU6
I0702 00:34:49.134346 32261 net.cpp:150] Setting up Eltwise3
I0702 00:34:49.135080 13010 net.cpp:165] Memory required for data: 71696512
I0702 00:34:49.134855 20914 net.cpp:454] ReLU6 <- Convolution6
I0702 00:34:49.134353 32261 net.cpp:157] Top shape: 32 16 32 32 (524288)
I0702 00:34:49.135093 13010 layer_factory.hpp:77] Creating layer Scale7
I0702 00:34:49.134865 20914 net.cpp:397] ReLU6 -> Convolution6 (in-place)
I0702 00:34:49.134361 32261 net.cpp:165] Memory required for data: 75890816
I0702 00:34:49.135109 13010 net.cpp:106] Creating Layer Scale7
I0702 00:34:49.134874 20914 net.cpp:150] Setting up ReLU6
I0702 00:34:49.134368 32261 layer_factory.hpp:77] Creating layer ReLU7
I0702 00:34:49.135119 13010 net.cpp:454] Scale7 <- Convolution7
I0702 00:34:49.134881 20914 net.cpp:157] Top shape: 32 16 32 32 (524288)
I0702 00:34:49.134377 32261 net.cpp:106] Creating Layer ReLU7
I0702 00:34:49.134889 20914 net.cpp:165] Memory required for data: 67502208
I0702 00:34:49.134383 32261 net.cpp:454] ReLU7 <- Eltwise3
I0702 00:34:49.134896 20914 layer_factory.hpp:77] Creating layer Convolution7
I0702 00:34:49.134392 32261 net.cpp:397] ReLU7 -> Eltwise3 (in-place)
I0702 00:34:49.135130 13010 net.cpp:397] Scale7 -> Convolution7 (in-place)
I0702 00:34:49.134917 20914 net.cpp:106] Creating Layer Convolution7
I0702 00:34:49.134400 32261 net.cpp:150] Setting up ReLU7
I0702 00:34:49.135149 13010 layer_factory.hpp:77] Creating layer Scale7
I0702 00:34:49.134927 20914 net.cpp:454] Convolution7 <- Convolution6
I0702 00:34:49.134407 32261 net.cpp:157] Top shape: 32 16 32 32 (524288)
I0702 00:34:49.135181 13010 net.cpp:150] Setting up Scale7
I0702 00:34:49.134941 20914 net.cpp:411] Convolution7 -> Convolution7
I0702 00:34:49.134415 32261 net.cpp:165] Memory required for data: 77987968
I0702 00:34:49.135190 13010 net.cpp:157] Top shape: 32 16 32 32 (524288)
I0702 00:34:49.134421 32261 layer_factory.hpp:77] Creating layer Eltwise3_ReLU7_0_split
I0702 00:34:49.135200 13010 net.cpp:165] Memory required for data: 73793664
I0702 00:34:49.134430 32261 net.cpp:106] Creating Layer Eltwise3_ReLU7_0_split
I0702 00:34:49.135210 13010 layer_factory.hpp:77] Creating layer Eltwise3
I0702 00:34:49.134438 32261 net.cpp:454] Eltwise3_ReLU7_0_split <- Eltwise3
I0702 00:34:49.135223 13010 net.cpp:106] Creating Layer Eltwise3
I0702 00:34:49.134445 32261 net.cpp:411] Eltwise3_ReLU7_0_split -> Eltwise3_ReLU7_0_split_0
I0702 00:34:49.135231 13010 net.cpp:454] Eltwise3 <- Eltwise2_ReLU5_0_split_1
I0702 00:34:49.134455 32261 net.cpp:411] Eltwise3_ReLU7_0_split -> Eltwise3_ReLU7_0_split_1
I0702 00:34:49.135239 13010 net.cpp:454] Eltwise3 <- Convolution7
I0702 00:34:49.134467 32261 net.cpp:150] Setting up Eltwise3_ReLU7_0_split
I0702 00:34:49.135248 13010 net.cpp:411] Eltwise3 -> Eltwise3
I0702 00:34:49.134475 32261 net.cpp:157] Top shape: 32 16 32 32 (524288)
I0702 00:34:49.135262 13010 net.cpp:150] Setting up Eltwise3
I0702 00:34:49.134483 32261 net.cpp:157] Top shape: 32 16 32 32 (524288)
I0702 00:34:49.135269 13010 net.cpp:157] Top shape: 32 16 32 32 (524288)
I0702 00:34:49.134500 32261 net.cpp:165] Memory required for data: 82182272
I0702 00:34:49.135277 13010 net.cpp:165] Memory required for data: 75890816
I0702 00:34:49.134507 32261 layer_factory.hpp:77] Creating layer Convolution8
I0702 00:34:49.135284 13010 layer_factory.hpp:77] Creating layer ReLU7
I0702 00:34:49.135082 20914 net.cpp:150] Setting up Convolution7
I0702 00:34:49.134527 32261 net.cpp:106] Creating Layer Convolution8
I0702 00:34:49.135295 13010 net.cpp:106] Creating Layer ReLU7
I0702 00:34:49.135097 20914 net.cpp:157] Top shape: 32 16 32 32 (524288)
I0702 00:34:49.135107 20914 net.cpp:165] Memory required for data: 69599360
I0702 00:34:49.134537 32261 net.cpp:454] Convolution8 <- Eltwise3_ReLU7_0_split_0
I0702 00:34:49.135303 13010 net.cpp:454] ReLU7 <- Eltwise3
I0702 00:34:49.135118 20914 layer_factory.hpp:77] Creating layer BatchNorm7
I0702 00:34:49.135311 13010 net.cpp:397] ReLU7 -> Eltwise3 (in-place)
I0702 00:34:49.135128 20914 net.cpp:106] Creating Layer BatchNorm7
I0702 00:34:49.135135 20914 net.cpp:454] BatchNorm7 <- Convolution7
I0702 00:34:49.135150 20914 net.cpp:397] BatchNorm7 -> Convolution7 (in-place)
I0702 00:34:49.135321 13010 net.cpp:150] Setting up ReLU7
I0702 00:34:49.135184 20914 net.cpp:150] Setting up BatchNorm7
I0702 00:34:49.134551 32261 net.cpp:411] Convolution8 -> Convolution8
I0702 00:34:49.135327 13010 net.cpp:157] Top shape: 32 16 32 32 (524288)
I0702 00:34:49.135335 13010 net.cpp:165] Memory required for data: 77987968
I0702 00:34:49.135195 20914 net.cpp:157] Top shape: 32 16 32 32 (524288)
I0702 00:34:49.134640 32261 net.cpp:150] Setting up Convolution8
I0702 00:34:49.135342 13010 layer_factory.hpp:77] Creating layer Eltwise3_ReLU7_0_split
I0702 00:34:49.135210 20914 net.cpp:165] Memory required for data: 71696512
I0702 00:34:49.134652 32261 net.cpp:157] Top shape: 32 32 16 16 (262144)
I0702 00:34:49.135350 13010 net.cpp:106] Creating Layer Eltwise3_ReLU7_0_split
I0702 00:34:49.135229 20914 layer_factory.hpp:77] Creating layer Scale7
I0702 00:34:49.134665 32261 net.cpp:165] Memory required for data: 83230848
I0702 00:34:49.135357 13010 net.cpp:454] Eltwise3_ReLU7_0_split <- Eltwise3
I0702 00:34:49.135248 20914 net.cpp:106] Creating Layer Scale7
I0702 00:34:49.134677 32261 layer_factory.hpp:77] Creating layer BatchNorm8
I0702 00:34:49.135365 13010 net.cpp:411] Eltwise3_ReLU7_0_split -> Eltwise3_ReLU7_0_split_0
I0702 00:34:49.135257 20914 net.cpp:454] Scale7 <- Convolution7
I0702 00:34:49.134690 32261 net.cpp:106] Creating Layer BatchNorm8
I0702 00:34:49.135376 13010 net.cpp:411] Eltwise3_ReLU7_0_split -> Eltwise3_ReLU7_0_split_1
I0702 00:34:49.135267 20914 net.cpp:397] Scale7 -> Convolution7 (in-place)
I0702 00:34:49.134697 32261 net.cpp:454] BatchNorm8 <- Convolution8
I0702 00:34:49.135387 13010 net.cpp:150] Setting up Eltwise3_ReLU7_0_split
I0702 00:34:49.135284 20914 layer_factory.hpp:77] Creating layer Scale7
I0702 00:34:49.134706 32261 net.cpp:397] BatchNorm8 -> Convolution8 (in-place)
I0702 00:34:49.135396 13010 net.cpp:157] Top shape: 32 16 32 32 (524288)
I0702 00:34:49.135320 20914 net.cpp:150] Setting up Scale7
I0702 00:34:49.134730 32261 net.cpp:150] Setting up BatchNorm8
I0702 00:34:49.135413 13010 net.cpp:157] Top shape: 32 16 32 32 (524288)
I0702 00:34:49.135332 20914 net.cpp:157] Top shape: 32 16 32 32 (524288)
I0702 00:34:49.134739 32261 net.cpp:157] Top shape: 32 32 16 16 (262144)
I0702 00:34:49.135428 13010 net.cpp:165] Memory required for data: 82182272
I0702 00:34:49.135341 20914 net.cpp:165] Memory required for data: 73793664
I0702 00:34:49.134747 32261 net.cpp:165] Memory required for data: 84279424
I0702 00:34:49.135437 13010 layer_factory.hpp:77] Creating layer Convolution8
I0702 00:34:49.135352 20914 layer_factory.hpp:77] Creating layer Eltwise3
I0702 00:34:49.134762 32261 layer_factory.hpp:77] Creating layer Scale8
I0702 00:34:49.135455 13010 net.cpp:106] Creating Layer Convolution8
I0702 00:34:49.135363 20914 net.cpp:106] Creating Layer Eltwise3
I0702 00:34:49.134773 32261 net.cpp:106] Creating Layer Scale8
I0702 00:34:49.135464 13010 net.cpp:454] Convolution8 <- Eltwise3_ReLU7_0_split_0
I0702 00:34:49.135370 20914 net.cpp:454] Eltwise3 <- Eltwise2_ReLU5_0_split_1
I0702 00:34:49.134779 32261 net.cpp:454] Scale8 <- Convolution8
I0702 00:34:49.135475 13010 net.cpp:411] Convolution8 -> Convolution8
I0702 00:34:49.135378 20914 net.cpp:454] Eltwise3 <- Convolution7
I0702 00:34:49.134790 32261 net.cpp:397] Scale8 -> Convolution8 (in-place)
I0702 00:34:49.135392 20914 net.cpp:411] Eltwise3 -> Eltwise3
I0702 00:34:49.134809 32261 layer_factory.hpp:77] Creating layer Scale8
I0702 00:34:49.135411 20914 net.cpp:150] Setting up Eltwise3
I0702 00:34:49.134840 32261 net.cpp:150] Setting up Scale8
I0702 00:34:49.135566 13010 net.cpp:150] Setting up Convolution8
I0702 00:34:49.135419 20914 net.cpp:157] Top shape: 32 16 32 32 (524288)
I0702 00:34:49.135578 13010 net.cpp:157] Top shape: 32 32 16 16 (262144)
I0702 00:34:49.135427 20914 net.cpp:165] Memory required for data: 75890816
I0702 00:34:49.135587 13010 net.cpp:165] Memory required for data: 83230848
I0702 00:34:49.135434 20914 layer_factory.hpp:77] Creating layer ReLU7
I0702 00:34:49.134850 32261 net.cpp:157] Top shape: 32 32 16 16 (262144)
I0702 00:34:49.135599 13010 layer_factory.hpp:77] Creating layer BatchNorm8
I0702 00:34:49.135443 20914 net.cpp:106] Creating Layer ReLU7
I0702 00:34:49.134860 32261 net.cpp:165] Memory required for data: 85328000
I0702 00:34:49.135612 13010 net.cpp:106] Creating Layer BatchNorm8
I0702 00:34:49.135450 20914 net.cpp:454] ReLU7 <- Eltwise3
I0702 00:34:49.134871 32261 layer_factory.hpp:77] Creating layer Convolution9
I0702 00:34:49.135622 13010 net.cpp:454] BatchNorm8 <- Convolution8
I0702 00:34:49.135458 20914 net.cpp:397] ReLU7 -> Eltwise3 (in-place)
I0702 00:34:49.134892 32261 net.cpp:106] Creating Layer Convolution9
I0702 00:34:49.135630 13010 net.cpp:397] BatchNorm8 -> Convolution8 (in-place)
I0702 00:34:49.135468 20914 net.cpp:150] Setting up ReLU7
I0702 00:34:49.134902 32261 net.cpp:454] Convolution9 <- Eltwise3_ReLU7_0_split_1
I0702 00:34:49.135654 13010 net.cpp:150] Setting up BatchNorm8
I0702 00:34:49.135474 20914 net.cpp:157] Top shape: 32 16 32 32 (524288)
I0702 00:34:49.134912 32261 net.cpp:411] Convolution9 -> Convolution9
I0702 00:34:49.135663 13010 net.cpp:157] Top shape: 32 32 16 16 (262144)
I0702 00:34:49.135483 20914 net.cpp:165] Memory required for data: 77987968
I0702 00:34:49.135077 32261 net.cpp:150] Setting up Convolution9
I0702 00:34:49.135671 13010 net.cpp:165] Memory required for data: 84279424
I0702 00:34:49.135489 20914 layer_factory.hpp:77] Creating layer Eltwise3_ReLU7_0_split
I0702 00:34:49.135089 32261 net.cpp:157] Top shape: 32 32 16 16 (262144)
I0702 00:34:49.135687 13010 layer_factory.hpp:77] Creating layer Scale8
I0702 00:34:49.135499 20914 net.cpp:106] Creating Layer Eltwise3_ReLU7_0_split
I0702 00:34:49.135098 32261 net.cpp:165] Memory required for data: 86376576
I0702 00:34:49.135699 13010 net.cpp:106] Creating Layer Scale8
I0702 00:34:49.135504 20914 net.cpp:454] Eltwise3_ReLU7_0_split <- Eltwise3
I0702 00:34:49.135110 32261 layer_factory.hpp:77] Creating layer BatchNorm9
I0702 00:34:49.135706 13010 net.cpp:454] Scale8 <- Convolution8
I0702 00:34:49.135514 20914 net.cpp:411] Eltwise3_ReLU7_0_split -> Eltwise3_ReLU7_0_split_0
I0702 00:34:49.135121 32261 net.cpp:106] Creating Layer BatchNorm9
I0702 00:34:49.135715 13010 net.cpp:397] Scale8 -> Convolution8 (in-place)
I0702 00:34:49.135524 20914 net.cpp:411] Eltwise3_ReLU7_0_split -> Eltwise3_ReLU7_0_split_1
I0702 00:34:49.135129 32261 net.cpp:454] BatchNorm9 <- Convolution9
I0702 00:34:49.135735 13010 layer_factory.hpp:77] Creating layer Scale8
I0702 00:34:49.135535 20914 net.cpp:150] Setting up Eltwise3_ReLU7_0_split
I0702 00:34:49.135140 32261 net.cpp:397] BatchNorm9 -> Convolution9 (in-place)
I0702 00:34:49.135762 13010 net.cpp:150] Setting up Scale8
I0702 00:34:49.135542 20914 net.cpp:157] Top shape: 32 16 32 32 (524288)
I0702 00:34:49.135772 13010 net.cpp:157] Top shape: 32 32 16 16 (262144)
I0702 00:34:49.135550 20914 net.cpp:157] Top shape: 32 16 32 32 (524288)
I0702 00:34:49.135781 13010 net.cpp:165] Memory required for data: 85328000
I0702 00:34:49.135567 20914 net.cpp:165] Memory required for data: 82182272
I0702 00:34:49.135792 13010 layer_factory.hpp:77] Creating layer Convolution9
I0702 00:34:49.135576 20914 layer_factory.hpp:77] Creating layer Convolution8
I0702 00:34:49.135166 32261 net.cpp:150] Setting up BatchNorm9
I0702 00:34:49.135596 20914 net.cpp:106] Creating Layer Convolution8
I0702 00:34:49.135175 32261 net.cpp:157] Top shape: 32 32 16 16 (262144)
I0702 00:34:49.135607 20914 net.cpp:454] Convolution8 <- Eltwise3_ReLU7_0_split_0
I0702 00:34:49.135185 32261 net.cpp:165] Memory required for data: 87425152
I0702 00:34:49.135812 13010 net.cpp:106] Creating Layer Convolution9
I0702 00:34:49.135623 20914 net.cpp:411] Convolution8 -> Convolution8
I0702 00:34:49.135200 32261 layer_factory.hpp:77] Creating layer Scale9
I0702 00:34:49.135821 13010 net.cpp:454] Convolution9 <- Eltwise3_ReLU7_0_split_1
I0702 00:34:49.135720 20914 net.cpp:150] Setting up Convolution8
I0702 00:34:49.135212 32261 net.cpp:106] Creating Layer Scale9
I0702 00:34:49.135834 13010 net.cpp:411] Convolution9 -> Convolution9
I0702 00:34:49.135219 32261 net.cpp:454] Scale9 <- Convolution9
I0702 00:34:49.135998 13010 net.cpp:150] Setting up Convolution9
I0702 00:34:49.135733 20914 net.cpp:157] Top shape: 32 32 16 16 (262144)
I0702 00:34:49.135227 32261 net.cpp:397] Scale9 -> Convolution9 (in-place)
I0702 00:34:49.136009 13010 net.cpp:157] Top shape: 32 32 16 16 (262144)
I0702 00:34:49.135749 20914 net.cpp:165] Memory required for data: 83230848
I0702 00:34:49.135243 32261 layer_factory.hpp:77] Creating layer Scale9
I0702 00:34:49.136018 13010 net.cpp:165] Memory required for data: 86376576
I0702 00:34:49.135761 20914 layer_factory.hpp:77] Creating layer BatchNorm8
I0702 00:34:49.135277 32261 net.cpp:150] Setting up Scale9
I0702 00:34:49.136032 13010 layer_factory.hpp:77] Creating layer BatchNorm9
I0702 00:34:49.135772 20914 net.cpp:106] Creating Layer BatchNorm8
I0702 00:34:49.135779 20914 net.cpp:454] BatchNorm8 <- Convolution8
I0702 00:34:49.135288 32261 net.cpp:157] Top shape: 32 32 16 16 (262144)
I0702 00:34:49.136044 13010 net.cpp:106] Creating Layer BatchNorm9
I0702 00:34:49.135788 20914 net.cpp:397] BatchNorm8 -> Convolution8 (in-place)
I0702 00:34:49.135298 32261 net.cpp:165] Memory required for data: 88473728
I0702 00:34:49.136051 13010 net.cpp:454] BatchNorm9 <- Convolution9
I0702 00:34:49.135815 20914 net.cpp:150] Setting up BatchNorm8
I0702 00:34:49.135308 32261 layer_factory.hpp:77] Creating layer ReLU8
I0702 00:34:49.135825 20914 net.cpp:157] Top shape: 32 32 16 16 (262144)
I0702 00:34:49.135323 32261 net.cpp:106] Creating Layer ReLU8
I0702 00:34:49.136063 13010 net.cpp:397] BatchNorm9 -> Convolution9 (in-place)
I0702 00:34:49.135835 20914 net.cpp:165] Memory required for data: 84279424
I0702 00:34:49.136090 13010 net.cpp:150] Setting up BatchNorm9
I0702 00:34:49.135848 20914 layer_factory.hpp:77] Creating layer Scale8
I0702 00:34:49.136097 13010 net.cpp:157] Top shape: 32 32 16 16 (262144)
I0702 00:34:49.135864 20914 net.cpp:106] Creating Layer Scale8
I0702 00:34:49.135330 32261 net.cpp:454] ReLU8 <- Convolution9
I0702 00:34:49.136106 13010 net.cpp:165] Memory required for data: 87425152
I0702 00:34:49.135874 20914 net.cpp:454] Scale8 <- Convolution8
I0702 00:34:49.135339 32261 net.cpp:397] ReLU8 -> Convolution9 (in-place)
I0702 00:34:49.135349 32261 net.cpp:150] Setting up ReLU8
I0702 00:34:49.136119 13010 layer_factory.hpp:77] Creating layer Scale9
I0702 00:34:49.135885 20914 net.cpp:397] Scale8 -> Convolution8 (in-place)
I0702 00:34:49.135355 32261 net.cpp:157] Top shape: 32 32 16 16 (262144)
I0702 00:34:49.136135 13010 net.cpp:106] Creating Layer Scale9
I0702 00:34:49.135901 20914 layer_factory.hpp:77] Creating layer Scale8
I0702 00:34:49.135363 32261 net.cpp:165] Memory required for data: 89522304
I0702 00:34:49.136144 13010 net.cpp:454] Scale9 <- Convolution9
I0702 00:34:49.135934 20914 net.cpp:150] Setting up Scale8
I0702 00:34:49.135370 32261 layer_factory.hpp:77] Creating layer Convolution10
I0702 00:34:49.136153 13010 net.cpp:397] Scale9 -> Convolution9 (in-place)
I0702 00:34:49.135946 20914 net.cpp:157] Top shape: 32 32 16 16 (262144)
I0702 00:34:49.135393 32261 net.cpp:106] Creating Layer Convolution10
I0702 00:34:49.136170 13010 layer_factory.hpp:77] Creating layer Scale9
I0702 00:34:49.135956 20914 net.cpp:165] Memory required for data: 85328000
I0702 00:34:49.135402 32261 net.cpp:454] Convolution10 <- Convolution9
I0702 00:34:49.136198 13010 net.cpp:150] Setting up Scale9
I0702 00:34:49.135967 20914 layer_factory.hpp:77] Creating layer Convolution9
I0702 00:34:49.135413 32261 net.cpp:411] Convolution10 -> Convolution10
I0702 00:34:49.135991 20914 net.cpp:106] Creating Layer Convolution9
I0702 00:34:49.136206 13010 net.cpp:157] Top shape: 32 32 16 16 (262144)
I0702 00:34:49.136003 20914 net.cpp:454] Convolution9 <- Eltwise3_ReLU7_0_split_1
I0702 00:34:49.136219 13010 net.cpp:165] Memory required for data: 88473728
I0702 00:34:49.136014 20914 net.cpp:411] Convolution9 -> Convolution9
I0702 00:34:49.135675 32261 net.cpp:150] Setting up Convolution10
I0702 00:34:49.136230 13010 layer_factory.hpp:77] Creating layer ReLU8
I0702 00:34:49.135689 32261 net.cpp:157] Top shape: 32 32 16 16 (262144)
I0702 00:34:49.136240 13010 net.cpp:106] Creating Layer ReLU8
I0702 00:34:49.135705 32261 net.cpp:165] Memory required for data: 90570880
I0702 00:34:49.136247 13010 net.cpp:454] ReLU8 <- Convolution9
I0702 00:34:49.136257 13010 net.cpp:397] ReLU8 -> Convolution9 (in-place)
I0702 00:34:49.136268 13010 net.cpp:150] Setting up ReLU8
I0702 00:34:49.135730 32261 layer_factory.hpp:77] Creating layer BatchNorm10
I0702 00:34:49.136276 13010 net.cpp:157] Top shape: 32 32 16 16 (262144)
I0702 00:34:49.135747 32261 net.cpp:106] Creating Layer BatchNorm10
I0702 00:34:49.136286 13010 net.cpp:165] Memory required for data: 89522304
I0702 00:34:49.135756 32261 net.cpp:454] BatchNorm10 <- Convolution10
I0702 00:34:49.136291 13010 layer_factory.hpp:77] Creating layer Convolution10
I0702 00:34:49.135766 32261 net.cpp:397] BatchNorm10 -> Convolution10 (in-place)
I0702 00:34:49.136310 13010 net.cpp:106] Creating Layer Convolution10
I0702 00:34:49.136319 13010 net.cpp:454] Convolution10 <- Convolution9
I0702 00:34:49.136332 13010 net.cpp:411] Convolution10 -> Convolution10
I0702 00:34:49.135792 32261 net.cpp:150] Setting up BatchNorm10
I0702 00:34:49.135802 32261 net.cpp:157] Top shape: 32 32 16 16 (262144)
…
I0702 00:34:49.375231  4664 net.cpp:397] Scale15 -> Convolution15 (in-place)
I0702 00:34:49.375252  4664 layer_factory.hpp:77] Creating layer Scale15
I0702 00:34:49.379380 32261 net.cpp:150] Setting up Scale19
I0702 00:34:49.375283  4664 net.cpp:150] Setting up Scale15
I0702 00:34:49.379390 32261 net.cpp:157] Top shape: 1 64 8 8 (4096)
I0702 00:34:49.379400 32261 net.cpp:165] Memory required for data: 4091916
I0702 00:34:49.375293  4664 net.cpp:157] Top shape: 1 64 8 8 (4096)
I0702 00:34:49.379411 32261 layer_factory.hpp:77] Creating layer Eltwise8
I0702 00:34:49.375303  4664 net.cpp:165] Memory required for data: 3797004
I0702 00:34:49.375314  4664 layer_factory.hpp:77] Creating layer Convolution16
I0702 00:34:49.375339  4664 net.cpp:106] Creating Layer Convolution16
I0702 00:34:49.375352  4664 net.cpp:454] Convolution16 <- Eltwise6_ReLU13_0_split_1
I0702 00:34:49.375367  4664 net.cpp:411] Convolution16 -> Convolution16
I0702 00:34:49.379421 32261 net.cpp:106] Creating Layer Eltwise8
I0702 00:34:49.375820  4664 net.cpp:150] Setting up Convolution16
I0702 00:34:49.379431 32261 net.cpp:454] Eltwise8 <- Eltwise7_ReLU15_0_split_1
I0702 00:34:49.375834  4664 net.cpp:157] Top shape: 1 64 8 8 (4096)
I0702 00:34:49.379446 32261 net.cpp:454] Eltwise8 <- Convolution19
I0702 00:34:49.375844  4664 net.cpp:165] Memory required for data: 3813388
I0702 00:34:49.379458 32261 net.cpp:411] Eltwise8 -> Eltwise8
I0702 00:34:49.375856  4664 layer_factory.hpp:77] Creating layer BatchNorm16
I0702 00:34:49.375869  4664 net.cpp:106] Creating Layer BatchNorm16
I0702 00:34:49.375876  4664 net.cpp:454] BatchNorm16 <- Convolution16
I0702 00:34:49.375891  4664 net.cpp:397] BatchNorm16 -> Convolution16 (in-place)
I0702 00:34:49.379472 32261 net.cpp:150] Setting up Eltwise8
I0702 00:34:49.379480 32261 net.cpp:157] Top shape: 1 64 8 8 (4096)
I0702 00:34:49.379489 32261 net.cpp:165] Memory required for data: 4108300
I0702 00:34:49.379496 32261 layer_factory.hpp:77] Creating layer ReLU17
I0702 00:34:49.379504 32261 net.cpp:106] Creating Layer ReLU17
I0702 00:34:49.375921  4664 net.cpp:150] Setting up BatchNorm16
I0702 00:34:49.375931  4664 net.cpp:157] Top shape: 1 64 8 8 (4096)
I0702 00:34:49.375941  4664 net.cpp:165] Memory required for data: 3829772
I0702 00:34:49.375967  4664 layer_factory.hpp:77] Creating layer Scale16
I0702 00:34:49.375983  4664 net.cpp:106] Creating Layer Scale16
I0702 00:34:49.375993  4664 net.cpp:454] Scale16 <- Convolution16
I0702 00:34:49.379511 32261 net.cpp:454] ReLU17 <- Eltwise8
I0702 00:34:49.379519 32261 net.cpp:397] ReLU17 -> Eltwise8 (in-place)
I0702 00:34:49.376003  4664 net.cpp:397] Scale16 -> Convolution16 (in-place)
I0702 00:34:49.379529 32261 net.cpp:150] Setting up ReLU17
I0702 00:34:49.379536 32261 net.cpp:157] Top shape: 1 64 8 8 (4096)
I0702 00:34:49.379544 32261 net.cpp:165] Memory required for data: 4124684
I0702 00:34:49.379550 32261 layer_factory.hpp:77] Creating layer Eltwise8_ReLU17_0_split
I0702 00:34:49.376019  4664 layer_factory.hpp:77] Creating layer Scale16
I0702 00:34:49.379564 32261 net.cpp:106] Creating Layer Eltwise8_ReLU17_0_split
I0702 00:34:49.376050  4664 net.cpp:150] Setting up Scale16
I0702 00:34:49.376062  4664 net.cpp:157] Top shape: 1 64 8 8 (4096)
I0702 00:34:49.376071  4664 net.cpp:165] Memory required for data: 3846156
I0702 00:34:49.376082  4664 layer_factory.hpp:77] Creating layer ReLU14
I0702 00:34:49.376092  4664 net.cpp:106] Creating Layer ReLU14
I0702 00:34:49.379570 32261 net.cpp:454] Eltwise8_ReLU17_0_split <- Eltwise8
I0702 00:34:49.379580 32261 net.cpp:411] Eltwise8_ReLU17_0_split -> Eltwise8_ReLU17_0_split_0
I0702 00:34:49.376099  4664 net.cpp:454] ReLU14 <- Convolution16
I0702 00:34:49.379590 32261 net.cpp:411] Eltwise8_ReLU17_0_split -> Eltwise8_ReLU17_0_split_1
I0702 00:34:49.376112  4664 net.cpp:397] ReLU14 -> Convolution16 (in-place)
I0702 00:34:49.379602 32261 net.cpp:150] Setting up Eltwise8_ReLU17_0_split
I0702 00:34:49.376127  4664 net.cpp:150] Setting up ReLU14
I0702 00:34:49.379608 32261 net.cpp:157] Top shape: 1 64 8 8 (4096)
I0702 00:34:49.376133  4664 net.cpp:157] Top shape: 1 64 8 8 (4096)
I0702 00:34:49.376142  4664 net.cpp:165] Memory required for data: 3862540
I0702 00:34:49.376148  4664 layer_factory.hpp:77] Creating layer Convolution17
I0702 00:34:49.376175  4664 net.cpp:106] Creating Layer Convolution17
I0702 00:34:49.376186  4664 net.cpp:454] Convolution17 <- Convolution16
I0702 00:34:49.379616 32261 net.cpp:157] Top shape: 1 64 8 8 (4096)
I0702 00:34:49.376199  4664 net.cpp:411] Convolution17 -> Convolution17
I0702 00:34:49.379626 32261 net.cpp:165] Memory required for data: 4157452
I0702 00:34:49.377035  4664 net.cpp:150] Setting up Convolution17
I0702 00:34:49.379631 32261 layer_factory.hpp:77] Creating layer Convolution20
I0702 00:34:49.377051  4664 net.cpp:157] Top shape: 1 64 8 8 (4096)
I0702 00:34:49.379650 32261 net.cpp:106] Creating Layer Convolution20
I0702 00:34:49.377061  4664 net.cpp:165] Memory required for data: 3878924
I0702 00:34:49.379659 32261 net.cpp:454] Convolution20 <- Eltwise8_ReLU17_0_split_0
I0702 00:34:49.377076  4664 layer_factory.hpp:77] Creating layer BatchNorm17
I0702 00:34:49.377089  4664 net.cpp:106] Creating Layer BatchNorm17
I0702 00:34:49.377096  4664 net.cpp:454] BatchNorm17 <- Convolution17
I0702 00:34:49.377110  4664 net.cpp:397] BatchNorm17 -> Convolution17 (in-place)
I0702 00:34:49.377135  4664 net.cpp:150] Setting up BatchNorm17
I0702 00:34:49.379670 32261 net.cpp:411] Convolution20 -> Convolution20
I0702 00:34:49.377144  4664 net.cpp:157] Top shape: 1 64 8 8 (4096)
I0702 00:34:49.377161  4664 net.cpp:165] Memory required for data: 3895308
I0702 00:34:49.377176  4664 layer_factory.hpp:77] Creating layer Scale17
I0702 00:34:49.377187  4664 net.cpp:106] Creating Layer Scale17
I0702 00:34:49.377194  4664 net.cpp:454] Scale17 <- Convolution17
I0702 00:34:49.377205  4664 net.cpp:397] Scale17 -> Convolution17 (in-place)
I0702 00:34:49.377223  4664 layer_factory.hpp:77] Creating layer Scale17
I0702 00:34:49.377254  4664 net.cpp:150] Setting up Scale17
I0702 00:34:49.377265  4664 net.cpp:157] Top shape: 1 64 8 8 (4096)
I0702 00:34:49.377274  4664 net.cpp:165] Memory required for data: 3911692
I0702 00:34:49.377285  4664 layer_factory.hpp:77] Creating layer Eltwise7
I0702 00:34:49.377296  4664 net.cpp:106] Creating Layer Eltwise7
I0702 00:34:49.377305  4664 net.cpp:454] Eltwise7 <- Convolution15
I0702 00:34:49.377312  4664 net.cpp:454] Eltwise7 <- Convolution17
I0702 00:34:49.377327  4664 net.cpp:411] Eltwise7 -> Eltwise7
I0702 00:34:49.377344  4664 net.cpp:150] Setting up Eltwise7
I0702 00:34:49.377353  4664 net.cpp:157] Top shape: 1 64 8 8 (4096)
I0702 00:34:49.377362  4664 net.cpp:165] Memory required for data: 3928076
I0702 00:34:49.377368  4664 layer_factory.hpp:77] Creating layer ReLU15
I0702 00:34:49.377377  4664 net.cpp:106] Creating Layer ReLU15
I0702 00:34:49.380506 13010 net.cpp:150] Setting up Convolution18
I0702 00:34:49.377383  4664 net.cpp:454] ReLU15 <- Eltwise7
I0702 00:34:49.377395  4664 net.cpp:397] ReLU15 -> Eltwise7 (in-place)
I0702 00:34:49.377405  4664 net.cpp:150] Setting up ReLU15
I0702 00:34:49.377411  4664 net.cpp:157] Top shape: 1 64 8 8 (4096)
I0702 00:34:49.377419  4664 net.cpp:165] Memory required for data: 3944460
I0702 00:34:49.380522 13010 net.cpp:157] Top shape: 1 64 8 8 (4096)
I0702 00:34:49.380532 13010 net.cpp:165] Memory required for data: 3993612
I0702 00:34:49.377426  4664 layer_factory.hpp:77] Creating layer Eltwise7_ReLU15_0_split
I0702 00:34:49.380544 13010 layer_factory.hpp:77] Creating layer BatchNorm18
I0702 00:34:49.377434  4664 net.cpp:106] Creating Layer Eltwise7_ReLU15_0_split
I0702 00:34:49.377441  4664 net.cpp:454] Eltwise7_ReLU15_0_split <- Eltwise7
I0702 00:34:49.377449  4664 net.cpp:411] Eltwise7_ReLU15_0_split -> Eltwise7_ReLU15_0_split_0
I0702 00:34:49.377460  4664 net.cpp:411] Eltwise7_ReLU15_0_split -> Eltwise7_ReLU15_0_split_1
I0702 00:34:49.377471  4664 net.cpp:150] Setting up Eltwise7_ReLU15_0_split
I0702 00:34:49.380561 13010 net.cpp:106] Creating Layer BatchNorm18
I0702 00:34:49.377486  4664 net.cpp:157] Top shape: 1 64 8 8 (4096)
I0702 00:34:49.380570 13010 net.cpp:454] BatchNorm18 <- Convolution18
I0702 00:34:49.377504  4664 net.cpp:157] Top shape: 1 64 8 8 (4096)
I0702 00:34:49.380587 13010 net.cpp:397] BatchNorm18 -> Convolution18 (in-place)
I0702 00:34:49.377513  4664 net.cpp:165] Memory required for data: 3977228
I0702 00:34:49.377521  4664 layer_factory.hpp:77] Creating layer Convolution18
I0702 00:34:49.377545  4664 net.cpp:106] Creating Layer Convolution18
I0702 00:34:49.377557  4664 net.cpp:454] Convolution18 <- Eltwise7_ReLU15_0_split_0
I0702 00:34:49.377573  4664 net.cpp:411] Convolution18 -> Convolution18
I0702 00:34:49.378399  4664 net.cpp:150] Setting up Convolution18
I0702 00:34:49.380614 13010 net.cpp:150] Setting up BatchNorm18
I0702 00:34:49.378415  4664 net.cpp:157] Top shape: 1 64 8 8 (4096)
I0702 00:34:49.380622 13010 net.cpp:157] Top shape: 1 64 8 8 (4096)
I0702 00:34:49.378424  4664 net.cpp:165] Memory required for data: 3993612
I0702 00:34:49.380638 13010 net.cpp:165] Memory required for data: 4009996
I0702 00:34:49.378437  4664 layer_factory.hpp:77] Creating layer BatchNorm18
I0702 00:34:49.378453  4664 net.cpp:106] Creating Layer BatchNorm18
I0702 00:34:49.378459  4664 net.cpp:454] BatchNorm18 <- Convolution18
I0702 00:34:49.378474  4664 net.cpp:397] BatchNorm18 -> Convolution18 (in-place)
I0702 00:34:49.378500  4664 net.cpp:150] Setting up BatchNorm18
I0702 00:34:49.380652 13010 layer_factory.hpp:77] Creating layer Scale18
I0702 00:34:49.378509  4664 net.cpp:157] Top shape: 1 64 8 8 (4096)
I0702 00:34:49.380666 13010 net.cpp:106] Creating Layer Scale18
I0702 00:34:49.378526  4664 net.cpp:165] Memory required for data: 4009996
I0702 00:34:49.380672 13010 net.cpp:454] Scale18 <- Convolution18
I0702 00:34:49.378541  4664 layer_factory.hpp:77] Creating layer Scale18
I0702 00:34:49.380684 13010 net.cpp:397] Scale18 -> Convolution18 (in-place)
I0702 00:34:49.378553  4664 net.cpp:106] Creating Layer Scale18
I0702 00:34:49.378561  4664 net.cpp:454] Scale18 <- Convolution18
I0702 00:34:49.378572  4664 net.cpp:397] Scale18 -> Convolution18 (in-place)
I0702 00:34:49.378592  4664 layer_factory.hpp:77] Creating layer Scale18
I0702 00:34:49.378621  4664 net.cpp:150] Setting up Scale18
I0702 00:34:49.380703 13010 layer_factory.hpp:77] Creating layer Scale18
I0702 00:34:49.378633  4664 net.cpp:157] Top shape: 1 64 8 8 (4096)
I0702 00:34:49.380733 13010 net.cpp:150] Setting up Scale18
I0702 00:34:49.378641  4664 net.cpp:165] Memory required for data: 4026380
I0702 00:34:49.378654  4664 layer_factory.hpp:77] Creating layer ReLU16
I0702 00:34:49.378664  4664 net.cpp:106] Creating Layer ReLU16
I0702 00:34:49.378671  4664 net.cpp:454] ReLU16 <- Convolution18
I0702 00:34:49.378679  4664 net.cpp:397] ReLU16 -> Convolution18 (in-place)
I0702 00:34:49.380744 13010 net.cpp:157] Top shape: 1 64 8 8 (4096)
I0702 00:34:49.378690  4664 net.cpp:150] Setting up ReLU16
I0702 00:34:49.380753 13010 net.cpp:165] Memory required for data: 4026380
I0702 00:34:49.378696  4664 net.cpp:157] Top shape: 1 64 8 8 (4096)
I0702 00:34:49.380765 13010 layer_factory.hpp:77] Creating layer ReLU16
I0702 00:34:49.380415 20914 net.cpp:150] Setting up Convolution19
I0702 00:34:49.378705  4664 net.cpp:165] Memory required for data: 4042764
I0702 00:34:49.380774 13010 net.cpp:106] Creating Layer ReLU16
I0702 00:34:49.380431 20914 net.cpp:157] Top shape: 1 64 8 8 (4096)
I0702 00:34:49.380441 20914 net.cpp:165] Memory required for data: 4059148
I0702 00:34:49.378711  4664 layer_factory.hpp:77] Creating layer Convolution19
I0702 00:34:49.380453 20914 layer_factory.hpp:77] Creating layer BatchNorm19
I0702 00:34:49.378734  4664 net.cpp:106] Creating Layer Convolution19
I0702 00:34:49.380470 20914 net.cpp:106] Creating Layer BatchNorm19
I0702 00:34:49.378746  4664 net.cpp:454] Convolution19 <- Convolution18
I0702 00:34:49.380781 13010 net.cpp:454] ReLU16 <- Convolution18
I0702 00:34:49.380479 20914 net.cpp:454] BatchNorm19 <- Convolution19
I0702 00:34:49.378765  4664 net.cpp:411] Convolution19 -> Convolution19
I0702 00:34:49.380790 13010 net.cpp:397] ReLU16 -> Convolution18 (in-place)
I0702 00:34:49.380489 20914 net.cpp:397] BatchNorm19 -> Convolution19 (in-place)
I0702 00:34:49.380800 13010 net.cpp:150] Setting up ReLU16
I0702 00:34:49.380515 20914 net.cpp:150] Setting up BatchNorm19
I0702 00:34:49.380806 13010 net.cpp:157] Top shape: 1 64 8 8 (4096)
I0702 00:34:49.380527 20914 net.cpp:157] Top shape: 1 64 8 8 (4096)
I0702 00:34:49.379596  4664 net.cpp:150] Setting up Convolution19
I0702 00:34:49.380815 13010 net.cpp:165] Memory required for data: 4042764
I0702 00:34:49.380535 20914 net.cpp:165] Memory required for data: 4075532
I0702 00:34:49.379611  4664 net.cpp:157] Top shape: 1 64 8 8 (4096)
I0702 00:34:49.380821 13010 layer_factory.hpp:77] Creating layer Convolution19
I0702 00:34:49.380574 20914 layer_factory.hpp:77] Creating layer Scale19
I0702 00:34:49.379621  4664 net.cpp:165] Memory required for data: 4059148
I0702 00:34:49.379634  4664 layer_factory.hpp:77] Creating layer BatchNorm19
I0702 00:34:49.379648  4664 net.cpp:106] Creating Layer BatchNorm19
I0702 00:34:49.380844 13010 net.cpp:106] Creating Layer Convolution19
I0702 00:34:49.379657  4664 net.cpp:454] BatchNorm19 <- Convolution19
I0702 00:34:49.380856 13010 net.cpp:454] Convolution19 <- Convolution18
I0702 00:34:49.380590 20914 net.cpp:106] Creating Layer Scale19
I0702 00:34:49.380597 20914 net.cpp:454] Scale19 <- Convolution19
I0702 00:34:49.379667  4664 net.cpp:397] BatchNorm19 -> Convolution19 (in-place)
I0702 00:34:49.380872 13010 net.cpp:411] Convolution19 -> Convolution19
I0702 00:34:49.380607 20914 net.cpp:397] Scale19 -> Convolution19 (in-place)
I0702 00:34:49.379693  4664 net.cpp:150] Setting up BatchNorm19
I0702 00:34:49.380625 20914 layer_factory.hpp:77] Creating layer Scale19
I0702 00:34:49.379703  4664 net.cpp:157] Top shape: 1 64 8 8 (4096)
I0702 00:34:49.380654 20914 net.cpp:150] Setting up Scale19
I0702 00:34:49.379714  4664 net.cpp:165] Memory required for data: 4075532
I0702 00:34:49.380666 20914 net.cpp:157] Top shape: 1 64 8 8 (4096)
I0702 00:34:49.379748  4664 layer_factory.hpp:77] Creating layer Scale19
I0702 00:34:49.380676 20914 net.cpp:165] Memory required for data: 4091916
I0702 00:34:49.379765  4664 net.cpp:106] Creating Layer Scale19
I0702 00:34:49.380686 20914 layer_factory.hpp:77] Creating layer Eltwise8
I0702 00:34:49.379776  4664 net.cpp:454] Scale19 <- Convolution19
I0702 00:34:49.380697 20914 net.cpp:106] Creating Layer Eltwise8
I0702 00:34:49.379786  4664 net.cpp:397] Scale19 -> Convolution19 (in-place)
I0702 00:34:49.380704 20914 net.cpp:454] Eltwise8 <- Eltwise7_ReLU15_0_split_1
I0702 00:34:49.379803  4664 layer_factory.hpp:77] Creating layer Scale19
I0702 00:34:49.380720 20914 net.cpp:454] Eltwise8 <- Convolution19
I0702 00:34:49.379832  4664 net.cpp:150] Setting up Scale19
I0702 00:34:49.380736 20914 net.cpp:411] Eltwise8 -> Eltwise8
I0702 00:34:49.379843  4664 net.cpp:157] Top shape: 1 64 8 8 (4096)
I0702 00:34:49.380754 20914 net.cpp:150] Setting up Eltwise8
I0702 00:34:49.379853  4664 net.cpp:165] Memory required for data: 4091916
I0702 00:34:49.380762 20914 net.cpp:157] Top shape: 1 64 8 8 (4096)
I0702 00:34:49.379864  4664 layer_factory.hpp:77] Creating layer Eltwise8
I0702 00:34:49.380771 20914 net.cpp:165] Memory required for data: 4108300
I0702 00:34:49.379879  4664 net.cpp:106] Creating Layer Eltwise8
I0702 00:34:49.380779 20914 layer_factory.hpp:77] Creating layer ReLU17
I0702 00:34:49.379889  4664 net.cpp:454] Eltwise8 <- Eltwise7_ReLU15_0_split_1
I0702 00:34:49.380787 20914 net.cpp:106] Creating Layer ReLU17
I0702 00:34:49.379905  4664 net.cpp:454] Eltwise8 <- Convolution19
I0702 00:34:49.380795 20914 net.cpp:454] ReLU17 <- Eltwise8
I0702 00:34:49.379915  4664 net.cpp:411] Eltwise8 -> Eltwise8
I0702 00:34:49.380805 20914 net.cpp:397] ReLU17 -> Eltwise8 (in-place)
I0702 00:34:49.379928  4664 net.cpp:150] Setting up Eltwise8
I0702 00:34:49.380816 20914 net.cpp:150] Setting up ReLU17
I0702 00:34:49.380486 32261 net.cpp:150] Setting up Convolution20
I0702 00:34:49.379936  4664 net.cpp:157] Top shape: 1 64 8 8 (4096)
I0702 00:34:49.380822 20914 net.cpp:157] Top shape: 1 64 8 8 (4096)
I0702 00:34:49.379945  4664 net.cpp:165] Memory required for data: 4108300
I0702 00:34:49.380831 20914 net.cpp:165] Memory required for data: 4124684
I0702 00:34:49.379951  4664 layer_factory.hpp:77] Creating layer ReLU17
I0702 00:34:49.380837 20914 layer_factory.hpp:77] Creating layer Eltwise8_ReLU17_0_split
I0702 00:34:49.380501 32261 net.cpp:157] Top shape: 1 64 8 8 (4096)
I0702 00:34:49.379966  4664 net.cpp:106] Creating Layer ReLU17
I0702 00:34:49.380846 20914 net.cpp:106] Creating Layer Eltwise8_ReLU17_0_split
I0702 00:34:49.380853 20914 net.cpp:454] Eltwise8_ReLU17_0_split <- Eltwise8
I0702 00:34:49.380511 32261 net.cpp:165] Memory required for data: 4173836
I0702 00:34:49.380522 32261 layer_factory.hpp:77] Creating layer BatchNorm20
I0702 00:34:49.379972  4664 net.cpp:454] ReLU17 <- Eltwise8
I0702 00:34:49.380861 20914 net.cpp:411] Eltwise8_ReLU17_0_split -> Eltwise8_ReLU17_0_split_0
I0702 00:34:49.380535 32261 net.cpp:106] Creating Layer BatchNorm20
I0702 00:34:49.379987  4664 net.cpp:397] ReLU17 -> Eltwise8 (in-place)
I0702 00:34:49.380873 20914 net.cpp:411] Eltwise8_ReLU17_0_split -> Eltwise8_ReLU17_0_split_1
I0702 00:34:49.380543 32261 net.cpp:454] BatchNorm20 <- Convolution20
I0702 00:34:49.380884 20914 net.cpp:150] Setting up Eltwise8_ReLU17_0_split
I0702 00:34:49.380002  4664 net.cpp:150] Setting up ReLU17
I0702 00:34:49.380892 20914 net.cpp:157] Top shape: 1 64 8 8 (4096)
I0702 00:34:49.380009  4664 net.cpp:157] Top shape: 1 64 8 8 (4096)
I0702 00:34:49.380017  4664 net.cpp:165] Memory required for data: 4124684
I0702 00:34:49.380024  4664 layer_factory.hpp:77] Creating layer Eltwise8_ReLU17_0_split
I0702 00:34:49.380908 20914 net.cpp:157] Top shape: 1 64 8 8 (4096)
I0702 00:34:49.380034  4664 net.cpp:106] Creating Layer Eltwise8_ReLU17_0_split
I0702 00:34:49.380918 20914 net.cpp:165] Memory required for data: 4157452
I0702 00:34:49.380555 32261 net.cpp:397] BatchNorm20 -> Convolution20 (in-place)
I0702 00:34:49.380041  4664 net.cpp:454] Eltwise8_ReLU17_0_split <- Eltwise8
I0702 00:34:49.380923 20914 layer_factory.hpp:77] Creating layer Convolution20
I0702 00:34:49.380581 32261 net.cpp:150] Setting up BatchNorm20
I0702 00:34:49.380050  4664 net.cpp:411] Eltwise8_ReLU17_0_split -> Eltwise8_ReLU17_0_split_0
I0702 00:34:49.380942 20914 net.cpp:106] Creating Layer Convolution20
I0702 00:34:49.380590 32261 net.cpp:157] Top shape: 1 64 8 8 (4096)
I0702 00:34:49.380064  4664 net.cpp:411] Eltwise8_ReLU17_0_split -> Eltwise8_ReLU17_0_split_1
I0702 00:34:49.380954 20914 net.cpp:454] Convolution20 <- Eltwise8_ReLU17_0_split_0
I0702 00:34:49.380599 32261 net.cpp:165] Memory required for data: 4190220
I0702 00:34:49.380076  4664 net.cpp:150] Setting up Eltwise8_ReLU17_0_split
I0702 00:34:49.380975 20914 net.cpp:411] Convolution20 -> Convolution20
I0702 00:34:49.380612 32261 layer_factory.hpp:77] Creating layer Scale20
I0702 00:34:49.380084  4664 net.cpp:157] Top shape: 1 64 8 8 (4096)
I0702 00:34:49.380092  4664 net.cpp:157] Top shape: 1 64 8 8 (4096)
I0702 00:34:49.380100  4664 net.cpp:165] Memory required for data: 4157452
I0702 00:34:49.380106  4664 layer_factory.hpp:77] Creating layer Convolution20
I0702 00:34:49.380127  4664 net.cpp:106] Creating Layer Convolution20
I0702 00:34:49.380626 32261 net.cpp:106] Creating Layer Scale20
I0702 00:34:49.380139  4664 net.cpp:454] Convolution20 <- Eltwise8_ReLU17_0_split_0
I0702 00:34:49.380635 32261 net.cpp:454] Scale20 <- Convolution20
I0702 00:34:49.380151  4664 net.cpp:411] Convolution20 -> Convolution20
I0702 00:34:49.380647 32261 net.cpp:397] Scale20 -> Convolution20 (in-place)
I0702 00:34:49.380671 32261 layer_factory.hpp:77] Creating layer Scale20
I0702 00:34:49.380698 32261 net.cpp:150] Setting up Scale20
I0702 00:34:49.380714 32261 net.cpp:157] Top shape: 1 64 8 8 (4096)
I0702 00:34:49.380726 32261 net.cpp:165] Memory required for data: 4206604
I0702 00:34:49.380738 32261 layer_factory.hpp:77] Creating layer ReLU18
I0702 00:34:49.380753 32261 net.cpp:106] Creating Layer ReLU18
I0702 00:34:49.380762 32261 net.cpp:454] ReLU18 <- Convolution20
I0702 00:34:49.380771 32261 net.cpp:397] ReLU18 -> Convolution20 (in-place)
I0702 00:34:49.380782 32261 net.cpp:150] Setting up ReLU18
I0702 00:34:49.380789 32261 net.cpp:157] Top shape: 1 64 8 8 (4096)
I0702 00:34:49.380797 32261 net.cpp:165] Memory required for data: 4222988
I0702 00:34:49.380803 32261 layer_factory.hpp:77] Creating layer Convolution21
I0702 00:34:49.380821 32261 net.cpp:106] Creating Layer Convolution21
I0702 00:34:49.380831 32261 net.cpp:454] Convolution21 <- Convolution20
I0702 00:34:49.380844 32261 net.cpp:411] Convolution21 -> Convolution21
I0702 00:34:49.381711 13010 net.cpp:150] Setting up Convolution19
I0702 00:34:49.381728 13010 net.cpp:157] Top shape: 1 64 8 8 (4096)
I0702 00:34:49.381738 13010 net.cpp:165] Memory required for data: 4059148
I0702 00:34:49.381750 13010 layer_factory.hpp:77] Creating layer BatchNorm19
I0702 00:34:49.381762 13010 net.cpp:106] Creating Layer BatchNorm19
I0702 00:34:49.381770 13010 net.cpp:454] BatchNorm19 <- Convolution19
I0702 00:34:49.381780 13010 net.cpp:397] BatchNorm19 -> Convolution19 (in-place)
I0702 00:34:49.381798 13010 net.cpp:150] Setting up BatchNorm19
I0702 00:34:49.381808 13010 net.cpp:157] Top shape: 1 64 8 8 (4096)
I0702 00:34:49.381815 13010 net.cpp:165] Memory required for data: 4075532
I0702 00:34:49.381848 13010 layer_factory.hpp:77] Creating layer Scale19
I0702 00:34:49.381866 13010 net.cpp:106] Creating Layer Scale19
I0702 00:34:49.380986  4664 net.cpp:150] Setting up Convolution20
I0702 00:34:49.381875 13010 net.cpp:454] Scale19 <- Convolution19
I0702 00:34:49.381886 13010 net.cpp:397] Scale19 -> Convolution19 (in-place)
I0702 00:34:49.381903 13010 layer_factory.hpp:77] Creating layer Scale19
I0702 00:34:49.381002  4664 net.cpp:157] Top shape: 1 64 8 8 (4096)
I0702 00:34:49.381929 13010 net.cpp:150] Setting up Scale19
I0702 00:34:49.381939 13010 net.cpp:157] Top shape: 1 64 8 8 (4096)
I0702 00:34:49.381018  4664 net.cpp:165] Memory required for data: 4173836
I0702 00:34:49.381031  4664 layer_factory.hpp:77] Creating layer BatchNorm20
I0702 00:34:49.381042  4664 net.cpp:106] Creating Layer BatchNorm20
I0702 00:34:49.381948 13010 net.cpp:165] Memory required for data: 4091916
I0702 00:34:49.381960 13010 layer_factory.hpp:77] Creating layer Eltwise8
I0702 00:34:49.381970 13010 net.cpp:106] Creating Layer Eltwise8
I0702 00:34:49.381050  4664 net.cpp:454] BatchNorm20 <- Convolution20
I0702 00:34:49.381062  4664 net.cpp:397] BatchNorm20 -> Convolution20 (in-place)
I0702 00:34:49.381980 13010 net.cpp:454] Eltwise8 <- Eltwise7_ReLU15_0_split_1
I0702 00:34:49.381997 13010 net.cpp:454] Eltwise8 <- Convolution19
I0702 00:34:49.382007 13010 net.cpp:411] Eltwise8 -> Eltwise8
I0702 00:34:49.381093  4664 net.cpp:150] Setting up BatchNorm20
I0702 00:34:49.382021 13010 net.cpp:150] Setting up Eltwise8
I0702 00:34:49.381104  4664 net.cpp:157] Top shape: 1 64 8 8 (4096)
I0702 00:34:49.381114  4664 net.cpp:165] Memory required for data: 4190220
I0702 00:34:49.381127  4664 layer_factory.hpp:77] Creating layer Scale20
I0702 00:34:49.382030 13010 net.cpp:157] Top shape: 1 64 8 8 (4096)
I0702 00:34:49.382037 13010 net.cpp:165] Memory required for data: 4108300
I0702 00:34:49.382045 13010 layer_factory.hpp:77] Creating layer ReLU17
I0702 00:34:49.381137  4664 net.cpp:106] Creating Layer Scale20
I0702 00:34:49.382053 13010 net.cpp:106] Creating Layer ReLU17
I0702 00:34:49.381145  4664 net.cpp:454] Scale20 <- Convolution20
I0702 00:34:49.382059 13010 net.cpp:454] ReLU17 <- Eltwise8
I0702 00:34:49.381158  4664 net.cpp:397] Scale20 -> Convolution20 (in-place)
I0702 00:34:49.382071 13010 net.cpp:397] ReLU17 -> Eltwise8 (in-place)
I0702 00:34:49.381178  4664 layer_factory.hpp:77] Creating layer Scale20
I0702 00:34:49.382081 13010 net.cpp:150] Setting up ReLU17
I0702 00:34:49.381206  4664 net.cpp:150] Setting up Scale20
I0702 00:34:49.382089 13010 net.cpp:157] Top shape: 1 64 8 8 (4096)
I0702 00:34:49.381218  4664 net.cpp:157] Top shape: 1 64 8 8 (4096)
I0702 00:34:49.382097 13010 net.cpp:165] Memory required for data: 4124684
I0702 00:34:49.381227  4664 net.cpp:165] Memory required for data: 4206604
I0702 00:34:49.382104 13010 layer_factory.hpp:77] Creating layer Eltwise8_ReLU17_0_split
I0702 00:34:49.381238  4664 layer_factory.hpp:77] Creating layer ReLU18
I0702 00:34:49.382113 13010 net.cpp:106] Creating Layer Eltwise8_ReLU17_0_split
I0702 00:34:49.382119 13010 net.cpp:454] Eltwise8_ReLU17_0_split <- Eltwise8
I0702 00:34:49.382128 13010 net.cpp:411] Eltwise8_ReLU17_0_split -> Eltwise8_ReLU17_0_split_0
I0702 00:34:49.381814 20914 net.cpp:150] Setting up Convolution20
I0702 00:34:49.381248  4664 net.cpp:106] Creating Layer ReLU18
I0702 00:34:49.381255  4664 net.cpp:454] ReLU18 <- Convolution20
I0702 00:34:49.381266  4664 net.cpp:397] ReLU18 -> Convolution20 (in-place)
I0702 00:34:49.382139 13010 net.cpp:411] Eltwise8_ReLU17_0_split -> Eltwise8_ReLU17_0_split_1
I0702 00:34:49.381278  4664 net.cpp:150] Setting up ReLU18
I0702 00:34:49.382155 13010 net.cpp:150] Setting up Eltwise8_ReLU17_0_split
I0702 00:34:49.381830 20914 net.cpp:157] Top shape: 1 64 8 8 (4096)
I0702 00:34:49.381840 20914 net.cpp:165] Memory required for data: 4173836
I0702 00:34:49.381852 20914 layer_factory.hpp:77] Creating layer BatchNorm20
I0702 00:34:49.382163 13010 net.cpp:157] Top shape: 1 64 8 8 (4096)
I0702 00:34:49.382170 13010 net.cpp:157] Top shape: 1 64 8 8 (4096)
I0702 00:34:49.381866 20914 net.cpp:106] Creating Layer BatchNorm20
I0702 00:34:49.382179 13010 net.cpp:165] Memory required for data: 4157452
I0702 00:34:49.381873 20914 net.cpp:454] BatchNorm20 <- Convolution20
I0702 00:34:49.381882 20914 net.cpp:397] BatchNorm20 -> Convolution20 (in-place)
I0702 00:34:49.381283  4664 net.cpp:157] Top shape: 1 64 8 8 (4096)
I0702 00:34:49.382185 13010 layer_factory.hpp:77] Creating layer Convolution20
I0702 00:34:49.381909 20914 net.cpp:150] Setting up BatchNorm20
I0702 00:34:49.381291  4664 net.cpp:165] Memory required for data: 4222988
I0702 00:34:49.381918 20914 net.cpp:157] Top shape: 1 64 8 8 (4096)
I0702 00:34:49.381299  4664 layer_factory.hpp:77] Creating layer Convolution21
I0702 00:34:49.381927 20914 net.cpp:165] Memory required for data: 4190220
I0702 00:34:49.381319  4664 net.cpp:106] Creating Layer Convolution21
I0702 00:34:49.382205 13010 net.cpp:106] Creating Layer Convolution20
I0702 00:34:49.381940 20914 layer_factory.hpp:77] Creating layer Scale20
I0702 00:34:49.381331  4664 net.cpp:454] Convolution21 <- Convolution20
I0702 00:34:49.382215 13010 net.cpp:454] Convolution20 <- Eltwise8_ReLU17_0_split_0
I0702 00:34:49.381955 20914 net.cpp:106] Creating Layer Scale20
I0702 00:34:49.381342  4664 net.cpp:411] Convolution21 -> Convolution21
I0702 00:34:49.382226 13010 net.cpp:411] Convolution20 -> Convolution20
I0702 00:34:49.381966 20914 net.cpp:454] Scale20 <- Convolution20
I0702 00:34:49.381978 20914 net.cpp:397] Scale20 -> Convolution20 (in-place)
I0702 00:34:49.381662 32261 net.cpp:150] Setting up Convolution21
I0702 00:34:49.381995 20914 layer_factory.hpp:77] Creating layer Scale20
I0702 00:34:49.382027 20914 net.cpp:150] Setting up Scale20
I0702 00:34:49.382038 20914 net.cpp:157] Top shape: 1 64 8 8 (4096)
I0702 00:34:49.381677 32261 net.cpp:157] Top shape: 1 64 8 8 (4096)
I0702 00:34:49.381686 32261 net.cpp:165] Memory required for data: 4239372
I0702 00:34:49.382048 20914 net.cpp:165] Memory required for data: 4206604
I0702 00:34:49.381698 32261 layer_factory.hpp:77] Creating layer BatchNorm21
I0702 00:34:49.382059 20914 layer_factory.hpp:77] Creating layer ReLU18
I0702 00:34:49.382068 20914 net.cpp:106] Creating Layer ReLU18
I0702 00:34:49.382076 20914 net.cpp:454] ReLU18 <- Convolution20
I0702 00:34:49.382084 20914 net.cpp:397] ReLU18 -> Convolution20 (in-place)
I0702 00:34:49.382094 20914 net.cpp:150] Setting up ReLU18
I0702 00:34:49.381721 32261 net.cpp:106] Creating Layer BatchNorm21
I0702 00:34:49.382102 20914 net.cpp:157] Top shape: 1 64 8 8 (4096)
I0702 00:34:49.381731 32261 net.cpp:454] BatchNorm21 <- Convolution21
I0702 00:34:49.382109 20914 net.cpp:165] Memory required for data: 4222988
I0702 00:34:49.381741 32261 net.cpp:397] BatchNorm21 -> Convolution21 (in-place)
I0702 00:34:49.382117 20914 layer_factory.hpp:77] Creating layer Convolution21
I0702 00:34:49.381764 32261 net.cpp:150] Setting up BatchNorm21
I0702 00:34:49.382139 20914 net.cpp:106] Creating Layer Convolution21
I0702 00:34:49.381773 32261 net.cpp:157] Top shape: 1 64 8 8 (4096)
I0702 00:34:49.382153 20914 net.cpp:454] Convolution21 <- Convolution20
I0702 00:34:49.382169 20914 net.cpp:411] Convolution21 -> Convolution21
I0702 00:34:49.381783 32261 net.cpp:165] Memory required for data: 4255756
I0702 00:34:49.381795 32261 layer_factory.hpp:77] Creating layer Scale21
I0702 00:34:49.381808 32261 net.cpp:106] Creating Layer Scale21
I0702 00:34:49.381817 32261 net.cpp:454] Scale21 <- Convolution21
I0702 00:34:49.381826 32261 net.cpp:397] Scale21 -> Convolution21 (in-place)
I0702 00:34:49.381842 32261 layer_factory.hpp:77] Creating layer Scale21
I0702 00:34:49.381870 32261 net.cpp:150] Setting up Scale21
I0702 00:34:49.381880 32261 net.cpp:157] Top shape: 1 64 8 8 (4096)
I0702 00:34:49.381889 32261 net.cpp:165] Memory required for data: 4272140
I0702 00:34:49.381901 32261 layer_factory.hpp:77] Creating layer Eltwise9
I0702 00:34:49.381913 32261 net.cpp:106] Creating Layer Eltwise9
I0702 00:34:49.381923 32261 net.cpp:454] Eltwise9 <- Eltwise8_ReLU17_0_split_1
I0702 00:34:49.381932 32261 net.cpp:454] Eltwise9 <- Convolution21
I0702 00:34:49.381939 32261 net.cpp:411] Eltwise9 -> Eltwise9
I0702 00:34:49.381953 32261 net.cpp:150] Setting up Eltwise9
I0702 00:34:49.381960 32261 net.cpp:157] Top shape: 1 64 8 8 (4096)
I0702 00:34:49.381969 32261 net.cpp:165] Memory required for data: 4288524
I0702 00:34:49.381976 32261 layer_factory.hpp:77] Creating layer ReLU19
I0702 00:34:49.381988 32261 net.cpp:106] Creating Layer ReLU19
I0702 00:34:49.381996 32261 net.cpp:454] ReLU19 <- Eltwise9
I0702 00:34:49.382004 32261 net.cpp:397] ReLU19 -> Eltwise9 (in-place)
I0702 00:34:49.382014 32261 net.cpp:150] Setting up ReLU19
I0702 00:34:49.382020 32261 net.cpp:157] Top shape: 1 64 8 8 (4096)
I0702 00:34:49.382028 32261 net.cpp:165] Memory required for data: 4304908
I0702 00:34:49.382035 32261 layer_factory.hpp:77] Creating layer Pooling1
I0702 00:34:49.382045 32261 net.cpp:106] Creating Layer Pooling1
I0702 00:34:49.382050 32261 net.cpp:454] Pooling1 <- Eltwise9
I0702 00:34:49.382062 32261 net.cpp:411] Pooling1 -> Pooling1
I0702 00:34:49.382078 32261 net.cpp:150] Setting up Pooling1
I0702 00:34:49.382086 32261 net.cpp:157] Top shape: 1 64 1 1 (64)
I0702 00:34:49.382095 32261 net.cpp:165] Memory required for data: 4305164
I0702 00:34:49.382102 32261 layer_factory.hpp:77] Creating layer InnerProduct1
I0702 00:34:49.382113 32261 net.cpp:106] Creating Layer InnerProduct1
I0702 00:34:49.382120 32261 net.cpp:454] InnerProduct1 <- Pooling1
I0702 00:34:49.382133 32261 net.cpp:411] InnerProduct1 -> InnerProduct1
I0702 00:34:49.382174 32261 net.cpp:150] Setting up InnerProduct1
I0702 00:34:49.382184 32261 net.cpp:157] Top shape: 1 10 (10)
I0702 00:34:49.382192 32261 net.cpp:165] Memory required for data: 4305204
I0702 00:34:49.382203 32261 layer_factory.hpp:77] Creating layer InnerProduct1_InnerProduct1_0_split
I0702 00:34:49.382213 32261 net.cpp:106] Creating Layer InnerProduct1_InnerProduct1_0_split
I0702 00:34:49.382220 32261 net.cpp:454] InnerProduct1_InnerProduct1_0_split <- InnerProduct1
I0702 00:34:49.382230 32261 net.cpp:411] InnerProduct1_InnerProduct1_0_split -> InnerProduct1_InnerProduct1_0_split_0
I0702 00:34:49.382243 32261 net.cpp:411] InnerProduct1_InnerProduct1_0_split -> InnerProduct1_InnerProduct1_0_split_1
I0702 00:34:49.382262 32261 net.cpp:150] Setting up InnerProduct1_InnerProduct1_0_split
I0702 00:34:49.382272 32261 net.cpp:157] Top shape: 1 10 (10)
I0702 00:34:49.382280 32261 net.cpp:157] Top shape: 1 10 (10)
I0702 00:34:49.382288 32261 net.cpp:165] Memory required for data: 4305284
I0702 00:34:49.382294 32261 layer_factory.hpp:77] Creating layer SoftmaxWithLoss1
I0702 00:34:49.382304 32261 net.cpp:106] Creating Layer SoftmaxWithLoss1
I0702 00:34:49.382310 32261 net.cpp:454] SoftmaxWithLoss1 <- InnerProduct1_InnerProduct1_0_split_0
I0702 00:34:49.382318 32261 net.cpp:454] SoftmaxWithLoss1 <- Data2_Data1_1_split_0
I0702 00:34:49.382338 32261 net.cpp:411] SoftmaxWithLoss1 -> SoftmaxWithLoss1
I0702 00:34:49.382351 32261 layer_factory.hpp:77] Creating layer SoftmaxWithLoss1
I0702 00:34:49.383065 13010 net.cpp:150] Setting up Convolution20
I0702 00:34:49.382186  4664 net.cpp:150] Setting up Convolution21
I0702 00:34:49.382375 32261 net.cpp:150] Setting up SoftmaxWithLoss1
I0702 00:34:49.383081 13010 net.cpp:157] Top shape: 1 64 8 8 (4096)
I0702 00:34:49.383090 13010 net.cpp:165] Memory required for data: 4173836
I0702 00:34:49.382385 32261 net.cpp:157] Top shape: (1)
I0702 00:34:49.383103 13010 layer_factory.hpp:77] Creating layer BatchNorm20
I0702 00:34:49.382393 32261 net.cpp:160]     with loss weight 1
I0702 00:34:49.382203  4664 net.cpp:157] Top shape: 1 64 8 8 (4096)
I0702 00:34:49.382212  4664 net.cpp:165] Memory required for data: 4239372
I0702 00:34:49.382403 32261 net.cpp:165] Memory required for data: 4305288
I0702 00:34:49.382411 32261 layer_factory.hpp:77] Creating layer Accuracy1
I0702 00:34:49.383121 13010 net.cpp:106] Creating Layer BatchNorm20
I0702 00:34:49.382225  4664 layer_factory.hpp:77] Creating layer BatchNorm21
I0702 00:34:49.383132 13010 net.cpp:454] BatchNorm20 <- Convolution20
I0702 00:34:49.383144 13010 net.cpp:397] BatchNorm20 -> Convolution20 (in-place)
I0702 00:34:49.382251  4664 net.cpp:106] Creating Layer BatchNorm21
I0702 00:34:49.382261  4664 net.cpp:454] BatchNorm21 <- Convolution21
I0702 00:34:49.382272  4664 net.cpp:397] BatchNorm21 -> Convolution21 (in-place)
I0702 00:34:49.383170 13010 net.cpp:150] Setting up BatchNorm20
I0702 00:34:49.383182 13010 net.cpp:157] Top shape: 1 64 8 8 (4096)
I0702 00:34:49.383190 13010 net.cpp:165] Memory required for data: 4190220
I0702 00:34:49.382297  4664 net.cpp:150] Setting up BatchNorm21
I0702 00:34:49.382308  4664 net.cpp:157] Top shape: 1 64 8 8 (4096)
I0702 00:34:49.382316  4664 net.cpp:165] Memory required for data: 4255756
I0702 00:34:49.383208 13010 layer_factory.hpp:77] Creating layer Scale20
I0702 00:34:49.383219 13010 net.cpp:106] Creating Layer Scale20
I0702 00:34:49.382333  4664 layer_factory.hpp:77] Creating layer Scale21
I0702 00:34:49.382344  4664 net.cpp:106] Creating Layer Scale21
I0702 00:34:49.383226 13010 net.cpp:454] Scale20 <- Convolution20
I0702 00:34:49.383235 13010 net.cpp:397] Scale20 -> Convolution20 (in-place)
I0702 00:34:49.382350  4664 net.cpp:454] Scale21 <- Convolution21
I0702 00:34:49.382359  4664 net.cpp:397] Scale21 -> Convolution21 (in-place)
I0702 00:34:49.383258 13010 layer_factory.hpp:77] Creating layer Scale20
I0702 00:34:49.383291 13010 net.cpp:150] Setting up Scale20
I0702 00:34:49.382381  4664 layer_factory.hpp:77] Creating layer Scale21
I0702 00:34:49.382407  4664 net.cpp:150] Setting up Scale21
I0702 00:34:49.383301 13010 net.cpp:157] Top shape: 1 64 8 8 (4096)
I0702 00:34:49.383311 13010 net.cpp:165] Memory required for data: 4206604
I0702 00:34:49.383322 13010 layer_factory.hpp:77] Creating layer ReLU18
I0702 00:34:49.383332 13010 net.cpp:106] Creating Layer ReLU18
I0702 00:34:49.382416  4664 net.cpp:157] Top shape: 1 64 8 8 (4096)
I0702 00:34:49.383337 13010 net.cpp:454] ReLU18 <- Convolution20
I0702 00:34:49.382431  4664 net.cpp:165] Memory required for data: 4272140
I0702 00:34:49.382443  4664 layer_factory.hpp:77] Creating layer Eltwise9
I0702 00:34:49.383008 20914 net.cpp:150] Setting up Convolution21
I0702 00:34:49.383349 13010 net.cpp:397] ReLU18 -> Convolution20 (in-place)
I0702 00:34:49.382454  4664 net.cpp:106] Creating Layer Eltwise9
I0702 00:34:49.383361 13010 net.cpp:150] Setting up ReLU18
I0702 00:34:49.382462  4664 net.cpp:454] Eltwise9 <- Eltwise8_ReLU17_0_split_1
I0702 00:34:49.383368 13010 net.cpp:157] Top shape: 1 64 8 8 (4096)
I0702 00:34:49.383024 20914 net.cpp:157] Top shape: 1 64 8 8 (4096)
I0702 00:34:49.383034 20914 net.cpp:165] Memory required for data: 4239372
I0702 00:34:49.382468  4664 net.cpp:454] Eltwise9 <- Convolution21
I0702 00:34:49.382480  4664 net.cpp:411] Eltwise9 -> Eltwise9
I0702 00:34:49.383376 13010 net.cpp:165] Memory required for data: 4222988
I0702 00:34:49.383046 20914 layer_factory.hpp:77] Creating layer BatchNorm21
I0702 00:34:49.382493  4664 net.cpp:150] Setting up Eltwise9
I0702 00:34:49.383383 13010 layer_factory.hpp:77] Creating layer Convolution21
I0702 00:34:49.383067 20914 net.cpp:106] Creating Layer BatchNorm21
I0702 00:34:49.383075 20914 net.cpp:454] BatchNorm21 <- Convolution21
I0702 00:34:49.383085 20914 net.cpp:397] BatchNorm21 -> Convolution21 (in-place)
I0702 00:34:49.382500  4664 net.cpp:157] Top shape: 1 64 8 8 (4096)
I0702 00:34:49.382509  4664 net.cpp:165] Memory required for data: 4288524
I0702 00:34:49.382516  4664 layer_factory.hpp:77] Creating layer ReLU19
I0702 00:34:49.383411 13010 net.cpp:106] Creating Layer Convolution21
I0702 00:34:49.383112 20914 net.cpp:150] Setting up BatchNorm21
I0702 00:34:49.383123 20914 net.cpp:157] Top shape: 1 64 8 8 (4096)
I0702 00:34:49.383132 20914 net.cpp:165] Memory required for data: 4255756
I0702 00:34:49.382524  4664 net.cpp:106] Creating Layer ReLU19
I0702 00:34:49.382531  4664 net.cpp:454] ReLU19 <- Eltwise9
I0702 00:34:49.383424 13010 net.cpp:454] Convolution21 <- Convolution20
I0702 00:34:49.382539  4664 net.cpp:397] ReLU19 -> Eltwise9 (in-place)
I0702 00:34:49.383440 13010 net.cpp:411] Convolution21 -> Convolution21
I0702 00:34:49.383147 20914 layer_factory.hpp:77] Creating layer Scale21
I0702 00:34:49.382550  4664 net.cpp:150] Setting up ReLU19
I0702 00:34:49.383162 20914 net.cpp:106] Creating Layer Scale21
I0702 00:34:49.382556  4664 net.cpp:157] Top shape: 1 64 8 8 (4096)
I0702 00:34:49.383172 20914 net.cpp:454] Scale21 <- Convolution21
I0702 00:34:49.383182 20914 net.cpp:397] Scale21 -> Convolution21 (in-place)
I0702 00:34:49.383198 20914 layer_factory.hpp:77] Creating layer Scale21
I0702 00:34:49.382565  4664 net.cpp:165] Memory required for data: 4304908
I0702 00:34:49.382570  4664 layer_factory.hpp:77] Creating layer Pooling1
I0702 00:34:49.383235 20914 net.cpp:150] Setting up Scale21
I0702 00:34:49.382586  4664 net.cpp:106] Creating Layer Pooling1
I0702 00:34:49.382594  4664 net.cpp:454] Pooling1 <- Eltwise9
I0702 00:34:49.383247 20914 net.cpp:157] Top shape: 1 64 8 8 (4096)
I0702 00:34:49.382604  4664 net.cpp:411] Pooling1 -> Pooling1
I0702 00:34:49.383256 20914 net.cpp:165] Memory required for data: 4272140
I0702 00:34:49.382618  4664 net.cpp:150] Setting up Pooling1
I0702 00:34:49.383271 20914 layer_factory.hpp:77] Creating layer Eltwise9
I0702 00:34:49.383281 20914 net.cpp:106] Creating Layer Eltwise9
I0702 00:34:49.382628  4664 net.cpp:157] Top shape: 1 64 1 1 (64)
I0702 00:34:49.383289 20914 net.cpp:454] Eltwise9 <- Eltwise8_ReLU17_0_split_1
I0702 00:34:49.383297 20914 net.cpp:454] Eltwise9 <- Convolution21
I0702 00:34:49.382637  4664 net.cpp:165] Memory required for data: 4305164
I0702 00:34:49.383306 20914 net.cpp:411] Eltwise9 -> Eltwise9
I0702 00:34:49.382643  4664 layer_factory.hpp:77] Creating layer InnerProduct1
I0702 00:34:49.382658  4664 net.cpp:106] Creating Layer InnerProduct1
I0702 00:34:49.383319 20914 net.cpp:150] Setting up Eltwise9
I0702 00:34:49.383327 20914 net.cpp:157] Top shape: 1 64 8 8 (4096)
I0702 00:34:49.382666  4664 net.cpp:454] InnerProduct1 <- Pooling1
I0702 00:34:49.383334 20914 net.cpp:165] Memory required for data: 4288524
I0702 00:34:49.383340 20914 layer_factory.hpp:77] Creating layer ReLU19
I0702 00:34:49.383358 20914 net.cpp:106] Creating Layer ReLU19
I0702 00:34:49.383366 20914 net.cpp:454] ReLU19 <- Eltwise9
I0702 00:34:49.382676  4664 net.cpp:411] InnerProduct1 -> InnerProduct1
I0702 00:34:49.383375 20914 net.cpp:397] ReLU19 -> Eltwise9 (in-place)
I0702 00:34:49.382719  4664 net.cpp:150] Setting up InnerProduct1
I0702 00:34:49.383386 20914 net.cpp:150] Setting up ReLU19
I0702 00:34:49.382732  4664 net.cpp:157] Top shape: 1 10 (10)
I0702 00:34:49.383393 20914 net.cpp:157] Top shape: 1 64 8 8 (4096)
I0702 00:34:49.383401 20914 net.cpp:165] Memory required for data: 4304908
I0702 00:34:49.382741  4664 net.cpp:165] Memory required for data: 4305204
I0702 00:34:49.382753  4664 layer_factory.hpp:77] Creating layer InnerProduct1_InnerProduct1_0_split
I0702 00:34:49.383407 20914 layer_factory.hpp:77] Creating layer Pooling1
I0702 00:34:49.382768  4664 net.cpp:106] Creating Layer InnerProduct1_InnerProduct1_0_split
I0702 00:34:49.383417 20914 net.cpp:106] Creating Layer Pooling1
I0702 00:34:49.382777  4664 net.cpp:454] InnerProduct1_InnerProduct1_0_split <- InnerProduct1
I0702 00:34:49.383426 20914 net.cpp:454] Pooling1 <- Eltwise9
I0702 00:34:49.382786  4664 net.cpp:411] InnerProduct1_InnerProduct1_0_split -> InnerProduct1_InnerProduct1_0_split_0
I0702 00:34:49.383435 20914 net.cpp:411] Pooling1 -> Pooling1
I0702 00:34:49.382798  4664 net.cpp:411] InnerProduct1_InnerProduct1_0_split -> InnerProduct1_InnerProduct1_0_split_1
I0702 00:34:49.383450 20914 net.cpp:150] Setting up Pooling1
I0702 00:34:49.383456 20914 net.cpp:157] Top shape: 1 64 1 1 (64)
I0702 00:34:49.382812  4664 net.cpp:150] Setting up InnerProduct1_InnerProduct1_0_split
I0702 00:34:49.383466 20914 net.cpp:165] Memory required for data: 4305164
I0702 00:34:49.382820  4664 net.cpp:157] Top shape: 1 10 (10)
I0702 00:34:49.383471 20914 layer_factory.hpp:77] Creating layer InnerProduct1
I0702 00:34:49.382828  4664 net.cpp:157] Top shape: 1 10 (10)
I0702 00:34:49.383482 20914 net.cpp:106] Creating Layer InnerProduct1
I0702 00:34:49.382836  4664 net.cpp:165] Memory required for data: 4305284
I0702 00:34:49.383489 20914 net.cpp:454] InnerProduct1 <- Pooling1
I0702 00:34:49.383504 20914 net.cpp:411] InnerProduct1 -> InnerProduct1
I0702 00:34:49.382843  4664 layer_factory.hpp:77] Creating layer SoftmaxWithLoss1
I0702 00:34:49.382853  4664 net.cpp:106] Creating Layer SoftmaxWithLoss1
I0702 00:34:49.382859  4664 net.cpp:454] SoftmaxWithLoss1 <- InnerProduct1_InnerProduct1_0_split_0
I0702 00:34:49.382866  4664 net.cpp:454] SoftmaxWithLoss1 <- Data2_Data1_1_split_0
I0702 00:34:49.383551 20914 net.cpp:150] Setting up InnerProduct1
I0702 00:34:49.382884  4664 net.cpp:411] SoftmaxWithLoss1 -> SoftmaxWithLoss1
I0702 00:34:49.382899  4664 layer_factory.hpp:77] Creating layer SoftmaxWithLoss1
I0702 00:34:49.383564 20914 net.cpp:157] Top shape: 1 10 (10)
I0702 00:34:49.382922  4664 net.cpp:150] Setting up SoftmaxWithLoss1
I0702 00:34:49.383574 20914 net.cpp:165] Memory required for data: 4305204
I0702 00:34:49.383584 20914 layer_factory.hpp:77] Creating layer InnerProduct1_InnerProduct1_0_split
I0702 00:34:49.382933  4664 net.cpp:157] Top shape: (1)
I0702 00:34:49.383594 20914 net.cpp:106] Creating Layer InnerProduct1_InnerProduct1_0_split
I0702 00:34:49.383602 20914 net.cpp:454] InnerProduct1_InnerProduct1_0_split <- InnerProduct1
I0702 00:34:49.382943  4664 net.cpp:160]     with loss weight 1
I0702 00:34:49.383615 20914 net.cpp:411] InnerProduct1_InnerProduct1_0_split -> InnerProduct1_InnerProduct1_0_split_0
I0702 00:34:49.382959  4664 net.cpp:165] Memory required for data: 4305288
I0702 00:34:49.382966  4664 layer_factory.hpp:77] Creating layer Accuracy1
I0702 00:34:49.383626 20914 net.cpp:411] InnerProduct1_InnerProduct1_0_split -> InnerProduct1_InnerProduct1_0_split_1
I0702 00:34:49.383639 20914 net.cpp:150] Setting up InnerProduct1_InnerProduct1_0_split
I0702 00:34:49.383646 20914 net.cpp:157] Top shape: 1 10 (10)
I0702 00:34:49.383656 20914 net.cpp:157] Top shape: 1 10 (10)
I0702 00:34:49.383662 20914 net.cpp:165] Memory required for data: 4305284
I0702 00:34:49.383669 20914 layer_factory.hpp:77] Creating layer SoftmaxWithLoss1
I0702 00:34:49.383678 20914 net.cpp:106] Creating Layer SoftmaxWithLoss1
I0702 00:34:49.383685 20914 net.cpp:454] SoftmaxWithLoss1 <- InnerProduct1_InnerProduct1_0_split_0
I0702 00:34:49.383693 20914 net.cpp:454] SoftmaxWithLoss1 <- Data2_Data1_1_split_0
I0702 00:34:49.383718 20914 net.cpp:411] SoftmaxWithLoss1 -> SoftmaxWithLoss1
I0702 00:34:49.383736 20914 layer_factory.hpp:77] Creating layer SoftmaxWithLoss1
I0702 00:34:49.383757 20914 net.cpp:150] Setting up SoftmaxWithLoss1
I0702 00:34:49.383766 20914 net.cpp:157] Top shape: (1)
I0702 00:34:49.383775 20914 net.cpp:160]     with loss weight 1
I0702 00:34:49.383786 20914 net.cpp:165] Memory required for data: 4305288
I0702 00:34:49.383793 20914 layer_factory.hpp:77] Creating layer Accuracy1
I0702 00:34:49.384263 13010 net.cpp:150] Setting up Convolution21
I0702 00:34:49.383595 32261 net.cpp:106] Creating Layer Accuracy1
I0702 00:34:49.384277 13010 net.cpp:157] Top shape: 1 64 8 8 (4096)
I0702 00:34:49.384287 13010 net.cpp:165] Memory required for data: 4239372
I0702 00:34:49.383620 32261 net.cpp:454] Accuracy1 <- InnerProduct1_InnerProduct1_0_split_1
I0702 00:34:49.383630 32261 net.cpp:454] Accuracy1 <- Data2_Data1_1_split_1
I0702 00:34:49.384299 13010 layer_factory.hpp:77] Creating layer BatchNorm21
I0702 00:34:49.383641 32261 net.cpp:411] Accuracy1 -> Accuracy1
I0702 00:34:49.384325 13010 net.cpp:106] Creating Layer BatchNorm21
I0702 00:34:49.384335 13010 net.cpp:454] BatchNorm21 <- Convolution21
I0702 00:34:49.384346 13010 net.cpp:397] BatchNorm21 -> Convolution21 (in-place)
I0702 00:34:49.384372 13010 net.cpp:150] Setting up BatchNorm21
I0702 00:34:49.384382 13010 net.cpp:157] Top shape: 1 64 8 8 (4096)
I0702 00:34:49.384392 13010 net.cpp:165] Memory required for data: 4255756
I0702 00:34:49.384418 13010 layer_factory.hpp:77] Creating layer Scale21
I0702 00:34:49.384438 13010 net.cpp:106] Creating Layer Scale21
I0702 00:34:49.384447 13010 net.cpp:454] Scale21 <- Convolution21
I0702 00:34:49.384457 13010 net.cpp:397] Scale21 -> Convolution21 (in-place)
I0702 00:34:49.384474 13010 layer_factory.hpp:77] Creating layer Scale21
I0702 00:34:49.384505 13010 net.cpp:150] Setting up Scale21
I0702 00:34:49.384517 13010 net.cpp:157] Top shape: 1 64 8 8 (4096)
I0702 00:34:49.384533 13010 net.cpp:165] Memory required for data: 4272140
I0702 00:34:49.384546 13010 layer_factory.hpp:77] Creating layer Eltwise9
I0702 00:34:49.384557 13010 net.cpp:106] Creating Layer Eltwise9
I0702 00:34:49.384563 13010 net.cpp:454] Eltwise9 <- Eltwise8_ReLU17_0_split_1
I0702 00:34:49.384572 13010 net.cpp:454] Eltwise9 <- Convolution21
I0702 00:34:49.384582 13010 net.cpp:411] Eltwise9 -> Eltwise9
I0702 00:34:49.384594 13010 net.cpp:150] Setting up Eltwise9
I0702 00:34:49.384603 13010 net.cpp:157] Top shape: 1 64 8 8 (4096)
I0702 00:34:49.384611 13010 net.cpp:165] Memory required for data: 4288524
I0702 00:34:49.384618 13010 layer_factory.hpp:77] Creating layer ReLU19
I0702 00:34:49.384631 13010 net.cpp:106] Creating Layer ReLU19
I0702 00:34:49.384639 13010 net.cpp:454] ReLU19 <- Eltwise9
I0702 00:34:49.384646 13010 net.cpp:397] ReLU19 -> Eltwise9 (in-place)
I0702 00:34:49.384656 13010 net.cpp:150] Setting up ReLU19
I0702 00:34:49.384663 13010 net.cpp:157] Top shape: 1 64 8 8 (4096)
I0702 00:34:49.384671 13010 net.cpp:165] Memory required for data: 4304908
I0702 00:34:49.384678 13010 layer_factory.hpp:77] Creating layer Pooling1
I0702 00:34:49.384687 13010 net.cpp:106] Creating Layer Pooling1
I0702 00:34:49.383756  4664 net.cpp:106] Creating Layer Accuracy1
I0702 00:34:49.383780  4664 net.cpp:454] Accuracy1 <- InnerProduct1_InnerProduct1_0_split_1
I0702 00:34:49.383792  4664 net.cpp:454] Accuracy1 <- Data2_Data1_1_split_1
I0702 00:34:49.383805  4664 net.cpp:411] Accuracy1 -> Accuracy1
I0702 00:34:49.384694 13010 net.cpp:454] Pooling1 <- Eltwise9
I0702 00:34:49.384708 13010 net.cpp:411] Pooling1 -> Pooling1
I0702 00:34:49.384727 13010 net.cpp:150] Setting up Pooling1
I0702 00:34:49.384735 13010 net.cpp:157] Top shape: 1 64 1 1 (64)
I0702 00:34:49.384745 13010 net.cpp:165] Memory required for data: 4305164
I0702 00:34:49.384752 13010 layer_factory.hpp:77] Creating layer InnerProduct1
I0702 00:34:49.384766 13010 net.cpp:106] Creating Layer InnerProduct1
I0702 00:34:49.384775 13010 net.cpp:454] InnerProduct1 <- Pooling1
I0702 00:34:49.384785 13010 net.cpp:411] InnerProduct1 -> InnerProduct1
I0702 00:34:49.384829 13010 net.cpp:150] Setting up InnerProduct1
I0702 00:34:49.384840 13010 net.cpp:157] Top shape: 1 10 (10)
I0702 00:34:49.384850 13010 net.cpp:165] Memory required for data: 4305204
I0702 00:34:49.384860 13010 layer_factory.hpp:77] Creating layer InnerProduct1_InnerProduct1_0_split
I0702 00:34:49.384871 13010 net.cpp:106] Creating Layer InnerProduct1_InnerProduct1_0_split
I0702 00:34:49.384877 13010 net.cpp:454] InnerProduct1_InnerProduct1_0_split <- InnerProduct1
I0702 00:34:49.384892 13010 net.cpp:411] InnerProduct1_InnerProduct1_0_split -> InnerProduct1_InnerProduct1_0_split_0
I0702 00:34:49.384909 13010 net.cpp:411] InnerProduct1_InnerProduct1_0_split -> InnerProduct1_InnerProduct1_0_split_1
I0702 00:34:49.384922 13010 net.cpp:150] Setting up InnerProduct1_InnerProduct1_0_split
I0702 00:34:49.384929 13010 net.cpp:157] Top shape: 1 10 (10)
I0702 00:34:49.384938 13010 net.cpp:157] Top shape: 1 10 (10)
I0702 00:34:49.384945 13010 net.cpp:165] Memory required for data: 4305284
I0702 00:34:49.384953 13010 layer_factory.hpp:77] Creating layer SoftmaxWithLoss1
I0702 00:34:49.384961 13010 net.cpp:106] Creating Layer SoftmaxWithLoss1
I0702 00:34:49.384968 13010 net.cpp:454] SoftmaxWithLoss1 <- InnerProduct1_InnerProduct1_0_split_0
I0702 00:34:49.384976 13010 net.cpp:454] SoftmaxWithLoss1 <- Data2_Data1_1_split_0
…
