…
I0628 14:10:22.228219 26841 net.cpp:49] Initializing net from parameters: 
name: "ResNet-50"
state {
  phase: TRAIN
}
layer {
  name: "data"
  type: "ImageData"
  top: "data"
  top: "label"
  include {
    phase: TRAIN
  }
  transform_param {
    mirror: true
    crop_size: 32
    mean_value: 104
    mean_value: 117
    mean_value: 123
  }
  image_data_param {
    source: "/HOME/sysu_sc_ll/WORKSPACE/wenyp/0314/cifar-10/train/label.txt"
    batch_size: 32
    shuffle: true
    new_height: 36
    new_width: 36
    is_color: true
    root_folder: "/HOME/sysu_sc_ll/WORKSPACE/wenyp/0314/cifar-10/train/Img/"
  }
}
layer {
  name: "conv1"
  type: "Convolution"
  bottom: "data"
  top: "conv1"
  convolution_param {
    num_output: 64
    bias_term: true
    pad: 3
    kernel_size: 7
    stride: 2
    weight_filler {
      type: "msra"
    }
  }
}
layer {
  name: "bn_conv1"
  type: "BatchNorm"
  bottom: "conv1"
  top: "conv1"
  batch_norm_param {
    use_global_stats: false
  }
}
layer {
  name: "scale_conv1"
  type: "Scale"
  bottom: "conv1"
  top: "conv1"
  scale_param {
    bias_term: true
  }
}
layer {
  name: "conv1_relu"
  type: "ReLU"
  bottom: "conv1"
  top: "conv1"
}
layer {
  name: "pool1"
  type: "Pooling"
  bottom: "conv1"
  top: "pool1"
  pooling_param {
    pool: MAX
    kernel_size: 3
    stride: 2
  }
}
layer {
  name: "res2a_branch1"
  type: "Convolution"
  bottom: "pool1"
  top: "res2a_branch1"
  convolution_param {
    num_output: 256
    bias_term: false
    pad: 0
    kernel_size: 1
    stride: 1
    weight_filler {
      type: "msra"
    }
  }
}
layer {
  name: "bn2a_branch1"
  type: "BatchNorm"
  bottom: "res2a_branch1"
  top: "res2a_branch1"
  batch_norm_param {
    use_global_stats: false
  }
}
layer {
  name: "scale2a_branch1"
  type: "Scale"
  bottom: "res2a_branch1"
  top: "res2a_branch1"
  scale_param {
    bias_term: true
  }
}
layer {
  name: "res2a_branch2a"
  type: "Convolution"
  bottom: "pool1"
  top: "res2a_branch2a"
  convolution_param {
    num_output: 64
    bias_term: false
    pad: 0
    kernel_size: 1
    stride: 1
    weight_filler {
      type: "msra"
    }
  }
}
layer {
  name: "bn2a_branch2a"
  type: "BatchNorm"
  bottom: "res2a_branch2a"
  top: "res2a_branch2a"
  batch_norm_param {
    use_global_stats: false
  }
}
layer {
  name: "scale2a_branch2a"
  type: "Scale"
  bottom: "res2a_branch2a"
  top: "res2a_branch2a"
  scale_param {
    bias_term: true
  }
}
layer {
  name: "res2a_branch2a_relu"
  type: "ReLU"
  bottom: "res2a_branch2a"
  top: "res2a_branch2a"
}
layer {
  name: "res2a_branch2b"
  type: "Convolution"
  bottom: "res2a_branch2a"
  top: "res2a_branch2b"
  convolution_param {
    num_output: 64
    bias_term: false
    pad: 1
    kernel_size: 3
    stride: 1
    weight_filler {
      type: "msra"
    }
  }
}
layer {
  name: "bn2a_branch2b"
  type: "BatchNorm"
  bottom: "res2a_branch2b"
  top: "res2a_branch2b"
  batch_norm_param {
    use_global_stats: false
  }
}
layer {
  name: "scale2a_branch2b"
  type: "Scale"
  bottom: "res2a_branch2b"
  top: "res2a_branch2b"
  scale_param {
    bias_term: true
  }
}
layer {
  name: "res2a_branch2b_relu"
  type: "ReLU"
  bottom: "res2a_branch2b"
  top: "res2a_branch2b"
}
layer {
  name: "res2a_branch2c"
  type: "Convolution"
  bottom: "res2a_branch2b"
  top: "res2a_branch2c"
  convolution_param {
    num_output: 256
    bias_term: false
    pad: 0
    kernel_size: 1
    stride: 1
    weight_filler {
      type: "msra"
    }
  }
}
layer {
  name: "bn2a_branch2c"
  type: "BatchNorm"
  bottom: "res2a_branch2c"
  top: "res2a_branch2c"
  batch_norm_param {
    use_global_stats: false
  }
}
layer {
  name: "scale2a_branch2c"
  type: "Scale"
  bottom: "res2a_branch2c"
  top: "res2a_branch2c"
  scale_param {
    bias_term: true
  }
}
layer {
  name: "res2a"
  type: "Eltwise"
  bottom: "res2a_branch1"
  bottom: "res2a_branch2c"
  top: "res2a"
  eltwise_param {
    operation: SUM
  }
}
layer {
  name: "res2a_relu"
  type: "ReLU"
  bottom: "res2a"
  top: "res2a"
}
layer {
  name: "res2b_branch2a"
I0628 14:10:22.229593 29649 net.cpp:49] Initializing net from parameters: 
name: "ResNet-50"
state {
  phase: TRAIN
}
layer {
  name: "data"
  type: "ImageData"
  top: "data"
  top: "label"
  include {
    phase: TRAIN
  }
  transform_param {
    mirror: true
    crop_size: 32
    mean_value: 104
    mean_value: 117
    mean_value: 123
  }
  image_data_param {
    source: "/HOME/sysu_sc_ll/WORKSPACE/wenyp/0314/cifar-10/train/label.txt"
    batch_size: 32
    shuffle: true
    new_height: 36
    new_width: 36
    is_color: true
    root_folder: "/HOME/sysu_sc_ll/WORKSPACE/wenyp/0314/cifar-10/train/Img/"
  }
}
layer {
  name: "conv1"
  type: "Convolution"
  bottom: "data"
  top: "conv1"
  convolution_param {
    num_output: 64
    bias_term: true
    pad: 3
    kernel_size: 7
    stride: 2
    weight_filler {
      type: "msra"
    }
  }
}
layer {
  name: "bn_conv1"
  type: "BatchNorm"
  bottom: "conv1"
  top: "conv1"
  batch_norm_param {
    use_global_stats: false
  }
}
layer {
  name: "scale_conv1"
  type: "Convolution"
  bottom: "res2a"
  type: "Scale"
  bottom: "conv1"
  top: "conv1"
  scale_param {
    bias_term: true
  }
}
layer {
  name: "conv1_relu"
  type: "ReLU"
  bottom: "conv1"
  top: "conv1"
}
layer {
  name: "pool1"
  type: "Pooling"
  bottom: "conv1"
  top: "pool1"
  pooling_param {
    pool: MAX
    kernel_size: 3
    stride: 2
  }
}
layer {
  name: "res2a_branch1"
  type: "Convolution"
  bottom: "pool1"
  top: "res2a_branch1"
  convolution_param {
    num_output: 256
    bias_term: false
    pad: 0
    kernel_size: 1
    stride: 1
    weight_filler {
      type: "msra"
    }
  }
}
layer {
  name: "bn2a_branch1"
  type: "BatchNorm"
  bottom: "res2a_branch1"
  top: "res2a_branch1"
  batch_norm_param {
    use_global_stats: false
  }
}
layer {
  name: "scale2a_branch1"
  type: "Scale"
  bottom: "res2a_branch1"
  top: "res2a_branch1"
  scale_param {
    bias_term: true
  }
}
layer {
  name: "res2a_branch2a"
  type: "Convolution"
  bottom: "pool1"
  top: "res2a_branch2a"
  convolution_param {
    num_output: 64
I0628 14:10:22.229514 23878 net.cpp:49] Initializing net from parameters: 
name: "ResNet-50"
state {
  phase: TRAIN
}
layer {
  name: "data"
  type: "ImageData"
  top: "data"
  top: "label"
  include {
    phase: TRAIN
  }
  transform_param {
    mirror: true
    crop_size: 32
    mean_value: 104
    mean_value: 117
    mean_value: 123
  }
  image_data_param {
    source: "/HOME/sysu_sc_ll/WORKSPACE/wenyp/0314/cifar-10/train/label.txt"
    batch_size: 32
    shuffle: true
    new_height: 36
    new_width: 36
    is_color: true
    root_folder: "/HOME/sysu_sc_ll/WORKSPACE/wenyp/0314/cifar-10/train/Img/"
  }
}
layer {
  name: "conv1"
  type: "Convolution"
  bottom: "data"
  top: "conv1"
  convolution_param {
    num_output: 64
    bias_term: true
    pad: 3
    kernel_size: 7
    stride: 2
    weight_filler {
      type: "msra"
    }
  }
}
layer {
  name: "bn_conv1"
  type: "BatchNorm"
  bottom: "conv1"
  top: "conv1"
  batch_norm_param {
    use_global_stats: false
  }
}
layer {
  name: "scale_conv1"
  top: "res2b_branch2a"
  convolution_param {
    num_output: 64
    bias_term: false
    pad: 0
    kernel_size: 1
    stride: 1
    weight_filler {
      type: "msra"
    }
  }
}
layer {
  name: "bn2b_branch2a"
  type: "BatchNorm"
  bottom: "res2b_branch2a"
  top: "res2b_branch2a"
  batch_norm_param {
    use_global_stats: false
  }
}
layer {
  name: "scale2b_branch2a"
  type: "Scale"
  bottom: "res2b_branch2a"
  top: "res2b_branch2a"
  scale_param {
    bias_term: true
  }
}
layer {
  name: "res2b_branch2a_relu"
  type: "ReLU"
  bottom: "res2b_branch2a"
  top: "res2b_branch2a"
}
layer {
  name: "res2b_branch2b"
  type: "Convolution"
  bottom: "res2b_branch2a"
  top: "res2b_branch2b"
  convolution_param {
    num_output: 64
    bias_term: false
    pad: 1
    kernel_size: 3
    stride: 1
    weight_filler {
      type: "msra"
    }
  }
}
layer {
  name: "bn2b_branch2b"
  type: "BatchNorm"
  bottom: "res2b_branch2b"
  top: "res2b_branch2b"
  batch_norm_param {
    use_global_stats: false
  }
}
layer {
    bias_term: false
    pad: 0
    kernel_size: 1
    stride: 1
    weight_filler {
      type: "msra"
    }
  }
}
layer {
  name: "bn2a_branch2a"
  type: "BatchNorm"
  bottom: "res2a_branch2a"
  top: "res2a_branch2a"
  batch_norm_param {
    use_global_stats: false
  }
}
layer {
  name: "scale2a_branch2a"
  type: "Scale"
  bottom: "res2a_branch2a"
  top: "res2a_branch2a"
  scale_param {
    bias_term: true
  }
}
layer {
  name: "res2a_branch2a_relu"
  type: "ReLU"
  bottom: "res2a_branch2a"
  top: "res2a_branch2a"
}
layer {
  name: "res2a_branch2b"
  type: "Convolution"
  bottom: "res2a_branch2a"
  top: "res2a_branch2b"
  convolution_param {
    num_output: 64
    bias_term: false
    pad: 1
    kernel_size: 3
    stride: 1
    weight_filler {
      type: "msra"
    }
  }
}
layer {
  name: "bn2a_branch2b"
  type: "BatchNorm"
  bottom: "res2a_branch2b"
  top: "res2a_branch2b"
  batch_norm_param {
    use_global_stats: false
  }
}
layer {
  name: "scale2a_branch2b"
  type: "Scale"
  bottom: "res2a_branch2b"
  type: "Scale"
  bottom: "conv1"
  top: "conv1"
  scale_param {
    bias_term: true
  }
}
layer {
  name: "conv1_relu"
  type: "ReLU"
  bottom: "conv1"
  top: "conv1"
}
layer {
  name: "pool1"
  type: "Pooling"
  bottom: "conv1"
  top: "pool1"
  pooling_param {
    pool: MAX
    kernel_size: 3
    stride: 2
  }
}
layer {
  name: "res2a_branch1"
  type: "Convolution"
  bottom: "pool1"
  top: "res2a_branch1"
  convolution_param {
    num_output: 256
    bias_term: false
    pad: 0
    kernel_size: 1
    stride: 1
    weight_filler {
      type: "msra"
    }
  }
}
layer {
  name: "bn2a_branch1"
  type: "BatchNorm"
  bottom: "res2a_branch1"
  top: "res2a_branch1"
  batch_norm_param {
    use_global_stats: false
  }
}
layer {
  name: "scale2a_branch1"
  type: "Scale"
  bottom: "res2a_branch1"
  top: "res2a_branch1"
  scale_param {
    bias_term: true
  }
}
layer {
  name: "res2a_branch2a"
  type: "Convolution"
  bottom: "pool1"
  top: "res2a_branch2a"
  convolution_param {
    num_output: 64
  name: "scale2b_branch2b"
  type: "Scale"
  bottom: "res2b_branch2b"
  top: "res2b_branch2b"
  scale_param {
    bias_term: true
  }
}
layer {
  name: "res2b_branch2b_relu"
  type: "ReLU"
  bottom: "res2b_branch2b"
  top: "res2b_branch2b"
}
layer {
  name: "res2b_branch2c"
  type: "Convolution"
  bottom: "res2b_branch2b"
  top: "res2b_branch2c"
  convolution_param {
    num_output: 256
    bias_term: false
    pad: 0
    kernel_size: 1
    stride: 1
    weight_filler {
      type: "msra"
    }
  }
}
layer {
  name: "bn2b_branch2c"
  type: "BatchNorm"
  bottom: "res2b_branch2c"
  top: "res2b_branch2c"
  batch_norm_param {
    use_global_stats: false
  }
}
layer {
  name: "scale2b_branch2c"
  type: "Scale"
  bottom: "res2b_branch2c"
  top: "res2b_branch2c"
  scale_param {
    bias_term: true
  }
}
layer {
  name: "res2b"
  type: "Eltwise"
  bottom: "res2a"
  bottom: "res2b_branch2c"
  top: "res2b"
  eltwise_param {
    operation: SUM
  }
}
layer {
  name: "res2b_relu"
  type: "ReLU"
  bottom: "res2b"
  top: "res2a_branch2b"
  scale_param {
    bias_term: true
  }
}
layer {
  name: "res2a_branch2b_relu"
  type: "ReLU"
  bottom: "res2a_branch2b"
  top: "res2a_branch2b"
}
layer {
  name: "res2a_branch2c"
  type: "Convolution"
  bottom: "res2a_branch2b"
  top: "res2a_branch2c"
  convolution_param {
    num_output: 256
    bias_term: false
    pad: 0
    kernel_size: 1
    stride: 1
    weight_filler {
      type: "msra"
    }
  }
}
layer {
  name: "bn2a_branch2c"
  type: "BatchNorm"
  bottom: "res2a_branch2c"
  top: "res2a_branch2c"
  batch_norm_param {
    use_global_stats: false
  }
}
layer {
  name: "scale2a_branch2c"
  type: "Scale"
  bottom: "res2a_branch2c"
  top: "res2a_branch2c"
  scale_param {
    bias_term: true
  }
}
layer {
  name: "res2a"
  type: "Eltwise"
  bottom: "res2a_branch1"
  bottom: "res2a_branch2c"
  top: "res2a"
  eltwise_param {
    operation: SUM
  }
}
layer {
  name: "res2a_relu"
  type: "ReLU"
  bottom: "res2a"
  top: "res2a"
}
layer {
  name: "res2b_branch2a"
    bias_term: false
    pad: 0
    kernel_size: 1
    stride: 1
    weight_filler {
      type: "msra"
    }
  }
}
layer {
  name: "bn2a_branch2a"
  type: "BatchNorm"
  bottom: "res2a_branch2a"
  top: "res2a_branch2a"
  batch_norm_param {
    use_global_stats: false
  }
}
layer {
  name: "scale2a_branch2a"
  type: "Scale"
  bottom: "res2a_branch2a"
  top: "res2a_branch2a"
  scale_param {
    bias_term: true
  }
}
layer {
  name: "res2a_branch2a_relu"
  type: "ReLU"
  bottom: "res2a_branch2a"
  top: "res2a_branch2a"
}
layer {
  name: "res2a_branch2b"
  type: "Convolution"
  bottom: "res2a_branch2a"
  top: "res2a_branch2b"
  convolution_param {
    num_output: 64
    bias_term: false
    pad: 1
    kernel_size: 3
    stride: 1
    weight_filler {
      type: "msra"
    }
  }
}
layer {
  name: "bn2a_branch2b"
  type: "BatchNorm"
  bottom: "res2a_branch2b"
  top: "res2a_branch2b"
  batch_norm_param {
    use_global_stats: false
  }
}
layer {
  name: "scale2a_branch2b"
  type: "Scale"
  bottom: "res2a_branch2b"
  top: "res2b"
}
layer {
  name: "res2c_branch2a"
  type: "Convolution"
  bottom: "res2b"
  top: "res2c_branch2a"
  convolution_param {
    num_output: 64
    bias_term: false
    pad: 0
    kernel_size: 1
    stride: 1
    weight_filler {
      type: "msra"
    }
  }
}
layer {
  name: "bn2c_branch2a"
  type: "BatchNorm"
  bottom: "res2c_branch2a"
  top: "res2c_branch2a"
  batch_norm_param {
    use_global_stats: false
  }
}
layer {
  name: "scale2c_branch2a"
  type: "Scale"
  bottom: "res2c_branch2a"
  top: "res2c_branch2a"
  scale_param {
    bias_term: true
  }
}
layer {
  name: "res2c_branch2a_relu"
  type: "ReLU"
  bottom: "res2c_branch2a"
  top: "res2c_branch2a"
}
layer {
  name: "res2c_branch2b"
  type: "Convolution"
  bottom: "res2c_branch2a"
  top: "res2c_branch2b"
  convolution_param {
    num_output: 64
    bias_term: false
    pad: 1
    kernel_size: 3
    stride: 1
    weight_filler {
      type: "msra"
    }
  }
}
layer {
  name: "bn2c_branch2b"
  type: "BatchNorm"
  bottom: "res2c_branch2b"
  type: "Convolution"
  bottom: "res2a"
  top: "res2a_branch2b"
  scale_param {
    bias_term: true
  }
}
layer {
  name: "res2a_branch2b_relu"
  type: "ReLU"
  bottom: "res2a_branch2b"
  top: "res2a_branch2b"
}
layer {
  name: "res2a_branch2c"
  type: "Convolution"
  bottom: "res2a_branch2b"
  top: "res2a_branch2c"
  convolution_param {
    num_output: 256
    bias_term: false
    pad: 0
    kernel_size: 1
    stride: 1
    weight_filler {
      type: "msra"
    }
  }
}
layer {
  name: "bn2a_branch2c"
  type: "BatchNorm"
  bottom: "res2a_branch2c"
  top: "res2a_branch2c"
  batch_norm_param {
    use_global_stats: false
  }
}
layer {
  name: "scale2a_branch2c"
  type: "Scale"
  bottom: "res2a_branch2c"
  top: "res2a_branch2c"
  scale_param {
    bias_term: true
  }
}
layer {
  name: "res2a"
  type: "Eltwise"
  bottom: "res2a_branch1"
  bottom: "res2a_branch2c"
  top: "res2a"
  eltwise_param {
    operation: SUM
  }
}
layer {
  name: "res2a_relu"
  type: "ReLU"
  bottom: "res2a"
  top: "res2a"
}
layer {
  name: "res2b_branch2a"
I0628 14:10:22.230764  9634 net.cpp:49] Initializing net from parameters: 
name: "ResNet-50"
state {
  phase: TRAIN
}
layer {
  name: "data"
  type: "ImageData"
  top: "data"
  top: "label"
  include {
    phase: TRAIN
  }
  transform_param {
    mirror: true
    crop_size: 32
    mean_value: 104
    mean_value: 117
    mean_value: 123
  }
  image_data_param {
    source: "/HOME/sysu_sc_ll/WORKSPACE/wenyp/0314/cifar-10/train/label.txt"
    batch_size: 32
    shuffle: true
    new_height: 36
    new_width: 36
    is_color: true
    root_folder: "/HOME/sysu_sc_ll/WORKSPACE/wenyp/0314/cifar-10/train/Img/"
  }
}
layer {
  name: "conv1"
  type: "Convolution"
  bottom: "data"
  top: "conv1"
  convolution_param {
    num_output: 64
    bias_term: true
    pad: 3
    kernel_size: 7
    stride: 2
    weight_filler {
      type: "msra"
    }
  }
}
layer {
  name: "bn_conv1"
  type: "BatchNorm"
  bottom: "conv1"
  top: "conv1"
  batch_norm_param {
    use_global_stats: false
  }
}
layer {
  name: "scale_conv1"
  top: "res2c_branch2b"
  batch_norm_param {
    use_global_stats: false
  }
}
layer {
  name: "scale2c_branch2b"
  type: "Scale"
  bottom: "res2c_branch2b"
  top: "res2c_branch2b"
  scale_param {
    bias_term: true
  }
}
layer {
  name: "res2c_branch2b_relu"
  type: "ReLU"
  bottom: "res2c_branch2b"
  top: "res2c_branch2b"
}
layer {
  name: "res2c_branch2c"
  type: "Convolution"
  bottom: "res2c_branch2b"
  top: "res2c_branch2c"
  convolution_param {
    num_output: 256
    bias_term: false
    pad: 0
    kernel_size: 1
    stride: 1
    weight_filler {
      type: "msra"
    }
  }
}
layer {
  name: "bn2c_branch2c"
  type: "BatchNorm"
  bottom: "res2c_branch2c"
  top: "res2c_branch2c"
  batch_norm_param {
    use_global_stats: false
  }
}
layer {
  name: "scale2c_branch2c"
  type: "Scale"
  bottom: "res2c_branch2c"
  top: "res2c_branch2c"
  scale_param {
    bias_term: true
  }
}
layer {
  name: "res2c"
  type: "Eltwise"
  bottom: "res2b"
  bottom: "res2c_branch2c"
  top: "res2c"
  eltwise_param {
  top: "res2b_branch2a"
  convolution_param {
    num_output: 64
    bias_term: false
    pad: 0
    kernel_size: 1
    stride: 1
    weight_filler {
      type: "msra"
    }
  }
}
layer {
  name: "bn2b_branch2a"
  type: "BatchNorm"
  bottom: "res2b_branch2a"
  top: "res2b_branch2a"
  batch_norm_param {
    use_global_stats: false
  }
}
layer {
  name: "scale2b_branch2a"
  type: "Scale"
  bottom: "res2b_branch2a"
  top: "res2b_branch2a"
  scale_param {
    bias_term: true
  }
}
layer {
  name: "res2b_branch2a_relu"
  type: "ReLU"
  bottom: "res2b_branch2a"
  top: "res2b_branch2a"
}
layer {
  name: "res2b_branch2b"
  type: "Convolution"
  bottom: "res2b_branch2a"
  top: "res2b_branch2b"
  convolution_param {
    num_output: 64
    bias_term: false
    pad: 1
    kernel_size: 3
    stride: 1
    weight_filler {
      type: "msra"
    }
  }
}
layer {
  name: "bn2b_branch2b"
  type: "BatchNorm"
  bottom: "res2b_branch2b"
  top: "res2b_branch2b"
  batch_norm_param {
    use_global_stats: false
  }
}
layer {
  type: "Convolution"
  bottom: "res2a"
  type: "Scale"
  bottom: "conv1"
  top: "conv1"
  scale_param {
    bias_term: true
  }
}
layer {
  name: "conv1_relu"
  type: "ReLU"
  bottom: "conv1"
  top: "conv1"
}
layer {
  name: "pool1"
  type: "Pooling"
  bottom: "conv1"
  top: "pool1"
  pooling_param {
    pool: MAX
    kernel_size: 3
    stride: 2
  }
}
layer {
  name: "res2a_branch1"
  type: "Convolution"
  bottom: "pool1"
  top: "res2a_branch1"
  convolution_param {
    num_output: 256
    bias_term: false
    pad: 0
    kernel_size: 1
    stride: 1
    weight_filler {
      type: "msra"
    }
  }
}
layer {
  name: "bn2a_branch1"
  type: "BatchNorm"
  bottom: "res2a_branch1"
  top: "res2a_branch1"
  batch_norm_param {
    use_global_stats: false
  }
}
layer {
  name: "scale2a_branch1"
  type: "Scale"
  bottom: "res2a_branch1"
  top: "res2a_branch1"
  scale_param {
    bias_term: true
  }
}
layer {
  name: "res2a_branch2a"
  type: "Convolution"
  bottom: "pool1"
  top: "res2a_branch2a"
  convolution_param {
    num_output: 64
    operation: SUM
  }
}
  name: "scale2b_branch2b"
  type: "Scale"
  bottom: "res2b_branch2b"
  top: "res2b_branch2b"
  scale_param {
    bias_term: true
  }
}
layer {
  name: "res2b_branch2b_relu"
  type: "ReLU"
  bottom: "res2b_branch2b"
  top: "res2b_branch2b"
}
layer {
  name: "res2b_branch2c"
  type: "Convolution"
  bottom: "res2b_branch2b"
  top: "res2b_branch2c"
  convolution_param {
    num_output: 256
    bias_term: false
    pad: 0
    kernel_size: 1
    stride: 1
    weight_filler {
      type: "msra"
    }
  }
}
layer {
  name: "bn2b_branch2c"
  type: "BatchNorm"
  bottom: "res2b_branch2c"
  top: "res2b_branch2c"
  batch_norm_param {
    use_global_stats: false
  }
}
layer {
  name: "scale2b_branch2c"
  type: "Scale"
  bottom: "res2b_branch2c"
  top: "res2b_branch2c"
  scale_param {
    bias_term: true
  }
}
layer {
  name: "res2b"
  type: "Eltwise"
  bottom: "res2a"
  bottom: "res2b_branch2c"
  top: "res2b"
  eltwise_param {
    operation: SUM
  }
}
layer {
  name: "res2b_relu"
  type: "ReLU"
  bottom: "res2b"
  top: "res2b_branch2a"
  convolution_param {
    num_output: 64
    bias_term: false
    pad: 0
    kernel_size: 1
    stride: 1
    weight_filler {
      type: "msra"
    }
  }
}
layer {
  name: "bn2b_branch2a"
  type: "BatchNorm"
  bottom: "res2b_branch2a"
  top: "res2b_branch2a"
  batch_norm_param {
    use_global_stats: false
  }
}
layer {
  name: "scale2b_branch2a"
  type: "Scale"
  bottom: "res2b_branch2a"
  top: "res2b_branch2a"
  scale_param {
    bias_term: true
  }
}
layer {
  name: "res2b_branch2a_relu"
  type: "ReLU"
  bottom: "res2b_branch2a"
  top: "res2b_branch2a"
}
layer {
  name: "res2b_branch2b"
  type: "Convolution"
  bottom: "res2b_branch2a"
  top: "res2b_branch2b"
  convolution_param {
    num_output: 64
    bias_term: false
    pad: 1
    kernel_size: 3
    stride: 1
    weight_filler {
      type: "msra"
    }
  }
}
layer {
  name: "bn2b_branch2b"
  type: "BatchNorm"
  bottom: "res2b_branch2b"
  top: "res2b_branch2b"
  batch_norm_param {
    use_global_stats: false
  }
}
layer {
    bias_term: false
    pad: 0
    kernel_size: 1
    stride: 1
    weight_filler {
      type: "msra"
    }
  }
}
layer {
  name: "bn2a_branch2a"
  type: "BatchNorm"
  bottom: "res2a_branch2a"
  top: "res2a_branch2a"
  batch_norm_param {
    use_global_stats: false
  }
}
layer {
  name: "scale2a_branch2a"
  type: "Scale"
  bottom: "res2a_branch2a"
  top: "res2a_branch2a"
  scale_param {
    bias_term: true
  }
}
layer {
  name: "res2a_branch2a_relu"
  type: "ReLU"
  bottom: "res2a_branch2a"
  top: "res2a_branch2a"
}
layer {
  name: "res2a_branch2b"
  type: "Convolution"
  bottom: "res2a_branch2a"
  top: "res2a_branch2b"
  convolution_param {
    num_output: 64
    bias_term: false
    pad: 1
    kernel_size: 3
    stride: 1
    weight_filler {
      type: "msra"
    }
  }
}
layer {
  name: "bn2a_branch2b"
  type: "BatchNorm"
  bottom: "res2a_branch2b"
  top: "res2a_branch2b"
  batch_norm_param {
    use_global_stats: false
  }
}
layer {
  name: "scale2a_branch2b"
  type: "Scale"
  bottom: "res2a_branch2b"
layer {
  name: "res2c_relu"
  type: "ReLU"
  bottom: "res2c"
  top: "res2c"
}
layer {
  name: "res3a_branch1"
  type: "Convolution"
  bottom: "res2c"
  top: "res3a_branch1"
  convolution_param {
    num_output: 512
    bias_term: false
    pad: 0
    kernel_size: 1
    stride: 2
    weight_filler {
      type: "msra"
    }
  }
}
layer {
  name: "bn3a_branch1"
  type: "BatchNorm"
  bottom: "res3a_branch1"
  top: "res3a_branch1"
  batch_norm_param {
    use_global_stats: false
  }
}
layer {
  name: "scale3a_branch1"
  type: "Scale"
  bottom: "res3a_branch1"
  top: "res3a_branch1"
  scale_param {
    bias_term: true
  }
}
layer {
  name: "res3a_branch2a"
  type: "Convolution"
  bottom: "res2c"
  top: "res3a_branch2a"
  convolution_param {
    num_output: 128
    bias_term: false
    pad: 0
    kernel_size: 1
    stride: 2
    weight_filler {
      type: "msra"
    }
  }
}
layer {
  name: "bn3a_branch2a"
  type: "BatchNorm"
  bottom: "res3a_branch2a"
  top: "res3a_branch2a"
  batch_norm_param {
  top: "res2b"
}
layer {
  name: "res2c_branch2a"
  type: "Convolution"
  bottom: "res2b"
  top: "res2c_branch2a"
  convolution_param {
    num_output: 64
    bias_term: false
    pad: 0
    kernel_size: 1
    stride: 1
    weight_filler {
      type: "msra"
    }
  }
}
layer {
  name: "bn2c_branch2a"
  type: "BatchNorm"
  bottom: "res2c_branch2a"
  top: "res2c_branch2a"
  batch_norm_param {
    use_global_stats: false
  }
}
layer {
  name: "scale2c_branch2a"
  type: "Scale"
  bottom: "res2c_branch2a"
  top: "res2c_branch2a"
  scale_param {
    bias_term: true
  }
}
layer {
  name: "res2c_branch2a_relu"
  type: "ReLU"
  bottom: "res2c_branch2a"
  top: "res2c_branch2a"
}
layer {
  name: "res2c_branch2b"
  type: "Convolution"
  bottom: "res2c_branch2a"
  top: "res2c_branch2b"
  convolution_param {
    num_output: 64
    bias_term: false
    pad: 1
    kernel_size: 3
    stride: 1
    weight_filler {
      type: "msra"
    }
  }
}
layer {
  name: "bn2c_branch2b"
  type: "BatchNorm"
  bottom: "res2c_branch2b"
  name: "scale2b_branch2b"
  type: "Scale"
  bottom: "res2b_branch2b"
  top: "res2b_branch2b"
  scale_param {
    bias_term: true
  }
}
layer {
  name: "res2b_branch2b_relu"
  type: "ReLU"
  bottom: "res2b_branch2b"
  top: "res2b_branch2b"
}
layer {
  name: "res2b_branch2c"
  type: "Convolution"
  bottom: "res2b_branch2b"
  top: "res2b_branch2c"
  convolution_param {
    num_output: 256
    bias_term: false
    pad: 0
    kernel_size: 1
    stride: 1
    weight_filler {
      type: "msra"
    }
  }
}
layer {
  name: "bn2b_branch2c"
  type: "BatchNorm"
  bottom: "res2b_branch2c"
  top: "res2b_branch2c"
  batch_norm_param {
    use_global_stats: false
  }
}
layer {
  name: "scale2b_branch2c"
  type: "Scale"
  bottom: "res2b_branch2c"
  top: "res2b_branch2c"
  scale_param {
    bias_term: true
  }
}
layer {
  name: "res2b"
  type: "Eltwise"
  bottom: "res2a"
  bottom: "res2b_branch2c"
  top: "res2b"
  eltwise_param {
    operation: SUM
  }
}
layer {
  name: "res2b_relu"
  type: "ReLU"
  bottom: "res2b"
  top: "res2a_branch2b"
  scale_param {
    bias_term: true
  }
}
layer {
  name: "res2a_branch2b_relu"
  type: "ReLU"
  bottom: "res2a_branch2b"
  top: "res2a_branch2b"
}
layer {
  name: "res2a_branch2c"
  type: "Convolution"
  bottom: "res2a_branch2b"
  top: "res2a_branch2c"
  convolution_param {
    num_output: 256
    bias_term: false
    pad: 0
    kernel_size: 1
    stride: 1
    weight_filler {
      type: "msra"
    }
  }
}
layer {
  name: "bn2a_branch2c"
  type: "BatchNorm"
  bottom: "res2a_branch2c"
  top: "res2a_branch2c"
  batch_norm_param {
    use_global_stats: false
  }
}
layer {
  name: "scale2a_branch2c"
  type: "Scale"
  bottom: "res2a_branch2c"
  top: "res2a_branch2c"
  scale_param {
    bias_term: true
  }
}
layer {
  name: "res2a"
  type: "Eltwise"
  bottom: "res2a_branch1"
  bottom: "res2a_branch2c"
  top: "res2a"
  eltwise_param {
    operation: SUM
  }
}
layer {
  name: "res2a_relu"
  type: "ReLU"
  bottom: "res2a"
  top: "res2a"
}
layer {
  name: "res2b_branch2a"
    use_global_stats: false
  }
}
layer {
  name: "scale3a_branch2a"
  type: "Scale"
  bottom: "res3a_branch2a"
  top: "res3a_branch2a"
  scale_param {
    bias_term: true
  }
}
layer {
  name: "res3a_branch2a_relu"
  type: "ReLU"
  bottom: "res3a_branch2a"
  top: "res3a_branch2a"
}
layer {
  name: "res3a_branch2b"
  type: "Convolution"
  bottom: "res3a_branch2a"
  top: "res3a_branch2b"
  convolution_param {
    num_output: 128
    bias_term: false
    pad: 1
    kernel_size: 3
    stride: 1
    weight_filler {
      type: "msra"
    }
  }
}
layer {
  name: "bn3a_branch2b"
  type: "BatchNorm"
  bottom: "res3a_branch2b"
  top: "res3a_branch2b"
  batch_norm_param {
    use_global_stats: false
  }
}
layer {
  name: "scale3a_branch2b"
  type: "Scale"
  bottom: "res3a_branch2b"
  top: "res3a_branch2b"
  scale_param {
    bias_term: true
  }
}
layer {
  name: "res3a_branch2b_relu"
  type: "ReLU"
  bottom: "res3a_branch2b"
  top: "res3a_branch2b"
}
layer {
  name: "res3a_branch2c"
  type: "Convolution"
  top: "res2c_branch2b"
  batch_norm_param {
    use_global_stats: false
  }
}
layer {
  name: "scale2c_branch2b"
  type: "Scale"
  bottom: "res2c_branch2b"
  top: "res2c_branch2b"
  scale_param {
    bias_term: true
  }
}
layer {
  name: "res2c_branch2b_relu"
  type: "ReLU"
  bottom: "res2c_branch2b"
  top: "res2c_branch2b"
}
layer {
  name: "res2c_branch2c"
  type: "Convolution"
  bottom: "res2c_branch2b"
  top: "res2c_branch2c"
  convolution_param {
    num_output: 256
    bias_term: false
    pad: 0
    kernel_size: 1
    stride: 1
    weight_filler {
      type: "msra"
    }
  }
}
layer {
  name: "bn2c_branch2c"
  type: "BatchNorm"
  bottom: "res2c_branch2c"
  top: "res2c_branch2c"
  batch_norm_param {
    use_global_stats: false
  }
}
layer {
  name: "scale2c_branch2c"
  type: "Scale"
  bottom: "res2c_branch2c"
  top: "res2c_branch2c"
  scale_param {
    bias_term: true
  }
}
layer {
  name: "res2c"
  type: "Eltwise"
  bottom: "res2b"
  bottom: "res2c_branch2c"
  top: "res2c"
  eltwise_param {
  top: "res2b"
}
layer {
  name: "res2c_branch2a"
  type: "Convolution"
  bottom: "res2b"
  top: "res2c_branch2a"
  convolution_param {
    num_output: 64
    bias_term: false
    pad: 0
    kernel_size: 1
    stride: 1
    weight_filler {
      type: "msra"
    }
  }
}
layer {
  name: "bn2c_branch2a"
  type: "BatchNorm"
  bottom: "res2c_branch2a"
  top: "res2c_branch2a"
  batch_norm_param {
    use_global_stats: false
  }
}
layer {
  name: "scale2c_branch2a"
  type: "Scale"
  bottom: "res2c_branch2a"
  top: "res2c_branch2a"
  scale_param {
    bias_term: true
  }
}
layer {
  name: "res2c_branch2a_relu"
  type: "ReLU"
  bottom: "res2c_branch2a"
  top: "res2c_branch2a"
}
layer {
  name: "res2c_branch2b"
  type: "Convolution"
  bottom: "res2c_branch2a"
  top: "res2c_branch2b"
  convolution_param {
    num_output: 64
    bias_term: false
    pad: 1
    kernel_size: 3
    stride: 1
    weight_filler {
      type: "msra"
    }
  }
}
layer {
  name: "bn2c_branch2b"
  type: "BatchNorm"
  bottom: "res2c_branch2b"
  type: "Convolution"
  bottom: "res2a"
  bottom: "res3a_branch2b"
  top: "res3a_branch2c"
  convolution_param {
    num_output: 512
    bias_term: false
    pad: 0
    kernel_size: 1
    stride: 1
    weight_filler {
      type: "msra"
    }
  }
}
layer {
  name: "bn3a_branch2c"
  type: "BatchNorm"
  bottom: "res3a_branch2c"
  top: "res3a_branch2c"
  batch_norm_param {
    use_global_stats: false
  }
}
layer {
  name: "scale3a_branch2c"
  type: "Scale"
  bottom: "res3a_branch2c"
  top: "res3a_branch2c"
  scale_param {
    bias_term: true
  }
}
layer {
  name: "res3a"
  type: "Eltwise"
  bottom: "res3a_branch1"
  bottom: "res3a_branch2c"
  top: "res3a"
  eltwise_param {
    operation: SUM
  }
}
layer {
  name: "res3a_relu"
  type: "ReLU"
  bottom: "res3a"
  top: "res3a"
}
layer {
  name: "res3b_branch2a"
  type: "Convolution"
  bottom: "res3a"
  top: "res3b_branch2a"
  convolution_param {
    num_output: 128
    bias_term: false
    pad: 0
    kernel_size: 1
    stride: 1
    weight_filler {
      type: "msra"
    }
  }
}
layer {
    operation: SUM
  }
}
  top: "res2c_branch2b"
  batch_norm_param {
    use_global_stats: false
  }
}
layer {
  name: "scale2c_branch2b"
  type: "Scale"
  bottom: "res2c_branch2b"
  top: "res2c_branch2b"
  scale_param {
    bias_term: true
  }
}
layer {
  name: "res2c_branch2b_relu"
  type: "ReLU"
  bottom: "res2c_branch2b"
  top: "res2c_branch2b"
}
layer {
  name: "res2c_branch2c"
  type: "Convolution"
  bottom: "res2c_branch2b"
  top: "res2c_branch2c"
  convolution_param {
    num_output: 256
    bias_term: false
    pad: 0
    kernel_size: 1
    stride: 1
    weight_filler {
      type: "msra"
    }
  }
}
layer {
  name: "bn2c_branch2c"
  type: "BatchNorm"
  bottom: "res2c_branch2c"
  top: "res2c_branch2c"
  batch_norm_param {
    use_global_stats: false
  }
}
layer {
  name: "scale2c_branch2c"
  type: "Scale"
  bottom: "res2c_branch2c"
  top: "res2c_branch2c"
  scale_param {
    bias_term: true
  }
}
layer {
  name: "res2c"
  type: "Eltwise"
  bottom: "res2b"
  bottom: "res2c_branch2c"
  top: "res2c"
  eltwise_param {
  top: "res2b_branch2a"
  convolution_param {
    num_output: 64
    bias_term: false
    pad: 0
    kernel_size: 1
    stride: 1
    weight_filler {
      type: "msra"
    }
  }
}
layer {
  name: "bn2b_branch2a"
  type: "BatchNorm"
  bottom: "res2b_branch2a"
  top: "res2b_branch2a"
  batch_norm_param {
    use_global_stats: false
  }
}
layer {
  name: "scale2b_branch2a"
  type: "Scale"
  bottom: "res2b_branch2a"
  top: "res2b_branch2a"
  scale_param {
    bias_term: true
  }
}
layer {
  name: "res2b_branch2a_relu"
  type: "ReLU"
  bottom: "res2b_branch2a"
  top: "res2b_branch2a"
}
layer {
  name: "res2b_branch2b"
  type: "Convolution"
  bottom: "res2b_branch2a"
  top: "res2b_branch2b"
  convolution_param {
    num_output: 64
    bias_term: false
    pad: 1
    kernel_size: 3
    stride: 1
    weight_filler {
      type: "msra"
    }
  }
}
layer {
  name: "bn2b_branch2b"
  type: "BatchNorm"
  bottom: "res2b_branch2b"
  top: "res2b_branch2b"
  batch_norm_param {
    use_global_stats: false
  }
}
layer {
  name: "bn3b_branch2a"
  type: "BatchNorm"
  bottom: "res3b_branch2a"
  top: "res3b_branch2a"
  batch_norm_param {
    use_global_stats: false
  }
}
layer {
  name: "scale3b_branch2a"
  type: "Scale"
  bottom: "res3b_branch2a"
  top: "res3b_branch2a"
  scale_param {
    bias_term: true
  }
}
layer {
  name: "res3b_branch2a_relu"
  type: "ReLU"
  bottom: "res3b_branch2a"
  top: "res3b_branch2a"
}
layer {
  name: "res3b_branch2b"
  type: "Convolution"
  bottom: "res3b_branch2a"
  top: "res3b_branch2b"
  convolution_param {
    num_output: 128
    bias_term: false
    pad: 1
    kernel_size: 3
    stride: 1
    weight_filler {
      type: "msra"
    }
  }
}
layer {
  name: "bn3b_branch2b"
  type: "BatchNorm"
  bottom: "res3b_branch2b"
  top: "res3b_branch2b"
  batch_norm_param {
    use_global_stats: false
  }
}
layer {
  name: "scale3b_branch2b"
  type: "Scale"
  bottom: "res3b_branch2b"
  top: "res3b_branch2b"
  scale_param {
    bias_term: true
  }
}
layer {
  name: "res3b_branch2b_relu"
  type: "ReLU"
layer {
  name: "res2c_relu"
  type: "ReLU"
  bottom: "res2c"
  top: "res2c"
}
layer {
  name: "res3a_branch1"
  type: "Convolution"
  bottom: "res2c"
  top: "res3a_branch1"
  convolution_param {
    num_output: 512
    bias_term: false
    pad: 0
    kernel_size: 1
    stride: 2
    weight_filler {
      type: "msra"
    }
  }
}
layer {
  name: "bn3a_branch1"
  type: "BatchNorm"
  bottom: "res3a_branch1"
  top: "res3a_branch1"
  batch_norm_param {
    use_global_stats: false
  }
}
layer {
  name: "scale3a_branch1"
  type: "Scale"
  bottom: "res3a_branch1"
  top: "res3a_branch1"
  scale_param {
    bias_term: true
  }
}
layer {
  name: "res3a_branch2a"
  type: "Convolution"
  bottom: "res2c"
  top: "res3a_branch2a"
  convolution_param {
    num_output: 128
    bias_term: false
    pad: 0
    kernel_size: 1
    stride: 2
    weight_filler {
      type: "msra"
    }
  }
}
layer {
  name: "bn3a_branch2a"
  type: "BatchNorm"
  bottom: "res3a_branch2a"
  top: "res3a_branch2a"
  batch_norm_param {
    operation: SUM
  }
}
  name: "scale2b_branch2b"
  type: "Scale"
  bottom: "res2b_branch2b"
  top: "res2b_branch2b"
  scale_param {
    bias_term: true
  }
}
layer {
  name: "res2b_branch2b_relu"
  type: "ReLU"
  bottom: "res2b_branch2b"
  top: "res2b_branch2b"
}
layer {
  name: "res2b_branch2c"
  type: "Convolution"
  bottom: "res2b_branch2b"
  top: "res2b_branch2c"
  convolution_param {
    num_output: 256
    bias_term: false
    pad: 0
    kernel_size: 1
    stride: 1
    weight_filler {
      type: "msra"
    }
  }
}
layer {
  name: "bn2b_branch2c"
  type: "BatchNorm"
  bottom: "res2b_branch2c"
  top: "res2b_branch2c"
  batch_norm_param {
    use_global_stats: false
  }
}
layer {
  name: "scale2b_branch2c"
  type: "Scale"
  bottom: "res2b_branch2c"
  top: "res2b_branch2c"
  scale_param {
    bias_term: true
  }
}
layer {
  name: "res2b"
  type: "Eltwise"
  bottom: "res2a"
  bottom: "res2b_branch2c"
  top: "res2b"
  eltwise_param {
    operation: SUM
  }
}
layer {
  name: "res2b_relu"
  type: "ReLU"
  bottom: "res2b"
  bottom: "res3b_branch2b"
  top: "res3b_branch2b"
}
    use_global_stats: false
  }
}
layer {
  name: "scale3a_branch2a"
  type: "Scale"
  bottom: "res3a_branch2a"
  top: "res3a_branch2a"
  scale_param {
    bias_term: true
  }
}
layer {
  name: "res3a_branch2a_relu"
  type: "ReLU"
  bottom: "res3a_branch2a"
  top: "res3a_branch2a"
}
layer {
  name: "res3a_branch2b"
  type: "Convolution"
  bottom: "res3a_branch2a"
  top: "res3a_branch2b"
  convolution_param {
    num_output: 128
    bias_term: false
    pad: 1
    kernel_size: 3
    stride: 1
    weight_filler {
      type: "msra"
    }
  }
}
layer {
  name: "bn3a_branch2b"
  type: "BatchNorm"
  bottom: "res3a_branch2b"
  top: "res3a_branch2b"
  batch_norm_param {
    use_global_stats: false
  }
}
layer {
  name: "scale3a_branch2b"
  type: "Scale"
  bottom: "res3a_branch2b"
  top: "res3a_branch2b"
  scale_param {
    bias_term: true
  }
}
layer {
  name: "res3a_branch2b_relu"
  type: "ReLU"
  bottom: "res3a_branch2b"
  top: "res3a_branch2b"
}
layer {
  name: "res3a_branch2c"
  type: "Convolution"
layer {
  name: "res2c_relu"
  type: "ReLU"
  bottom: "res2c"
  top: "res2c"
}
layer {
  name: "res3a_branch1"
  type: "Convolution"
  bottom: "res2c"
  top: "res3a_branch1"
  convolution_param {
    num_output: 512
    bias_term: false
    pad: 0
    kernel_size: 1
    stride: 2
    weight_filler {
      type: "msra"
    }
  }
}
layer {
  name: "bn3a_branch1"
  type: "BatchNorm"
  bottom: "res3a_branch1"
  top: "res3a_branch1"
  batch_norm_param {
    use_global_stats: false
  }
}
layer {
  name: "scale3a_branch1"
  type: "Scale"
  bottom: "res3a_branch1"
  top: "res3a_branch1"
  scale_param {
    bias_term: true
  }
}
layer {
  name: "res3a_branch2a"
  type: "Convolution"
  bottom: "res2c"
  top: "res3a_branch2a"
  convolution_param {
    num_output: 128
    bias_term: false
    pad: 0
    kernel_size: 1
    stride: 2
    weight_filler {
      type: "msra"
    }
  }
}
layer {
  name: "bn3a_branch2a"
  type: "BatchNorm"
  bottom: "res3a_branch2a"
  top: "res3a_branch2a"
  batch_norm_param {
  top: "res2b"
}
layer {
  name: "res2c_branch2a"
  type: "Convolution"
  bottom: "res2b"
  top: "res2c_branch2a"
  convolution_param {
    num_output: 64
    bias_term: false
    pad: 0
    kernel_size: 1
    stride: 1
    weight_filler {
      type: "msra"
    }
  }
}
layer {
  name: "bn2c_branch2a"
  type: "BatchNorm"
  bottom: "res2c_branch2a"
  top: "res2c_branch2a"
  batch_norm_param {
    use_global_stats: false
  }
}
layer {
  name: "scale2c_branch2a"
  type: "Scale"
  bottom: "res2c_branch2a"
  top: "res2c_branch2a"
  scale_param {
    bias_term: true
  }
}
layer {
  name: "res2c_branch2a_relu"
  type: "ReLU"
  bottom: "res2c_branch2a"
  top: "res2c_branch2a"
}
layer {
  name: "res2c_branch2b"
  type: "Convolution"
  bottom: "res2c_branch2a"
  top: "res2c_branch2b"
  convolution_param {
    num_output: 64
    bias_term: false
    pad: 1
    kernel_size: 3
    stride: 1
    weight_filler {
      type: "msra"
    }
  }
}
layer {
  name: "bn2c_branch2b"
  type: "BatchNorm"
  bottom: "res2c_branch2b"
layer {
  name: "res3b_branch2c"
  type: "Convolution"
  bottom: "res3b_branch2b"
  top: "res3b_branch2c"
  convolution_param {
    num_output: 512
    bias_term: false
    pad: 0
    kernel_size: 1
    stride: 1
    weight_filler {
      type: "msra"
    }
  }
}
layer {
  name: "bn3b_branch2c"
  type: "BatchNorm"
  bottom: "res3b_branch2c"
  top: "res3b_branch2c"
  batch_norm_param {
    use_global_stats: false
  }
}
layer {
  name: "scale3b_branch2c"
  type: "Scale"
  bottom: "res3b_branch2c"
  top: "res3b_branch2c"
  scale_param {
    bias_term: true
  }
}
layer {
  name: "res3b"
  type: "Eltwise"
  bottom: "res3a"
  bottom: "res3b_branch2c"
  top: "res3b"
  eltwise_param {
    operation: SUM
  }
}
layer {
  name: "res3b_relu"
  type: "ReLU"
  bottom: "res3b"
  top: "res3b"
}
layer {
  name: "res3c_branch2a"
  type: "Convolution"
  bottom: "res3b"
  top: "res3c_branch2a"
  convolution_param {
    num_output: 128
    bias_term: false
    pad: 0
    kernel_size: 1
    stride: 1
    weight_filler {
  bottom: "res3a_branch2b"
  top: "res3a_branch2c"
  convolution_param {
    num_output: 512
    bias_term: false
    pad: 0
    kernel_size: 1
    stride: 1
    weight_filler {
      type: "msra"
    }
  }
}
layer {
  name: "bn3a_branch2c"
  type: "BatchNorm"
  bottom: "res3a_branch2c"
  top: "res3a_branch2c"
  batch_norm_param {
    use_global_stats: false
  }
}
layer {
  name: "scale3a_branch2c"
  type: "Scale"
  bottom: "res3a_branch2c"
  top: "res3a_branch2c"
  scale_param {
    bias_term: true
  }
}
layer {
  name: "res3a"
  type: "Eltwise"
  bottom: "res3a_branch1"
  bottom: "res3a_branch2c"
  top: "res3a"
  eltwise_param {
    operation: SUM
  }
}
layer {
  name: "res3a_relu"
  type: "ReLU"
  bottom: "res3a"
  top: "res3a"
}
layer {
  name: "res3b_branch2a"
  type: "Convolution"
  bottom: "res3a"
  top: "res3b_branch2a"
  convolution_param {
    num_output: 128
    bias_term: false
    pad: 0
    kernel_size: 1
    stride: 1
    weight_filler {
      type: "msra"
    }
  }
}
layer {
    use_global_stats: false
  }
}
layer {
  name: "scale3a_branch2a"
  type: "Scale"
  bottom: "res3a_branch2a"
  top: "res3a_branch2a"
  scale_param {
    bias_term: true
  }
}
layer {
  name: "res3a_branch2a_relu"
  type: "ReLU"
  bottom: "res3a_branch2a"
  top: "res3a_branch2a"
}
layer {
  name: "res3a_branch2b"
  type: "Convolution"
  bottom: "res3a_branch2a"
  top: "res3a_branch2b"
  convolution_param {
    num_output: 128
    bias_term: false
    pad: 1
    kernel_size: 3
    stride: 1
    weight_filler {
      type: "msra"
    }
  }
}
layer {
  name: "bn3a_branch2b"
  type: "BatchNorm"
  bottom: "res3a_branch2b"
  top: "res3a_branch2b"
  batch_norm_param {
    use_global_stats: false
  }
}
layer {
  name: "scale3a_branch2b"
  type: "Scale"
  bottom: "res3a_branch2b"
  top: "res3a_branch2b"
  scale_param {
    bias_term: true
  }
}
layer {
  name: "res3a_branch2b_relu"
  type: "ReLU"
  bottom: "res3a_branch2b"
  top: "res3a_branch2b"
}
layer {
  name: "res3a_branch2c"
  type: "Convolution"
  top: "res2c_branch2b"
  batch_norm_param {
    use_global_stats: false
  }
}
layer {
  name: "scale2c_branch2b"
  type: "Scale"
  bottom: "res2c_branch2b"
  top: "res2c_branch2b"
  scale_param {
    bias_term: true
  }
}
layer {
  name: "res2c_branch2b_relu"
  type: "ReLU"
  bottom: "res2c_branch2b"
  top: "res2c_branch2b"
}
layer {
  name: "res2c_branch2c"
  type: "Convolution"
  bottom: "res2c_branch2b"
  top: "res2c_branch2c"
  convolution_param {
    num_output: 256
    bias_term: false
    pad: 0
    kernel_size: 1
    stride: 1
    weight_filler {
      type: "msra"
    }
  }
}
layer {
  name: "bn2c_branch2c"
  type: "BatchNorm"
  bottom: "res2c_branch2c"
  top: "res2c_branch2c"
  batch_norm_param {
    use_global_stats: false
  }
}
layer {
  name: "scale2c_branch2c"
  type: "Scale"
  bottom: "res2c_branch2c"
  top: "res2c_branch2c"
  scale_param {
    bias_term: true
  }
}
layer {
  name: "res2c"
  type: "Eltwise"
  bottom: "res2b"
  bottom: "res2c_branch2c"
  top: "res2c"
  eltwise_param {
      type: "msra"
    }
  }
}
layer {
  name: "bn3c_branch2a"
  type: "BatchNorm"
  bottom: "res3c_branch2a"
  top: "res3c_branch2a"
  batch_norm_param {
    use_global_stats: false
  }
}
layer {
  name: "scale3c_branch2a"
  type: "Scale"
  bottom: "res3c_branch2a"
  top: "res3c_branch2a"
  scale_param {
    bias_term: true
  }
}
layer {
  name: "res3c_branch2a_relu"
  type: "ReLU"
  bottom: "res3c_branch2a"
  top: "res3c_branch2a"
}
layer {
  name: "res3c_branch2b"
  type: "Convolution"
  bottom: "res3c_branch2a"
  top: "res3c_branch2b"
  convolution_param {
    num_output: 128
    bias_term: false
    pad: 1
    kernel_size: 3
    stride: 1
    weight_filler {
      type: "msra"
    }
  }
}
layer {
  name: "bn3c_branch2b"
  type: "BatchNorm"
  bottom: "res3c_branch2b"
  top: "res3c_branch2b"
  batch_norm_param {
    use_global_stats: false
  }
}
layer {
  name: "scale3c_branch2b"
  type: "Scale"
  bottom: "res3c_branch2b"
  top: "res3c_branch2b"
  scale_param {
    bias_term: true
  }
}
layer {
  name: "bn3b_branch2a"
  type: "BatchNorm"
  bottom: "res3b_branch2a"
  top: "res3b_branch2a"
  batch_norm_param {
    use_global_stats: false
  }
}
layer {
  name: "scale3b_branch2a"
  type: "Scale"
  bottom: "res3b_branch2a"
  top: "res3b_branch2a"
  scale_param {
    bias_term: true
  }
}
layer {
  name: "res3b_branch2a_relu"
  type: "ReLU"
  bottom: "res3b_branch2a"
  top: "res3b_branch2a"
}
layer {
  name: "res3b_branch2b"
  type: "Convolution"
  bottom: "res3b_branch2a"
  top: "res3b_branch2b"
  convolution_param {
    num_output: 128
    bias_term: false
    pad: 1
    kernel_size: 3
    stride: 1
    weight_filler {
      type: "msra"
    }
  }
}
layer {
  name: "bn3b_branch2b"
  type: "BatchNorm"
  bottom: "res3b_branch2b"
  top: "res3b_branch2b"
  batch_norm_param {
    use_global_stats: false
  }
}
layer {
  name: "scale3b_branch2b"
  type: "Scale"
  bottom: "res3b_branch2b"
  top: "res3b_branch2b"
  scale_param {
    bias_term: true
  }
}
layer {
  name: "res3b_branch2b_relu"
  type: "ReLU"
  bottom: "res3a_branch2b"
  top: "res3a_branch2c"
  convolution_param {
    num_output: 512
    bias_term: false
    pad: 0
    kernel_size: 1
    stride: 1
    weight_filler {
      type: "msra"
    }
  }
}
layer {
  name: "bn3a_branch2c"
  type: "BatchNorm"
  bottom: "res3a_branch2c"
  top: "res3a_branch2c"
  batch_norm_param {
    use_global_stats: false
  }
}
layer {
  name: "scale3a_branch2c"
  type: "Scale"
  bottom: "res3a_branch2c"
  top: "res3a_branch2c"
  scale_param {
    bias_term: true
  }
}
layer {
  name: "res3a"
  type: "Eltwise"
  bottom: "res3a_branch1"
  bottom: "res3a_branch2c"
  top: "res3a"
  eltwise_param {
    operation: SUM
  }
}
layer {
  name: "res3a_relu"
  type: "ReLU"
  bottom: "res3a"
  top: "res3a"
}
layer {
  name: "res3b_branch2a"
  type: "Convolution"
  bottom: "res3a"
  top: "res3b_branch2a"
  convolution_param {
    num_output: 128
    bias_term: false
    pad: 0
    kernel_size: 1
    stride: 1
    weight_filler {
      type: "msra"
    }
  }
}
layer {
    operation: SUM
  }
}
  name: "res3c_branch2b_relu"
  type: "ReLU"
  bottom: "res3c_branch2b"
  top: "res3c_branch2b"
}
layer {
  name: "res3c_branch2c"
  type: "Convolution"
  bottom: "res3c_branch2b"
  top: "res3c_branch2c"
  convolution_param {
    num_output: 512
    bias_term: false
    pad: 0
    kernel_size: 1
    stride: 1
    weight_filler {
      type: "msra"
    }
  }
}
layer {
  name: "bn3c_branch2c"
  type: "BatchNorm"
  bottom: "res3c_branch2c"
  top: "res3c_branch2c"
  batch_norm_param {
    use_global_stats: false
  }
}
layer {
  name: "scale3c_branch2c"
  type: "Scale"
  bottom: "res3c_branch2c"
  top: "res3c_branch2c"
  scale_param {
    bias_term: true
  }
}
layer {
  name: "res3c"
  type: "Eltwise"
  bottom: "res3b"
  bottom: "res3c_branch2c"
  top: "res3c"
  eltwise_param {
    operation: SUM
  }
}
layer {
  name: "res3c_relu"
  type: "ReLU"
  bottom: "res3c"
  top: "res3c"
}
layer {
  name: "res3d_branch2a"
  type: "Convolution"
  bottom: "res3c"
  top: "res3d_branch2a"
  convolution_param {
  bottom: "res3b_branch2b"
  top: "res3b_branch2b"
}
  name: "bn3b_branch2a"
  type: "BatchNorm"
  bottom: "res3b_branch2a"
  top: "res3b_branch2a"
  batch_norm_param {
    use_global_stats: false
  }
}
layer {
  name: "scale3b_branch2a"
  type: "Scale"
  bottom: "res3b_branch2a"
  top: "res3b_branch2a"
  scale_param {
    bias_term: true
  }
}
layer {
  name: "res3b_branch2a_relu"
  type: "ReLU"
  bottom: "res3b_branch2a"
  top: "res3b_branch2a"
}
layer {
  name: "res3b_branch2b"
  type: "Convolution"
  bottom: "res3b_branch2a"
  top: "res3b_branch2b"
  convolution_param {
    num_output: 128
    bias_term: false
    pad: 1
    kernel_size: 3
    stride: 1
    weight_filler {
      type: "msra"
    }
  }
}
layer {
  name: "bn3b_branch2b"
  type: "BatchNorm"
  bottom: "res3b_branch2b"
  top: "res3b_branch2b"
  batch_norm_param {
    use_global_stats: false
  }
}
layer {
  name: "scale3b_branch2b"
  type: "Scale"
  bottom: "res3b_branch2b"
  top: "res3b_branch2b"
  scale_param {
    bias_term: true
  }
}
layer {
  name: "res3b_branch2b_relu"
  type: "ReLU"
layer {
  name: "res2c_relu"
  type: "ReLU"
  bottom: "res2c"
  top: "res2c"
}
layer {
  name: "res3a_branch1"
  type: "Convolution"
  bottom: "res2c"
  top: "res3a_branch1"
  convolution_param {
    num_output: 512
    bias_term: false
    pad: 0
    kernel_size: 1
    stride: 2
    weight_filler {
      type: "msra"
    }
  }
}
layer {
  name: "bn3a_branch1"
  type: "BatchNorm"
  bottom: "res3a_branch1"
  top: "res3a_branch1"
  batch_norm_param {
    use_global_stats: false
  }
}
layer {
  name: "scale3a_branch1"
  type: "Scale"
  bottom: "res3a_branch1"
  top: "res3a_branch1"
  scale_param {
    bias_term: true
  }
}
layer {
  name: "res3a_branch2a"
  type: "Convolution"
  bottom: "res2c"
  top: "res3a_branch2a"
  convolution_param {
    num_output: 128
    bias_term: false
    pad: 0
    kernel_size: 1
    stride: 2
    weight_filler {
      type: "msra"
    }
  }
}
layer {
  name: "bn3a_branch2a"
  type: "BatchNorm"
  bottom: "res3a_branch2a"
  top: "res3a_branch2a"
  batch_norm_param {
    num_output: 128
    bias_term: false
    pad: 0
    kernel_size: 1
    stride: 1
    weight_filler {
      type: "msra"
    }
  }
}
layer {
  name: "bn3d_branch2a"
  type: "BatchNorm"
  bottom: "res3d_branch2a"
  top: "res3d_branch2a"
  batch_norm_param {
    use_global_stats: false
  }
}
layer {
  name: "scale3d_branch2a"
  type: "Scale"
  bottom: "res3d_branch2a"
  top: "res3d_branch2a"
  scale_param {
    bias_term: true
  }
}
layer {
  name: "res3d_branch2a_relu"
  type: "ReLU"
  bottom: "res3d_branch2a"
  top: "res3d_branch2a"
}
layer {
  name: "res3d_branch2b"
  type: "Convolution"
  bottom: "res3d_branch2a"
  top: "res3d_branch2b"
  convolution_param {
    num_output: 128
    bias_term: false
    pad: 1
    kernel_size: 3
    stride: 1
    weight_filler {
      type: "msra"
    }
  }
}
layer {
  name: "bn3d_branch2b"
  type: "BatchNorm"
  bottom: "res3d_branch2b"
  top: "res3d_branch2b"
  batch_norm_param {
    use_global_stats: false
  }
}
layer {
  name: "scale3d_branch2b"
  type: "Scale"
layer {
  name: "res3b_branch2c"
  type: "Convolution"
  bottom: "res3b_branch2b"
  top: "res3b_branch2c"
  convolution_param {
    num_output: 512
    bias_term: false
    pad: 0
    kernel_size: 1
    stride: 1
    weight_filler {
      type: "msra"
    }
  }
}
layer {
  name: "bn3b_branch2c"
  type: "BatchNorm"
  bottom: "res3b_branch2c"
  top: "res3b_branch2c"
  batch_norm_param {
    use_global_stats: false
  }
}
layer {
  name: "scale3b_branch2c"
  type: "Scale"
  bottom: "res3b_branch2c"
  top: "res3b_branch2c"
  scale_param {
    bias_term: true
  }
}
layer {
  name: "res3b"
  type: "Eltwise"
  bottom: "res3a"
  bottom: "res3b_branch2c"
  top: "res3b"
  eltwise_param {
    operation: SUM
  }
}
layer {
  name: "res3b_relu"
  type: "ReLU"
  bottom: "res3b"
  top: "res3b"
}
layer {
  name: "res3c_branch2a"
  type: "Convolution"
  bottom: "res3b"
  top: "res3c_branch2a"
  convolution_param {
    num_output: 128
    bias_term: false
    pad: 0
    kernel_size: 1
    stride: 1
    weight_filler {
  bottom: "res3b_branch2b"
  top: "res3b_branch2b"
}
    use_global_stats: false
  }
}
layer {
  name: "scale3a_branch2a"
  type: "Scale"
  bottom: "res3a_branch2a"
  top: "res3a_branch2a"
  scale_param {
    bias_term: true
  }
}
layer {
  name: "res3a_branch2a_relu"
  type: "ReLU"
  bottom: "res3a_branch2a"
  top: "res3a_branch2a"
}
layer {
  name: "res3a_branch2b"
  type: "Convolution"
  bottom: "res3a_branch2a"
  top: "res3a_branch2b"
  convolution_param {
    num_output: 128
    bias_term: false
    pad: 1
    kernel_size: 3
    stride: 1
    weight_filler {
      type: "msra"
    }
  }
}
layer {
  name: "bn3a_branch2b"
  type: "BatchNorm"
  bottom: "res3a_branch2b"
  top: "res3a_branch2b"
  batch_norm_param {
    use_global_stats: false
  }
}
layer {
  name: "scale3a_branch2b"
  type: "Scale"
  bottom: "res3a_branch2b"
  top: "res3a_branch2b"
  scale_param {
    bias_term: true
  }
}
layer {
  name: "res3a_branch2b_relu"
  type: "ReLU"
  bottom: "res3a_branch2b"
  top: "res3a_branch2b"
}
layer {
  name: "res3a_branch2c"
  type: "Convolution"
  bottom: "res3d_branch2b"
      type: "msra"
    }
  }
}
layer {
  name: "bn3c_branch2a"
  type: "BatchNorm"
  bottom: "res3c_branch2a"
  top: "res3c_branch2a"
  batch_norm_param {
    use_global_stats: false
  }
}
layer {
  name: "scale3c_branch2a"
  type: "Scale"
  bottom: "res3c_branch2a"
  top: "res3c_branch2a"
  scale_param {
    bias_term: true
  }
}
layer {
  name: "res3c_branch2a_relu"
  type: "ReLU"
  bottom: "res3c_branch2a"
  top: "res3c_branch2a"
}
layer {
  name: "res3c_branch2b"
  type: "Convolution"
  bottom: "res3c_branch2a"
  top: "res3c_branch2b"
  convolution_param {
    num_output: 128
    bias_term: false
    pad: 1
    kernel_size: 3
    stride: 1
    weight_filler {
      type: "msra"
    }
  }
}
layer {
  name: "bn3c_branch2b"
  type: "BatchNorm"
  bottom: "res3c_branch2b"
  top: "res3c_branch2b"
  batch_norm_param {
    use_global_stats: false
  }
}
layer {
  name: "scale3c_branch2b"
  type: "Scale"
  bottom: "res3c_branch2b"
  top: "res3c_branch2b"
  scale_param {
    bias_term: true
  }
}
layer {
layer {
  name: "res3b_branch2c"
  type: "Convolution"
  bottom: "res3b_branch2b"
  top: "res3b_branch2c"
  convolution_param {
    num_output: 512
    bias_term: false
    pad: 0
    kernel_size: 1
    stride: 1
    weight_filler {
      type: "msra"
    }
  }
}
layer {
  name: "bn3b_branch2c"
  type: "BatchNorm"
  bottom: "res3b_branch2c"
  top: "res3b_branch2c"
  batch_norm_param {
    use_global_stats: false
  }
}
layer {
  name: "scale3b_branch2c"
  type: "Scale"
  bottom: "res3b_branch2c"
  top: "res3b_branch2c"
  scale_param {
    bias_term: true
  }
}
layer {
  name: "res3b"
  type: "Eltwise"
  bottom: "res3a"
  bottom: "res3b_branch2c"
  top: "res3b"
  eltwise_param {
    operation: SUM
  }
}
layer {
  name: "res3b_relu"
  type: "ReLU"
  bottom: "res3b"
  top: "res3b"
}
layer {
  name: "res3c_branch2a"
  type: "Convolution"
  bottom: "res3b"
  top: "res3c_branch2a"
  convolution_param {
    num_output: 128
    bias_term: false
    pad: 0
    kernel_size: 1
    stride: 1
    weight_filler {
  bottom: "res3a_branch2b"
  top: "res3a_branch2c"
  convolution_param {
    num_output: 512
    bias_term: false
    pad: 0
    kernel_size: 1
    stride: 1
    weight_filler {
      type: "msra"
    }
  }
}
layer {
  name: "bn3a_branch2c"
  type: "BatchNorm"
  bottom: "res3a_branch2c"
  top: "res3a_branch2c"
  batch_norm_param {
    use_global_stats: false
  }
}
layer {
  name: "scale3a_branch2c"
  type: "Scale"
  bottom: "res3a_branch2c"
  top: "res3a_branch2c"
  scale_param {
    bias_term: true
  }
}
layer {
  name: "res3a"
  type: "Eltwise"
  bottom: "res3a_branch1"
  bottom: "res3a_branch2c"
  top: "res3a"
  eltwise_param {
    operation: SUM
  }
}
layer {
  name: "res3a_relu"
  type: "ReLU"
  bottom: "res3a"
  top: "res3a"
}
layer {
  name: "res3b_branch2a"
  type: "Convolution"
  bottom: "res3a"
  top: "res3b_branch2a"
  convolution_param {
    num_output: 128
    bias_term: false
    pad: 0
    kernel_size: 1
    stride: 1
    weight_filler {
      type: "msra"
    }
  }
}
layer {
  top: "res3d_branch2b"
  scale_param {
    bias_term: true
  }
}
layer {
  name: "res3d_branch2b_relu"
  type: "ReLU"
  bottom: "res3d_branch2b"
  top: "res3d_branch2b"
}
layer {
  name: "res3d_branch2c"
  type: "Convolution"
  bottom: "res3d_branch2b"
  top: "res3d_branch2c"
  convolution_param {
    num_output: 512
    bias_term: false
    pad: 0
    kernel_size: 1
    stride: 1
    weight_filler {
      type: "msra"
    }
  }
}
layer {
  name: "bn3d_branch2c"
  type: "BatchNorm"
  bottom: "res3d_branch2c"
  top: "res3d_branch2c"
  batch_norm_param {
    use_global_stats: false
  }
}
layer {
  name: "scale3d_branch2c"
  type: "Scale"
  bottom: "res3d_branch2c"
  top: "res3d_branch2c"
  scale_param {
    bias_term: true
  }
}
layer {
  name: "res3d"
  type: "Eltwise"
  bottom: "res3c"
  bottom: "res3d_branch2c"
  top: "res3d"
  eltwise_param {
    operation: SUM
  }
}
layer {
  name: "res3d_relu"
  type: "ReLU"
  bottom: "res3d"
  top: "res3d"
}
layer {
  name: "res4a_branch1"
  type: "Convolution"
  name: "res3c_branch2b_relu"
  type: "ReLU"
  bottom: "res3c_branch2b"
  top: "res3c_branch2b"
}
layer {
  name: "res3c_branch2c"
  type: "Convolution"
  bottom: "res3c_branch2b"
  top: "res3c_branch2c"
  convolution_param {
    num_output: 512
    bias_term: false
    pad: 0
    kernel_size: 1
    stride: 1
    weight_filler {
      type: "msra"
    }
  }
}
layer {
  name: "bn3c_branch2c"
  type: "BatchNorm"
  bottom: "res3c_branch2c"
  top: "res3c_branch2c"
  batch_norm_param {
    use_global_stats: false
  }
}
layer {
  name: "scale3c_branch2c"
  type: "Scale"
  bottom: "res3c_branch2c"
  top: "res3c_branch2c"
  scale_param {
    bias_term: true
  }
}
layer {
  name: "res3c"
  type: "Eltwise"
  bottom: "res3b"
  bottom: "res3c_branch2c"
  top: "res3c"
  eltwise_param {
    operation: SUM
  }
}
layer {
  name: "res3c_relu"
  type: "ReLU"
  bottom: "res3c"
  top: "res3c"
}
layer {
  name: "res3d_branch2a"
  type: "Convolution"
  bottom: "res3c"
  top: "res3d_branch2a"
  convolution_param {
      type: "msra"
    }
  }
}
layer {
  name: "bn3c_branch2a"
  type: "BatchNorm"
  bottom: "res3c_branch2a"
  top: "res3c_branch2a"
  batch_norm_param {
    use_global_stats: false
  }
}
layer {
  name: "scale3c_branch2a"
  type: "Scale"
  bottom: "res3c_branch2a"
  top: "res3c_branch2a"
  scale_param {
    bias_term: true
  }
}
layer {
  name: "res3c_branch2a_relu"
  type: "ReLU"
  bottom: "res3c_branch2a"
  top: "res3c_branch2a"
}
layer {
  name: "res3c_branch2b"
  type: "Convolution"
  bottom: "res3c_branch2a"
  top: "res3c_branch2b"
  convolution_param {
    num_output: 128
    bias_term: false
    pad: 1
    kernel_size: 3
    stride: 1
    weight_filler {
      type: "msra"
    }
  }
}
layer {
  name: "bn3c_branch2b"
  type: "BatchNorm"
  bottom: "res3c_branch2b"
  top: "res3c_branch2b"
  batch_norm_param {
    use_global_stats: false
  }
}
layer {
  name: "scale3c_branch2b"
  type: "Scale"
  bottom: "res3c_branch2b"
  top: "res3c_branch2b"
  scale_param {
    bias_term: true
  }
}
layer {
  name: "bn3b_branch2a"
  type: "BatchNorm"
  bottom: "res3b_branch2a"
  top: "res3b_branch2a"
  batch_norm_param {
    use_global_stats: false
  }
}
layer {
  name: "scale3b_branch2a"
  type: "Scale"
  bottom: "res3b_branch2a"
  top: "res3b_branch2a"
  scale_param {
    bias_term: true
  }
}
layer {
  name: "res3b_branch2a_relu"
  type: "ReLU"
  bottom: "res3b_branch2a"
  top: "res3b_branch2a"
}
layer {
  name: "res3b_branch2b"
  type: "Convolution"
  bottom: "res3b_branch2a"
  top: "res3b_branch2b"
  convolution_param {
    num_output: 128
    bias_term: false
    pad: 1
    kernel_size: 3
    stride: 1
    weight_filler {
      type: "msra"
    }
  }
}
layer {
  name: "bn3b_branch2b"
  type: "BatchNorm"
  bottom: "res3b_branch2b"
  top: "res3b_branch2b"
  batch_norm_param {
    use_global_stats: false
  }
}
layer {
  name: "scale3b_branch2b"
  type: "Scale"
  bottom: "res3b_branch2b"
  top: "res3b_branch2b"
  scale_param {
    bias_term: true
  }
}
layer {
  name: "res3b_branch2b_relu"
  type: "ReLU"
  bottom: "res3d"
  top: "res4a_branch1"
  convolution_param {
    num_output: 1024
    bias_term: false
    pad: 0
    kernel_size: 1
    stride: 2
    weight_filler {
      type: "msra"
    }
  }
}
layer {
  name: "bn4a_branch1"
  type: "BatchNorm"
  bottom: "res4a_branch1"
  top: "res4a_branch1"
  batch_norm_param {
    use_global_stats: false
  }
}
layer {
  name: "scale4a_branch1"
  type: "Scale"
  bottom: "res4a_branch1"
  top: "res4a_branch1"
  scale_param {
    bias_term: true
  }
}
layer {
  name: "res4a_branch2a"
  type: "Convolution"
  bottom: "res3d"
  top: "res4a_branch2a"
  convolution_param {
    num_output: 256
    bias_term: false
    pad: 0
    kernel_size: 1
    stride: 2
    weight_filler {
      type: "msra"
    }
  }
}
layer {
  name: "bn4a_branch2a"
  type: "BatchNorm"
  bottom: "res4a_branch2a"
  top: "res4a_branch2a"
  batch_norm_param {
    use_global_stats: false
  }
}
layer {
  name: "scale4a_branch2a"
  type: "Scale"
  bottom: "res4a_branch2a"
  top: "res4a_branch2a"
    num_output: 128
    bias_term: false
    pad: 0
    kernel_size: 1
    stride: 1
    weight_filler {
      type: "msra"
    }
  }
}
layer {
  name: "bn3d_branch2a"
  type: "BatchNorm"
  bottom: "res3d_branch2a"
  top: "res3d_branch2a"
  batch_norm_param {
    use_global_stats: false
  }
}
layer {
  name: "scale3d_branch2a"
  type: "Scale"
  bottom: "res3d_branch2a"
  top: "res3d_branch2a"
  scale_param {
    bias_term: true
  }
}
layer {
  name: "res3d_branch2a_relu"
  type: "ReLU"
  bottom: "res3d_branch2a"
  top: "res3d_branch2a"
}
layer {
  name: "res3d_branch2b"
  type: "Convolution"
  bottom: "res3d_branch2a"
  top: "res3d_branch2b"
  convolution_param {
    num_output: 128
    bias_term: false
    pad: 1
    kernel_size: 3
    stride: 1
    weight_filler {
      type: "msra"
    }
  }
}
layer {
  name: "bn3d_branch2b"
  type: "BatchNorm"
  bottom: "res3d_branch2b"
  top: "res3d_branch2b"
  batch_norm_param {
    use_global_stats: false
  }
}
layer {
  name: "scale3d_branch2b"
  type: "Scale"
  name: "res3c_branch2b_relu"
  type: "ReLU"
  bottom: "res3c_branch2b"
  top: "res3c_branch2b"
}
layer {
  name: "res3c_branch2c"
  type: "Convolution"
  bottom: "res3c_branch2b"
  top: "res3c_branch2c"
  convolution_param {
    num_output: 512
    bias_term: false
    pad: 0
    kernel_size: 1
    stride: 1
    weight_filler {
      type: "msra"
    }
  }
}
layer {
  name: "bn3c_branch2c"
  type: "BatchNorm"
  bottom: "res3c_branch2c"
  top: "res3c_branch2c"
  batch_norm_param {
    use_global_stats: false
  }
}
layer {
  name: "scale3c_branch2c"
  type: "Scale"
  bottom: "res3c_branch2c"
  top: "res3c_branch2c"
  scale_param {
    bias_term: true
  }
}
layer {
  name: "res3c"
  type: "Eltwise"
  bottom: "res3b"
  bottom: "res3c_branch2c"
  top: "res3c"
  eltwise_param {
    operation: SUM
  }
}
layer {
  name: "res3c_relu"
  type: "ReLU"
  bottom: "res3c"
  top: "res3c"
}
layer {
  name: "res3d_branch2a"
  type: "Convolution"
  bottom: "res3c"
  top: "res3d_branch2a"
  convolution_param {
  bottom: "res3b_branch2b"
  top: "res3b_branch2b"
}
  scale_param {
    bias_term: true
  }
}
layer {
  name: "res4a_branch2a_relu"
  type: "ReLU"
  bottom: "res4a_branch2a"
  top: "res4a_branch2a"
}
layer {
  name: "res4a_branch2b"
  type: "Convolution"
  bottom: "res4a_branch2a"
  top: "res4a_branch2b"
  convolution_param {
    num_output: 256
    bias_term: false
    pad: 1
    kernel_size: 3
    stride: 1
    weight_filler {
      type: "msra"
    }
  }
}
layer {
  name: "bn4a_branch2b"
  type: "BatchNorm"
  bottom: "res4a_branch2b"
  top: "res4a_branch2b"
  batch_norm_param {
    use_global_stats: false
  }
}
layer {
  name: "scale4a_branch2b"
  type: "Scale"
  bottom: "res4a_branch2b"
  top: "res4a_branch2b"
  scale_param {
    bias_term: true
  }
}
layer {
  name: "res4a_branch2b_relu"
  type: "ReLU"
  bottom: "res4a_branch2b"
  top: "res4a_branch2b"
}
layer {
  name: "res4a_branch2c"
  type: "Convolution"
  bottom: "res4a_branch2b"
  top: "res4a_branch2c"
  convolution_param {
    num_output: 1024
    bias_term: false
    pad: 0
    kernel_size: 1
  bottom: "res3d_branch2b"
    num_output: 128
    bias_term: false
    pad: 0
    kernel_size: 1
    stride: 1
    weight_filler {
      type: "msra"
    }
  }
}
layer {
  name: "bn3d_branch2a"
  type: "BatchNorm"
  bottom: "res3d_branch2a"
  top: "res3d_branch2a"
  batch_norm_param {
    use_global_stats: false
  }
}
layer {
  name: "scale3d_branch2a"
  type: "Scale"
  bottom: "res3d_branch2a"
  top: "res3d_branch2a"
  scale_param {
    bias_term: true
  }
}
layer {
  name: "res3d_branch2a_relu"
  type: "ReLU"
  bottom: "res3d_branch2a"
  top: "res3d_branch2a"
}
layer {
  name: "res3d_branch2b"
  type: "Convolution"
  bottom: "res3d_branch2a"
  top: "res3d_branch2b"
  convolution_param {
    num_output: 128
    bias_term: false
    pad: 1
    kernel_size: 3
    stride: 1
    weight_filler {
      type: "msra"
    }
  }
}
layer {
  name: "bn3d_branch2b"
  type: "BatchNorm"
  bottom: "res3d_branch2b"
  top: "res3d_branch2b"
  batch_norm_param {
    use_global_stats: false
  }
}
layer {
  name: "scale3d_branch2b"
  type: "Scale"
layer {
  name: "res3b_branch2c"
  type: "Convolution"
  bottom: "res3b_branch2b"
  top: "res3b_branch2c"
  convolution_param {
    num_output: 512
    bias_term: false
    pad: 0
    kernel_size: 1
    stride: 1
    weight_filler {
      type: "msra"
    }
  }
}
layer {
  name: "bn3b_branch2c"
  type: "BatchNorm"
  bottom: "res3b_branch2c"
  top: "res3b_branch2c"
  batch_norm_param {
    use_global_stats: false
  }
}
layer {
  name: "scale3b_branch2c"
  type: "Scale"
  bottom: "res3b_branch2c"
  top: "res3b_branch2c"
  scale_param {
    bias_term: true
  }
}
layer {
  name: "res3b"
  type: "Eltwise"
  bottom: "res3a"
  bottom: "res3b_branch2c"
  top: "res3b"
  eltwise_param {
    operation: SUM
  }
}
layer {
  name: "res3b_relu"
  type: "ReLU"
  bottom: "res3b"
  top: "res3b"
}
layer {
  name: "res3c_branch2a"
  type: "Convolution"
  bottom: "res3b"
  top: "res3c_branch2a"
  convolution_param {
    num_output: 128
    bias_term: false
    pad: 0
    kernel_size: 1
    stride: 1
    weight_filler {
    stride: 1
    weight_filler {
      type: "msra"
    }
  }
}
layer {
  name: "bn4a_branch2c"
  type: "BatchNorm"
  bottom: "res4a_branch2c"
  top: "res4a_branch2c"
  batch_norm_param {
    use_global_stats: false
  }
}
layer {
  name: "scale4a_branch2c"
  type: "Scale"
  bottom: "res4a_branch2c"
  top: "res4a_branch2c"
  scale_param {
    bias_term: true
  }
}
layer {
  name: "res4a"
  type: "Eltwise"
  bottom: "res4a_branch1"
  bottom: "res4a_branch2c"
  top: "res4a"
  eltwise_param {
    operation: SUM
  }
}
layer {
  name: "res4a_relu"
  type: "ReLU"
  bottom: "res4a"
  top: "res4a"
}
layer {
  name: "res4b_branch2a"
  type: "Convolution"
  bottom: "res4a"
  top: "res4b_branch2a"
  convolution_param {
    num_output: 256
    bias_term: false
    pad: 0
    kernel_size: 1
    stride: 1
    weight_filler {
      type: "msra"
    }
  }
}
layer {
  name: "bn4b_branch2a"
  type: "BatchNorm"
  bottom: "res4b_branch2a"
  top: "res4b_branch2a"
  batch_norm_param {
    use_global_stats: false
  }
}
layer {
  top: "res3d_branch2b"
  scale_param {
    bias_term: true
  }
}
layer {
  name: "res3d_branch2b_relu"
  type: "ReLU"
  bottom: "res3d_branch2b"
  top: "res3d_branch2b"
}
layer {
  name: "res3d_branch2c"
  type: "Convolution"
  bottom: "res3d_branch2b"
  top: "res3d_branch2c"
  convolution_param {
    num_output: 512
    bias_term: false
    pad: 0
    kernel_size: 1
    stride: 1
    weight_filler {
      type: "msra"
    }
  }
}
layer {
  name: "bn3d_branch2c"
  type: "BatchNorm"
  bottom: "res3d_branch2c"
  top: "res3d_branch2c"
  batch_norm_param {
    use_global_stats: false
  }
}
layer {
  name: "scale3d_branch2c"
  type: "Scale"
  bottom: "res3d_branch2c"
  top: "res3d_branch2c"
  scale_param {
    bias_term: true
  }
}
layer {
  name: "res3d"
  type: "Eltwise"
  bottom: "res3c"
  bottom: "res3d_branch2c"
  top: "res3d"
  eltwise_param {
    operation: SUM
  }
}
layer {
  name: "res3d_relu"
  type: "ReLU"
  bottom: "res3d"
  top: "res3d"
}
layer {
  name: "res4a_branch1"
  type: "Convolution"
  bottom: "res3d_branch2b"
      type: "msra"
    }
  }
}
layer {
  name: "bn3c_branch2a"
  type: "BatchNorm"
  bottom: "res3c_branch2a"
  top: "res3c_branch2a"
  batch_norm_param {
    use_global_stats: false
  }
}
layer {
  name: "scale3c_branch2a"
  type: "Scale"
  bottom: "res3c_branch2a"
  top: "res3c_branch2a"
  scale_param {
    bias_term: true
  }
}
layer {
  name: "res3c_branch2a_relu"
  type: "ReLU"
  bottom: "res3c_branch2a"
  top: "res3c_branch2a"
}
layer {
  name: "res3c_branch2b"
  type: "Convolution"
  bottom: "res3c_branch2a"
  top: "res3c_branch2b"
  convolution_param {
    num_output: 128
    bias_term: false
    pad: 1
    kernel_size: 3
    stride: 1
    weight_filler {
      type: "msra"
    }
  }
}
layer {
  name: "bn3c_branch2b"
  type: "BatchNorm"
  bottom: "res3c_branch2b"
  top: "res3c_branch2b"
  batch_norm_param {
    use_global_stats: false
  }
}
layer {
  name: "scale3c_branch2b"
  type: "Scale"
  bottom: "res3c_branch2b"
  top: "res3c_branch2b"
  scale_param {
    bias_term: true
  }
}
layer {
  name: "scale4b_branch2a"
  bottom: "res3d"
  top: "res4a_branch1"
  convolution_param {
    num_output: 1024
    bias_term: false
    pad: 0
    kernel_size: 1
    stride: 2
    weight_filler {
      type: "msra"
    }
  }
}
layer {
  name: "bn4a_branch1"
  type: "BatchNorm"
  bottom: "res4a_branch1"
  top: "res4a_branch1"
  batch_norm_param {
    use_global_stats: false
  }
}
layer {
  name: "scale4a_branch1"
  type: "Scale"
  bottom: "res4a_branch1"
  top: "res4a_branch1"
  scale_param {
    bias_term: true
  }
}
layer {
  name: "res4a_branch2a"
  type: "Convolution"
  bottom: "res3d"
  top: "res4a_branch2a"
  convolution_param {
    num_output: 256
    bias_term: false
    pad: 0
    kernel_size: 1
    stride: 2
    weight_filler {
      type: "msra"
    }
  }
}
layer {
  name: "bn4a_branch2a"
  type: "BatchNorm"
  bottom: "res4a_branch2a"
  top: "res4a_branch2a"
  batch_norm_param {
    use_global_stats: false
  }
}
layer {
  name: "scale4a_branch2a"
  type: "Scale"
  bottom: "res4a_branch2a"
  top: "res4a_branch2a"
  top: "res3d_branch2b"
  scale_param {
    bias_term: true
  }
}
layer {
  name: "res3d_branch2b_relu"
  type: "ReLU"
  bottom: "res3d_branch2b"
  top: "res3d_branch2b"
}
layer {
  name: "res3d_branch2c"
  type: "Convolution"
  bottom: "res3d_branch2b"
  top: "res3d_branch2c"
  convolution_param {
    num_output: 512
    bias_term: false
    pad: 0
    kernel_size: 1
    stride: 1
    weight_filler {
      type: "msra"
    }
  }
}
layer {
  name: "bn3d_branch2c"
  type: "BatchNorm"
  bottom: "res3d_branch2c"
  top: "res3d_branch2c"
  batch_norm_param {
    use_global_stats: false
  }
}
layer {
  name: "scale3d_branch2c"
  type: "Scale"
  bottom: "res3d_branch2c"
  top: "res3d_branch2c"
  scale_param {
    bias_term: true
  }
}
layer {
  name: "res3d"
  type: "Eltwise"
  bottom: "res3c"
  bottom: "res3d_branch2c"
  top: "res3d"
  eltwise_param {
    operation: SUM
  }
}
layer {
  name: "res3d_relu"
  type: "ReLU"
  bottom: "res3d"
  top: "res3d"
}
layer {
  name: "res4a_branch1"
  type: "Convolution"
  name: "res3c_branch2b_relu"
  type: "ReLU"
  bottom: "res3c_branch2b"
  top: "res3c_branch2b"
}
layer {
  name: "res3c_branch2c"
  type: "Convolution"
  bottom: "res3c_branch2b"
  top: "res3c_branch2c"
  convolution_param {
    num_output: 512
    bias_term: false
    pad: 0
    kernel_size: 1
    stride: 1
    weight_filler {
      type: "msra"
    }
  }
}
layer {
  name: "bn3c_branch2c"
  type: "BatchNorm"
  bottom: "res3c_branch2c"
  top: "res3c_branch2c"
  batch_norm_param {
    use_global_stats: false
  }
}
layer {
  name: "scale3c_branch2c"
  type: "Scale"
  bottom: "res3c_branch2c"
  top: "res3c_branch2c"
  scale_param {
    bias_term: true
  }
}
layer {
  name: "res3c"
  type: "Eltwise"
  bottom: "res3b"
  bottom: "res3c_branch2c"
  top: "res3c"
  eltwise_param {
    operation: SUM
  }
}
layer {
  name: "res3c_relu"
  type: "ReLU"
  bottom: "res3c"
  top: "res3c"
}
layer {
  name: "res3d_branch2a"
  type: "Convolution"
  bottom: "res3c"
  top: "res3d_branch2a"
  convolution_param {
  type: "Scale"
  bottom: "res4b_branch2a"
  top: "res4b_branch2a"
  scale_param {
    bias_term: true
  }
}
layer {
  name: "res4b_branch2a_relu"
  type: "ReLU"
  bottom: "res4b_branch2a"
  top: "res4b_branch2a"
}
layer {
  name: "res4b_branch2b"
  type: "Convolution"
  bottom: "res4b_branch2a"
  top: "res4b_branch2b"
  convolution_param {
    num_output: 256
    bias_term: false
    pad: 1
    kernel_size: 3
    stride: 1
    weight_filler {
      type: "msra"
    }
  }
}
layer {
  name: "bn4b_branch2b"
  type: "BatchNorm"
  bottom: "res4b_branch2b"
  top: "res4b_branch2b"
  batch_norm_param {
    use_global_stats: false
  }
}
layer {
  name: "scale4b_branch2b"
  type: "Scale"
  bottom: "res4b_branch2b"
  top: "res4b_branch2b"
  scale_param {
    bias_term: true
  }
}
layer {
  name: "res4b_branch2b_relu"
  type: "ReLU"
  bottom: "res4b_branch2b"
  top: "res4b_branch2b"
}
layer {
  name: "res4b_branch2c"
  type: "Convolution"
  bottom: "res4b_branch2b"
  top: "res4b_branch2c"
  convolution_param {
  scale_param {
    bias_term: true
  }
}
layer {
  name: "res4a_branch2a_relu"
  type: "ReLU"
  bottom: "res4a_branch2a"
  top: "res4a_branch2a"
}
layer {
  name: "res4a_branch2b"
  type: "Convolution"
  bottom: "res4a_branch2a"
  top: "res4a_branch2b"
  convolution_param {
    num_output: 256
    bias_term: false
    pad: 1
    kernel_size: 3
    stride: 1
    weight_filler {
      type: "msra"
    }
  }
}
layer {
  name: "bn4a_branch2b"
  type: "BatchNorm"
  bottom: "res4a_branch2b"
  top: "res4a_branch2b"
  batch_norm_param {
    use_global_stats: false
  }
}
layer {
  name: "scale4a_branch2b"
  type: "Scale"
  bottom: "res4a_branch2b"
  top: "res4a_branch2b"
  scale_param {
    bias_term: true
  }
}
layer {
  name: "res4a_branch2b_relu"
  type: "ReLU"
  bottom: "res4a_branch2b"
  top: "res4a_branch2b"
}
layer {
  name: "res4a_branch2c"
  type: "Convolution"
  bottom: "res4a_branch2b"
  top: "res4a_branch2c"
  convolution_param {
    num_output: 1024
    bias_term: false
    pad: 0
    kernel_size: 1
  bottom: "res3d"
  top: "res4a_branch1"
  convolution_param {
    num_output: 1024
    bias_term: false
    pad: 0
    kernel_size: 1
    stride: 2
    weight_filler {
      type: "msra"
    }
  }
}
layer {
  name: "bn4a_branch1"
  type: "BatchNorm"
  bottom: "res4a_branch1"
  top: "res4a_branch1"
  batch_norm_param {
    use_global_stats: false
  }
}
layer {
  name: "scale4a_branch1"
  type: "Scale"
  bottom: "res4a_branch1"
  top: "res4a_branch1"
  scale_param {
    bias_term: true
  }
}
layer {
  name: "res4a_branch2a"
  type: "Convolution"
  bottom: "res3d"
  top: "res4a_branch2a"
  convolution_param {
    num_output: 256
    bias_term: false
    pad: 0
    kernel_size: 1
    stride: 2
    weight_filler {
      type: "msra"
    }
  }
}
layer {
  name: "bn4a_branch2a"
  type: "BatchNorm"
  bottom: "res4a_branch2a"
  top: "res4a_branch2a"
  batch_norm_param {
    use_global_stats: false
  }
}
layer {
  name: "scale4a_branch2a"
  type: "Scale"
  bottom: "res4a_branch2a"
  top: "res4a_branch2a"
    num_output: 128
    bias_term: false
    pad: 0
    kernel_size: 1
    stride: 1
    weight_filler {
      type: "msra"
    }
  }
}
layer {
  name: "bn3d_branch2a"
  type: "BatchNorm"
  bottom: "res3d_branch2a"
  top: "res3d_branch2a"
  batch_norm_param {
    use_global_stats: false
  }
}
layer {
  name: "scale3d_branch2a"
  type: "Scale"
  bottom: "res3d_branch2a"
  top: "res3d_branch2a"
  scale_param {
    bias_term: true
  }
}
layer {
  name: "res3d_branch2a_relu"
  type: "ReLU"
  bottom: "res3d_branch2a"
  top: "res3d_branch2a"
}
layer {
  name: "res3d_branch2b"
  type: "Convolution"
  bottom: "res3d_branch2a"
  top: "res3d_branch2b"
  convolution_param {
    num_output: 128
    bias_term: false
    pad: 1
    kernel_size: 3
    stride: 1
    weight_filler {
      type: "msra"
    }
  }
}
layer {
  name: "bn3d_branch2b"
  type: "BatchNorm"
  bottom: "res3d_branch2b"
  top: "res3d_branch2b"
  batch_norm_param {
    use_global_stats: false
  }
}
layer {
  name: "scale3d_branch2b"
  type: "Scale"
    num_output: 1024
    bias_term: false
    pad: 0
    kernel_size: 1
    stride: 1
    weight_filler {
      type: "msra"
    }
  }
}
layer {
  name: "bn4b_branch2c"
  type: "BatchNorm"
  bottom: "res4b_branch2c"
  top: "res4b_branch2c"
  batch_norm_param {
    use_global_stats: false
  }
}
layer {
  name: "scale4b_branch2c"
  type: "Scale"
  bottom: "res4b_branch2c"
  top: "res4b_branch2c"
  scale_param {
    bias_term: true
  }
}
layer {
  name: "res4b"
  type: "Eltwise"
  bottom: "res4a"
  bottom: "res4b_branch2c"
  top: "res4b"
  eltwise_param {
    operation: SUM
  }
}
layer {
  name: "res4b_relu"
  type: "ReLU"
  bottom: "res4b"
  top: "res4b"
}
layer {
  name: "res4c_branch2a"
  type: "Convolution"
  bottom: "res4b"
  top: "res4c_branch2a"
  convolution_param {
    num_output: 256
    bias_term: false
    pad: 0
    kernel_size: 1
    stride: 1
    weight_filler {
      type: "msra"
    }
  }
}
layer {
  name: "bn4c_branch2a"
  type: "BatchNorm"
  bottom: "res4c_branch2a"
  top: "res4c_branch2a"
    stride: 1
    weight_filler {
      type: "msra"
    }
  }
}
layer {
  name: "bn4a_branch2c"
  type: "BatchNorm"
  bottom: "res4a_branch2c"
  top: "res4a_branch2c"
  batch_norm_param {
    use_global_stats: false
  }
}
layer {
  name: "scale4a_branch2c"
  type: "Scale"
  bottom: "res4a_branch2c"
  top: "res4a_branch2c"
  scale_param {
    bias_term: true
  }
}
layer {
  name: "res4a"
  type: "Eltwise"
  bottom: "res4a_branch1"
  bottom: "res4a_branch2c"
  top: "res4a"
  eltwise_param {
    operation: SUM
  }
}
layer {
  name: "res4a_relu"
  type: "ReLU"
  bottom: "res4a"
  top: "res4a"
}
layer {
  name: "res4b_branch2a"
  type: "Convolution"
  bottom: "res4a"
  top: "res4b_branch2a"
  convolution_param {
    num_output: 256
    bias_term: false
    pad: 0
    kernel_size: 1
    stride: 1
    weight_filler {
      type: "msra"
    }
  }
}
layer {
  name: "bn4b_branch2a"
  type: "BatchNorm"
  bottom: "res4b_branch2a"
  top: "res4b_branch2a"
  batch_norm_param {
    use_global_stats: false
  }
}
layer {
  scale_param {
    bias_term: true
  }
}
layer {
  name: "res4a_branch2a_relu"
  type: "ReLU"
  bottom: "res4a_branch2a"
  top: "res4a_branch2a"
}
layer {
  name: "res4a_branch2b"
  type: "Convolution"
  bottom: "res4a_branch2a"
  top: "res4a_branch2b"
  convolution_param {
    num_output: 256
    bias_term: false
    pad: 1
    kernel_size: 3
    stride: 1
    weight_filler {
      type: "msra"
    }
  }
}
layer {
  name: "bn4a_branch2b"
  type: "BatchNorm"
  bottom: "res4a_branch2b"
  top: "res4a_branch2b"
  batch_norm_param {
    use_global_stats: false
  }
}
layer {
  name: "scale4a_branch2b"
  type: "Scale"
  bottom: "res4a_branch2b"
  top: "res4a_branch2b"
  scale_param {
    bias_term: true
  }
}
layer {
  name: "res4a_branch2b_relu"
  type: "ReLU"
  bottom: "res4a_branch2b"
  top: "res4a_branch2b"
}
layer {
  name: "res4a_branch2c"
  type: "Convolution"
  bottom: "res4a_branch2b"
  top: "res4a_branch2c"
  convolution_param {
    num_output: 1024
    bias_term: false
    pad: 0
    kernel_size: 1
  bottom: "res3d_branch2b"
  batch_norm_param {
    use_global_stats: false
  }
}
layer {
  name: "scale4c_branch2a"
  type: "Scale"
  bottom: "res4c_branch2a"
  top: "res4c_branch2a"
  scale_param {
    bias_term: true
  }
}
layer {
  name: "res4c_branch2a_relu"
  type: "ReLU"
  bottom: "res4c_branch2a"
  top: "res4c_branch2a"
}
layer {
  name: "res4c_branch2b"
  type: "Convolution"
  bottom: "res4c_branch2a"
  top: "res4c_branch2b"
  convolution_param {
    num_output: 256
    bias_term: false
    pad: 1
    kernel_size: 3
    stride: 1
    weight_filler {
      type: "msra"
    }
  }
}
layer {
  name: "bn4c_branch2b"
  type: "BatchNorm"
  bottom: "res4c_branch2b"
  top: "res4c_branch2b"
  batch_norm_param {
    use_global_stats: false
  }
}
layer {
  name: "scale4c_branch2b"
  type: "Scale"
  bottom: "res4c_branch2b"
  top: "res4c_branch2b"
  scale_param {
    bias_term: true
  }
}
layer {
  name: "res4c_branch2b_relu"
  type: "ReLU"
  bottom: "res4c_branch2b"
  top: "res4c_branch2b"
}
layer {
  name: "res4c_branch2c"
  name: "scale4b_branch2a"
    stride: 1
    weight_filler {
      type: "msra"
    }
  }
}
layer {
  name: "bn4a_branch2c"
  type: "BatchNorm"
  bottom: "res4a_branch2c"
  top: "res4a_branch2c"
  batch_norm_param {
    use_global_stats: false
  }
}
layer {
  name: "scale4a_branch2c"
  type: "Scale"
  bottom: "res4a_branch2c"
  top: "res4a_branch2c"
  scale_param {
    bias_term: true
  }
}
layer {
  name: "res4a"
  type: "Eltwise"
  bottom: "res4a_branch1"
  bottom: "res4a_branch2c"
  top: "res4a"
  eltwise_param {
    operation: SUM
  }
}
layer {
  name: "res4a_relu"
  type: "ReLU"
  bottom: "res4a"
  top: "res4a"
}
layer {
  name: "res4b_branch2a"
  type: "Convolution"
  bottom: "res4a"
  top: "res4b_branch2a"
  convolution_param {
    num_output: 256
    bias_term: false
    pad: 0
    kernel_size: 1
    stride: 1
    weight_filler {
      type: "msra"
    }
  }
}
layer {
  name: "bn4b_branch2a"
  type: "BatchNorm"
  bottom: "res4b_branch2a"
  top: "res4b_branch2a"
  batch_norm_param {
    use_global_stats: false
  }
}
layer {
  top: "res3d_branch2b"
  scale_param {
    bias_term: true
  }
}
layer {
  name: "res3d_branch2b_relu"
  type: "ReLU"
  bottom: "res3d_branch2b"
  top: "res3d_branch2b"
}
layer {
  name: "res3d_branch2c"
  type: "Convolution"
  bottom: "res3d_branch2b"
  top: "res3d_branch2c"
  convolution_param {
    num_output: 512
    bias_term: false
    pad: 0
    kernel_size: 1
    stride: 1
    weight_filler {
      type: "msra"
    }
  }
}
layer {
  name: "bn3d_branch2c"
  type: "BatchNorm"
  bottom: "res3d_branch2c"
  top: "res3d_branch2c"
  batch_norm_param {
    use_global_stats: false
  }
}
layer {
  name: "scale3d_branch2c"
  type: "Scale"
  bottom: "res3d_branch2c"
  top: "res3d_branch2c"
  scale_param {
    bias_term: true
  }
}
layer {
  name: "res3d"
  type: "Eltwise"
  bottom: "res3c"
  bottom: "res3d_branch2c"
  top: "res3d"
  eltwise_param {
    operation: SUM
  }
}
layer {
  name: "res3d_relu"
  type: "ReLU"
  bottom: "res3d"
  top: "res3d"
}
layer {
  name: "res4a_branch1"
  type: "Convolution"
  type: "Convolution"
  bottom: "res4c_branch2b"
  top: "res4c_branch2c"
  convolution_param {
    num_output: 1024
    bias_term: false
    pad: 0
    kernel_size: 1
    stride: 1
    weight_filler {
      type: "msra"
    }
  }
}
layer {
  name: "bn4c_branch2c"
  type: "BatchNorm"
  bottom: "res4c_branch2c"
  top: "res4c_branch2c"
  batch_norm_param {
    use_global_stats: false
  }
}
layer {
  name: "scale4c_branch2c"
  type: "Scale"
  bottom: "res4c_branch2c"
  top: "res4c_branch2c"
  scale_param {
    bias_term: true
  }
}
layer {
  name: "res4c"
  type: "Eltwise"
  bottom: "res4b"
  bottom: "res4c_branch2c"
  top: "res4c"
  eltwise_param {
    operation: SUM
  }
}
layer {
  name: "res4c_relu"
  type: "ReLU"
  bottom: "res4c"
  top: "res4c"
}
layer {
  name: "res4d_branch2a"
  type: "Convolution"
  bottom: "res4c"
  top: "res4d_branch2a"
  convolution_param {
    num_output: 256
    bias_term: false
    pad: 0
    kernel_size: 1
    stride: 1
    weight_filler {
      type: "msra"
    }
  }
}
layer {
  type: "Scale"
  bottom: "res4b_branch2a"
  top: "res4b_branch2a"
  scale_param {
    bias_term: true
  }
}
layer {
  name: "res4b_branch2a_relu"
  type: "ReLU"
  bottom: "res4b_branch2a"
  top: "res4b_branch2a"
}
layer {
  name: "res4b_branch2b"
  type: "Convolution"
  bottom: "res4b_branch2a"
  top: "res4b_branch2b"
  convolution_param {
    num_output: 256
    bias_term: false
    pad: 1
    kernel_size: 3
    stride: 1
    weight_filler {
      type: "msra"
    }
  }
}
layer {
  name: "bn4b_branch2b"
  type: "BatchNorm"
  bottom: "res4b_branch2b"
  top: "res4b_branch2b"
  batch_norm_param {
    use_global_stats: false
  }
}
layer {
  name: "scale4b_branch2b"
  type: "Scale"
  bottom: "res4b_branch2b"
  top: "res4b_branch2b"
  scale_param {
    bias_term: true
  }
}
layer {
  name: "res4b_branch2b_relu"
  type: "ReLU"
  bottom: "res4b_branch2b"
  top: "res4b_branch2b"
}
layer {
  name: "res4b_branch2c"
  type: "Convolution"
  bottom: "res4b_branch2b"
  top: "res4b_branch2c"
  convolution_param {
  name: "scale4b_branch2a"
  bottom: "res3d"
  top: "res4a_branch1"
  convolution_param {
    num_output: 1024
    bias_term: false
    pad: 0
    kernel_size: 1
    stride: 2
    weight_filler {
      type: "msra"
    }
  }
}
layer {
  name: "bn4a_branch1"
  type: "BatchNorm"
  bottom: "res4a_branch1"
  top: "res4a_branch1"
  batch_norm_param {
    use_global_stats: false
  }
}
layer {
  name: "scale4a_branch1"
  type: "Scale"
  bottom: "res4a_branch1"
  top: "res4a_branch1"
  scale_param {
    bias_term: true
  }
}
layer {
  name: "res4a_branch2a"
  type: "Convolution"
  bottom: "res3d"
  top: "res4a_branch2a"
  convolution_param {
    num_output: 256
    bias_term: false
    pad: 0
    kernel_size: 1
    stride: 2
    weight_filler {
      type: "msra"
    }
  }
}
layer {
  name: "bn4a_branch2a"
  type: "BatchNorm"
  bottom: "res4a_branch2a"
  top: "res4a_branch2a"
  batch_norm_param {
    use_global_stats: false
  }
}
layer {
  name: "scale4a_branch2a"
  type: "Scale"
  bottom: "res4a_branch2a"
  top: "res4a_branch2a"
  name: "bn4d_branch2a"
    num_output: 1024
    bias_term: false
    pad: 0
    kernel_size: 1
    stride: 1
    weight_filler {
      type: "msra"
    }
  }
}
layer {
  name: "bn4b_branch2c"
  type: "BatchNorm"
  bottom: "res4b_branch2c"
  top: "res4b_branch2c"
  batch_norm_param {
    use_global_stats: false
  }
}
layer {
  name: "scale4b_branch2c"
  type: "Scale"
  bottom: "res4b_branch2c"
  top: "res4b_branch2c"
  scale_param {
    bias_term: true
  }
}
layer {
  name: "res4b"
  type: "Eltwise"
  bottom: "res4a"
  bottom: "res4b_branch2c"
  top: "res4b"
  eltwise_param {
    operation: SUM
  }
}
layer {
  name: "res4b_relu"
  type: "ReLU"
  bottom: "res4b"
  top: "res4b"
}
layer {
  name: "res4c_branch2a"
  type: "Convolution"
  bottom: "res4b"
  top: "res4c_branch2a"
  convolution_param {
    num_output: 256
    bias_term: false
    pad: 0
    kernel_size: 1
    stride: 1
    weight_filler {
      type: "msra"
    }
  }
}
layer {
  name: "bn4c_branch2a"
  type: "BatchNorm"
  bottom: "res4c_branch2a"
  top: "res4c_branch2a"
  type: "Scale"
  bottom: "res4b_branch2a"
  top: "res4b_branch2a"
  scale_param {
    bias_term: true
  }
}
layer {
  name: "res4b_branch2a_relu"
  type: "ReLU"
  bottom: "res4b_branch2a"
  top: "res4b_branch2a"
}
layer {
  name: "res4b_branch2b"
  type: "Convolution"
  bottom: "res4b_branch2a"
  top: "res4b_branch2b"
  convolution_param {
    num_output: 256
    bias_term: false
    pad: 1
    kernel_size: 3
    stride: 1
    weight_filler {
      type: "msra"
    }
  }
}
layer {
  name: "bn4b_branch2b"
  type: "BatchNorm"
  bottom: "res4b_branch2b"
  top: "res4b_branch2b"
  batch_norm_param {
    use_global_stats: false
  }
}
layer {
  name: "scale4b_branch2b"
  type: "Scale"
  bottom: "res4b_branch2b"
  top: "res4b_branch2b"
  scale_param {
    bias_term: true
  }
}
layer {
  name: "res4b_branch2b_relu"
  type: "ReLU"
  bottom: "res4b_branch2b"
  top: "res4b_branch2b"
}
layer {
  name: "res4b_branch2c"
  type: "Convolution"
  bottom: "res4b_branch2b"
  top: "res4b_branch2c"
  convolution_param {
  scale_param {
    bias_term: true
  }
}
layer {
  name: "res4a_branch2a_relu"
  type: "ReLU"
  bottom: "res4a_branch2a"
  top: "res4a_branch2a"
}
layer {
  name: "res4a_branch2b"
  type: "Convolution"
  bottom: "res4a_branch2a"
  top: "res4a_branch2b"
  convolution_param {
    num_output: 256
    bias_term: false
    pad: 1
    kernel_size: 3
    stride: 1
    weight_filler {
      type: "msra"
    }
  }
}
layer {
  name: "bn4a_branch2b"
  type: "BatchNorm"
  bottom: "res4a_branch2b"
  top: "res4a_branch2b"
  batch_norm_param {
    use_global_stats: false
  }
}
layer {
  name: "scale4a_branch2b"
  type: "Scale"
  bottom: "res4a_branch2b"
  top: "res4a_branch2b"
  scale_param {
    bias_term: true
  }
}
layer {
  name: "res4a_branch2b_relu"
  type: "ReLU"
  bottom: "res4a_branch2b"
  top: "res4a_branch2b"
}
layer {
  name: "res4a_branch2c"
  type: "Convolution"
  bottom: "res4a_branch2b"
  top: "res4a_branch2c"
  convolution_param {
    num_output: 1024
    bias_term: false
    pad: 0
    kernel_size: 1
  type: "BatchNorm"
  bottom: "res4d_branch2a"
  top: "res4d_branch2a"
  batch_norm_param {
    use_global_stats: false
  }
}
layer {
  name: "scale4d_branch2a"
  type: "Scale"
  bottom: "res4d_branch2a"
  top: "res4d_branch2a"
  scale_param {
    bias_term: true
  }
}
layer {
  name: "res4d_branch2a_relu"
  type: "ReLU"
  bottom: "res4d_branch2a"
  top: "res4d_branch2a"
}
layer {
  name: "res4d_branch2b"
  type: "Convolution"
  bottom: "res4d_branch2a"
  top: "res4d_branch2b"
  convolution_param {
    num_output: 256
    bias_term: false
    pad: 1
    kernel_size: 3
    stride: 1
    weight_filler {
      type: "msra"
    }
  }
}
layer {
  name: "bn4d_branch2b"
  type: "BatchNorm"
  bottom: "res4d_branch2b"
  top: "res4d_branch2b"
  batch_norm_param {
    use_global_stats: false
  }
}
layer {
  name: "scale4d_branch2b"
  type: "Scale"
  bottom: "res4d_branch2b"
  top: "res4d_branch2b"
  scale_param {
    bias_term: true
  }
}
layer {
  name: "res4d_branch2b_relu"
  type: "ReLU"
  bottom: "res4d_branch2b"
  batch_norm_param {
    use_global_stats: false
  }
}
layer {
  name: "scale4c_branch2a"
  type: "Scale"
  bottom: "res4c_branch2a"
  top: "res4c_branch2a"
  scale_param {
    bias_term: true
  }
}
layer {
  name: "res4c_branch2a_relu"
  type: "ReLU"
  bottom: "res4c_branch2a"
  top: "res4c_branch2a"
}
layer {
  name: "res4c_branch2b"
  type: "Convolution"
  bottom: "res4c_branch2a"
  top: "res4c_branch2b"
  convolution_param {
    num_output: 256
    bias_term: false
    pad: 1
    kernel_size: 3
    stride: 1
    weight_filler {
      type: "msra"
    }
  }
}
layer {
  name: "bn4c_branch2b"
  type: "BatchNorm"
  bottom: "res4c_branch2b"
  top: "res4c_branch2b"
  batch_norm_param {
    use_global_stats: false
  }
}
layer {
  name: "scale4c_branch2b"
  type: "Scale"
  bottom: "res4c_branch2b"
  top: "res4c_branch2b"
  scale_param {
    bias_term: true
  }
}
layer {
  name: "res4c_branch2b_relu"
  type: "ReLU"
  bottom: "res4c_branch2b"
  top: "res4c_branch2b"
}
layer {
  name: "res4c_branch2c"
    num_output: 1024
    bias_term: false
    pad: 0
    kernel_size: 1
    stride: 1
    weight_filler {
      type: "msra"
    }
  }
}
layer {
  name: "bn4b_branch2c"
  type: "BatchNorm"
  bottom: "res4b_branch2c"
  top: "res4b_branch2c"
  batch_norm_param {
    use_global_stats: false
  }
}
layer {
  name: "scale4b_branch2c"
  type: "Scale"
  bottom: "res4b_branch2c"
  top: "res4b_branch2c"
  scale_param {
    bias_term: true
  }
}
layer {
  name: "res4b"
  type: "Eltwise"
  bottom: "res4a"
  bottom: "res4b_branch2c"
  top: "res4b"
  eltwise_param {
    operation: SUM
  }
}
layer {
  name: "res4b_relu"
  type: "ReLU"
  bottom: "res4b"
  top: "res4b"
}
layer {
  name: "res4c_branch2a"
  type: "Convolution"
  bottom: "res4b"
  top: "res4c_branch2a"
  convolution_param {
    num_output: 256
    bias_term: false
    pad: 0
    kernel_size: 1
    stride: 1
    weight_filler {
      type: "msra"
    }
  }
}
layer {
  name: "bn4c_branch2a"
  type: "BatchNorm"
  bottom: "res4c_branch2a"
  top: "res4c_branch2a"
    stride: 1
    weight_filler {
      type: "msra"
    }
  }
}
layer {
  name: "bn4a_branch2c"
  type: "BatchNorm"
  bottom: "res4a_branch2c"
  top: "res4a_branch2c"
  batch_norm_param {
    use_global_stats: false
  }
}
layer {
  name: "scale4a_branch2c"
  type: "Scale"
  bottom: "res4a_branch2c"
  top: "res4a_branch2c"
  scale_param {
    bias_term: true
  }
}
layer {
  name: "res4a"
  type: "Eltwise"
  bottom: "res4a_branch1"
  bottom: "res4a_branch2c"
  top: "res4a"
  eltwise_param {
    operation: SUM
  }
}
layer {
  name: "res4a_relu"
  type: "ReLU"
  bottom: "res4a"
  top: "res4a"
}
layer {
  name: "res4b_branch2a"
  type: "Convolution"
  bottom: "res4a"
  top: "res4b_branch2a"
  convolution_param {
    num_output: 256
    bias_term: false
    pad: 0
    kernel_size: 1
    stride: 1
    weight_filler {
      type: "msra"
    }
  }
}
layer {
  name: "bn4b_branch2a"
  type: "BatchNorm"
  bottom: "res4b_branch2a"
  top: "res4b_branch2a"
  batch_norm_param {
    use_global_stats: false
  }
}
layer {
  top: "res4d_branch2b"
}
layer {
  name: "res4d_branch2c"
  type: "Convolution"
  bottom: "res4d_branch2b"
  top: "res4d_branch2c"
  convolution_param {
    num_output: 1024
    bias_term: false
    pad: 0
    kernel_size: 1
    stride: 1
    weight_filler {
      type: "msra"
    }
  }
}
layer {
  name: "bn4d_branch2c"
  type: "BatchNorm"
  bottom: "res4d_branch2c"
  top: "res4d_branch2c"
  batch_norm_param {
    use_global_stats: false
  }
}
layer {
  name: "scale4d_branch2c"
  type: "Scale"
  bottom: "res4d_branch2c"
  top: "res4d_branch2c"
  scale_param {
    bias_term: true
  }
}
layer {
  name: "res4d"
  type: "Eltwise"
  bottom: "res4c"
  bottom: "res4d_branch2c"
  top: "res4d"
  eltwise_param {
    operation: SUM
  }
}
layer {
  name: "res4d_relu"
  type: "ReLU"
  bottom: "res4d"
  top: "res4d"
}
layer {
  name: "res4e_branch2a"
  type: "Convolution"
  bottom: "res4d"
  top: "res4e_branch2a"
  convolution_param {
    num_output: 256
    bias_term: false
    pad: 0
    kernel_size: 1
    stride: 1
  type: "Convolution"
  bottom: "res4c_branch2b"
  top: "res4c_branch2c"
  convolution_param {
    num_output: 1024
    bias_term: false
    pad: 0
    kernel_size: 1
    stride: 1
    weight_filler {
      type: "msra"
    }
  }
}
layer {
  name: "bn4c_branch2c"
  type: "BatchNorm"
  bottom: "res4c_branch2c"
  top: "res4c_branch2c"
  batch_norm_param {
    use_global_stats: false
  }
}
layer {
  name: "scale4c_branch2c"
  type: "Scale"
  bottom: "res4c_branch2c"
  top: "res4c_branch2c"
  scale_param {
    bias_term: true
  }
}
layer {
  name: "res4c"
  type: "Eltwise"
  bottom: "res4b"
  bottom: "res4c_branch2c"
  top: "res4c"
  eltwise_param {
    operation: SUM
  }
}
layer {
  name: "res4c_relu"
  type: "ReLU"
  bottom: "res4c"
  top: "res4c"
}
layer {
  name: "res4d_branch2a"
  type: "Convolution"
  bottom: "res4c"
  top: "res4d_branch2a"
  convolution_param {
    num_output: 256
    bias_term: false
    pad: 0
    kernel_size: 1
    stride: 1
    weight_filler {
      type: "msra"
    }
  }
}
layer {
  batch_norm_param {
    use_global_stats: false
  }
}
layer {
  name: "scale4c_branch2a"
  type: "Scale"
  bottom: "res4c_branch2a"
  top: "res4c_branch2a"
  scale_param {
    bias_term: true
  }
}
layer {
  name: "res4c_branch2a_relu"
  type: "ReLU"
  bottom: "res4c_branch2a"
  top: "res4c_branch2a"
}
layer {
  name: "res4c_branch2b"
  type: "Convolution"
  bottom: "res4c_branch2a"
  top: "res4c_branch2b"
  convolution_param {
    num_output: 256
    bias_term: false
    pad: 1
    kernel_size: 3
    stride: 1
    weight_filler {
      type: "msra"
    }
  }
}
layer {
  name: "bn4c_branch2b"
  type: "BatchNorm"
  bottom: "res4c_branch2b"
  top: "res4c_branch2b"
  batch_norm_param {
    use_global_stats: false
  }
}
layer {
  name: "scale4c_branch2b"
  type: "Scale"
  bottom: "res4c_branch2b"
  top: "res4c_branch2b"
  scale_param {
    bias_term: true
  }
}
layer {
  name: "res4c_branch2b_relu"
  type: "ReLU"
  bottom: "res4c_branch2b"
  top: "res4c_branch2b"
}
layer {
  name: "res4c_branch2c"
  name: "scale4b_branch2a"
    weight_filler {
      type: "msra"
    }
  }
}
layer {
  name: "bn4e_branch2a"
  type: "BatchNorm"
  bottom: "res4e_branch2a"
  top: "res4e_branch2a"
  batch_norm_param {
    use_global_stats: false
  }
}
layer {
  name: "scale4e_branch2a"
  type: "Scale"
  bottom: "res4e_branch2a"
  top: "res4e_branch2a"
  scale_param {
    bias_term: true
  }
}
layer {
  name: "res4e_branch2a_relu"
  type: "ReLU"
  bottom: "res4e_branch2a"
  top: "res4e_branch2a"
}
layer {
  name: "res4e_branch2b"
  type: "Convolution"
  bottom: "res4e_branch2a"
  top: "res4e_branch2b"
  convolution_param {
    num_output: 256
    bias_term: false
    pad: 1
    kernel_size: 3
    stride: 1
    weight_filler {
      type: "msra"
    }
  }
}
layer {
  name: "bn4e_branch2b"
  type: "BatchNorm"
  bottom: "res4e_branch2b"
  top: "res4e_branch2b"
  batch_norm_param {
    use_global_stats: false
  }
}
layer {
  name: "scale4e_branch2b"
  type: "Scale"
  bottom: "res4e_branch2b"
  top: "res4e_branch2b"
  scale_param {
    bias_term: true
  }
  name: "bn4d_branch2a"
  type: "Convolution"
  bottom: "res4c_branch2b"
  top: "res4c_branch2c"
  convolution_param {
    num_output: 1024
    bias_term: false
    pad: 0
    kernel_size: 1
    stride: 1
    weight_filler {
      type: "msra"
    }
  }
}
layer {
  name: "bn4c_branch2c"
  type: "BatchNorm"
  bottom: "res4c_branch2c"
  top: "res4c_branch2c"
  batch_norm_param {
    use_global_stats: false
  }
}
layer {
  name: "scale4c_branch2c"
  type: "Scale"
  bottom: "res4c_branch2c"
  top: "res4c_branch2c"
  scale_param {
    bias_term: true
  }
}
layer {
  name: "res4c"
  type: "Eltwise"
  bottom: "res4b"
  bottom: "res4c_branch2c"
  top: "res4c"
  eltwise_param {
    operation: SUM
  }
}
layer {
  name: "res4c_relu"
  type: "ReLU"
  bottom: "res4c"
  top: "res4c"
}
layer {
  name: "res4d_branch2a"
  type: "Convolution"
  bottom: "res4c"
  top: "res4d_branch2a"
  convolution_param {
    num_output: 256
    bias_term: false
    pad: 0
    kernel_size: 1
    stride: 1
    weight_filler {
      type: "msra"
    }
  }
}
layer {
  type: "Scale"
  bottom: "res4b_branch2a"
  top: "res4b_branch2a"
  scale_param {
    bias_term: true
  }
}
layer {
  name: "res4b_branch2a_relu"
  type: "ReLU"
  bottom: "res4b_branch2a"
  top: "res4b_branch2a"
}
layer {
  name: "res4b_branch2b"
  type: "Convolution"
  bottom: "res4b_branch2a"
  top: "res4b_branch2b"
  convolution_param {
    num_output: 256
    bias_term: false
    pad: 1
    kernel_size: 3
    stride: 1
    weight_filler {
      type: "msra"
    }
  }
}
layer {
  name: "bn4b_branch2b"
  type: "BatchNorm"
  bottom: "res4b_branch2b"
  top: "res4b_branch2b"
  batch_norm_param {
    use_global_stats: false
  }
}
layer {
  name: "scale4b_branch2b"
  type: "Scale"
  bottom: "res4b_branch2b"
  top: "res4b_branch2b"
  scale_param {
    bias_term: true
  }
}
layer {
  name: "res4b_branch2b_relu"
  type: "ReLU"
  bottom: "res4b_branch2b"
  top: "res4b_branch2b"
}
layer {
  name: "res4b_branch2c"
  type: "Convolution"
  bottom: "res4b_branch2b"
  top: "res4b_branch2c"
  convolution_param {
}
layer {
  name: "res4e_branch2b_relu"
  type: "ReLU"
  bottom: "res4e_branch2b"
  top: "res4e_branch2b"
}
layer {
  name: "res4e_branch2c"
  type: "Convolution"
  bottom: "res4e_branch2b"
  top: "res4e_branch2c"
  convolution_param {
    num_output: 1024
    bias_term: false
    pad: 0
    kernel_size: 1
    stride: 1
    weight_filler {
      type: "msra"
    }
  }
}
layer {
  name: "bn4e_branch2c"
  type: "BatchNorm"
  bottom: "res4e_branch2c"
  top: "res4e_branch2c"
  batch_norm_param {
    use_global_stats: false
  }
}
layer {
  name: "scale4e_branch2c"
  type: "Scale"
  bottom: "res4e_branch2c"
  top: "res4e_branch2c"
  scale_param {
    bias_term: true
  }
}
layer {
  name: "res4e"
  type: "Eltwise"
  bottom: "res4d"
  bottom: "res4e_branch2c"
  top: "res4e"
  eltwise_param {
    operation: SUM
  }
}
layer {
  name: "res4e_relu"
  type: "ReLU"
  bottom: "res4e"
  top: "res4e"
}
layer {
  name: "res4f_branch2a"
  type: "Convolution"
  bottom: "res4e"
  top: "res4f_branch2a"
  convolution_param {
  type: "BatchNorm"
  bottom: "res4d_branch2a"
  top: "res4d_branch2a"
  batch_norm_param {
    use_global_stats: false
  }
}
layer {
  name: "scale4d_branch2a"
  type: "Scale"
  bottom: "res4d_branch2a"
  top: "res4d_branch2a"
  scale_param {
    bias_term: true
  }
}
layer {
  name: "res4d_branch2a_relu"
  type: "ReLU"
  bottom: "res4d_branch2a"
  top: "res4d_branch2a"
}
layer {
  name: "res4d_branch2b"
  type: "Convolution"
  bottom: "res4d_branch2a"
  top: "res4d_branch2b"
  convolution_param {
    num_output: 256
    bias_term: false
    pad: 1
    kernel_size: 3
    stride: 1
    weight_filler {
      type: "msra"
    }
  }
}
layer {
  name: "bn4d_branch2b"
  type: "BatchNorm"
  bottom: "res4d_branch2b"
  top: "res4d_branch2b"
  batch_norm_param {
    use_global_stats: false
  }
}
layer {
  name: "scale4d_branch2b"
  type: "Scale"
  bottom: "res4d_branch2b"
  top: "res4d_branch2b"
  scale_param {
    bias_term: true
  }
}
layer {
  name: "res4d_branch2b_relu"
  type: "ReLU"
  bottom: "res4d_branch2b"
  name: "bn4d_branch2a"
    num_output: 1024
    bias_term: false
    pad: 0
    kernel_size: 1
    stride: 1
    weight_filler {
      type: "msra"
    }
  }
}
layer {
  name: "bn4b_branch2c"
  type: "BatchNorm"
  bottom: "res4b_branch2c"
  top: "res4b_branch2c"
  batch_norm_param {
    use_global_stats: false
  }
}
layer {
  name: "scale4b_branch2c"
  type: "Scale"
  bottom: "res4b_branch2c"
  top: "res4b_branch2c"
  scale_param {
    bias_term: true
  }
}
layer {
  name: "res4b"
  type: "Eltwise"
  bottom: "res4a"
  bottom: "res4b_branch2c"
  top: "res4b"
  eltwise_param {
    operation: SUM
  }
}
layer {
  name: "res4b_relu"
  type: "ReLU"
  bottom: "res4b"
  top: "res4b"
}
layer {
  name: "res4c_branch2a"
  type: "Convolution"
  bottom: "res4b"
  top: "res4c_branch2a"
  convolution_param {
    num_output: 256
    bias_term: false
    pad: 0
    kernel_size: 1
    stride: 1
    weight_filler {
      type: "msra"
    }
  }
}
layer {
  name: "bn4c_branch2a"
  type: "BatchNorm"
  bottom: "res4c_branch2a"
  top: "res4c_branch2a"
    num_output: 256
    bias_term: false
    pad: 0
    kernel_size: 1
    stride: 1
    weight_filler {
      type: "msra"
    }
  }
}
layer {
  name: "bn4f_branch2a"
  type: "BatchNorm"
  bottom: "res4f_branch2a"
  top: "res4f_branch2a"
  batch_norm_param {
    use_global_stats: false
  }
}
layer {
  name: "scale4f_branch2a"
  type: "Scale"
  bottom: "res4f_branch2a"
  top: "res4f_branch2a"
  scale_param {
    bias_term: true
  }
}
layer {
  name: "res4f_branch2a_relu"
  type: "ReLU"
  bottom: "res4f_branch2a"
  top: "res4f_branch2a"
}
layer {
  name: "res4f_branch2b"
  type: "Convolution"
  bottom: "res4f_branch2a"
  top: "res4f_branch2b"
  convolution_param {
    num_output: 256
    bias_term: false
    pad: 1
    kernel_size: 3
    stride: 1
    weight_filler {
      type: "msra"
    }
  }
}
layer {
  name: "bn4f_branch2b"
  type: "BatchNorm"
  bottom: "res4f_branch2b"
  top: "res4f_branch2b"
  batch_norm_param {
    use_global_stats: false
  }
}
layer {
  name: "scale4f_branch2b"
  type: "Scale"
  top: "res4d_branch2b"
}
layer {
  name: "res4d_branch2c"
  type: "Convolution"
  bottom: "res4d_branch2b"
  top: "res4d_branch2c"
  convolution_param {
    num_output: 1024
    bias_term: false
    pad: 0
    kernel_size: 1
    stride: 1
    weight_filler {
      type: "msra"
    }
  }
}
layer {
  name: "bn4d_branch2c"
  type: "BatchNorm"
  bottom: "res4d_branch2c"
  top: "res4d_branch2c"
  batch_norm_param {
    use_global_stats: false
  }
}
layer {
  name: "scale4d_branch2c"
  type: "Scale"
  bottom: "res4d_branch2c"
  top: "res4d_branch2c"
  scale_param {
    bias_term: true
  }
}
layer {
  name: "res4d"
  type: "Eltwise"
  bottom: "res4c"
  bottom: "res4d_branch2c"
  top: "res4d"
  eltwise_param {
    operation: SUM
  }
}
layer {
  name: "res4d_relu"
  type: "ReLU"
  bottom: "res4d"
  top: "res4d"
}
layer {
  name: "res4e_branch2a"
  type: "Convolution"
  bottom: "res4d"
  top: "res4e_branch2a"
  convolution_param {
    num_output: 256
    bias_term: false
    pad: 0
    kernel_size: 1
    stride: 1
  type: "BatchNorm"
  bottom: "res4d_branch2a"
  top: "res4d_branch2a"
  batch_norm_param {
    use_global_stats: false
  }
}
layer {
  name: "scale4d_branch2a"
  type: "Scale"
  bottom: "res4d_branch2a"
  top: "res4d_branch2a"
  scale_param {
    bias_term: true
  }
}
layer {
  name: "res4d_branch2a_relu"
  type: "ReLU"
  bottom: "res4d_branch2a"
  top: "res4d_branch2a"
}
layer {
  name: "res4d_branch2b"
  type: "Convolution"
  bottom: "res4d_branch2a"
  top: "res4d_branch2b"
  convolution_param {
    num_output: 256
    bias_term: false
    pad: 1
    kernel_size: 3
    stride: 1
    weight_filler {
      type: "msra"
    }
  }
}
layer {
  name: "bn4d_branch2b"
  type: "BatchNorm"
  bottom: "res4d_branch2b"
  top: "res4d_branch2b"
  batch_norm_param {
    use_global_stats: false
  }
}
layer {
  name: "scale4d_branch2b"
  type: "Scale"
  bottom: "res4d_branch2b"
  top: "res4d_branch2b"
  scale_param {
    bias_term: true
  }
}
layer {
  name: "res4d_branch2b_relu"
  type: "ReLU"
  bottom: "res4d_branch2b"
  batch_norm_param {
    use_global_stats: false
  }
}
layer {
  name: "scale4c_branch2a"
  type: "Scale"
  bottom: "res4c_branch2a"
  top: "res4c_branch2a"
  scale_param {
    bias_term: true
  }
}
layer {
  name: "res4c_branch2a_relu"
  type: "ReLU"
  bottom: "res4c_branch2a"
  top: "res4c_branch2a"
}
layer {
  name: "res4c_branch2b"
  type: "Convolution"
  bottom: "res4c_branch2a"
  top: "res4c_branch2b"
  convolution_param {
    num_output: 256
    bias_term: false
    pad: 1
    kernel_size: 3
    stride: 1
    weight_filler {
      type: "msra"
    }
  }
}
layer {
  name: "bn4c_branch2b"
  type: "BatchNorm"
  bottom: "res4c_branch2b"
  top: "res4c_branch2b"
  batch_norm_param {
    use_global_stats: false
  }
}
layer {
  name: "scale4c_branch2b"
  type: "Scale"
  bottom: "res4c_branch2b"
  top: "res4c_branch2b"
  scale_param {
    bias_term: true
  }
}
layer {
  name: "res4c_branch2b_relu"
  type: "ReLU"
  bottom: "res4c_branch2b"
  top: "res4c_branch2b"
}
layer {
  name: "res4c_branch2c"
  bottom: "res4f_branch2b"
  top: "res4f_branch2b"
  scale_param {
    bias_term: true
  }
}
layer {
  name: "res4f_branch2b_relu"
  type: "ReLU"
  bottom: "res4f_branch2b"
  top: "res4f_branch2b"
}
layer {
  name: "res4f_branch2c"
  type: "Convolution"
  bottom: "res4f_branch2b"
  top: "res4f_branch2c"
  convolution_param {
    num_output: 1024
    bias_ter
    weight_filler {
      type: "msra"
    }
  }
}
layer {
  name: "bn4e_branch2a"
  type: "BatchNorm"
  bottom: "res4e_branch2a"
  top: "res4e_branch2a"
  batch_norm_param {
    use_global_stats: false
  }
}
layer {
  name: "scale4e_branch2a"
  type: "Scale"
  bottom: "res4e_branch2a"
  top: "res4e_branch2a"
  scale_param {
    bias_term: true
  }
}
layer {
  name: "res4e_branch2a_relu"
  type: "ReLU"
  bottom: "res4e_branch2a"
  top: "res4e_branch2a"
}
layer {
  name: "res4e_branch2b"
  type: "Convolution"
  bottom: "res4e_branch2a"
  top: "res4e_branch2b"
  convolution_param {
    num_output: 256
    bias_term: false
    pad: 1
    kernel_size: 3
    stride: 1
    weight_filler {
      type: "msra"
    }
  }
}
layer {
  name: "bn4e_branch2b"
  type: "BatchNorm"
  bottom: "res4e_branch2b"
  top: "res4e_branch2b"
  batch_norm_param {
    use_global_stats: false
  }
}
layer {
  name: "scale4e_branch2b"
  type: "Scale"
  bottom: "res4e_branch2b"
  top: "res4e_branch2b"
  scale_param {
    bias_term: true
  }
  top: "res4d_branch2b"
}
layer {
  name: "res4d_branch2c"
  type: "Convolution"
  bottom: "res4d_branch2b"
  top: "res4d_branch2c"
  convolution_param {
    num_output: 1024
    bias_term: false
    pad: 0
    kernel_size: 1
    stride: 1
    weight_filler {
      type: "msra"
    }
  }
}
layer {
  name: "bn4d_branch2c"
  type: "BatchNorm"
  bottom: "res4d_branch2c"
  top: "res4d_branch2c"
  batch_norm_param {
    use_global_stats: false
  }
}
layer {
  name: "scale4d_branch2c"
  type: "Scale"
  bottom: "res4d_branch2c"
  top: "res4d_branch2c"
  scale_param {
    bias_term: true
  }
}
layer {
  name: "res4d"
  type: "Eltwise"
  bottom: "res4c"
  bottom: "res4d_branch2c"
  top: "res4d"
  eltwise_param {
    operation: SUM
  }
}
layer {
  name: "res4d_relu"
  type: "ReLU"
  bottom: "res4d"
  top: "res4d"
}
layer {
  name: "res4e_branch2a"
  type: "Convolution"
  bottom: "res4d"
  top: "res4e_branch2a"
  convolution_param {
    num_output: 256
    bias_term: false
    pad: 0
    kernel_size: 1
    stride: 1
  type: "Convolution"
  bottom: "res4c_branch2b"
  top: "res4c_branch2c"
  convolution_param {
    num_output: 1024
    bias_term: false
    pad: 0
    kernel_size: 1
    stride: 1
    weight_filler {
      type: "msra"
    }
  }
}
layer {
  name: "bn4c_branch2c"
  type: "BatchNorm"
  bottom: "res4c_branch2c"
  top: "res4c_branch2c"
  batch_norm_param {
    use_global_stats: false
  }
}
layer {
  name: "scale4c_branch2c"
  type: "Scale"
  bottom: "res4c_branch2c"
  top: "res4c_branch2c"
  scale_param {
    bias_term: true
  }
}
layer {
  name: "res4c"
  type: "Eltwise"
  bottom: "res4b"
  bottom: "res4c_branch2c"
  top: "res4c"
  eltwise_param {
    operation: SUM
  }
}
layer {
  name: "res4c_relu"
  type: "ReLU"
  bottom: "res4c"
  top: "res4c"
}
layer {
  name: "res4d_branch2a"
  type: "Convolution"
  bottom: "res4c"
  top: "res4d_branch2a"
  convolution_param {
    num_output: 256
    bias_term: false
    pad: 0
    kernel_size: 1
    stride: 1
    weight_filler {
      type: "msra"
    }
  }
}
layer {
I0628 14:10:22.231705 26841 layer_factory.hpp:77] Creating layer data
}
layer {
  name: "res4e_branch2b_relu"
  type: "ReLU"
  bottom: "res4e_branch2b"
  top: "res4e_branch2b"
}
layer {
  name: "res4e_branch2c"
  type: "Convolution"
  bottom: "res4e_branch2b"
  top: "res4e_branch2c"
  convolution_param {
    num_output: 1024
    bias_term: false
    pad: 0
    kernel_size: 1
    stride: 1
    weight_filler {
      type: "msra"
    }
  }
}
layer {
  name: "bn4e_branch2c"
  type: "BatchNorm"
  bottom: "res4e_branch2c"
  top: "res4e_branch2c"
  batch_norm_param {
    use_global_stats: false
  }
}
layer {
  name: "scale4e_branch2c"
  type: "Scale"
  bottom: "res4e_branch2c"
  top: "res4e_branch2c"
  scale_param {
    bias_term: true
  }
}
layer {
  name: "res4e"
  type: "Eltwise"
  bottom: "res4d"
  bottom: "res4e_branch2c"
  top: "res4e"
  eltwise_param {
    operation: SUM
  }
}
layer {
  name: "res4e_relu"
  type: "ReLU"
  bottom: "res4e"
  top: "res4e"
}
layer {
  name: "res4f_branch2a"
  type: "Convolution"
  bottom: "res4e"
  top: "res4f_branch2a"
  convolution_param {
    weight_filler {
      type: "msra"
    }
  }
}
layer {
  name: "bn4e_branch2a"
  type: "BatchNorm"
  bottom: "res4e_branch2a"
  top: "res4e_branch2a"
  batch_norm_param {
    use_global_stats: false
  }
}
layer {
  name: "scale4e_branch2a"
  type: "Scale"
  bottom: "res4e_branch2a"
  top: "res4e_branch2a"
  scale_param {
    bias_term: true
  }
}
layer {
  name: "res4e_branch2a_relu"
  type: "ReLU"
  bottom: "res4e_branch2a"
  top: "res4e_branch2a"
}
layer {
  name: "res4e_branch2b"
  type: "Convolution"
  bottom: "res4e_branch2a"
  top: "res4e_branch2b"
  convolution_param {
    num_output: 256
    bias_term: false
    pad: 1
    kernel_size: 3
    stride: 1
    weight_filler {
      type: "msra"
    }
  }
}
layer {
  name: "bn4e_branch2b"
  type: "BatchNorm"
  bottom: "res4e_branch2b"
  top: "res4e_branch2b"
  batch_norm_param {
    use_global_stats: false
  }
}
layer {
  name: "scale4e_branch2b"
  type: "Scale"
  bottom: "res4e_branch2b"
  top: "res4e_branch2b"
  scale_param {
    bias_term: true
  }
  name: "bn4d_branch2a"
    num_output: 256
    bias_term: false
    pad: 0
    kernel_size: 1
    stride: 1
    weight_filler {
      type: "msra"
    }
  }
}
layer {
  name: "bn4f_branch2a"
  type: "BatchNorm"
  bottom: "res4f_branch2a"
  top: "res4f_branch2a"
  batch_norm_param {
    use_global_stats: false
  }
}
layer {
  name: "scale4f_branch2a"
  type: "Scale"
  bottom: "res4f_branch2a"
  top: "res4f_branch2a"
  scale_param {
    bias_term: true
  }
}
layer {
  name: "res4f_branch2a_relu"
  type: "ReLU"
  bottom: "res4f_branch2a"
  top: "res4f_branch2a"
}
layer {
  name: "res4f_branch2b"
  type: "Convolution"
  bottom: "res4f_branch2a"
  top: "res4f_branch2b"
  convolution_param {
    num_output: 256
    bias_term: false
    pad: 1
    kernel_size: 3
    stride: 1
    weight_filler {
      type: "msra"
    }
  }
}
layer {
  name: "bn4f_branch2b"
  type: "BatchNorm"
  bottom: "res4f_branch2b"
  top: "res4f_branch2b"
  batch_norm_param {
    use_global_stats: false
  }
}
layer {
  name: "scale4f_branch2b"
  type: "Scale"
}
layer {
  name: "res4e_branch2b_relu"
  type: "ReLU"
  bottom: "res4e_branch2b"
  top: "res4e_branch2b"
}
layer {
  name: "res4e_branch2c"
  type: "Convolution"
  bottom: "res4e_branch2b"
  top: "res4e_branch2c"
  convolution_param {
    num_output: 1024
    bias_term: false
    pad: 0
    kernel_size: 1
    stride: 1
    weight_filler {
      type: "msra"
    }
  }
}
layer {
  name: "bn4e_branch2c"
  type: "BatchNorm"
  bottom: "res4e_branch2c"
  top: "res4e_branch2c"
  batch_norm_param {
    use_global_stats: false
  }
}
layer {
  name: "scale4e_branch2c"
  type: "Scale"
  bottom: "res4e_branch2c"
  top: "res4e_branch2c"
  scale_param {
    bias_term: true
  }
}
layer {
  name: "res4e"
  type: "Eltwise"
  bottom: "res4d"
  bottom: "res4e_branch2c"
  top: "res4e"
  eltwise_param {
    operation: SUM
  }
}
layer {
  name: "res4e_relu"
  type: "ReLU"
  bottom: "res4e"
  top: "res4e"
}
layer {
  name: "res4f_branch2a"
  type: "Convolution"
  bottom: "res4e"
  top: "res4f_branch2a"
  convolution_param {
  type: "BatchNorm"
  bottom: "res4d_branch2a"
  top: "res4d_branch2a"
  batch_norm_param {
    use_global_stats: false
  }
}
layer {
  name: "scale4d_branch2a"
  type: "Scale"
  bottom: "res4d_branch2a"
  top: "res4d_branch2a"
  scale_param {
    bias_term: true
  }
}
layer {
  name: "res4d_branch2a_relu"
  type: "ReLU"
  bottom: "res4d_branch2a"
  top: "res4d_branch2a"
}
layer {
  name: "res4d_branch2b"
  type: "Convolution"
  bottom: "res4d_branch2a"
  top: "res4d_branch2b"
  convolution_param {
    num_output: 256
    bias_term: false
    pad: 1
    kernel_size: 3
    stride: 1
    weight_filler {
      type: "msra"
    }
  }
}
layer {
  name: "bn4d_branch2b"
  type: "BatchNorm"
  bottom: "res4d_branch2b"
  top: "res4d_branch2b"
  batch_norm_param {
    use_global_stats: false
  }
}
layer {
  name: "scale4d_branch2b"
  type: "Scale"
  bottom: "res4d_branch2b"
  top: "res4d_branch2b"
  scale_param {
    bias_term: true
  }
}
layer {
  name: "res4d_branch2b_relu"
  type: "ReLU"
  bottom: "res4d_branch2b"
I0628 14:10:22.232873 26841 net.cpp:106] Creating Layer data
  bottom: "res4f_branch2b"
  top: "res4f_branch2b"
  scale_param {
    bias_term: true
  }
}
layer {
  name: "res4f_branch2b_relu"
  type: "ReLU"
  bottom: "res4f_branch2b"
  top: "res4f_branch2b"
}
layer {
  name: "res4f_branch2c"
  type: "Convolution"
  bottom: "res4f_branch2b"
  top: "res4f_branch2c"
  convolution_param {
    num_output: 1024
    bias_ter
    num_output: 256
    bias_term: false
    pad: 0
    kernel_size: 1
    stride: 1
    weight_filler {
      type: "msra"
    }
  }
}
layer {
  name: "bn4f_branch2a"
  type: "BatchNorm"
  bottom: "res4f_branch2a"
  top: "res4f_branch2a"
  batch_norm_param {
    use_global_stats: false
  }
}
layer {
  name: "scale4f_branch2a"
  type: "Scale"
  bottom: "res4f_branch2a"
  top: "res4f_branch2a"
  scale_param {
    bias_term: true
  }
}
layer {
  name: "res4f_branch2a_relu"
  type: "ReLU"
  bottom: "res4f_branch2a"
  top: "res4f_branch2a"
}
layer {
  name: "res4f_branch2b"
  type: "Convolution"
  bottom: "res4f_branch2a"
  top: "res4f_branch2b"
  convolution_param {
    num_output: 256
    bias_term: false
    pad: 1
    kernel_size: 3
    stride: 1
    weight_filler {
      type: "msra"
    }
  }
}
layer {
  name: "bn4f_branch2b"
  type: "BatchNorm"
  bottom: "res4f_branch2b"
  top: "res4f_branch2b"
  batch_norm_param {
    use_global_stats: false
  }
}
layer {
  name: "scale4f_branch2b"
  type: "Scale"
  top: "res4d_branch2b"
}
layer {
  name: "res4d_branch2c"
  type: "Convolution"
  bottom: "res4d_branch2b"
  top: "res4d_branch2c"
  convolution_param {
    num_output: 1024
    bias_term: false
    pad: 0
    kernel_size: 1
    stride: 1
    weight_filler {
      type: "msra"
    }
  }
}
layer {
  name: "bn4d_branch2c"
  type: "BatchNorm"
  bottom: "res4d_branch2c"
  top: "res4d_branch2c"
  batch_norm_param {
    use_global_stats: false
  }
}
layer {
  name: "scale4d_branch2c"
  type: "Scale"
  bottom: "res4d_branch2c"
  top: "res4d_branch2c"
  scale_param {
    bias_term: true
  }
}
layer {
  name: "res4d"
  type: "Eltwise"
  bottom: "res4c"
  bottom: "res4d_branch2c"
  top: "res4d"
  eltwise_param {
    operation: SUM
  }
}
layer {
  name: "res4d_relu"
  type: "ReLU"
  bottom: "res4d"
  top: "res4d"
}
layer {
  name: "res4e_branch2a"
  type: "Convolution"
  bottom: "res4d"
  top: "res4e_branch2a"
  convolution_param {
    num_output: 256
    bias_term: false
    pad: 0
    kernel_size: 1
    stride: 1
I0628 14:10:22.232903 26841 net.cpp:411] data -> data
I0628 14:10:22.233055 29649 layer_factory.hpp:77] Creating layer data
  bottom: "res4f_branch2b"
  top: "res4f_branch2b"
  scale_param {
    bias_term: true
  }
}
layer {
  name: "res4f_branch2b_relu"
  type: "ReLU"
  bottom: "res4f_branch2b"
  top: "res4f_branch2b"
}
layer {
  name: "res4f_branch2c"
  type: "Convolution"
  bottom: "res4f_branch2b"
  top: "res4f_branch2c"
  convolution_param {
    num_output: 1024
    bias_ter
    weight_filler {
      type: "msra"
    }
  }
}
layer {
  name: "bn4e_branch2a"
  type: "BatchNorm"
  bottom: "res4e_branch2a"
  top: "res4e_branch2a"
  batch_norm_param {
    use_global_stats: false
  }
}
layer {
  name: "scale4e_branch2a"
  type: "Scale"
  bottom: "res4e_branch2a"
  top: "res4e_branch2a"
  scale_param {
    bias_term: true
  }
}
layer {
  name: "res4e_branch2a_relu"
  type: "ReLU"
  bottom: "res4e_branch2a"
  top: "res4e_branch2a"
}
layer {
  name: "res4e_branch2b"
  type: "Convolution"
  bottom: "res4e_branch2a"
  top: "res4e_branch2b"
  convolution_param {
    num_output: 256
    bias_term: false
    pad: 1
    kernel_size: 3
    stride: 1
    weight_filler {
      type: "msra"
    }
  }
}
layer {
  name: "bn4e_branch2b"
  type: "BatchNorm"
  bottom: "res4e_branch2b"
  top: "res4e_branch2b"
  batch_norm_param {
    use_global_stats: false
  }
}
layer {
  name: "scale4e_branch2b"
  type: "Scale"
  bottom: "res4e_branch2b"
  top: "res4e_branch2b"
  scale_param {
    bias_term: true
  }
I0628 14:10:22.232986 26841 net.cpp:411] data -> label
I0628 14:10:22.234072 29649 net.cpp:106] Creating Layer data
I0628 14:10:22.234102 29649 net.cpp:411] data -> data
I0628 14:10:22.232877 23878 layer_factory.hpp:77] Creating layer data
}
layer {
  name: "res4e_branch2b_relu"
  type: "ReLU"
  bottom: "res4e_branch2b"
  top: "res4e_branch2b"
}
layer {
  name: "res4e_branch2c"
  type: "Convolution"
  bottom: "res4e_branch2b"
  top: "res4e_branch2c"
  convolution_param {
    num_output: 1024
    bias_term: false
    pad: 0
    kernel_size: 1
    stride: 1
    weight_filler {
      type: "msra"
    }
  }
}
layer {
  name: "bn4e_branch2c"
  type: "BatchNorm"
  bottom: "res4e_branch2c"
  top: "res4e_branch2c"
  batch_norm_param {
    use_global_stats: false
  }
}
layer {
  name: "scale4e_branch2c"
  type: "Scale"
  bottom: "res4e_branch2c"
  top: "res4e_branch2c"
  scale_param {
    bias_term: true
  }
}
layer {
  name: "res4e"
  type: "Eltwise"
  bottom: "res4d"
  bottom: "res4e_branch2c"
  top: "res4e"
  eltwise_param {
    operation: SUM
  }
}
layer {
  name: "res4e_relu"
  type: "ReLU"
  bottom: "res4e"
  top: "res4e"
}
layer {
  name: "res4f_branch2a"
  type: "Convolution"
  bottom: "res4e"
  top: "res4f_branch2a"
  convolution_param {
    num_output: 256
    bias_term: false
    pad: 0
    kernel_size: 1
    stride: 1
    weight_filler {
      type: "msra"
    }
  }
}
layer {
  name: "bn4f_branch2a"
  type: "BatchNorm"
  bottom: "res4f_branch2a"
  top: "res4f_branch2a"
  batch_norm_param {
    use_global_stats: false
  }
}
layer {
  name: "scale4f_branch2a"
  type: "Scale"
  bottom: "res4f_branch2a"
  top: "res4f_branch2a"
  scale_param {
    bias_term: true
  }
}
layer {
  name: "res4f_branch2a_relu"
  type: "ReLU"
  bottom: "res4f_branch2a"
  top: "res4f_branch2a"
}
layer {
  name: "res4f_branch2b"
  type: "Convolution"
  bottom: "res4f_branch2a"
  top: "res4f_branch2b"
  convolution_param {
    num_output: 256
    bias_term: false
    pad: 1
    kernel_size: 3
    stride: 1
    weight_filler {
      type: "msra"
    }
  }
}
layer {
  name: "bn4f_branch2b"
  type: "BatchNorm"
  bottom: "res4f_branch2b"
  top: "res4f_branch2b"
  batch_norm_param {
    use_global_stats: false
  }
}
layer {
  name: "scale4f_branch2b"
  type: "Scale"
  bottom: "res4f_branch2b"
  top: "res4f_branch2b"
  scale_param {
    bias_term: true
  }
}
layer {
  name: "res4f_branch2b_relu"
  type: "ReLU"
  bottom: "res4f_branch2b"
  top: "res4f_branch2b"
}
layer {
  name: "res4f_branch2c"
  type: "Convolution"
  bottom: "res4f_branch2b"
  top: "res4f_branch2c"
  convolution_param {
    num_output: 1024
    bias_ter
I0628 14:10:22.234189 29649 net.cpp:411] data -> label
I0628 14:10:22.234102 23878 net.cpp:106] Creating Layer data
I0628 14:10:22.234138 23878 net.cpp:411] data -> data
I0628 14:10:22.234102  9634 layer_factory.hpp:77] Creating layer data
I0628 14:10:22.234223 23878 net.cpp:411] data -> label
I0628 14:10:22.235077  9634 net.cpp:106] Creating Layer data
…
I0628 14:10:22.416785 23878 image_data_layer.cpp:51] 3: Opening file /HOME/sysu_sc_ll/WORKSPACE/wenyp/0314/cifar-10/train/label.txt
I0628 14:10:22.446413 23878 image_data_layer.cpp:58] List loaded
I0628 14:10:22.446434 23878 image_data_layer.cpp:61] Shuffling data
I0628 14:10:22.451681 23878 image_data_layer.cpp:69] 3: A total of 50000 images.
I0628 14:10:22.517139  9634 image_data_layer.cpp:96] output data size: 32,3,32,32
I0628 14:10:22.517566 29649 image_data_layer.cpp:96] output data size: 32,3,32,32
I0628 14:10:22.518070  9634 net.cpp:150] Setting up data
I0628 14:10:22.518131  9634 net.cpp:157] Top shape: 32 3 32 32 (98304)
I0628 14:10:22.518193  9634 net.cpp:157] Top shape: 32 (32)
I0628 14:10:22.518203  9634 net.cpp:165] Memory required for data: 393344
I0628 14:10:22.518215  9634 layer_factory.hpp:77] Creating layer conv1
I0628 14:10:22.518241  9634 net.cpp:106] Creating Layer conv1
I0628 14:10:22.518254  9634 net.cpp:454] conv1 <- data
I0628 14:10:22.518311  9634 net.cpp:411] conv1 -> conv1
I0628 14:10:22.517817 23878 image_data_layer.cpp:96] output data size: 32,3,32,32
I0628 14:10:22.518481 29649 net.cpp:150] Setting up data
I0628 14:10:22.518539 29649 net.cpp:157] Top shape: 32 3 32 32 (98304)
I0628 14:10:22.518599 29649 net.cpp:157] Top shape: 32 (32)
I0628 14:10:22.518612 29649 net.cpp:165] Memory required for data: 393344
I0628 14:10:22.518623 29649 layer_factory.hpp:77] Creating layer conv1
I0628 14:10:22.518673 29649 net.cpp:106] Creating Layer conv1
I0628 14:10:22.517827 26841 image_data_layer.cpp:96] output data size: 32,3,32,32
I0628 14:10:22.518688 29649 net.cpp:454] conv1 <- data
I0628 14:10:22.518764 29649 net.cpp:411] conv1 -> conv1
I0628 14:10:22.518740 23878 net.cpp:150] Setting up data
I0628 14:10:22.518801 23878 net.cpp:157] Top shape: 32 3 32 32 (98304)
I0628 14:10:22.518857 23878 net.cpp:157] Top shape: 32 (32)
I0628 14:10:22.518867 23878 net.cpp:165] Memory required for data: 393344
I0628 14:10:22.518880 23878 layer_factory.hpp:77] Creating layer conv1
I0628 14:10:22.518908 23878 net.cpp:106] Creating Layer conv1
I0628 14:10:22.518918 23878 net.cpp:454] conv1 <- data
I0628 14:10:22.518975 23878 net.cpp:411] conv1 -> conv1
I0628 14:10:22.518781 26841 net.cpp:150] Setting up data
I0628 14:10:22.518996 26841 net.cpp:157] Top shape: 32 3 32 32 (98304)
I0628 14:10:22.519062 26841 net.cpp:157] Top shape: 32 (32)
I0628 14:10:22.519074 26841 net.cpp:165] Memory required for data: 393344
I0628 14:10:22.519093 26841 layer_factory.hpp:77] Creating layer conv1
I0628 14:10:22.519145 26841 net.cpp:106] Creating Layer conv1
I0628 14:10:22.519162 26841 net.cpp:454] conv1 <- data
I0628 14:10:22.519258 26841 net.cpp:411] conv1 -> conv1
I0628 14:10:22.520280  9634 net.cpp:150] Setting up conv1
I0628 14:10:22.520303  9634 net.cpp:157] Top shape: 32 64 16 16 (524288)
I0628 14:10:22.520315  9634 net.cpp:165] Memory required for data: 2490496
I0628 14:10:22.520387  9634 layer_factory.hpp:77] Creating layer bn_conv1
I0628 14:10:22.520442  9634 net.cpp:106] Creating Layer bn_conv1
I0628 14:10:22.520455  9634 net.cpp:454] bn_conv1 <- conv1
I0628 14:10:22.520470  9634 net.cpp:397] bn_conv1 -> conv1 (in-place)
I0628 14:10:22.520604  9634 net.cpp:150] Setting up bn_conv1
I0628 14:10:22.520416 29649 net.cpp:150] Setting up conv1
I0628 14:10:22.520619  9634 net.cpp:157] Top shape: 32 64 16 16 (524288)
I0628 14:10:22.520629  9634 net.cpp:165] Memory required for data: 4587648
I0628 14:10:22.520653  9634 layer_factory.hpp:77] Creating layer scale_conv1
I0628 14:10:22.520439 29649 net.cpp:157] Top shape: 32 64 16 16 (524288)
I0628 14:10:22.520467 29649 net.cpp:165] Memory required for data: 2490496
I0628 14:10:22.520707  9634 net.cpp:106] Creating Layer scale_conv1
I0628 14:10:22.520543 29649 layer_factory.hpp:77] Creating layer bn_conv1
I0628 14:10:22.520720  9634 net.cpp:454] scale_conv1 <- conv1
I0628 14:10:22.520730  9634 net.cpp:397] scale_conv1 -> conv1 (in-place)
I0628 14:10:22.520622 29649 net.cpp:106] Creating Layer bn_conv1
I0628 14:10:22.520638 29649 net.cpp:454] bn_conv1 <- conv1
I0628 14:10:22.520654 29649 net.cpp:397] bn_conv1 -> conv1 (in-place)
I0628 14:10:22.520941  9634 layer_factory.hpp:77] Creating layer scale_conv1
I0628 14:10:22.520802 29649 net.cpp:150] Setting up bn_conv1
I0628 14:10:22.520817 29649 net.cpp:157] Top shape: 32 64 16 16 (524288)
I0628 14:10:22.520486 23878 net.cpp:150] Setting up conv1
I0628 14:10:22.520509 23878 net.cpp:157] Top shape: 32 64 16 16 (524288)
I0628 14:10:22.520522 23878 net.cpp:165] Memory required for data: 2490496
I0628 14:10:22.520853 29649 net.cpp:165] Memory required for data: 4587648
I0628 14:10:22.520589 23878 layer_factory.hpp:77] Creating layer bn_conv1
I0628 14:10:22.520879 29649 layer_factory.hpp:77] Creating layer scale_conv1
I0628 14:10:22.520643 23878 net.cpp:106] Creating Layer bn_conv1
I0628 14:10:22.520953 29649 net.cpp:106] Creating Layer scale_conv1
I0628 14:10:22.520656 23878 net.cpp:454] bn_conv1 <- conv1
I0628 14:10:22.520968 29649 net.cpp:454] scale_conv1 <- conv1
I0628 14:10:22.520671 23878 net.cpp:397] bn_conv1 -> conv1 (in-place)
I0628 14:10:22.520979 29649 net.cpp:397] scale_conv1 -> conv1 (in-place)
I0628 14:10:22.520790 23878 net.cpp:150] Setting up bn_conv1
I0628 14:10:22.521183 29649 layer_factory.hpp:77] Creating layer scale_conv1
I0628 14:10:22.520804 23878 net.cpp:157] Top shape: 32 64 16 16 (524288)
I0628 14:10:22.520814 23878 net.cpp:165] Memory required for data: 4587648
I0628 14:10:22.520836 23878 layer_factory.hpp:77] Creating layer scale_conv1
I0628 14:10:22.520889 23878 net.cpp:106] Creating Layer scale_conv1
I0628 14:10:22.520903 23878 net.cpp:454] scale_conv1 <- conv1
I0628 14:10:22.520913 23878 net.cpp:397] scale_conv1 -> conv1 (in-place)
I0628 14:10:22.521091 23878 layer_factory.hpp:77] Creating layer scale_conv1
I0628 14:10:22.520804 26841 net.cpp:150] Setting up conv1
I0628 14:10:22.520823 26841 net.cpp:157] Top shape: 32 64 16 16 (524288)
I0628 14:10:22.520834 26841 net.cpp:165] Memory required for data: 2490496
I0628 14:10:22.520939 26841 layer_factory.hpp:77] Creating layer bn_conv1
I0628 14:10:22.521035 26841 net.cpp:106] Creating Layer bn_conv1
I0628 14:10:22.521051 26841 net.cpp:454] bn_conv1 <- conv1
I0628 14:10:22.521064 26841 net.cpp:397] bn_conv1 -> conv1 (in-place)
I0628 14:10:22.521279 26841 net.cpp:150] Setting up bn_conv1
I0628 14:10:22.521296 26841 net.cpp:157] Top shape: 32 64 16 16 (524288)
I0628 14:10:22.521308 26841 net.cpp:165] Memory required for data: 4587648
I0628 14:10:22.521337 26841 layer_factory.hpp:77] Creating layer scale_conv1
I0628 14:10:22.521420 26841 net.cpp:106] Creating Layer scale_conv1
I0628 14:10:22.521441 26841 net.cpp:454] scale_conv1 <- conv1
I0628 14:10:22.521472 26841 net.cpp:397] scale_conv1 -> conv1 (in-place)
I0628 14:10:22.521752 26841 layer_factory.hpp:77] Creating layer scale_conv1
I0628 14:10:22.523830  9634 net.cpp:150] Setting up scale_conv1
I0628 14:10:22.523852  9634 net.cpp:157] Top shape: 32 64 16 16 (524288)
I0628 14:10:22.523864  9634 net.cpp:165] Memory required for data: 6684800
I0628 14:10:22.523878  9634 layer_factory.hpp:77] Creating layer conv1_relu
I0628 14:10:22.523934  9634 net.cpp:106] Creating Layer conv1_relu
I0628 14:10:22.523948  9634 net.cpp:454] conv1_relu <- conv1
I0628 14:10:22.523958  9634 net.cpp:397] conv1_relu -> conv1 (in-place)
I0628 14:10:22.523960 29649 net.cpp:150] Setting up scale_conv1
I0628 14:10:22.523982 29649 net.cpp:157] Top shape: 32 64 16 16 (524288)
I0628 14:10:22.524000 29649 net.cpp:165] Memory required for data: 6684800
I0628 14:10:22.524015 29649 layer_factory.hpp:77] Creating layer conv1_relu
I0628 14:10:22.524077 29649 net.cpp:106] Creating Layer conv1_relu
I0628 14:10:22.524113 29649 net.cpp:454] conv1_relu <- conv1
I0628 14:10:22.524129 29649 net.cpp:397] conv1_relu -> conv1 (in-place)
I0628 14:10:22.523855 23878 net.cpp:150] Setting up scale_conv1
I0628 14:10:22.523877 23878 net.cpp:157] Top shape: 32 64 16 16 (524288)
I0628 14:10:22.523890 23878 net.cpp:165] Memory required for data: 6684800
I0628 14:10:22.523903 23878 layer_factory.hpp:77] Creating layer conv1_relu
I0628 14:10:22.523959 23878 net.cpp:106] Creating Layer conv1_relu
I0628 14:10:22.523974 23878 net.cpp:454] conv1_relu <- conv1
I0628 14:10:22.523985 23878 net.cpp:397] conv1_relu -> conv1 (in-place)
I0628 14:10:22.523624 26841 net.cpp:150] Setting up scale_conv1
I0628 14:10:22.523643 26841 net.cpp:157] Top shape: 32 64 16 16 (524288)
I0628 14:10:22.523653 26841 net.cpp:165] Memory required for data: 6684800
I0628 14:10:22.523674 26841 layer_factory.hpp:77] Creating layer conv1_relu
I0628 14:10:22.524768  9634 net.cpp:150] Setting up conv1_relu
I0628 14:10:22.523756 26841 net.cpp:106] Creating Layer conv1_relu
I0628 14:10:22.524791  9634 net.cpp:157] Top shape: 32 64 16 16 (524288)
I0628 14:10:22.524802  9634 net.cpp:165] Memory required for data: 8781952
I0628 14:10:22.523773 26841 net.cpp:454] conv1_relu <- conv1
I0628 14:10:22.524811  9634 layer_factory.hpp:77] Creating layer pool1
I0628 14:10:22.523807 26841 net.cpp:397] conv1_relu -> conv1 (in-place)
I0628 14:10:22.524863  9634 net.cpp:106] Creating Layer pool1
I0628 14:10:22.524878  9634 net.cpp:454] pool1 <- conv1
I0628 14:10:22.524893  9634 net.cpp:411] pool1 -> pool1
I0628 14:10:22.525027  9634 net.cpp:150] Setting up pool1
I0628 14:10:22.524871 29649 net.cpp:150] Setting up conv1_relu
I0628 14:10:22.525040  9634 net.cpp:157] Top shape: 32 64 8 8 (131072)
I0628 14:10:22.525050  9634 net.cpp:165] Memory required for data: 9306240
I0628 14:10:22.524888 29649 net.cpp:157] Top shape: 32 64 16 16 (524288)
I0628 14:10:22.524899 29649 net.cpp:165] Memory required for data: 8781952
I0628 14:10:22.525058  9634 layer_factory.hpp:77] Creating layer pool1_pool1_0_split
I0628 14:10:22.524907 29649 layer_factory.hpp:77] Creating layer pool1
I0628 14:10:22.525069  9634 net.cpp:106] Creating Layer pool1_pool1_0_split
I0628 14:10:22.524960 29649 net.cpp:106] Creating Layer pool1
I0628 14:10:22.525076  9634 net.cpp:454] pool1_pool1_0_split <- pool1
I0628 14:10:22.524974 29649 net.cpp:454] pool1 <- conv1
I0628 14:10:22.525090  9634 net.cpp:411] pool1_pool1_0_split -> pool1_pool1_0_split_0
I0628 14:10:22.525106  9634 net.cpp:411] pool1_pool1_0_split -> pool1_pool1_0_split_1
I0628 14:10:22.525013 29649 net.cpp:411] pool1 -> pool1
I0628 14:10:22.525121  9634 net.cpp:150] Setting up pool1_pool1_0_split
I0628 14:10:22.525152 29649 net.cpp:150] Setting up pool1
I0628 14:10:22.525167 29649 net.cpp:157] Top shape: 32 64 8 8 (131072)
I0628 14:10:22.525178 29649 net.cpp:165] Memory required for data: 9306240
I0628 14:10:22.525185 29649 layer_factory.hpp:77] Creating layer pool1_pool1_0_split
I0628 14:10:22.524914 23878 net.cpp:150] Setting up conv1_relu
I0628 14:10:22.524937 23878 net.cpp:157] Top shape: 32 64 16 16 (524288)
I0628 14:10:22.524950 23878 net.cpp:165] Memory required for data: 8781952
I0628 14:10:22.525130  9634 net.cpp:157] Top shape: 32 64 8 8 (131072)
I0628 14:10:22.525197 29649 net.cpp:106] Creating Layer pool1_pool1_0_split
I0628 14:10:22.525204 29649 net.cpp:454] pool1_pool1_0_split <- pool1
I0628 14:10:22.525140  9634 net.cpp:157] Top shape: 32 64 8 8 (131072)
I0628 14:10:22.524514 26841 net.cpp:150] Setting up conv1_relu
I0628 14:10:22.525218 29649 net.cpp:411] pool1_pool1_0_split -> pool1_pool1_0_split_0
I0628 14:10:22.524960 23878 layer_factory.hpp:77] Creating layer pool1
I0628 14:10:22.525147  9634 net.cpp:165] Memory required for data: 10354816
I0628 14:10:22.525234 29649 net.cpp:411] pool1_pool1_0_split -> pool1_pool1_0_split_1
I0628 14:10:22.525012 23878 net.cpp:106] Creating Layer pool1
I0628 14:10:22.525154  9634 layer_factory.hpp:77] Creating layer res2a_branch1
I0628 14:10:22.524531 26841 net.cpp:157] Top shape: 32 64 16 16 (524288)
I0628 14:10:22.525027 23878 net.cpp:454] pool1 <- conv1
I0628 14:10:22.525171  9634 net.cpp:106] Creating Layer res2a_branch1
I0628 14:10:22.524543 26841 net.cpp:165] Memory required for data: 8781952
I0628 14:10:22.525249 29649 net.cpp:150] Setting up pool1_pool1_0_split
I0628 14:10:22.525043 23878 net.cpp:411] pool1 -> pool1
I0628 14:10:22.525180  9634 net.cpp:454] res2a_branch1 <- pool1_pool1_0_split_0
I0628 14:10:22.524550 26841 layer_factory.hpp:77] Creating layer pool1
I0628 14:10:22.525283 29649 net.cpp:157] Top shape: 32 64 8 8 (131072)
I0628 14:10:22.525194  9634 net.cpp:411] res2a_branch1 -> res2a_branch1
I0628 14:10:22.525295 29649 net.cpp:157] Top shape: 32 64 8 8 (131072)
I0628 14:10:22.525171 23878 net.cpp:150] Setting up pool1
I0628 14:10:22.524605 26841 net.cpp:106] Creating Layer pool1
I0628 14:10:22.525305 29649 net.cpp:165] Memory required for data: 10354816
I0628 14:10:22.525187 23878 net.cpp:157] Top shape: 32 64 8 8 (131072)
I0628 14:10:22.525568  9634 net.cpp:150] Setting up res2a_branch1
I0628 14:10:22.525583  9634 net.cpp:157] Top shape: 32 256 8 8 (524288)
I0628 14:10:22.525593  9634 net.cpp:165] Memory required for data: 12451968
I0628 14:10:22.525604  9634 layer_factory.hpp:77] Creating layer bn2a_branch1
I0628 14:10:22.524643 26841 net.cpp:454] pool1 <- conv1
I0628 14:10:22.525311 29649 layer_factory.hpp:77] Creating layer res2a_branch1
I0628 14:10:22.525197 23878 net.cpp:165] Memory required for data: 9306240
I0628 14:10:22.525619  9634 net.cpp:106] Creating Layer bn2a_branch1
I0628 14:10:22.524657 26841 net.cpp:411] pool1 -> pool1
I0628 14:10:22.525329 29649 net.cpp:106] Creating Layer res2a_branch1
I0628 14:10:22.525203 23878 layer_factory.hpp:77] Creating layer pool1_pool1_0_split
I0628 14:10:22.525626  9634 net.cpp:454] bn2a_branch1 <- res2a_branch1
I0628 14:10:22.525636  9634 net.cpp:397] bn2a_branch1 -> res2a_branch1 (in-place)
I0628 14:10:22.524766 26841 net.cpp:150] Setting up pool1
I0628 14:10:22.525339 29649 net.cpp:454] res2a_branch1 <- pool1_pool1_0_split_0
I0628 14:10:22.525214 23878 net.cpp:106] Creating Layer pool1_pool1_0_split
I0628 14:10:22.525662  9634 net.cpp:150] Setting up bn2a_branch1
I0628 14:10:22.524781 26841 net.cpp:157] Top shape: 32 64 8 8 (131072)
I0628 14:10:22.525354 29649 net.cpp:411] res2a_branch1 -> res2a_branch1
I0628 14:10:22.525221 23878 net.cpp:454] pool1_pool1_0_split <- pool1
I0628 14:10:22.525672  9634 net.cpp:157] Top shape: 32 256 8 8 (524288)
I0628 14:10:22.524796 26841 net.cpp:165] Memory required for data: 9306240
I0628 14:10:22.525234 23878 net.cpp:411] pool1_pool1_0_split -> pool1_pool1_0_split_0
I0628 14:10:22.525686  9634 net.cpp:165] Memory required for data: 14549120
I0628 14:10:22.524804 26841 layer_factory.hpp:77] Creating layer pool1_pool1_0_split
I0628 14:10:22.525738 29649 net.cpp:150] Setting up res2a_branch1
I0628 14:10:22.525249 23878 net.cpp:411] pool1_pool1_0_split -> pool1_pool1_0_split_1
I0628 14:10:22.525703  9634 layer_factory.hpp:77] Creating layer scale2a_branch1
I0628 14:10:22.524816 26841 net.cpp:106] Creating Layer pool1_pool1_0_split
I0628 14:10:22.525753 29649 net.cpp:157] Top shape: 32 256 8 8 (524288)
I0628 14:10:22.525264 23878 net.cpp:150] Setting up pool1_pool1_0_split
I0628 14:10:22.525720  9634 net.cpp:106] Creating Layer scale2a_branch1
I0628 14:10:22.525763 29649 net.cpp:165] Memory required for data: 12451968
I0628 14:10:22.525272 23878 net.cpp:157] Top shape: 32 64 8 8 (131072)
I0628 14:10:22.525729  9634 net.cpp:454] scale2a_branch1 <- res2a_branch1
I0628 14:10:22.524823 26841 net.cpp:454] pool1_pool1_0_split <- pool1
I0628 14:10:22.525774 29649 layer_factory.hpp:77] Creating layer bn2a_branch1
I0628 14:10:22.525282 23878 net.cpp:157] Top shape: 32 64 8 8 (131072)
I0628 14:10:22.525738  9634 net.cpp:397] scale2a_branch1 -> res2a_branch1 (in-place)
I0628 14:10:22.524861 26841 net.cpp:411] pool1_pool1_0_split -> pool1_pool1_0_split_0
I0628 14:10:22.525789 29649 net.cpp:106] Creating Layer bn2a_branch1
I0628 14:10:22.525290 23878 net.cpp:165] Memory required for data: 10354816
I0628 14:10:22.525755  9634 layer_factory.hpp:77] Creating layer scale2a_branch1
I0628 14:10:22.524881 26841 net.cpp:411] pool1_pool1_0_split -> pool1_pool1_0_split_1
I0628 14:10:22.525799 29649 net.cpp:454] bn2a_branch1 <- res2a_branch1
I0628 14:10:22.525297 23878 layer_factory.hpp:77] Creating layer res2a_branch1
I0628 14:10:22.525785  9634 net.cpp:150] Setting up scale2a_branch1
I0628 14:10:22.524896 26841 net.cpp:150] Setting up pool1_pool1_0_split
I0628 14:10:22.525807 29649 net.cpp:397] bn2a_branch1 -> res2a_branch1 (in-place)
I0628 14:10:22.525794  9634 net.cpp:157] Top shape: 32 256 8 8 (524288)
I0628 14:10:22.524905 26841 net.cpp:157] Top shape: 32 64 8 8 (131072)
I0628 14:10:22.525833 29649 net.cpp:150] Setting up bn2a_branch1
I0628 14:10:22.525315 23878 net.cpp:106] Creating Layer res2a_branch1
I0628 14:10:22.525804  9634 net.cpp:165] Memory required for data: 16646272
I0628 14:10:22.524914 26841 net.cpp:157] Top shape: 32 64 8 8 (131072)
I0628 14:10:22.525842 29649 net.cpp:157] Top shape: 32 256 8 8 (524288)
I0628 14:10:22.525323 23878 net.cpp:454] res2a_branch1 <- pool1_pool1_0_split_0
I0628 14:10:22.525815  9634 layer_factory.hpp:77] Creating layer res2a_branch2a
I0628 14:10:22.524922 26841 net.cpp:165] Memory required for data: 10354816
I0628 14:10:22.525856 29649 net.cpp:165] Memory required for data: 14549120
I0628 14:10:22.525336 23878 net.cpp:411] res2a_branch1 -> res2a_branch1
I0628 14:10:22.525841  9634 net.cpp:106] Creating Layer res2a_branch2a
I0628 14:10:22.524930 26841 layer_factory.hpp:77] Creating layer res2a_branch1
I0628 14:10:22.525872 29649 layer_factory.hpp:77] Creating layer scale2a_branch1
I0628 14:10:22.525719 23878 net.cpp:150] Setting up res2a_branch1
I0628 14:10:22.525734 23878 net.cpp:157] Top shape: 32 256 8 8 (524288)
I0628 14:10:22.525744 23878 net.cpp:165] Memory required for data: 12451968
I0628 14:10:22.525755 23878 layer_factory.hpp:77] Creating layer bn2a_branch1
I0628 14:10:22.525851  9634 net.cpp:454] res2a_branch2a <- pool1_pool1_0_split_1
I0628 14:10:22.524946 26841 net.cpp:106] Creating Layer res2a_branch1
I0628 14:10:22.525887 29649 net.cpp:106] Creating Layer scale2a_branch1
I0628 14:10:22.525770 23878 net.cpp:106] Creating Layer bn2a_branch1
I0628 14:10:22.525861  9634 net.cpp:411] res2a_branch2a -> res2a_branch2a
I0628 14:10:22.524956 26841 net.cpp:454] res2a_branch1 <- pool1_pool1_0_split_0
I0628 14:10:22.525897 29649 net.cpp:454] scale2a_branch1 <- res2a_branch1
I0628 14:10:22.525779 23878 net.cpp:454] bn2a_branch1 <- res2a_branch1
I0628 14:10:22.525969  9634 net.cpp:150] Setting up res2a_branch2a
I0628 14:10:22.524966 26841 net.cpp:411] res2a_branch1 -> res2a_branch1
I0628 14:10:22.525905 29649 net.cpp:397] scale2a_branch1 -> res2a_branch1 (in-place)
I0628 14:10:22.525787 23878 net.cpp:397] bn2a_branch1 -> res2a_branch1 (in-place)
I0628 14:10:22.525979  9634 net.cpp:157] Top shape: 32 64 8 8 (131072)
I0628 14:10:22.525923 29649 layer_factory.hpp:77] Creating layer scale2a_branch1
I0628 14:10:22.525812 23878 net.cpp:150] Setting up bn2a_branch1
I0628 14:10:22.525988  9634 net.cpp:165] Memory required for data: 17170560
I0628 14:10:22.525382 26841 net.cpp:150] Setting up res2a_branch1
I0628 14:10:22.525821 23878 net.cpp:157] Top shape: 32 256 8 8 (524288)
I0628 14:10:22.525998  9634 layer_factory.hpp:77] Creating layer bn2a_branch2a
I0628 14:10:22.525399 26841 net.cpp:157] Top shape: 32 256 8 8 (524288)
I0628 14:10:22.525951 29649 net.cpp:150] Setting up scale2a_branch1
I0628 14:10:22.525835 23878 net.cpp:165] Memory required for data: 14549120
I0628 14:10:22.526010  9634 net.cpp:106] Creating Layer bn2a_branch2a
I0628 14:10:22.525414 26841 net.cpp:165] Memory required for data: 12451968
I0628 14:10:22.525980 29649 net.cpp:157] Top shape: 32 256 8 8 (524288)
I0628 14:10:22.525852 23878 layer_factory.hpp:77] Creating layer scale2a_branch1
I0628 14:10:22.526016  9634 net.cpp:454] bn2a_branch2a <- res2a_branch2a
I0628 14:10:22.526026  9634 net.cpp:397] bn2a_branch2a -> res2a_branch2a (in-place)
I0628 14:10:22.525426 26841 layer_factory.hpp:77] Creating layer bn2a_branch1
I0628 14:10:22.526005 29649 net.cpp:165] Memory required for data: 16646272
I0628 14:10:22.525867 23878 net.cpp:106] Creating Layer scale2a_branch1
I0628 14:10:22.526048  9634 net.cpp:150] Setting up bn2a_branch2a
I0628 14:10:22.525442 26841 net.cpp:106] Creating Layer bn2a_branch1
I0628 14:10:22.526017 29649 layer_factory.hpp:77] Creating layer res2a_branch2a
I0628 14:10:22.525876 23878 net.cpp:454] scale2a_branch1 <- res2a_branch1
I0628 14:10:22.526057  9634 net.cpp:157] Top shape: 32 64 8 8 (131072)
I0628 14:10:22.525451 26841 net.cpp:454] bn2a_branch1 <- res2a_branch1
I0628 14:10:22.526044 29649 net.cpp:106] Creating Layer res2a_branch2a
I0628 14:10:22.525884 23878 net.cpp:397] scale2a_branch1 -> res2a_branch1 (in-place)
I0628 14:10:22.526067  9634 net.cpp:165] Memory required for data: 17694848
I0628 14:10:22.525463 26841 net.cpp:397] bn2a_branch1 -> res2a_branch1 (in-place)
I0628 14:10:22.526054 29649 net.cpp:454] res2a_branch2a <- pool1_pool1_0_split_1
I0628 14:10:22.525902 23878 layer_factory.hpp:77] Creating layer scale2a_branch1
I0628 14:10:22.526084  9634 layer_factory.hpp:77] Creating layer scale2a_branch2a
I0628 14:10:22.525499 26841 net.cpp:150] Setting up bn2a_branch1
I0628 14:10:22.526065 29649 net.cpp:411] res2a_branch2a -> res2a_branch2a
I0628 14:10:22.525931 23878 net.cpp:150] Setting up scale2a_branch1
I0628 14:10:22.526096  9634 net.cpp:106] Creating Layer scale2a_branch2a
I0628 14:10:22.525511 26841 net.cpp:157] Top shape: 32 256 8 8 (524288)
I0628 14:10:22.526176 29649 net.cpp:150] Setting up res2a_branch2a
I0628 14:10:22.525940 23878 net.cpp:157] Top shape: 32 256 8 8 (524288)
I0628 14:10:22.526103  9634 net.cpp:454] scale2a_branch2a <- res2a_branch2a
I0628 14:10:22.525521 26841 net.cpp:165] Memory required for data: 14549120
I0628 14:10:22.526188 29649 net.cpp:157] Top shape: 32 64 8 8 (131072)
I0628 14:10:22.525949 23878 net.cpp:165] Memory required for data: 16646272
I0628 14:10:22.526111  9634 net.cpp:397] scale2a_branch2a -> res2a_branch2a (in-place)
I0628 14:10:22.525538 26841 layer_factory.hpp:77] Creating layer scale2a_branch1
I0628 14:10:22.526197 29649 net.cpp:165] Memory required for data: 17170560
I0628 14:10:22.526207 29649 layer_factory.hpp:77] Creating layer bn2a_branch2a
I0628 14:10:22.526218 29649 net.cpp:106] Creating Layer bn2a_branch2a
I0628 14:10:22.525961 23878 layer_factory.hpp:77] Creating layer res2a_branch2a
I0628 14:10:22.526129  9634 layer_factory.hpp:77] Creating layer scale2a_branch2a
I0628 14:10:22.525557 26841 net.cpp:106] Creating Layer scale2a_branch1
I0628 14:10:22.526226 29649 net.cpp:454] bn2a_branch2a <- res2a_branch2a
I0628 14:10:22.525988 23878 net.cpp:106] Creating Layer res2a_branch2a
I0628 14:10:22.526155  9634 net.cpp:150] Setting up scale2a_branch2a
I0628 14:10:22.525566 26841 net.cpp:454] scale2a_branch1 <- res2a_branch1
I0628 14:10:22.526234 29649 net.cpp:397] bn2a_branch2a -> res2a_branch2a (in-place)
I0628 14:10:22.525997 23878 net.cpp:454] res2a_branch2a <- pool1_pool1_0_split_1
I0628 14:10:22.526165  9634 net.cpp:157] Top shape: 32 64 8 8 (131072)
I0628 14:10:22.525580 26841 net.cpp:397] scale2a_branch1 -> res2a_branch1 (in-place)
I0628 14:10:22.526257 29649 net.cpp:150] Setting up bn2a_branch2a
I0628 14:10:22.526008 23878 net.cpp:411] res2a_branch2a -> res2a_branch2a
I0628 14:10:22.526173  9634 net.cpp:165] Memory required for data: 18219136
I0628 14:10:22.525601 26841 layer_factory.hpp:77] Creating layer scale2a_branch1
I0628 14:10:22.526266 29649 net.cpp:157] Top shape: 32 64 8 8 (131072)
I0628 14:10:22.526185  9634 layer_factory.hpp:77] Creating layer res2a_branch2a_relu
I0628 14:10:22.525633 26841 net.cpp:150] Setting up scale2a_branch1
I0628 14:10:22.526279 29649 net.cpp:165] Memory required for data: 17694848
I0628 14:10:22.526118 23878 net.cpp:150] Setting up res2a_branch2a
I0628 14:10:22.526198  9634 net.cpp:106] Creating Layer res2a_branch2a_relu
I0628 14:10:22.525645 26841 net.cpp:157] Top shape: 32 256 8 8 (524288)
I0628 14:10:22.525660 26841 net.cpp:165] Memory required for data: 16646272
I0628 14:10:22.526296 29649 layer_factory.hpp:77] Creating layer scale2a_branch2a
I0628 14:10:22.526130 23878 net.cpp:157] Top shape: 32 64 8 8 (131072)
I0628 14:10:22.526207  9634 net.cpp:454] res2a_branch2a_relu <- res2a_branch2a
I0628 14:10:22.525671 26841 layer_factory.hpp:77] Creating layer res2a_branch2a
I0628 14:10:22.526309 29649 net.cpp:106] Creating Layer scale2a_branch2a
I0628 14:10:22.526139 23878 net.cpp:165] Memory required for data: 17170560
I0628 14:10:22.526149 23878 layer_factory.hpp:77] Creating layer bn2a_branch2a
I0628 14:10:22.526216  9634 net.cpp:397] res2a_branch2a_relu -> res2a_branch2a (in-place)
I0628 14:10:22.525696 26841 net.cpp:106] Creating Layer res2a_branch2a
I0628 14:10:22.526314 29649 net.cpp:454] scale2a_branch2a <- res2a_branch2a
I0628 14:10:22.526160 23878 net.cpp:106] Creating Layer bn2a_branch2a
I0628 14:10:22.526226  9634 net.cpp:150] Setting up res2a_branch2a_relu
I0628 14:10:22.525707 26841 net.cpp:454] res2a_branch2a <- pool1_pool1_0_split_1
I0628 14:10:22.526324 29649 net.cpp:397] scale2a_branch2a -> res2a_branch2a (in-place)
I0628 14:10:22.526168 23878 net.cpp:454] bn2a_branch2a <- res2a_branch2a
I0628 14:10:22.526232  9634 net.cpp:157] Top shape: 32 64 8 8 (131072)
I0628 14:10:22.525718 26841 net.cpp:411] res2a_branch2a -> res2a_branch2a
I0628 14:10:22.526340 29649 layer_factory.hpp:77] Creating layer scale2a_branch2a
I0628 14:10:22.526177 23878 net.cpp:397] bn2a_branch2a -> res2a_branch2a (in-place)
I0628 14:10:22.526240  9634 net.cpp:165] Memory required for data: 18743424
I0628 14:10:22.526368 29649 net.cpp:150] Setting up scale2a_branch2a
I0628 14:10:22.526201 23878 net.cpp:150] Setting up bn2a_branch2a
I0628 14:10:22.526247  9634 layer_factory.hpp:77] Creating layer res2a_branch2b
I0628 14:10:22.525856 26841 net.cpp:150] Setting up res2a_branch2a
I0628 14:10:22.526377 29649 net.cpp:157] Top shape: 32 64 8 8 (131072)
I0628 14:10:22.526208 23878 net.cpp:157] Top shape: 32 64 8 8 (131072)
I0628 14:10:22.526262  9634 net.cpp:106] Creating Layer res2a_branch2b
I0628 14:10:22.525871 26841 net.cpp:157] Top shape: 32 64 8 8 (131072)
I0628 14:10:22.526386 29649 net.cpp:165] Memory required for data: 18219136
I0628 14:10:22.526221 23878 net.cpp:165] Memory required for data: 17694848
I0628 14:10:22.526271  9634 net.cpp:454] res2a_branch2b <- res2a_branch2a
I0628 14:10:22.525882 26841 net.cpp:165] Memory required for data: 17170560
I0628 14:10:22.526397 29649 layer_factory.hpp:77] Creating layer res2a_branch2a_relu
I0628 14:10:22.526239 23878 layer_factory.hpp:77] Creating layer scale2a_branch2a
I0628 14:10:22.526281  9634 net.cpp:411] res2a_branch2b -> res2a_branch2b
I0628 14:10:22.525893 26841 layer_factory.hpp:77] Creating layer bn2a_branch2a
I0628 14:10:22.526410 29649 net.cpp:106] Creating Layer res2a_branch2a_relu
I0628 14:10:22.526250 23878 net.cpp:106] Creating Layer scale2a_branch2a
I0628 14:10:22.527055  9634 net.cpp:150] Setting up res2a_branch2b
I0628 14:10:22.525904 26841 net.cpp:106] Creating Layer bn2a_branch2a
I0628 14:10:22.526419 29649 net.cpp:454] res2a_branch2a_relu <- res2a_branch2a
I0628 14:10:22.526257 23878 net.cpp:454] scale2a_branch2a <- res2a_branch2a
I0628 14:10:22.527070  9634 net.cpp:157] Top shape: 32 64 8 8 (131072)
I0628 14:10:22.525912 26841 net.cpp:454] bn2a_branch2a <- res2a_branch2a
I0628 14:10:22.526428 29649 net.cpp:397] res2a_branch2a_relu -> res2a_branch2a (in-place)
I0628 14:10:22.526266 23878 net.cpp:397] scale2a_branch2a -> res2a_branch2a (in-place)
I0628 14:10:22.527079  9634 net.cpp:165] Memory required for data: 19267712
I0628 14:10:22.525920 26841 net.cpp:397] bn2a_branch2a -> res2a_branch2a (in-place)
I0628 14:10:22.526438 29649 net.cpp:150] Setting up res2a_branch2a_relu
I0628 14:10:22.526283 23878 layer_factory.hpp:77] Creating layer scale2a_branch2a
I0628 14:10:22.527091  9634 layer_factory.hpp:77] Creating layer bn2a_branch2b
I0628 14:10:22.525945 26841 net.cpp:150] Setting up bn2a_branch2a
I0628 14:10:22.526444 29649 net.cpp:157] Top shape: 32 64 8 8 (131072)
I0628 14:10:22.526310 23878 net.cpp:150] Setting up scale2a_branch2a
I0628 14:10:22.527101  9634 net.cpp:106] Creating Layer bn2a_branch2b
I0628 14:10:22.525956 26841 net.cpp:157] Top shape: 32 64 8 8 (131072)
I0628 14:10:22.526453 29649 net.cpp:165] Memory required for data: 18743424
I0628 14:10:22.526320 23878 net.cpp:157] Top shape: 32 64 8 8 (131072)
I0628 14:10:22.527109  9634 net.cpp:454] bn2a_branch2b <- res2a_branch2b
I0628 14:10:22.525965 26841 net.cpp:165] Memory required for data: 17694848
I0628 14:10:22.526459 29649 layer_factory.hpp:77] Creating layer res2a_branch2b
I0628 14:10:22.526329 23878 net.cpp:165] Memory required for data: 18219136
I0628 14:10:22.527122  9634 net.cpp:397] bn2a_branch2b -> res2a_branch2b (in-place)
I0628 14:10:22.525987 26841 layer_factory.hpp:77] Creating layer scale2a_branch2a
I0628 14:10:22.526474 29649 net.cpp:106] Creating Layer res2a_branch2b
I0628 14:10:22.526340 23878 layer_factory.hpp:77] Creating layer res2a_branch2a_relu
I0628 14:10:22.527144  9634 net.cpp:150] Setting up bn2a_branch2b
I0628 14:10:22.526002 26841 net.cpp:106] Creating Layer scale2a_branch2a
…
I0628 14:10:23.514032 23878 net.cpp:150] Setting up bn5b_branch2b
I0628 14:10:23.514045 23878 net.cpp:157] Top shape: 1 512 1 1 (512)
I0628 14:10:23.514053 23878 net.cpp:165] Memory required for data: 4612112
I0628 14:10:23.514068 23878 layer_factory.hpp:77] Creating layer scale5b_branch2b
I0628 14:10:23.514081 23878 net.cpp:106] Creating Layer scale5b_branch2b
I0628 14:10:23.514088 23878 net.cpp:454] scale5b_branch2b <- res5b_branch2b
I0628 14:10:23.514102 23878 net.cpp:397] scale5b_branch2b -> res5b_branch2b (in-place)
I0628 14:10:23.514124 23878 layer_factory.hpp:77] Creating layer scale5b_branch2b
I0628 14:10:23.514153 23878 net.cpp:150] Setting up scale5b_branch2b
I0628 14:10:23.514164 23878 net.cpp:157] Top shape: 1 512 1 1 (512)
I0628 14:10:23.514180 23878 net.cpp:165] Memory required for data: 4614160
I0628 14:10:23.514194 23878 layer_factory.hpp:77] Creating layer res5b_branch2b_relu
I0628 14:10:23.514204 23878 net.cpp:106] Creating Layer res5b_branch2b_relu
I0628 14:10:23.514211 23878 net.cpp:454] res5b_branch2b_relu <- res5b_branch2b
I0628 14:10:23.514220 23878 net.cpp:397] res5b_branch2b_relu -> res5b_branch2b (in-place)
I0628 14:10:23.514230 23878 net.cpp:150] Setting up res5b_branch2b_relu
I0628 14:10:23.514236 23878 net.cpp:157] Top shape: 1 512 1 1 (512)
I0628 14:10:23.514245 23878 net.cpp:165] Memory required for data: 4616208
I0628 14:10:23.514251 23878 layer_factory.hpp:77] Creating layer res5b_branch2c
I0628 14:10:23.514264 23878 net.cpp:106] Creating Layer res5b_branch2c
I0628 14:10:23.514271 23878 net.cpp:454] res5b_branch2c <- res5b_branch2b
I0628 14:10:23.514287 23878 net.cpp:411] res5b_branch2c -> res5b_branch2c
I0628 14:10:23.517561 26841 net.cpp:150] Setting up res5c_branch2c
I0628 14:10:23.517573 26841 net.cpp:157] Top shape: 1 2048 1 1 (2048)
I0628 14:10:23.517594 26841 net.cpp:165] Memory required for data: 4698128
I0628 14:10:23.517603 26841 layer_factory.hpp:77] Creating layer bn5c_branch2c
I0628 14:10:23.517612 26841 net.cpp:106] Creating Layer bn5c_branch2c
I0628 14:10:23.517618 26841 net.cpp:454] bn5c_branch2c <- res5c_branch2c
I0628 14:10:23.517626 26841 net.cpp:397] bn5c_branch2c -> res5c_branch2c (in-place)
I0628 14:10:23.517647 26841 net.cpp:150] Setting up bn5c_branch2c
I0628 14:10:23.517657 26841 net.cpp:157] Top shape: 1 2048 1 1 (2048)
I0628 14:10:23.517663 26841 net.cpp:165] Memory required for data: 4706320
I0628 14:10:23.517674 26841 layer_factory.hpp:77] Creating layer scale5c_branch2c
I0628 14:10:23.517694 26841 net.cpp:106] Creating Layer scale5c_branch2c
I0628 14:10:23.517704 26841 net.cpp:454] scale5c_branch2c <- res5c_branch2c
I0628 14:10:23.517710 26841 net.cpp:397] scale5c_branch2c -> res5c_branch2c (in-place)
I0628 14:10:23.517729 26841 layer_factory.hpp:77] Creating layer scale5c_branch2c
I0628 14:10:23.517760 26841 net.cpp:150] Setting up scale5c_branch2c
I0628 14:10:23.517769 26841 net.cpp:157] Top shape: 1 2048 1 1 (2048)
I0628 14:10:23.517776 26841 net.cpp:165] Memory required for data: 4714512
I0628 14:10:23.517786 26841 layer_factory.hpp:77] Creating layer res5c
I0628 14:10:23.517794 26841 net.cpp:106] Creating Layer res5c
I0628 14:10:23.517801 26841 net.cpp:454] res5c <- res5b_res5b_relu_0_split_1
I0628 14:10:23.517807 26841 net.cpp:454] res5c <- res5c_branch2c
I0628 14:10:23.517817 26841 net.cpp:411] res5c -> res5c
I0628 14:10:23.517827 26841 net.cpp:150] Setting up res5c
I0628 14:10:23.517834 26841 net.cpp:157] Top shape: 1 2048 1 1 (2048)
I0628 14:10:23.517840 26841 net.cpp:165] Memory required for data: 4722704
I0628 14:10:23.517846 26841 layer_factory.hpp:77] Creating layer res5c_relu
I0628 14:10:23.517853 26841 net.cpp:106] Creating Layer res5c_relu
I0628 14:10:23.517858 26841 net.cpp:454] res5c_relu <- res5c
I0628 14:10:23.517865 26841 net.cpp:397] res5c_relu -> res5c (in-place)
I0628 14:10:23.517874 26841 net.cpp:150] Setting up res5c_relu
I0628 14:10:23.517879 26841 net.cpp:157] Top shape: 1 2048 1 1 (2048)
I0628 14:10:23.517884 26841 net.cpp:165] Memory required for data: 4730896
I0628 14:10:23.517889 26841 layer_factory.hpp:77] Creating layer pool5
I0628 14:10:23.517902 26841 net.cpp:106] Creating Layer pool5
I0628 14:10:23.517911 26841 net.cpp:454] pool5 <- res5c
I0628 14:10:23.517920 26841 net.cpp:411] pool5 -> pool5
I0628 14:10:23.517936 26841 net.cpp:150] Setting up pool5
I0628 14:10:23.517942 26841 net.cpp:157] Top shape: 1 2048 1 1 (2048)
I0628 14:10:23.517949 26841 net.cpp:165] Memory required for data: 4739088
I0628 14:10:23.517954 26841 layer_factory.hpp:77] Creating layer fc10
I0628 14:10:23.517966 26841 net.cpp:106] Creating Layer fc10
I0628 14:10:23.517971 26841 net.cpp:454] fc10 <- pool5
I0628 14:10:23.517979 26841 net.cpp:411] fc10 -> fc10
I0628 14:10:23.518178 26841 net.cpp:150] Setting up fc10
I0628 14:10:23.518189 26841 net.cpp:157] Top shape: 1 10 (10)
I0628 14:10:23.518196 26841 net.cpp:165] Memory required for data: 4739128
I0628 14:10:23.518205 26841 layer_factory.hpp:77] Creating layer fc10_fc10_0_split
I0628 14:10:23.518216 26841 net.cpp:106] Creating Layer fc10_fc10_0_split
I0628 14:10:23.518225 26841 net.cpp:454] fc10_fc10_0_split <- fc10
I0628 14:10:23.518234 26841 net.cpp:411] fc10_fc10_0_split -> fc10_fc10_0_split_0
I0628 14:10:23.518242 26841 net.cpp:411] fc10_fc10_0_split -> fc10_fc10_0_split_1
I0628 14:10:23.518252 26841 net.cpp:411] fc10_fc10_0_split -> fc10_fc10_0_split_2
I0628 14:10:23.518262 26841 net.cpp:150] Setting up fc10_fc10_0_split
I0628 14:10:23.518270 26841 net.cpp:157] Top shape: 1 10 (10)
I0628 14:10:23.518275 26841 net.cpp:157] Top shape: 1 10 (10)
I0628 14:10:23.518281 26841 net.cpp:157] Top shape: 1 10 (10)
I0628 14:10:23.518287 26841 net.cpp:165] Memory required for data: 4739248
I0628 14:10:23.518292 26841 layer_factory.hpp:77] Creating layer loss
I0628 14:10:23.518304 26841 net.cpp:106] Creating Layer loss
I0628 14:10:23.518312 26841 net.cpp:454] loss <- fc10_fc10_0_split_0
I0628 14:10:23.518319 26841 net.cpp:454] loss <- label_data_1_split_0
I0628 14:10:23.518327 26841 net.cpp:411] loss -> loss
I0628 14:10:23.518337 26841 layer_factory.hpp:77] Creating layer loss
I0628 14:10:23.518357 26841 net.cpp:150] Setting up loss
I0628 14:10:23.518364 26841 net.cpp:157] Top shape: (1)
I0628 14:10:23.518378 26841 net.cpp:160]     with loss weight 1
I0628 14:10:23.518395 26841 net.cpp:165] Memory required for data: 4739252
I0628 14:10:23.518400 26841 layer_factory.hpp:77] Creating layer acc/top-1
I0628 14:10:23.520159  9634 net.cpp:150] Setting up res5b_branch2c
I0628 14:10:23.520170  9634 net.cpp:157] Top shape: 1 2048 1 1 (2048)
I0628 14:10:23.520191  9634 net.cpp:165] Memory required for data: 4624400
I0628 14:10:23.520200  9634 layer_factory.hpp:77] Creating layer bn5b_branch2c
I0628 14:10:23.520208  9634 net.cpp:106] Creating Layer bn5b_branch2c
I0628 14:10:23.520215  9634 net.cpp:454] bn5b_branch2c <- res5b_branch2c
I0628 14:10:23.520227  9634 net.cpp:397] bn5b_branch2c -> res5b_branch2c (in-place)
I0628 14:10:23.520251  9634 net.cpp:150] Setting up bn5b_branch2c
I0628 14:10:23.519448 26841 net.cpp:106] Creating Layer acc/top-1
I0628 14:10:23.520258  9634 net.cpp:157] Top shape: 1 2048 1 1 (2048)
I0628 14:10:23.520329 29649 net.cpp:150] Setting up res5b_branch2b
I0628 14:10:23.520346 29649 net.cpp:157] Top shape: 1 512 1 1 (512)
I0628 14:10:23.520357 29649 net.cpp:165] Memory required for data: 4610064
I0628 14:10:23.520265  9634 net.cpp:165] Memory required for data: 4632592
I0628 14:10:23.519460 26841 net.cpp:454] acc/top-1 <- fc10_fc10_0_split_1
I0628 14:10:23.519474 26841 net.cpp:454] acc/top-1 <- label_data_1_split_1
I0628 14:10:23.519484 26841 net.cpp:411] acc/top-1 -> acc/top-1
I0628 14:10:23.520277  9634 layer_factory.hpp:77] Creating layer scale5b_branch2c
I0628 14:10:23.520370 29649 layer_factory.hpp:77] Creating layer bn5b_branch2b
I0628 14:10:23.520289  9634 net.cpp:106] Creating Layer scale5b_branch2c
I0628 14:10:23.520382 29649 net.cpp:106] Creating Layer bn5b_branch2b
I0628 14:10:23.520390 29649 net.cpp:454] bn5b_branch2b <- res5b_branch2b
I0628 14:10:23.520401 29649 net.cpp:397] bn5b_branch2b -> res5b_branch2b (in-place)
I0628 14:10:23.520298  9634 net.cpp:454] scale5b_branch2c <- res5b_branch2c
I0628 14:10:23.520429 29649 net.cpp:150] Setting up bn5b_branch2b
I0628 14:10:23.520305  9634 net.cpp:397] scale5b_branch2c -> res5b_branch2c (in-place)
I0628 14:10:23.520439 29649 net.cpp:157] Top shape: 1 512 1 1 (512)
I0628 14:10:23.520324  9634 layer_factory.hpp:77] Creating layer scale5b_branch2c
I0628 14:10:23.520448 29649 net.cpp:165] Memory required for data: 4612112
I0628 14:10:23.520355  9634 net.cpp:150] Setting up scale5b_branch2c
I0628 14:10:23.520463 29649 layer_factory.hpp:77] Creating layer scale5b_branch2b
I0628 14:10:23.520364  9634 net.cpp:157] Top shape: 1 2048 1 1 (2048)
I0628 14:10:23.520476 29649 net.cpp:106] Creating Layer scale5b_branch2b
I0628 14:10:23.520370  9634 net.cpp:165] Memory required for data: 4640784
I0628 14:10:23.520485 29649 net.cpp:454] scale5b_branch2b <- res5b_branch2b
I0628 14:10:23.520380  9634 layer_factory.hpp:77] Creating layer res5b
I0628 14:10:23.520494 29649 net.cpp:397] scale5b_branch2b -> res5b_branch2b (in-place)
I0628 14:10:23.520537 29649 layer_factory.hpp:77] Creating layer scale5b_branch2b
I0628 14:10:23.520566 29649 net.cpp:150] Setting up scale5b_branch2b
I0628 14:10:23.520390  9634 net.cpp:106] Creating Layer res5b
I0628 14:10:23.520576 29649 net.cpp:157] Top shape: 1 512 1 1 (512)
I0628 14:10:23.520395  9634 net.cpp:454] res5b <- res5a_res5a_relu_0_split_1
I0628 14:10:23.520401  9634 net.cpp:454] res5b <- res5b_branch2c
I0628 14:10:23.520586 29649 net.cpp:165] Memory required for data: 4614160
I0628 14:10:23.520411  9634 net.cpp:411] res5b -> res5b
I0628 14:10:23.520598 29649 layer_factory.hpp:77] Creating layer res5b_branch2b_relu
I0628 14:10:23.520423  9634 net.cpp:150] Setting up res5b
I0628 14:10:23.520612 29649 net.cpp:106] Creating Layer res5b_branch2b_relu
I0628 14:10:23.520429  9634 net.cpp:157] Top shape: 1 2048 1 1 (2048)
I0628 14:10:23.520618 29649 net.cpp:454] res5b_branch2b_relu <- res5b_branch2b
I0628 14:10:23.520436  9634 net.cpp:165] Memory required for data: 4648976
I0628 14:10:23.520628 29649 net.cpp:397] res5b_branch2b_relu -> res5b_branch2b (in-place)
I0628 14:10:23.520442  9634 layer_factory.hpp:77] Creating layer res5b_relu
I0628 14:10:23.520639 29649 net.cpp:150] Setting up res5b_branch2b_relu
I0628 14:10:23.520447  9634 net.cpp:106] Creating Layer res5b_relu
I0628 14:10:23.520645 29649 net.cpp:157] Top shape: 1 512 1 1 (512)
I0628 14:10:23.520453  9634 net.cpp:454] res5b_relu <- res5b
I0628 14:10:23.520653 29649 net.cpp:165] Memory required for data: 4616208
I0628 14:10:23.520459  9634 net.cpp:397] res5b_relu -> res5b (in-place)
I0628 14:10:23.520660 29649 layer_factory.hpp:77] Creating layer res5b_branch2c
I0628 14:10:23.520467  9634 net.cpp:150] Setting up res5b_relu
I0628 14:10:23.520673 29649 net.cpp:106] Creating Layer res5b_branch2c
I0628 14:10:23.520473  9634 net.cpp:157] Top shape: 1 2048 1 1 (2048)
I0628 14:10:23.520682 29649 net.cpp:454] res5b_branch2c <- res5b_branch2b
I0628 14:10:23.520478  9634 net.cpp:165] Memory required for data: 4657168
I0628 14:10:23.520694 29649 net.cpp:411] res5b_branch2c -> res5b_branch2c
I0628 14:10:23.520483  9634 layer_factory.hpp:77] Creating layer res5b_res5b_relu_0_split
I0628 14:10:23.520494  9634 net.cpp:106] Creating Layer res5b_res5b_relu_0_split
I0628 14:10:23.520503  9634 net.cpp:454] res5b_res5b_relu_0_split <- res5b
I0628 14:10:23.520510  9634 net.cpp:411] res5b_res5b_relu_0_split -> res5b_res5b_relu_0_split_0
I0628 14:10:23.520519  9634 net.cpp:411] res5b_res5b_relu_0_split -> res5b_res5b_relu_0_split_1
I0628 14:10:23.520529  9634 net.cpp:150] Setting up res5b_res5b_relu_0_split
I0628 14:10:23.520535  9634 net.cpp:157] Top shape: 1 2048 1 1 (2048)
I0628 14:10:23.520542  9634 net.cpp:157] Top shape: 1 2048 1 1 (2048)
I0628 14:10:23.520555  9634 net.cpp:165] Memory required for data: 4673552
I0628 14:10:23.520560  9634 layer_factory.hpp:77] Creating layer res5c_branch2a
I0628 14:10:23.520570  9634 net.cpp:106] Creating Layer res5c_branch2a
I0628 14:10:23.520576  9634 net.cpp:454] res5c_branch2a <- res5b_res5b_relu_0_split_0
I0628 14:10:23.520603  9634 net.cpp:411] res5c_branch2a -> res5c_branch2a
…
I0628 14:10:23.524060 26841 net.cpp:283] Network initialization done.
I0628 14:10:23.524691 26841 solver.cpp:204] Test network set
I0628 14:10:23.524857 26841 solver.cpp:79] Solver scaffolding done.
I0628 14:10:23.525537 26841 caffe.cpp:219] Starting Optimization
I0628 14:10:23.525573 26841 solver.cpp:461] Solving ResNet-50
I0628 14:10:23.525579 26841 solver.cpp:462] Learning Rate Policy: multistep
I0628 14:10:23.525589 26841 solver.cpp:297] Ready to sync parameter numbers of parameter 23581760 numbers of parameter blob 321
I0628 14:10:23.535152 23878 net.cpp:150] Setting up res5b_branch2c
I0628 14:10:23.535168 23878 net.cpp:157] Top shape: 1 2048 1 1 (2048)
I0628 14:10:23.535178 23878 net.cpp:165] Memory required for data: 4624400
I0628 14:10:23.535189 23878 layer_factory.hpp:77] Creating layer bn5b_branch2c
I0628 14:10:23.535202 23878 net.cpp:106] Creating Layer bn5b_branch2c
I0628 14:10:23.535209 23878 net.cpp:454] bn5b_branch2c <- res5b_branch2c
I0628 14:10:23.535255 23878 net.cpp:397] bn5b_branch2c -> res5b_branch2c (in-place)
I0628 14:10:23.535289 23878 net.cpp:150] Setting up bn5b_branch2c
I0628 14:10:23.535300 23878 net.cpp:157] Top shape: 1 2048 1 1 (2048)
I0628 14:10:23.535317 23878 net.cpp:165] Memory required for data: 4632592
I0628 14:10:23.535332 23878 layer_factory.hpp:77] Creating layer scale5b_branch2c
I0628 14:10:23.535346 23878 net.cpp:106] Creating Layer scale5b_branch2c
I0628 14:10:23.535352 23878 net.cpp:454] scale5b_branch2c <- res5b_branch2c
I0628 14:10:23.535362 23878 net.cpp:397] scale5b_branch2c -> res5b_branch2c (in-place)
I0628 14:10:23.535385 23878 layer_factory.hpp:77] Creating layer scale5b_branch2c
I0628 14:10:23.535421 23878 net.cpp:150] Setting up scale5b_branch2c
I0628 14:10:23.535432 23878 net.cpp:157] Top shape: 1 2048 1 1 (2048)
I0628 14:10:23.535441 23878 net.cpp:165] Memory required for data: 4640784
I0628 14:10:23.535454 23878 layer_factory.hpp:77] Creating layer res5b
I0628 14:10:23.535468 23878 net.cpp:106] Creating Layer res5b
I0628 14:10:23.535482 23878 net.cpp:454] res5b <- res5a_res5a_relu_0_split_1
I0628 14:10:23.535491 23878 net.cpp:454] res5b <- res5b_branch2c
I0628 14:10:23.535501 23878 net.cpp:411] res5b -> res5b
I0628 14:10:23.535514 23878 net.cpp:150] Setting up res5b
I0628 14:10:23.535523 23878 net.cpp:157] Top shape: 1 2048 1 1 (2048)
I0628 14:10:23.535532 23878 net.cpp:165] Memory required for data: 4648976
I0628 14:10:23.535539 23878 layer_factory.hpp:77] Creating layer res5b_relu
I0628 14:10:23.535548 23878 net.cpp:106] Creating Layer res5b_relu
I0628 14:10:23.535554 23878 net.cpp:454] res5b_relu <- res5b
I0628 14:10:23.535569 23878 net.cpp:397] res5b_relu -> res5b (in-place)
I0628 14:10:23.535584 23878 net.cpp:150] Setting up res5b_relu
I0628 14:10:23.535593 23878 net.cpp:157] Top shape: 1 2048 1 1 (2048)
I0628 14:10:23.536528  9634 net.cpp:150] Setting up res5c_branch2a
I0628 14:10:23.535601 23878 net.cpp:165] Memory required for data: 4657168
I0628 14:10:23.536540  9634 net.cpp:157] Top shape: 1 512 1 1 (512)
I0628 14:10:23.535607 23878 layer_factory.hpp:77] Creating layer res5b_res5b_relu_0_split
I0628 14:10:23.536551  9634 net.cpp:165] Memory required for data: 4675600
I0628 14:10:23.535617 23878 net.cpp:106] Creating Layer res5b_res5b_relu_0_split
I0628 14:10:23.536561  9634 layer_factory.hpp:77] Creating layer bn5c_branch2a
I0628 14:10:23.535624 23878 net.cpp:454] res5b_res5b_relu_0_split <- res5b
I0628 14:10:23.536574  9634 net.cpp:106] Creating Layer bn5c_branch2a
I0628 14:10:23.535632 23878 net.cpp:411] res5b_res5b_relu_0_split -> res5b_res5b_relu_0_split_0
I0628 14:10:23.536582  9634 net.cpp:454] bn5c_branch2a <- res5c_branch2a
I0628 14:10:23.535643 23878 net.cpp:411] res5b_res5b_relu_0_split -> res5b_res5b_relu_0_split_1
I0628 14:10:23.536589  9634 net.cpp:397] bn5c_branch2a -> res5c_branch2a (in-place)
I0628 14:10:23.535655 23878 net.cpp:150] Setting up res5b_res5b_relu_0_split
I0628 14:10:23.536609  9634 net.cpp:150] Setting up bn5c_branch2a
I0628 14:10:23.535661 23878 net.cpp:157] Top shape: 1 2048 1 1 (2048)
I0628 14:10:23.536617  9634 net.cpp:157] Top shape: 1 512 1 1 (512)
I0628 14:10:23.535670 23878 net.cpp:157] Top shape: 1 2048 1 1 (2048)
I0628 14:10:23.536630  9634 net.cpp:165] Memory required for data: 4677648
I0628 14:10:23.535677 23878 net.cpp:165] Memory required for data: 4673552
I0628 14:10:23.535683 23878 layer_factory.hpp:77] Creating layer res5c_branch2a
I0628 14:10:23.535702 23878 net.cpp:106] Creating Layer res5c_branch2a
I0628 14:10:23.535714 23878 net.cpp:454] res5c_branch2a <- res5b_res5b_relu_0_split_0
I0628 14:10:23.536641  9634 layer_factory.hpp:77] Creating layer scale5c_branch2a
I0628 14:10:23.535725 23878 net.cpp:411] res5c_branch2a -> res5c_branch2a
I0628 14:10:23.536651  9634 net.cpp:106] Creating Layer scale5c_branch2a
I0628 14:10:23.536656  9634 net.cpp:454] scale5c_branch2a <- res5c_branch2a
I0628 14:10:23.536665  9634 net.cpp:397] scale5c_branch2a -> res5c_branch2a (in-place)
I0628 14:10:23.536684  9634 layer_factory.hpp:77] Creating layer scale5c_branch2a
I0628 14:10:23.536712  9634 net.cpp:150] Setting up scale5c_branch2a
I0628 14:10:23.536720  9634 net.cpp:157] Top shape: 1 512 1 1 (512)
I0628 14:10:23.536727  9634 net.cpp:165] Memory required for data: 4679696
I0628 14:10:23.536737  9634 layer_factory.hpp:77] Creating layer res5c_branch2a_relu
I0628 14:10:23.536746  9634 net.cpp:106] Creating Layer res5c_branch2a_relu
I0628 14:10:23.536751  9634 net.cpp:454] res5c_branch2a_relu <- res5c_branch2a
I0628 14:10:23.536758  9634 net.cpp:397] res5c_branch2a_relu -> res5c_branch2a (in-place)
I0628 14:10:23.536767  9634 net.cpp:150] Setting up res5c_branch2a_relu
I0628 14:10:23.536772  9634 net.cpp:157] Top shape: 1 512 1 1 (512)
I0628 14:10:23.536777  9634 net.cpp:165] Memory required for data: 4681744
I0628 14:10:23.536782  9634 layer_factory.hpp:77] Creating layer res5c_branch2b
I0628 14:10:23.536797  9634 net.cpp:106] Creating Layer res5c_branch2b
I0628 14:10:23.536805  9634 net.cpp:454] res5c_branch2b <- res5c_branch2a
I0628 14:10:23.536813  9634 net.cpp:411] res5c_branch2b -> res5c_branch2b
I0628 14:10:23.541730 29649 net.cpp:150] Setting up res5b_branch2c
I0628 14:10:23.541746 29649 net.cpp:157] Top shape: 1 2048 1 1 (2048)
I0628 14:10:23.541757 29649 net.cpp:165] Memory required for data: 4624400
I0628 14:10:23.541769 29649 layer_factory.hpp:77] Creating layer bn5b_branch2c
I0628 14:10:23.541781 29649 net.cpp:106] Creating Layer bn5b_branch2c
I0628 14:10:23.541790 29649 net.cpp:454] bn5b_branch2c <- res5b_branch2c
I0628 14:10:23.541808 29649 net.cpp:397] bn5b_branch2c -> res5b_branch2c (in-place)
I0628 14:10:23.541841 29649 net.cpp:150] Setting up bn5b_branch2c
I0628 14:10:23.541857 29649 net.cpp:157] Top shape: 1 2048 1 1 (2048)
I0628 14:10:23.541868 29649 net.cpp:165] Memory required for data: 4632592
I0628 14:10:23.541883 29649 layer_factory.hpp:77] Creating layer scale5b_branch2c
I0628 14:10:23.541898 29649 net.cpp:106] Creating Layer scale5b_branch2c
I0628 14:10:23.541908 29649 net.cpp:454] scale5b_branch2c <- res5b_branch2c
I0628 14:10:23.541918 29649 net.cpp:397] scale5b_branch2c -> res5b_branch2c (in-place)
I0628 14:10:23.541966 29649 layer_factory.hpp:77] Creating layer scale5b_branch2c
I0628 14:10:23.542009 29649 net.cpp:150] Setting up scale5b_branch2c
I0628 14:10:23.542021 29649 net.cpp:157] Top shape: 1 2048 1 1 (2048)
I0628 14:10:23.542029 29649 net.cpp:165] Memory required for data: 4640784
I0628 14:10:23.542042 29649 layer_factory.hpp:77] Creating layer res5b
I0628 14:10:23.542055 29649 net.cpp:106] Creating Layer res5b
I0628 14:10:23.542064 29649 net.cpp:454] res5b <- res5a_res5a_relu_0_split_1
I0628 14:10:23.542073 29649 net.cpp:454] res5b <- res5b_branch2c
I0628 14:10:23.542083 29649 net.cpp:411] res5b -> res5b
I0628 14:10:23.542098 29649 net.cpp:150] Setting up res5b
I0628 14:10:23.542105 29649 net.cpp:157] Top shape: 1 2048 1 1 (2048)
I0628 14:10:23.542114 29649 net.cpp:165] Memory required for data: 4648976
I0628 14:10:23.542120 29649 layer_factory.hpp:77] Creating layer res5b_relu
I0628 14:10:23.542130 29649 net.cpp:106] Creating Layer res5b_relu
I0628 14:10:23.542137 29649 net.cpp:454] res5b_relu <- res5b
I0628 14:10:23.542146 29649 net.cpp:397] res5b_relu -> res5b (in-place)
I0628 14:10:23.542156 29649 net.cpp:150] Setting up res5b_relu
I0628 14:10:23.542165 29649 net.cpp:157] Top shape: 1 2048 1 1 (2048)
I0628 14:10:23.542198 29649 net.cpp:165] Memory required for data: 4657168
I0628 14:10:23.542208 29649 layer_factory.hpp:77] Creating layer res5b_res5b_relu_0_split
I0628 14:10:23.542222 29649 net.cpp:106] Creating Layer res5b_res5b_relu_0_split
I0628 14:10:23.542232 29649 net.cpp:454] res5b_res5b_relu_0_split <- res5b
I0628 14:10:23.542241 29649 net.cpp:411] res5b_res5b_relu_0_split -> res5b_res5b_relu_0_split_0
I0628 14:10:23.542253 29649 net.cpp:411] res5b_res5b_relu_0_split -> res5b_res5b_relu_0_split_1
I0628 14:10:23.542268 29649 net.cpp:150] Setting up res5b_res5b_relu_0_split
I0628 14:10:23.542274 29649 net.cpp:157] Top shape: 1 2048 1 1 (2048)
I0628 14:10:23.542284 29649 net.cpp:157] Top shape: 1 2048 1 1 (2048)
I0628 14:10:23.542292 29649 net.cpp:165] Memory required for data: 4673552
I0628 14:10:23.542299 29649 layer_factory.hpp:77] Creating layer res5c_branch2a
I0628 14:10:23.542311 29649 net.cpp:106] Creating Layer res5c_branch2a
I0628 14:10:23.542320 29649 net.cpp:454] res5c_branch2a <- res5b_res5b_relu_0_split_0
I0628 14:10:23.542333 29649 net.cpp:411] res5c_branch2a -> res5c_branch2a
I0628 14:10:23.556560 23878 net.cpp:150] Setting up res5c_branch2a
I0628 14:10:23.556576 23878 net.cpp:157] Top shape: 1 512 1 1 (512)
I0628 14:10:23.556593 23878 net.cpp:165] Memory required for data: 4675600
I0628 14:10:23.556607 23878 layer_factory.hpp:77] Creating layer bn5c_branch2a
I0628 14:10:23.556617 23878 net.cpp:106] Creating Layer bn5c_branch2a
I0628 14:10:23.556627 23878 net.cpp:454] bn5c_branch2a <- res5c_branch2a
I0628 14:10:23.556638 23878 net.cpp:397] bn5c_branch2a -> res5c_branch2a (in-place)
I0628 14:10:23.556664 23878 net.cpp:150] Setting up bn5c_branch2a
I0628 14:10:23.556675 23878 net.cpp:157] Top shape: 1 512 1 1 (512)
I0628 14:10:23.556684 23878 net.cpp:165] Memory required for data: 4677648
I0628 14:10:23.556705 23878 layer_factory.hpp:77] Creating layer scale5c_branch2a
I0628 14:10:23.556718 23878 net.cpp:106] Creating Layer scale5c_branch2a
I0628 14:10:23.556725 23878 net.cpp:454] scale5c_branch2a <- res5c_branch2a
I0628 14:10:23.556735 23878 net.cpp:397] scale5c_branch2a -> res5c_branch2a (in-place)
I0628 14:10:23.556757 23878 layer_factory.hpp:77] Creating layer scale5c_branch2a
I0628 14:10:23.556798 23878 net.cpp:150] Setting up scale5c_branch2a
I0628 14:10:23.556810 23878 net.cpp:157] Top shape: 1 512 1 1 (512)
I0628 14:10:23.556819 23878 net.cpp:165] Memory required for data: 4679696
I0628 14:10:23.556831 23878 layer_factory.hpp:77] Creating layer res5c_branch2a_relu
I0628 14:10:23.556843 23878 net.cpp:106] Creating Layer res5c_branch2a_relu
I0628 14:10:23.556849 23878 net.cpp:454] res5c_branch2a_relu <- res5c_branch2a
I0628 14:10:23.556862 23878 net.cpp:397] res5c_branch2a_relu -> res5c_branch2a (in-place)
I0628 14:10:23.556877 23878 net.cpp:150] Setting up res5c_branch2a_relu
I0628 14:10:23.556886 23878 net.cpp:157] Top shape: 1 512 1 1 (512)
I0628 14:10:23.556895 23878 net.cpp:165] Memory required for data: 4681744
I0628 14:10:23.556901 23878 layer_factory.hpp:77] Creating layer res5c_branch2b
I0628 14:10:23.556915 23878 net.cpp:106] Creating Layer res5c_branch2b
I0628 14:10:23.556923 23878 net.cpp:454] res5c_branch2b <- res5c_branch2a
I0628 14:10:23.556933 23878 net.cpp:411] res5c_branch2b -> res5c_branch2b
I0628 14:10:23.563190 29649 net.cpp:150] Setting up res5c_branch2a
I0628 14:10:23.563206 29649 net.cpp:157] Top shape: 1 512 1 1 (512)
I0628 14:10:23.563217 29649 net.cpp:165] Memory required for data: 4675600
I0628 14:10:23.563228 29649 layer_factory.hpp:77] Creating layer bn5c_branch2a
I0628 14:10:23.563244 29649 net.cpp:106] Creating Layer bn5c_branch2a
I0628 14:10:23.563252 29649 net.cpp:454] bn5c_branch2a <- res5c_branch2a
I0628 14:10:23.563261 29649 net.cpp:397] bn5c_branch2a -> res5c_branch2a (in-place)
I0628 14:10:23.563285 29649 net.cpp:150] Setting up bn5c_branch2a
I0628 14:10:23.563295 29649 net.cpp:157] Top shape: 1 512 1 1 (512)
I0628 14:10:23.563314 29649 net.cpp:165] Memory required for data: 4677648
I0628 14:10:23.563329 29649 layer_factory.hpp:77] Creating layer scale5c_branch2a
I0628 14:10:23.563343 29649 net.cpp:106] Creating Layer scale5c_branch2a
I0628 14:10:23.563367 29649 net.cpp:454] scale5c_branch2a <- res5c_branch2a
I0628 14:10:23.563390 29649 net.cpp:397] scale5c_branch2a -> res5c_branch2a (in-place)
I0628 14:10:23.563413 29649 layer_factory.hpp:77] Creating layer scale5c_branch2a
I0628 14:10:23.563467 29649 net.cpp:150] Setting up scale5c_branch2a
I0628 14:10:23.563484 29649 net.cpp:157] Top shape: 1 512 1 1 (512)
I0628 14:10:23.563494 29649 net.cpp:165] Memory required for data: 4679696
I0628 14:10:23.563506 29649 layer_factory.hpp:77] Creating layer res5c_branch2a_relu
I0628 14:10:23.563519 29649 net.cpp:106] Creating Layer res5c_branch2a_relu
I0628 14:10:23.563525 29649 net.cpp:454] res5c_branch2a_relu <- res5c_branch2a
I0628 14:10:23.563550 29649 net.cpp:397] res5c_branch2a_relu -> res5c_branch2a (in-place)
I0628 14:10:23.563570 29649 net.cpp:150] Setting up res5c_branch2a_relu
I0628 14:10:23.563578 29649 net.cpp:157] Top shape: 1 512 1 1 (512)
I0628 14:10:23.563587 29649 net.cpp:165] Memory required for data: 4681744
I0628 14:10:23.563594 29649 layer_factory.hpp:77] Creating layer res5c_branch2b
I0628 14:10:23.563613 29649 net.cpp:106] Creating Layer res5c_branch2b
I0628 14:10:23.563638 29649 net.cpp:454] res5c_branch2b <- res5c_branch2a
I0628 14:10:23.563657 29649 net.cpp:411] res5c_branch2b -> res5c_branch2b
I0628 14:10:23.571370  9634 net.cpp:150] Setting up res5c_branch2b
I0628 14:10:23.571383  9634 net.cpp:157] Top shape: 1 512 1 1 (512)
I0628 14:10:23.571413  9634 net.cpp:165] Memory required for data: 4683792
I0628 14:10:23.571422  9634 layer_factory.hpp:77] Creating layer bn5c_branch2b
I0628 14:10:23.571432  9634 net.cpp:106] Creating Layer bn5c_branch2b
I0628 14:10:23.571439  9634 net.cpp:454] bn5c_branch2b <- res5c_branch2b
I0628 14:10:23.571444  9634 net.cpp:397] bn5c_branch2b -> res5c_branch2b (in-place)
I0628 14:10:23.571465  9634 net.cpp:150] Setting up bn5c_branch2b
I0628 14:10:23.571472  9634 net.cpp:157] Top shape: 1 512 1 1 (512)
I0628 14:10:23.571480  9634 net.cpp:165] Memory required for data: 4685840
I0628 14:10:23.571491  9634 layer_factory.hpp:77] Creating layer scale5c_branch2b
I0628 14:10:23.571499  9634 net.cpp:106] Creating Layer scale5c_branch2b
I0628 14:10:23.571506  9634 net.cpp:454] scale5c_branch2b <- res5c_branch2b
I0628 14:10:23.571512  9634 net.cpp:397] scale5c_branch2b -> res5c_branch2b (in-place)
I0628 14:10:23.571530  9634 layer_factory.hpp:77] Creating layer scale5c_branch2b
I0628 14:10:23.571559  9634 net.cpp:150] Setting up scale5c_branch2b
I0628 14:10:23.571568  9634 net.cpp:157] Top shape: 1 512 1 1 (512)
I0628 14:10:23.571575  9634 net.cpp:165] Memory required for data: 4687888
I0628 14:10:23.571584  9634 layer_factory.hpp:77] Creating layer res5c_branch2b_relu
I0628 14:10:23.571593  9634 net.cpp:106] Creating Layer res5c_branch2b_relu
I0628 14:10:23.571599  9634 net.cpp:454] res5c_branch2b_relu <- res5c_branch2b
I0628 14:10:23.571609  9634 net.cpp:397] res5c_branch2b_relu -> res5c_branch2b (in-place)
I0628 14:10:23.571620  9634 net.cpp:150] Setting up res5c_branch2b_relu
I0628 14:10:23.571627  9634 net.cpp:157] Top shape: 1 512 1 1 (512)
I0628 14:10:23.571633  9634 net.cpp:165] Memory required for data: 4689936
I0628 14:10:23.571638  9634 layer_factory.hpp:77] Creating layer res5c_branch2c
I0628 14:10:23.571648  9634 net.cpp:106] Creating Layer res5c_branch2c
I0628 14:10:23.571655  9634 net.cpp:454] res5c_branch2c <- res5c_branch2b
I0628 14:10:23.571662  9634 net.cpp:411] res5c_branch2c -> res5c_branch2c
I0628 14:10:23.587110  9634 net.cpp:150] Setting up res5c_branch2c
I0628 14:10:23.587122  9634 net.cpp:157] Top shape: 1 2048 1 1 (2048)
I0628 14:10:23.587144  9634 net.cpp:165] Memory required for data: 4698128
I0628 14:10:23.587152  9634 layer_factory.hpp:77] Creating layer bn5c_branch2c
I0628 14:10:23.587162  9634 net.cpp:106] Creating Layer bn5c_branch2c
I0628 14:10:23.587167  9634 net.cpp:454] bn5c_branch2c <- res5c_branch2c
I0628 14:10:23.587173  9634 net.cpp:397] bn5c_branch2c -> res5c_branch2c (in-place)
I0628 14:10:23.587196  9634 net.cpp:150] Setting up bn5c_branch2c
I0628 14:10:23.587204  9634 net.cpp:157] Top shape: 1 2048 1 1 (2048)
I0628 14:10:23.587211  9634 net.cpp:165] Memory required for data: 4706320
I0628 14:10:23.587222  9634 layer_factory.hpp:77] Creating layer scale5c_branch2c
I0628 14:10:23.587239  9634 net.cpp:106] Creating Layer scale5c_branch2c
I0628 14:10:23.587245  9634 net.cpp:454] scale5c_branch2c <- res5c_branch2c
I0628 14:10:23.587256  9634 net.cpp:397] scale5c_branch2c -> res5c_branch2c (in-place)
I0628 14:10:23.587277  9634 layer_factory.hpp:77] Creating layer scale5c_branch2c
I0628 14:10:23.587309  9634 net.cpp:150] Setting up scale5c_branch2c
I0628 14:10:23.587317  9634 net.cpp:157] Top shape: 1 2048 1 1 (2048)
I0628 14:10:23.587324  9634 net.cpp:165] Memory required for data: 4714512
I0628 14:10:23.587333  9634 layer_factory.hpp:77] Creating layer res5c
I0628 14:10:23.587344  9634 net.cpp:106] Creating Layer res5c
I0628 14:10:23.587352  9634 net.cpp:454] res5c <- res5b_res5b_relu_0_split_1
I0628 14:10:23.587357  9634 net.cpp:454] res5c <- res5c_branch2c
I0628 14:10:23.587366  9634 net.cpp:411] res5c -> res5c
I0628 14:10:23.587378  9634 net.cpp:150] Setting up res5c
I0628 14:10:23.587385  9634 net.cpp:157] Top shape: 1 2048 1 1 (2048)
I0628 14:10:23.587391  9634 net.cpp:165] Memory required for data: 4722704
I0628 14:10:23.587396  9634 layer_factory.hpp:77] Creating layer res5c_relu
I0628 14:10:23.587404  9634 net.cpp:106] Creating Layer res5c_relu
I0628 14:10:23.587409  9634 net.cpp:454] res5c_relu <- res5c
I0628 14:10:23.587415  9634 net.cpp:397] res5c_relu -> res5c (in-place)
I0628 14:10:23.587422  9634 net.cpp:150] Setting up res5c_relu
I0628 14:10:23.587427  9634 net.cpp:157] Top shape: 1 2048 1 1 (2048)
I0628 14:10:23.587433  9634 net.cpp:165] Memory required for data: 4730896
I0628 14:10:23.587438  9634 layer_factory.hpp:77] Creating layer pool5
I0628 14:10:23.587452  9634 net.cpp:106] Creating Layer pool5
I0628 14:10:23.587460  9634 net.cpp:454] pool5 <- res5c
I0628 14:10:23.587471  9634 net.cpp:411] pool5 -> pool5
I0628 14:10:23.587487  9634 net.cpp:150] Setting up pool5
I0628 14:10:23.587493  9634 net.cpp:157] Top shape: 1 2048 1 1 (2048)
I0628 14:10:23.587501  9634 net.cpp:165] Memory required for data: 4739088
I0628 14:10:23.587505  9634 layer_factory.hpp:77] Creating layer fc10
I0628 14:10:23.587517  9634 net.cpp:106] Creating Layer fc10
I0628 14:10:23.587524  9634 net.cpp:454] fc10 <- pool5
I0628 14:10:23.587532  9634 net.cpp:411] fc10 -> fc10
I0628 14:10:23.587741  9634 net.cpp:150] Setting up fc10
I0628 14:10:23.587752  9634 net.cpp:157] Top shape: 1 10 (10)
I0628 14:10:23.587759  9634 net.cpp:165] Memory required for data: 4739128
I0628 14:10:23.587769  9634 layer_factory.hpp:77] Creating layer fc10_fc10_0_split
I0628 14:10:23.587779  9634 net.cpp:106] Creating Layer fc10_fc10_0_split
I0628 14:10:23.587786  9634 net.cpp:454] fc10_fc10_0_split <- fc10
I0628 14:10:23.587796  9634 net.cpp:411] fc10_fc10_0_split -> fc10_fc10_0_split_0
I0628 14:10:23.587806  9634 net.cpp:411] fc10_fc10_0_split -> fc10_fc10_0_split_1
I0628 14:10:23.587817  9634 net.cpp:411] fc10_fc10_0_split -> fc10_fc10_0_split_2
I0628 14:10:23.587828  9634 net.cpp:150] Setting up fc10_fc10_0_split
I0628 14:10:23.587834  9634 net.cpp:157] Top shape: 1 10 (10)
I0628 14:10:23.587841  9634 net.cpp:157] Top shape: 1 10 (10)
I0628 14:10:23.587847  9634 net.cpp:157] Top shape: 1 10 (10)
I0628 14:10:23.587853  9634 net.cpp:165] Memory required for data: 4739248
I0628 14:10:23.587858  9634 layer_factory.hpp:77] Creating layer loss
I0628 14:10:23.587870  9634 net.cpp:106] Creating Layer loss
I0628 14:10:23.587879  9634 net.cpp:454] loss <- fc10_fc10_0_split_0
I0628 14:10:23.587885  9634 net.cpp:454] loss <- label_data_1_split_0
I0628 14:10:23.587893  9634 net.cpp:411] loss -> loss
…
I0628 14:10:23.593523  9634 net.cpp:283] Network initialization done.
I0628 14:10:23.593884  9634 solver.cpp:204] Test network set
I0628 14:10:23.594019  9634 solver.cpp:79] Solver scaffolding done.
I0628 14:10:23.594564  9634 caffe.cpp:219] Starting Optimization
I0628 14:10:23.594578  9634 solver.cpp:461] Solving ResNet-50
I0628 14:10:23.594583  9634 solver.cpp:462] Learning Rate Policy: multistep
I0628 14:10:23.594594  9634 solver.cpp:297] Ready to sync parameter numbers of parameter 23581760 numbers of parameter blob 321
I0628 14:10:23.603870 23878 net.cpp:150] Setting up res5c_branch2b
I0628 14:10:23.603888 23878 net.cpp:157] Top shape: 1 512 1 1 (512)
I0628 14:10:23.603899 23878 net.cpp:165] Memory required for data: 4683792
I0628 14:10:23.603910 23878 layer_factory.hpp:77] Creating layer bn5c_branch2b
I0628 14:10:23.603924 23878 net.cpp:106] Creating Layer bn5c_branch2b
I0628 14:10:23.603930 23878 net.cpp:454] bn5c_branch2b <- res5c_branch2b
I0628 14:10:23.603940 23878 net.cpp:397] bn5c_branch2b -> res5c_branch2b (in-place)
I0628 14:10:23.603966 23878 net.cpp:150] Setting up bn5c_branch2b
I0628 14:10:23.603978 23878 net.cpp:157] Top shape: 1 512 1 1 (512)
I0628 14:10:23.603987 23878 net.cpp:165] Memory required for data: 4685840
I0628 14:10:23.604002 23878 layer_factory.hpp:77] Creating layer scale5c_branch2b
I0628 14:10:23.604014 23878 net.cpp:106] Creating Layer scale5c_branch2b
I0628 14:10:23.604022 23878 net.cpp:454] scale5c_branch2b <- res5c_branch2b
I0628 14:10:23.604035 23878 net.cpp:397] scale5c_branch2b -> res5c_branch2b (in-place)
I0628 14:10:23.604058 23878 layer_factory.hpp:77] Creating layer scale5c_branch2b
I0628 14:10:23.604085 23878 net.cpp:150] Setting up scale5c_branch2b
I0628 14:10:23.604096 23878 net.cpp:157] Top shape: 1 512 1 1 (512)
I0628 14:10:23.604113 23878 net.cpp:165] Memory required for data: 4687888
I0628 14:10:23.604126 23878 layer_factory.hpp:77] Creating layer res5c_branch2b_relu
I0628 14:10:23.604136 23878 net.cpp:106] Creating Layer res5c_branch2b_relu
I0628 14:10:23.604142 23878 net.cpp:454] res5c_branch2b_relu <- res5c_branch2b
I0628 14:10:23.604151 23878 net.cpp:397] res5c_branch2b_relu -> res5c_branch2b (in-place)
I0628 14:10:23.604161 23878 net.cpp:150] Setting up res5c_branch2b_relu
I0628 14:10:23.604168 23878 net.cpp:157] Top shape: 1 512 1 1 (512)
I0628 14:10:23.604176 23878 net.cpp:165] Memory required for data: 4689936
I0628 14:10:23.604182 23878 layer_factory.hpp:77] Creating layer res5c_branch2c
I0628 14:10:23.604195 23878 net.cpp:106] Creating Layer res5c_branch2c
I0628 14:10:23.604204 23878 net.cpp:454] res5c_branch2c <- res5c_branch2b
I0628 14:10:23.604214 23878 net.cpp:411] res5c_branch2c -> res5c_branch2c
I0628 14:10:23.610880 29649 net.cpp:150] Setting up res5c_branch2b
I0628 14:10:23.610898 29649 net.cpp:157] Top shape: 1 512 1 1 (512)
I0628 14:10:23.610913 29649 net.cpp:165] Memory required for data: 4683792
I0628 14:10:23.610924 29649 layer_factory.hpp:77] Creating layer bn5c_branch2b
I0628 14:10:23.610936 29649 net.cpp:106] Creating Layer bn5c_branch2b
I0628 14:10:23.610944 29649 net.cpp:454] bn5c_branch2b <- res5c_branch2b
I0628 14:10:23.610954 29649 net.cpp:397] bn5c_branch2b -> res5c_branch2b (in-place)
I0628 14:10:23.610976 29649 net.cpp:150] Setting up bn5c_branch2b
I0628 14:10:23.610985 29649 net.cpp:157] Top shape: 1 512 1 1 (512)
I0628 14:10:23.611001 29649 net.cpp:165] Memory required for data: 4685840
I0628 14:10:23.611022 29649 layer_factory.hpp:77] Creating layer scale5c_branch2b
I0628 14:10:23.611034 29649 net.cpp:106] Creating Layer scale5c_branch2b
I0628 14:10:23.611042 29649 net.cpp:454] scale5c_branch2b <- res5c_branch2b
I0628 14:10:23.611052 29649 net.cpp:397] scale5c_branch2b -> res5c_branch2b (in-place)
I0628 14:10:23.611073 29649 layer_factory.hpp:77] Creating layer scale5c_branch2b
I0628 14:10:23.611099 29649 net.cpp:150] Setting up scale5c_branch2b
I0628 14:10:23.611131 29649 net.cpp:157] Top shape: 1 512 1 1 (512)
I0628 14:10:23.611146 29649 net.cpp:165] Memory required for data: 4687888
I0628 14:10:23.611158 29649 layer_factory.hpp:77] Creating layer res5c_branch2b_relu
I0628 14:10:23.611171 29649 net.cpp:106] Creating Layer res5c_branch2b_relu
I0628 14:10:23.611177 29649 net.cpp:454] res5c_branch2b_relu <- res5c_branch2b
I0628 14:10:23.611191 29649 net.cpp:397] res5c_branch2b_relu -> res5c_branch2b (in-place)
I0628 14:10:23.611204 29649 net.cpp:150] Setting up res5c_branch2b_relu
I0628 14:10:23.611210 29649 net.cpp:157] Top shape: 1 512 1 1 (512)
I0628 14:10:23.611219 29649 net.cpp:165] Memory required for data: 4689936
I0628 14:10:23.611225 29649 layer_factory.hpp:77] Creating layer res5c_branch2c
I0628 14:10:23.611238 29649 net.cpp:106] Creating Layer res5c_branch2c
I0628 14:10:23.611248 29649 net.cpp:454] res5c_branch2c <- res5c_branch2b
I0628 14:10:23.611258 29649 net.cpp:411] res5c_branch2c -> res5c_branch2c
I0628 14:10:23.625063 23878 net.cpp:150] Setting up res5c_branch2c
I0628 14:10:23.625080 23878 net.cpp:157] Top shape: 1 2048 1 1 (2048)
I0628 14:10:23.625090 23878 net.cpp:165] Memory required for data: 4698128
I0628 14:10:23.625102 23878 layer_factory.hpp:77] Creating layer bn5c_branch2c
I0628 14:10:23.625113 23878 net.cpp:106] Creating Layer bn5c_branch2c
I0628 14:10:23.625120 23878 net.cpp:454] bn5c_branch2c <- res5c_branch2c
I0628 14:10:23.625138 23878 net.cpp:397] bn5c_branch2c -> res5c_branch2c (in-place)
I0628 14:10:23.625170 23878 net.cpp:150] Setting up bn5c_branch2c
I0628 14:10:23.625181 23878 net.cpp:157] Top shape: 1 2048 1 1 (2048)
I0628 14:10:23.625190 23878 net.cpp:165] Memory required for data: 4706320
I0628 14:10:23.625205 23878 layer_factory.hpp:77] Creating layer scale5c_branch2c
I0628 14:10:23.625232 23878 net.cpp:106] Creating Layer scale5c_branch2c
I0628 14:10:23.625244 23878 net.cpp:454] scale5c_branch2c <- res5c_branch2c
I0628 14:10:23.625254 23878 net.cpp:397] scale5c_branch2c -> res5c_branch2c (in-place)
I0628 14:10:23.625280 23878 layer_factory.hpp:77] Creating layer scale5c_branch2c
I0628 14:10:23.625316 23878 net.cpp:150] Setting up scale5c_branch2c
I0628 14:10:23.625327 23878 net.cpp:157] Top shape: 1 2048 1 1 (2048)
I0628 14:10:23.625336 23878 net.cpp:165] Memory required for data: 4714512
I0628 14:10:23.625349 23878 layer_factory.hpp:77] Creating layer res5c
I0628 14:10:23.625365 23878 net.cpp:106] Creating Layer res5c
I0628 14:10:23.625373 23878 net.cpp:454] res5c <- res5b_res5b_relu_0_split_1
I0628 14:10:23.625381 23878 net.cpp:454] res5c <- res5c_branch2c
I0628 14:10:23.625391 23878 net.cpp:411] res5c -> res5c
I0628 14:10:23.625404 23878 net.cpp:150] Setting up res5c
I0628 14:10:23.625413 23878 net.cpp:157] Top shape: 1 2048 1 1 (2048)
I0628 14:10:23.625422 23878 net.cpp:165] Memory required for data: 4722704
I0628 14:10:23.625428 23878 layer_factory.hpp:77] Creating layer res5c_relu
I0628 14:10:23.625440 23878 net.cpp:106] Creating Layer res5c_relu
I0628 14:10:23.625448 23878 net.cpp:454] res5c_relu <- res5c
I0628 14:10:23.625465 23878 net.cpp:397] res5c_relu -> res5c (in-place)
I0628 14:10:23.625491 23878 net.cpp:150] Setting up res5c_relu
I0628 14:10:23.625505 23878 net.cpp:157] Top shape: 1 2048 1 1 (2048)
I0628 14:10:23.625514 23878 net.cpp:165] Memory required for data: 4730896
I0628 14:10:23.625521 23878 layer_factory.hpp:77] Creating layer pool5
I0628 14:10:23.625533 23878 net.cpp:106] Creating Layer pool5
I0628 14:10:23.625542 23878 net.cpp:454] pool5 <- res5c
I0628 14:10:23.625553 23878 net.cpp:411] pool5 -> pool5
I0628 14:10:23.625574 23878 net.cpp:150] Setting up pool5
I0628 14:10:23.625582 23878 net.cpp:157] Top shape: 1 2048 1 1 (2048)
I0628 14:10:23.625591 23878 net.cpp:165] Memory required for data: 4739088
I0628 14:10:23.625598 23878 layer_factory.hpp:77] Creating layer fc10
I0628 14:10:23.625612 23878 net.cpp:106] Creating Layer fc10
I0628 14:10:23.625622 23878 net.cpp:454] fc10 <- pool5
I0628 14:10:23.625639 23878 net.cpp:411] fc10 -> fc10
I0628 14:10:23.625905 23878 net.cpp:150] Setting up fc10
I0628 14:10:23.625921 23878 net.cpp:157] Top shape: 1 10 (10)
I0628 14:10:23.625929 23878 net.cpp:165] Memory required for data: 4739128
I0628 14:10:23.625946 23878 layer_factory.hpp:77] Creating layer fc10_fc10_0_split
I0628 14:10:23.625959 23878 net.cpp:106] Creating Layer fc10_fc10_0_split
I0628 14:10:23.625967 23878 net.cpp:454] fc10_fc10_0_split <- fc10
I0628 14:10:23.625977 23878 net.cpp:411] fc10_fc10_0_split -> fc10_fc10_0_split_0
I0628 14:10:23.625988 23878 net.cpp:411] fc10_fc10_0_split -> fc10_fc10_0_split_1
I0628 14:10:23.626001 23878 net.cpp:411] fc10_fc10_0_split -> fc10_fc10_0_split_2
I0628 14:10:23.626024 23878 net.cpp:150] Setting up fc10_fc10_0_split
I0628 14:10:23.626034 23878 net.cpp:157] Top shape: 1 10 (10)
I0628 14:10:23.626042 23878 net.cpp:157] Top shape: 1 10 (10)
I0628 14:10:23.626050 23878 net.cpp:157] Top shape: 1 10 (10)
I0628 14:10:23.626058 23878 net.cpp:165] Memory required for data: 4739248
I0628 14:10:23.626065 23878 layer_factory.hpp:77] Creating layer loss
I0628 14:10:23.626075 23878 net.cpp:106] Creating Layer loss
I0628 14:10:23.626081 23878 net.cpp:454] loss <- fc10_fc10_0_split_0
I0628 14:10:23.626090 23878 net.cpp:454] loss <- label_data_1_split_0
I0628 14:10:23.626101 23878 net.cpp:411] loss -> loss
…
I0628 14:10:23.630034 23878 net.cpp:226] res4a_res4a_relu_0_split needs backward computation.
I0628 14:10:23.630041 23878 net.cpp:226] res4a_relu needs backward computation.
I0628 14:10:23.630048 23878 net.cpp:226] res4a needs backward computation.
I0628 14:10:23.630055 23878 net.cpp:226] scale4a_branch2c needs backward computation.
I0628 14:10:23.630062 23878 net.cpp:226] bn4a_branch2c needs backward computation.
I0628 14:10:23.630069 23878 net.cpp:226] res4a_branch2c needs backward computation.
I0628 14:10:23.632139 29649 net.cpp:150] Setting up res5c_branch2c
I0628 14:10:23.632155 29649 net.cpp:157] Top shape: 1 2048 1 1 (2048)
I0628 14:10:23.632166 29649 net.cpp:165] Memory required for data: 4698128
I0628 14:10:23.630075 23878 net.cpp:226] res4a_branch2b_relu needs backward computation.
I0628 14:10:23.630082 23878 net.cpp:226] scale4a_branch2b needs backward computation.
I0628 14:10:23.630089 23878 net.cpp:226] bn4a_branch2b needs backward computation.
I0628 14:10:23.632177 29649 layer_factory.hpp:77] Creating layer bn5c_branch2c
I0628 14:10:23.632189 29649 net.cpp:106] Creating Layer bn5c_branch2c
I0628 14:10:23.630095 23878 net.cpp:226] res4a_branch2b needs backward computation.
I0628 14:10:23.632197 29649 net.cpp:454] bn5c_branch2c <- res5c_branch2c
I0628 14:10:23.632205 29649 net.cpp:397] bn5c_branch2c -> res5c_branch2c (in-place)
I0628 14:10:23.630102 23878 net.cpp:226] res4a_branch2a_relu needs backward computation.
I0628 14:10:23.632242 29649 net.cpp:150] Setting up bn5c_branch2c
I0628 14:10:23.630108 23878 net.cpp:226] scale4a_branch2a needs backward computation.
I0628 14:10:23.632254 29649 net.cpp:157] Top shape: 1 2048 1 1 (2048)
I0628 14:10:23.630115 23878 net.cpp:226] bn4a_branch2a needs backward computation.
I0628 14:10:23.632263 29649 net.cpp:165] Memory required for data: 4706320
I0628 14:10:23.630122 23878 net.cpp:226] res4a_branch2a needs backward computation.
I0628 14:10:23.632277 29649 layer_factory.hpp:77] Creating layer scale5c_branch2c
I0628 14:10:23.630128 23878 net.cpp:226] scale4a_branch1 needs backward computation.
I0628 14:10:23.630141 23878 net.cpp:226] bn4a_branch1 needs backward computation.
I0628 14:10:23.632316 29649 net.cpp:106] Creating Layer scale5c_branch2c
I0628 14:10:23.630148 23878 net.cpp:226] res4a_branch1 needs backward computation.
I0628 14:10:23.632334 29649 net.cpp:454] scale5c_branch2c <- res5c_branch2c
I0628 14:10:23.630156 23878 net.cpp:226] res3d_res3d_relu_0_split needs backward computation.
I0628 14:10:23.632351 29649 net.cpp:397] scale5c_branch2c -> res5c_branch2c (in-place)
I0628 14:10:23.630162 23878 net.cpp:226] res3d_relu needs backward computation.
I0628 14:10:23.632381 29649 layer_factory.hpp:77] Creating layer scale5c_branch2c
I0628 14:10:23.630168 23878 net.cpp:226] res3d needs backward computation.
I0628 14:10:23.632421 29649 net.cpp:150] Setting up scale5c_branch2c
I0628 14:10:23.630177 23878 net.cpp:226] scale3d_branch2c needs backward computation.
I0628 14:10:23.632432 29649 net.cpp:157] Top shape: 1 2048 1 1 (2048)
I0628 14:10:23.630183 23878 net.cpp:226] bn3d_branch2c needs backward computation.
I0628 14:10:23.632445 29649 net.cpp:165] Memory required for data: 4714512
I0628 14:10:23.630190 23878 net.cpp:226] res3d_branch2c needs backward computation.
I0628 14:10:23.632458 29649 layer_factory.hpp:77] Creating layer res5c
I0628 14:10:23.630197 23878 net.cpp:226] res3d_branch2b_relu needs backward computation.
I0628 14:10:23.632472 29649 net.cpp:106] Creating Layer res5c
I0628 14:10:23.630203 23878 net.cpp:226] scale3d_branch2b needs backward computation.
I0628 14:10:23.632480 29649 net.cpp:454] res5c <- res5b_res5b_relu_0_split_1
I0628 14:10:23.630210 23878 net.cpp:226] bn3d_branch2b needs backward computation.
I0628 14:10:23.632488 29649 net.cpp:454] res5c <- res5c_branch2c
I0628 14:10:23.630216 23878 net.cpp:226] res3d_branch2b needs backward computation.
I0628 14:10:23.632501 29649 net.cpp:411] res5c -> res5c
I0628 14:10:23.630223 23878 net.cpp:226] res3d_branch2a_relu needs backward computation.
I0628 14:10:23.630230 23878 net.cpp:226] scale3d_branch2a needs backward computation.
I0628 14:10:23.632541 29649 net.cpp:150] Setting up res5c
I0628 14:10:23.630236 23878 net.cpp:226] bn3d_branch2a needs backward computation.
I0628 14:10:23.632552 29649 net.cpp:157] Top shape: 1 2048 1 1 (2048)
I0628 14:10:23.630244 23878 net.cpp:226] res3d_branch2a needs backward computation.
I0628 14:10:23.632561 29649 net.cpp:165] Memory required for data: 4722704
I0628 14:10:23.630249 23878 net.cpp:226] res3c_res3c_relu_0_split needs backward computation.
I0628 14:10:23.632570 29649 layer_factory.hpp:77] Creating layer res5c_relu
I0628 14:10:23.630256 23878 net.cpp:226] res3c_relu needs backward computation.
I0628 14:10:23.632578 29649 net.cpp:106] Creating Layer res5c_relu
I0628 14:10:23.630264 23878 net.cpp:226] res3c needs backward computation.
I0628 14:10:23.632586 29649 net.cpp:454] res5c_relu <- res5c
I0628 14:10:23.630271 23878 net.cpp:226] scale3c_branch2c needs backward computation.
I0628 14:10:23.632596 29649 net.cpp:397] res5c_relu -> res5c (in-place)
I0628 14:10:23.630278 23878 net.cpp:226] bn3c_branch2c needs backward computation.
I0628 14:10:23.632606 29649 net.cpp:150] Setting up res5c_relu
I0628 14:10:23.630285 23878 net.cpp:226] res3c_branch2c needs backward computation.
I0628 14:10:23.632612 29649 net.cpp:157] Top shape: 1 2048 1 1 (2048)
I0628 14:10:23.630292 23878 net.cpp:226] res3c_branch2b_relu needs backward computation.
I0628 14:10:23.632621 29649 net.cpp:165] Memory required for data: 4730896
I0628 14:10:23.630298 23878 net.cpp:226] scale3c_branch2b needs backward computation.
I0628 14:10:23.632627 29649 layer_factory.hpp:77] Creating layer pool5
I0628 14:10:23.630306 23878 net.cpp:226] bn3c_branch2b needs backward computation.
I0628 14:10:23.630311 23878 net.cpp:226] res3c_branch2b needs backward computation.
I0628 14:10:23.632645 29649 net.cpp:106] Creating Layer pool5
I0628 14:10:23.630318 23878 net.cpp:226] res3c_branch2a_relu needs backward computation.
I0628 14:10:23.632656 29649 net.cpp:454] pool5 <- res5c
I0628 14:10:23.630326 23878 net.cpp:226] scale3c_branch2a needs backward computation.
I0628 14:10:23.632669 29649 net.cpp:411] pool5 -> pool5
I0628 14:10:23.630331 23878 net.cpp:226] bn3c_branch2a needs backward computation.
I0628 14:10:23.632688 29649 net.cpp:150] Setting up pool5
I0628 14:10:23.630337 23878 net.cpp:226] res3c_branch2a needs backward computation.
I0628 14:10:23.632697 29649 net.cpp:157] Top shape: 1 2048 1 1 (2048)
I0628 14:10:23.630344 23878 net.cpp:226] res3b_res3b_relu_0_split needs backward computation.
I0628 14:10:23.632706 29649 net.cpp:165] Memory required for data: 4739088
I0628 14:10:23.630352 23878 net.cpp:226] res3b_relu needs backward computation.
I0628 14:10:23.632712 29649 layer_factory.hpp:77] Creating layer fc10
I0628 14:10:23.630358 23878 net.cpp:226] res3b needs backward computation.
I0628 14:10:23.632726 29649 net.cpp:106] Creating Layer fc10
I0628 14:10:23.630367 23878 net.cpp:226] scale3b_branch2c needs backward computation.
I0628 14:10:23.632735 29649 net.cpp:454] fc10 <- pool5
I0628 14:10:23.630373 23878 net.cpp:226] bn3b_branch2c needs backward computation.
I0628 14:10:23.632745 29649 net.cpp:411] fc10 -> fc10
I0628 14:10:23.630379 23878 net.cpp:226] res3b_branch2c needs backward computation.
I0628 14:10:23.630386 23878 net.cpp:226] res3b_branch2b_relu needs backward computation.
I0628 14:10:23.633038 29649 net.cpp:150] Setting up fc10
I0628 14:10:23.630393 23878 net.cpp:226] scale3b_branch2b needs backward computation.
I0628 14:10:23.633054 29649 net.cpp:157] Top shape: 1 10 (10)
I0628 14:10:23.630399 23878 net.cpp:226] bn3b_branch2b needs backward computation.
I0628 14:10:23.630406 23878 net.cpp:226] res3b_branch2b needs backward computation.
I0628 14:10:23.633064 29649 net.cpp:165] Memory required for data: 4739128
I0628 14:10:23.630414 23878 net.cpp:226] res3b_branch2a_relu needs backward computation.
I0628 14:10:23.633075 29649 layer_factory.hpp:77] Creating layer fc10_fc10_0_split
…
