…
I0701 23:43:23.268239  7938 net.cpp:49] Initializing net from parameters: 
name: "ResNet-50"
state {
  phase: TRAIN
}
layer {
  name: "data"
  type: "ImageData"
  top: "data"
  top: "label"
  include {
    phase: TRAIN
  }
  transform_param {
    mirror: true
    crop_size: 32
    mean_value: 104
    mean_value: 117
    mean_value: 123
  }
  image_data_param {
    source: "/HOME/sysu_sc_ll/WORKSPACE/wenyp/0314/cifar-10/train/label.txt"
    batch_size: 32
    shuffle: true
    new_height: 36
    new_width: 36
    is_color: true
    root_folder: "/HOME/sysu_sc_ll/WORKSPACE/wenyp/0314/cifar-10/train/Img/"
  }
}
layer {
  name: "conv1"
  type: "Convolution"
  bottom: "data"
  top: "conv1"
  convolution_param {
    num_output: 64
    bias_term: true
    pad: 3
    kernel_size: 7
    stride: 2
    weight_filler {
      type: "msra"
    }
  }
}
layer {
  name: "bn_conv1"
  type: "BatchNorm"
  bottom: "conv1"
  top: "conv1"
  batch_norm_param {
    use_global_stats: false
  }
}
layer {
  name: "scale_conv1"
  type: "Scale"
  bottom: "conv1"
  top: "conv1"
  scale_param {
    bias_term: true
  }
}
layer {
  name: "conv1_relu"
  type: "ReLU"
  bottom: "conv1"
  top: "conv1"
}
layer {
  name: "pool1"
  type: "Pooling"
  bottom: "conv1"
  top: "pool1"
  pooling_param {
    pool: MAX
    kernel_size: 3
    stride: 2
  }
}
layer {
  name: "res2a_branch1"
  type: "Convolution"
  bottom: "pool1"
  top: "res2a_branch1"
  convolution_param {
    num_output: 256
    bias_term: false
    pad: 0
    kernel_size: 1
    stride: 1
    weight_filler {
      type: "msra"
    }
  }
}
layer {
  name: "bn2a_branch1"
  type: "BatchNorm"
  bottom: "res2a_branch1"
  top: "res2a_branch1"
  batch_norm_param {
    use_global_stats: false
  }
}
layer {
  name: "scale2a_branch1"
  type: "Scale"
  bottom: "res2a_branch1"
  top: "res2a_branch1"
  scale_param {
    bias_term: true
  }
}
layer {
  name: "res2a_branch2a"
  type: "Convolution"
  bottom: "pool1"
  top: "res2a_branch2a"
  convolution_param {
    num_output: 64
    bias_term: false
    pad: 0
    kernel_size: 1
    stride: 1
    weight_filler {
      type: "msra"
    }
  }
}
layer {
  name: "bn2a_branch2a"
  type: "BatchNorm"
  bottom: "res2a_branch2a"
  top: "res2a_branch2a"
  batch_norm_param {
    use_global_stats: false
  }
}
layer {
  name: "scale2a_branch2a"
  type: "Scale"
  bottom: "res2a_branch2a"
  top: "res2a_branch2a"
  scale_param {
    bias_term: true
  }
}
layer {
  name: "res2a_branch2a_relu"
  type: "ReLU"
  bottom: "res2a_branch2a"
  top: "res2a_branch2a"
}
layer {
  name: "res2a_branch2b"
  type: "Convolution"
  bottom: "res2a_branch2a"
  top: "res2a_branch2b"
  convolution_param {
    num_output: 64
    bias_term: false
    pad: 1
    kernel_size: 3
    stride: 1
    weight_filler {
      type: "msra"
    }
  }
}
layer {
  name: "bn2a_branch2b"
  type: "BatchNorm"
  bottom: "res2a_branch2b"
  top: "res2a_branch2b"
  batch_norm_param {
    use_global_stats: false
  }
}
layer {
  name: "scale2a_branch2b"
  type: "Scale"
  bottom: "res2a_branch2b"
  top: "res2a_branch2b"
  scale_param {
    bias_term: true
  }
}
layer {
  name: "res2a_branch2b_relu"
  type: "ReLU"
  bottom: "res2a_branch2b"
  top: "res2a_branch2b"
}
layer {
  name: "res2a_branch2c"
  type: "Convolution"
  bottom: "res2a_branch2b"
  top: "res2a_branch2c"
  convolution_param {
    num_output: 256
    bias_term: false
    pad: 0
    kernel_size: 1
    stride: 1
    weight_filler {
      type: "msra"
    }
  }
}
layer {
  name: "bn2a_branch2c"
  type: "BatchNorm"
  bottom: "res2a_branch2c"
  top: "res2a_branch2c"
  batch_norm_param {
    use_global_stats: false
  }
}
layer {
  name: "scale2a_branch2c"
  type: "Scale"
  bottom: "res2a_branch2c"
  top: "res2a_branch2c"
  scale_param {
    bias_term: true
  }
}
layer {
  name: "res2a"
  type: "Eltwise"
  bottom: "res2a_branch1"
  bottom: "res2a_branch2c"
  top: "res2a"
  eltwise_param {
    operation: SUM
  }
}
layer {
  name: "res2a_relu"
  type: "ReLU"
  bottom: "res2a"
  top: "res2a"
}
layer {
  name: "res2b_branch2a"
  type: "Convolution"
  bottom: "res2a"
  top: "res2b_branch2a"
  convolution_param {
    num_output: 64
    bias_term: false
    pad: 0
    kernel_size: 1
    stride: 1
    weight_filler {
      type: "msra"
    }
  }
}
layer {
  name: "bn2b_branch2a"
  type: "BatchNorm"
  bottom: "res2b_branch2a"
  top: "res2b_branch2a"
  batch_norm_param {
    use_global_stats: false
  }
}
layer {
  name: "scale2b_branch2a"
  type: "Scale"
  bottom: "res2b_branch2a"
  top: "res2b_branch2a"
  scale_param {
    bias_term: true
  }
}
layer {
  name: "res2b_branch2a_relu"
  type: "ReLU"
  bottom: "res2b_branch2a"
  top: "res2b_branch2a"
}
layer {
  name: "res2b_branch2b"
  type: "Convolution"
  bottom: "res2b_branch2a"
  top: "res2b_branch2b"
  convolution_param {
    num_output: 64
    bias_term: false
    pad: 1
    kernel_size: 3
    stride: 1
    weight_filler {
      type: "msra"
    }
  }
}
layer {
  name: "bn2b_branch2b"
  type: "BatchNorm"
  bottom: "res2b_branch2b"
  top: "res2b_branch2b"
  batch_norm_param {
    use_global_stats: false
  }
}
layer {
  name: "scale2b_branch2b"
  type: "Scale"
  bottom: "res2b_branch2b"
  top: "res2b_branch2b"
  scale_param {
    bias_term: true
  }
}
layer {
  name: "res2b_branch2b_relu"
  type: "ReLU"
  bottom: "res2b_branch2b"
  top: "res2b_branch2b"
}
layer {
  name: "res2b_branch2c"
  type: "Convolution"
  bottom: "res2b_branch2b"
  top: "res2b_branch2c"
  convolution_param {
    num_output: 256
    bias_term: false
    pad: 0
    kernel_size: 1
    stride: 1
    weight_filler {
      type: "msra"
    }
  }
}
layer {
  name: "bn2b_branch2c"
  type: "BatchNorm"
  bottom: "res2b_branch2c"
  top: "res2b_branch2c"
  batch_norm_param {
    use_global_stats: false
  }
}
layer {
  name: "scale2b_branch2c"
  type: "Scale"
  bottom: "res2b_branch2c"
  top: "res2b_branch2c"
  scale_param {
    bias_term: true
  }
}
layer {
  name: "res2b"
  type: "Eltwise"
  bottom: "res2a"
  bottom: "res2b_branch2c"
  top: "res2b"
  eltwise_param {
    operation: SUM
  }
}
layer {
  name: "res2b_relu"
  type: "ReLU"
  bottom: "res2b"
  top: "res2b"
}
layer {
  name: "res2c_branch2a"
  type: "Convolution"
  bottom: "res2b"
  top: "res2c_branch2a"
  convolution_param {
    num_output: 64
    bias_term: false
    pad: 0
    kernel_size: 1
    stride: 1
    weight_filler {
      type: "msra"
    }
  }
}
layer {
  name: "bn2c_branch2a"
  type: "BatchNorm"
  bottom: "res2c_branch2a"
  top: "res2c_branch2a"
  batch_norm_param {
    use_global_stats: false
  }
}
layer {
  name: "scale2c_branch2a"
  type: "Scale"
  bottom: "res2c_branch2a"
  top: "res2c_branch2a"
  scale_param {
    bias_term: true
  }
}
layer {
  name: "res2c_branch2a_relu"
  type: "ReLU"
  bottom: "res2c_branch2a"
  top: "res2c_branch2a"
}
layer {
  name: "res2c_branch2b"
  type: "Convolution"
  bottom: "res2c_branch2a"
  top: "res2c_branch2b"
  convolution_param {
    num_output: 64
    bias_term: false
    pad: 1
    kernel_size: 3
    stride: 1
    weight_filler {
      type: "msra"
    }
  }
}
layer {
  name: "bn2c_branch2b"
  type: "BatchNorm"
  bottom: "res2c_branch2b"
  top: "res2c_branch2b"
  batch_norm_param {
    use_global_stats: false
  }
}
layer {
  name: "scale2c_branch2b"
  type: "Scale"
  bottom: "res2c_branch2b"
  top: "res2c_branch2b"
  scale_param {
    bias_term: true
  }
}
layer {
  name: "res2c_branch2b_relu"
  type: "ReLU"
  bottom: "res2c_branch2b"
  top: "res2c_branch2b"
}
layer {
  name: "res2c_branch2c"
  type: "Convolution"
  bottom: "res2c_branch2b"
  top: "res2c_branch2c"
  convolution_param {
    num_output: 256
    bias_term: false
    pad: 0
    kernel_size: 1
    stride: 1
    weight_filler {
      type: "msra"
    }
  }
}
layer {
  name: "bn2c_branch2c"
  type: "BatchNorm"
  bottom: "res2c_branch2c"
  top: "res2c_branch2c"
  batch_norm_param {
    use_global_stats: false
  }
}
layer {
  name: "scale2c_branch2c"
  type: "Scale"
  bottom: "res2c_branch2c"
  top: "res2c_branch2c"
  scale_param {
    bias_term: true
  }
}
layer {
  name: "res2c"
  type: "Eltwise"
  bottom: "res2b"
  bottom: "res2c_branch2c"
  top: "res2c"
  eltwise_param {
    operation: SUM
  }
}
layer {
  name: "res2c_relu"
  type: "ReLU"
  bottom: "res2c"
  top: "res2c"
}
layer {
  name: "res3a_branch1"
  type: "Convolution"
  bottom: "res2c"
  top: "res3a_branch1"
  convolution_param {
    num_output: 512
    bias_term: false
    pad: 0
    kernel_size: 1
    stride: 2
    weight_filler {
      type: "msra"
    }
  }
}
layer {
  name: "bn3a_branch1"
  type: "BatchNorm"
  bottom: "res3a_branch1"
  top: "res3a_branch1"
  batch_norm_param {
    use_global_stats: false
  }
}
layer {
  name: "scale3a_branch1"
  type: "Scale"
  bottom: "res3a_branch1"
  top: "res3a_branch1"
  scale_param {
    bias_term: true
  }
}
layer {
  name: "res3a_branch2a"
  type: "Convolution"
  bottom: "res2c"
  top: "res3a_branch2a"
  convolution_param {
    num_output: 128
    bias_term: false
    pad: 0
    kernel_size: 1
    stride: 2
    weight_filler {
      type: "msra"
    }
  }
}
layer {
  name: "bn3a_branch2a"
  type: "BatchNorm"
  bottom: "res3a_branch2a"
  top: "res3a_branch2a"
  batch_norm_param {
    use_global_stats: false
  }
}
layer {
  name: "scale3a_branch2a"
  type: "Scale"
  bottom: "res3a_branch2a"
  top: "res3a_branch2a"
  scale_param {
    bias_term: true
  }
}
layer {
  name: "res3a_branch2a_relu"
  type: "ReLU"
  bottom: "res3a_branch2a"
  top: "res3a_branch2a"
}
layer {
  name: "res3a_branch2b"
  type: "Convolution"
  bottom: "res3a_branch2a"
  top: "res3a_branch2b"
  convolution_param {
    num_output: 128
    bias_term: false
    pad: 1
    kernel_size: 3
    stride: 1
    weight_filler {
      type: "msra"
    }
  }
}
layer {
  name: "bn3a_branch2b"
  type: "BatchNorm"
  bottom: "res3a_branch2b"
  top: "res3a_branch2b"
  batch_norm_param {
    use_global_stats: false
  }
}
layer {
  name: "scale3a_branch2b"
  type: "Scale"
  bottom: "res3a_branch2b"
  top: "res3a_branch2b"
  scale_param {
    bias_term: true
  }
}
layer {
  name: "res3a_branch2b_relu"
  type: "ReLU"
  bottom: "res3a_branch2b"
  top: "res3a_branch2b"
}
layer {
  name: "res3a_branch2c"
  type: "Convolution"
  bottom: "res3a_branch2b"
  top: "res3a_branch2c"
  convolution_param {
    num_output: 512
    bias_term: false
    pad: 0
    kernel_size: 1
    stride: 1
    weight_filler {
      type: "msra"
    }
  }
}
layer {
  name: "bn3a_branch2c"
  type: "BatchNorm"
  bottom: "res3a_branch2c"
  top: "res3a_branch2c"
  batch_norm_param {
    use_global_stats: false
  }
}
layer {
  name: "scale3a_branch2c"
  type: "Scale"
  bottom: "res3a_branch2c"
  top: "res3a_branch2c"
  scale_param {
    bias_term: true
  }
}
layer {
  name: "res3a"
  type: "Eltwise"
  bottom: "res3a_branch1"
  bottom: "res3a_branch2c"
  top: "res3a"
  eltwise_param {
    operation: SUM
  }
}
layer {
  name: "res3a_relu"
  type: "ReLU"
  bottom: "res3a"
  top: "res3a"
}
layer {
  name: "res3b_branch2a"
  type: "Convolution"
  bottom: "res3a"
  top: "res3b_branch2a"
  convolution_param {
    num_output: 128
    bias_term: false
    pad: 0
    kernel_size: 1
    stride: 1
    weight_filler {
      type: "msra"
    }
  }
}
layer {
  name: "bn3b_branch2a"
  type: "BatchNorm"
  bottom: "res3b_branch2a"
  top: "res3b_branch2a"
  batch_norm_param {
    use_global_stats: false
  }
}
layer {
  name: "scale3b_branch2a"
  type: "Scale"
  bottom: "res3b_branch2a"
  top: "res3b_branch2a"
  scale_param {
    bias_term: true
  }
}
layer {
  name: "res3b_branch2a_relu"
  type: "ReLU"
  bottom: "res3b_branch2a"
  top: "res3b_branch2a"
}
layer {
  name: "res3b_branch2b"
  type: "Convolution"
  bottom: "res3b_branch2a"
  top: "res3b_branch2b"
  convolution_param {
    num_output: 128
    bias_term: false
    pad: 1
    kernel_size: 3
    stride: 1
    weight_filler {
      type: "msra"
    }
  }
}
layer {
  name: "bn3b_branch2b"
  type: "BatchNorm"
  bottom: "res3b_branch2b"
  top: "res3b_branch2b"
  batch_norm_param {
    use_global_stats: false
  }
}
layer {
  name: "scale3b_branch2b"
  type: "Scale"
  bottom: "res3b_branch2b"
  top: "res3b_branch2b"
  scale_param {
    bias_term: true
  }
}
layer {
  name: "res3b_branch2b_relu"
  type: "ReLU"
  bottom: "res3b_branch2b"
  top: "res3b_branch2b"
}
layer {
  name: "res3b_branch2c"
  type: "Convolution"
  bottom: "res3b_branch2b"
  top: "res3b_branch2c"
  convolution_param {
    num_output: 512
    bias_term: false
    pad: 0
    kernel_size: 1
    stride: 1
    weight_filler {
      type: "msra"
    }
  }
}
layer {
  name: "bn3b_branch2c"
  type: "BatchNorm"
  bottom: "res3b_branch2c"
  top: "res3b_branch2c"
  batch_norm_param {
    use_global_stats: false
  }
}
layer {
  name: "scale3b_branch2c"
  type: "Scale"
  bottom: "res3b_branch2c"
  top: "res3b_branch2c"
  scale_param {
    bias_term: true
  }
}
layer {
  name: "res3b"
  type: "Eltwise"
  bottom: "res3a"
  bottom: "res3b_branch2c"
  top: "res3b"
  eltwise_param {
    operation: SUM
  }
}
layer {
  name: "res3b_relu"
  type: "ReLU"
  bottom: "res3b"
  top: "res3b"
}
layer {
  name: "res3c_branch2a"
  type: "Convolution"
  bottom: "res3b"
  top: "res3c_branch2a"
  convolution_param {
    num_output: 128
    bias_term: false
    pad: 0
    kernel_size: 1
    stride: 1
    weight_filler {
      type: "msra"
    }
  }
}
layer {
  name: "bn3c_branch2a"
  type: "BatchNorm"
  bottom: "res3c_branch2a"
  top: "res3c_branch2a"
  batch_norm_param {
    use_global_stats: false
  }
}
layer {
  name: "scale3c_branch2a"
  type: "Scale"
  bottom: "res3c_branch2a"
  top: "res3c_branch2a"
  scale_param {
    bias_term: true
  }
}
layer {
  name: "res3c_branch2a_relu"
  type: "ReLU"
  bottom: "res3c_branch2a"
  top: "res3c_branch2a"
}
layer {
  name: "res3c_branch2b"
  type: "Convolution"
  bottom: "res3c_branch2a"
  top: "res3c_branch2b"
  convolution_param {
    num_output: 128
    bias_term: false
    pad: 1
    kernel_size: 3
    stride: 1
    weight_filler {
      type: "msra"
    }
  }
}
layer {
  name: "bn3c_branch2b"
  type: "BatchNorm"
  bottom: "res3c_branch2b"
  top: "res3c_branch2b"
  batch_norm_param {
    use_global_stats: false
  }
}
layer {
  name: "scale3c_branch2b"
  type: "Scale"
  bottom: "res3c_branch2b"
  top: "res3c_branch2b"
  scale_param {
    bias_term: true
  }
}
layer {
  name: "res3c_branch2b_relu"
  type: "ReLU"
  bottom: "res3c_branch2b"
  top: "res3c_branch2b"
}
layer {
  name: "res3c_branch2c"
  type: "Convolution"
  bottom: "res3c_branch2b"
  top: "res3c_branch2c"
  convolution_param {
    num_output: 512
    bias_term: false
    pad: 0
    kernel_size: 1
    stride: 1
    weight_filler {
      type: "msra"
    }
  }
}
layer {
  name: "bn3c_branch2c"
  type: "BatchNorm"
  bottom: "res3c_branch2c"
  top: "res3c_branch2c"
  batch_norm_param {
    use_global_stats: false
  }
}
layer {
  name: "scale3c_branch2c"
  type: "Scale"
  bottom: "res3c_branch2c"
  top: "res3c_branch2c"
  scale_param {
    bias_term: true
  }
}
layer {
  name: "res3c"
  type: "Eltwise"
  bottom: "res3b"
  bottom: "res3c_branch2c"
  top: "res3c"
  eltwise_param {
    operation: SUM
  }
}
layer {
  name: "res3c_relu"
  type: "ReLU"
  bottom: "res3c"
  top: "res3c"
}
layer {
  name: "res3d_branch2a"
  type: "Convolution"
  bottom: "res3c"
  top: "res3d_branch2a"
  convolution_param {
    num_output: 128
    bias_term: false
    pad: 0
    kernel_size: 1
    stride: 1
    weight_filler {
      type: "msra"
    }
  }
}
layer {
  name: "bn3d_branch2a"
  type: "BatchNorm"
  bottom: "res3d_branch2a"
  top: "res3d_branch2a"
  batch_norm_param {
    use_global_stats: false
  }
}
layer {
  name: "scale3d_branch2a"
  type: "Scale"
  bottom: "res3d_branch2a"
  top: "res3d_branch2a"
  scale_param {
    bias_term: true
  }
}
layer {
  name: "res3d_branch2a_relu"
  type: "ReLU"
  bottom: "res3d_branch2a"
  top: "res3d_branch2a"
}
layer {
  name: "res3d_branch2b"
  type: "Convolution"
  bottom: "res3d_branch2a"
  top: "res3d_branch2b"
  convolution_param {
    num_output: 128
    bias_term: false
    pad: 1
    kernel_size: 3
    stride: 1
    weight_filler {
      type: "msra"
    }
  }
}
layer {
  name: "bn3d_branch2b"
  type: "BatchNorm"
  bottom: "res3d_branch2b"
  top: "res3d_branch2b"
  batch_norm_param {
    use_global_stats: false
  }
}
layer {
  name: "scale3d_branch2b"
  type: "Scale"
  bottom: "res3d_branch2b"
  top: "res3d_branch2b"
  scale_param {
    bias_term: true
  }
}
layer {
  name: "res3d_branch2b_relu"
  type: "ReLU"
  bottom: "res3d_branch2b"
  top: "res3d_branch2b"
}
layer {
  name: "res3d_branch2c"
  type: "Convolution"
  bottom: "res3d_branch2b"
  top: "res3d_branch2c"
  convolution_param {
    num_output: 512
    bias_term: false
    pad: 0
    kernel_size: 1
    stride: 1
    weight_filler {
      type: "msra"
    }
  }
}
layer {
  name: "bn3d_branch2c"
  type: "BatchNorm"
  bottom: "res3d_branch2c"
  top: "res3d_branch2c"
  batch_norm_param {
    use_global_stats: false
  }
}
layer {
  name: "scale3d_branch2c"
  type: "Scale"
  bottom: "res3d_branch2c"
  top: "res3d_branch2c"
  scale_param {
    bias_term: true
  }
}
layer {
  name: "res3d"
  type: "Eltwise"
  bottom: "res3c"
  bottom: "res3d_branch2c"
  top: "res3d"
  eltwise_param {
    operation: SUM
  }
}
layer {
  name: "res3d_relu"
  type: "ReLU"
  bottom: "res3d"
  top: "res3d"
}
layer {
  name: "res4a_branch1"
  type: "Convolution"
  bottom: "res3d"
  top: "res4a_branch1"
  convolution_param {
    num_output: 1024
    bias_term: false
    pad: 0
    kernel_size: 1
    stride: 2
    weight_filler {
      type: "msra"
    }
  }
}
layer {
  name: "bn4a_branch1"
  type: "BatchNorm"
  bottom: "res4a_branch1"
  top: "res4a_branch1"
  batch_norm_param {
    use_global_stats: false
  }
}
layer {
  name: "scale4a_branch1"
  type: "Scale"
  bottom: "res4a_branch1"
  top: "res4a_branch1"
  scale_param {
    bias_term: true
  }
}
layer {
  name: "res4a_branch2a"
  type: "Convolution"
  bottom: "res3d"
  top: "res4a_branch2a"
  convolution_param {
    num_output: 256
    bias_term: false
    pad: 0
    kernel_size: 1
    stride: 2
    weight_filler {
      type: "msra"
    }
  }
}
layer {
  name: "bn4a_branch2a"
  type: "BatchNorm"
  bottom: "res4a_branch2a"
  top: "res4a_branch2a"
  batch_norm_param {
    use_global_stats: false
  }
}
layer {
  name: "scale4a_branch2a"
  type: "Scale"
  bottom: "res4a_branch2a"
  top: "res4a_branch2a"
  scale_param {
    bias_term: true
  }
}
layer {
  name: "res4a_branch2a_relu"
  type: "ReLU"
  bottom: "res4a_branch2a"
  top: "res4a_branch2a"
}
layer {
  name: "res4a_branch2b"
  type: "Convolution"
  bottom: "res4a_branch2a"
  top: "res4a_branch2b"
  convolution_param {
    num_output: 256
    bias_term: false
    pad: 1
    kernel_size: 3
    stride: 1
    weight_filler {
      type: "msra"
    }
  }
}
layer {
  name: "bn4a_branch2b"
  type: "BatchNorm"
  bottom: "res4a_branch2b"
  top: "res4a_branch2b"
  batch_norm_param {
    use_global_stats: false
  }
}
layer {
  name: "scale4a_branch2b"
  type: "Scale"
  bottom: "res4a_branch2b"
  top: "res4a_branch2b"
  scale_param {
    bias_term: true
  }
}
layer {
  name: "res4a_branch2b_relu"
  type: "ReLU"
  bottom: "res4a_branch2b"
  top: "res4a_branch2b"
}
layer {
  name: "res4a_branch2c"
  type: "Convolution"
  bottom: "res4a_branch2b"
  top: "res4a_branch2c"
  convolution_param {
    num_output: 1024
    bias_term: false
    pad: 0
    kernel_size: 1
    stride: 1
    weight_filler {
      type: "msra"
    }
  }
}
layer {
  name: "bn4a_branch2c"
  type: "BatchNorm"
  bottom: "res4a_branch2c"
  top: "res4a_branch2c"
  batch_norm_param {
    use_global_stats: false
  }
}
layer {
  name: "scale4a_branch2c"
  type: "Scale"
  bottom: "res4a_branch2c"
  top: "res4a_branch2c"
  scale_param {
    bias_term: true
  }
}
layer {
  name: "res4a"
  type: "Eltwise"
  bottom: "res4a_branch1"
  bottom: "res4a_branch2c"
  top: "res4a"
  eltwise_param {
    operation: SUM
  }
}
layer {
  name: "res4a_relu"
  type: "ReLU"
  bottom: "res4a"
  top: "res4a"
}
layer {
  name: "res4b_branch2a"
  type: "Convolution"
  bottom: "res4a"
  top: "res4b_branch2a"
  convolution_param {
    num_output: 256
    bias_term: false
    pad: 0
    kernel_size: 1
    stride: 1
    weight_filler {
      type: "msra"
    }
  }
}
layer {
  name: "bn4b_branch2a"
  type: "BatchNorm"
  bottom: "res4b_branch2a"
  top: "res4b_branch2a"
  batch_norm_param {
    use_global_stats: false
  }
}
layer {
  name: "scale4b_branch2a"
  type: "Scale"
  bottom: "res4b_branch2a"
  top: "res4b_branch2a"
  scale_param {
    bias_term: true
  }
}
layer {
  name: "res4b_branch2a_relu"
  type: "ReLU"
  bottom: "res4b_branch2a"
  top: "res4b_branch2a"
}
layer {
  name: "res4b_branch2b"
  type: "Convolution"
  bottom: "res4b_branch2a"
  top: "res4b_branch2b"
  convolution_param {
    num_output: 256
    bias_term: false
    pad: 1
    kernel_size: 3
    stride: 1
    weight_filler {
      type: "msra"
    }
  }
}
layer {
  name: "bn4b_branch2b"
  type: "BatchNorm"
  bottom: "res4b_branch2b"
  top: "res4b_branch2b"
  batch_norm_param {
    use_global_stats: false
  }
}
layer {
  name: "scale4b_branch2b"
  type: "Scale"
  bottom: "res4b_branch2b"
  top: "res4b_branch2b"
  scale_param {
    bias_term: true
  }
}
layer {
  name: "res4b_branch2b_relu"
  type: "ReLU"
  bottom: "res4b_branch2b"
  top: "res4b_branch2b"
}
layer {
  name: "res4b_branch2c"
  type: "Convolution"
  bottom: "res4b_branch2b"
  top: "res4b_branch2c"
  convolution_param {
    num_output: 1024
    bias_term: false
    pad: 0
    kernel_size: 1
    stride: 1
    weight_filler {
      type: "msra"
    }
  }
}
layer {
  name: "bn4b_branch2c"
  type: "BatchNorm"
  bottom: "res4b_branch2c"
  top: "res4b_branch2c"
  batch_norm_param {
    use_global_stats: false
  }
}
layer {
  name: "scale4b_branch2c"
  type: "Scale"
  bottom: "res4b_branch2c"
  top: "res4b_branch2c"
  scale_param {
    bias_term: true
  }
}
layer {
  name: "res4b"
  type: "Eltwise"
  bottom: "res4a"
  bottom: "res4b_branch2c"
  top: "res4b"
  eltwise_param {
    operation: SUM
  }
}
layer {
  name: "res4b_relu"
  type: "ReLU"
  bottom: "res4b"
  top: "res4b"
}
layer {
  name: "res4c_branch2a"
  type: "Convolution"
  bottom: "res4b"
  top: "res4c_branch2a"
  convolution_param {
    num_output: 256
    bias_term: false
    pad: 0
    kernel_size: 1
    stride: 1
    weight_filler {
      type: "msra"
    }
  }
}
layer {
  name: "bn4c_branch2a"
  type: "BatchNorm"
  bottom: "res4c_branch2a"
  top: "res4c_branch2a"
  batch_norm_param {
    use_global_stats: false
  }
}
layer {
  name: "scale4c_branch2a"
  type: "Scale"
  bottom: "res4c_branch2a"
  top: "res4c_branch2a"
  scale_param {
    bias_term: true
  }
}
layer {
  name: "res4c_branch2a_relu"
  type: "ReLU"
  bottom: "res4c_branch2a"
  top: "res4c_branch2a"
}
layer {
  name: "res4c_branch2b"
  type: "Convolution"
  bottom: "res4c_branch2a"
  top: "res4c_branch2b"
  convolution_param {
    num_output: 256
    bias_term: false
    pad: 1
    kernel_size: 3
    stride: 1
    weight_filler {
      type: "msra"
    }
  }
}
layer {
  name: "bn4c_branch2b"
  type: "BatchNorm"
  bottom: "res4c_branch2b"
  top: "res4c_branch2b"
  batch_norm_param {
    use_global_stats: false
  }
}
layer {
  name: "scale4c_branch2b"
  type: "Scale"
  bottom: "res4c_branch2b"
  top: "res4c_branch2b"
  scale_param {
    bias_term: true
  }
}
layer {
  name: "res4c_branch2b_relu"
  type: "ReLU"
  bottom: "res4c_branch2b"
  top: "res4c_branch2b"
}
layer {
  name: "res4c_branch2c"
  type: "Convolution"
  bottom: "res4c_branch2b"
  top: "res4c_branch2c"
  convolution_param {
    num_output: 1024
    bias_term: false
    pad: 0
    kernel_size: 1
    stride: 1
    weight_filler {
      type: "msra"
    }
  }
}
layer {
  name: "bn4c_branch2c"
  type: "BatchNorm"
  bottom: "res4c_branch2c"
  top: "res4c_branch2c"
  batch_norm_param {
    use_global_stats: false
  }
}
layer {
  name: "scale4c_branch2c"
  type: "Scale"
  bottom: "res4c_branch2c"
  top: "res4c_branch2c"
  scale_param {
    bias_term: true
  }
}
layer {
  name: "res4c"
  type: "Eltwise"
  bottom: "res4b"
  bottom: "res4c_branch2c"
  top: "res4c"
  eltwise_param {
    operation: SUM
  }
}
layer {
  name: "res4c_relu"
  type: "ReLU"
  bottom: "res4c"
  top: "res4c"
}
layer {
  name: "res4d_branch2a"
  type: "Convolution"
  bottom: "res4c"
  top: "res4d_branch2a"
  convolution_param {
    num_output: 256
    bias_term: false
    pad: 0
    kernel_size: 1
    stride: 1
    weight_filler {
      type: "msra"
    }
  }
}
layer {
  name: "bn4d_branch2a"
  type: "BatchNorm"
  bottom: "res4d_branch2a"
  top: "res4d_branch2a"
  batch_norm_param {
    use_global_stats: false
  }
}
layer {
  name: "scale4d_branch2a"
  type: "Scale"
  bottom: "res4d_branch2a"
  top: "res4d_branch2a"
  scale_param {
    bias_term: true
  }
}
layer {
  name: "res4d_branch2a_relu"
  type: "ReLU"
  bottom: "res4d_branch2a"
  top: "res4d_branch2a"
}
layer {
  name: "res4d_branch2b"
  type: "Convolution"
  bottom: "res4d_branch2a"
  top: "res4d_branch2b"
  convolution_param {
    num_output: 256
    bias_term: false
    pad: 1
    kernel_size: 3
    stride: 1
    weight_filler {
      type: "msra"
    }
  }
}
layer {
  name: "bn4d_branch2b"
  type: "BatchNorm"
  bottom: "res4d_branch2b"
  top: "res4d_branch2b"
  batch_norm_param {
    use_global_stats: false
  }
}
layer {
  name: "scale4d_branch2b"
  type: "Scale"
  bottom: "res4d_branch2b"
  top: "res4d_branch2b"
  scale_param {
    bias_term: true
  }
}
layer {
  name: "res4d_branch2b_relu"
  type: "ReLU"
  bottom: "res4d_branch2b"
  top: "res4d_branch2b"
}
layer {
  name: "res4d_branch2c"
  type: "Convolution"
  bottom: "res4d_branch2b"
  top: "res4d_branch2c"
  convolution_param {
    num_output: 1024
    bias_term: false
    pad: 0
    kernel_size: 1
    stride: 1
    weight_filler {
      type: "msra"
    }
  }
}
layer {
  name: "bn4d_branch2c"
  type: "BatchNorm"
  bottom: "res4d_branch2c"
  top: "res4d_branch2c"
  batch_norm_param {
    use_global_stats: false
  }
}
layer {
  name: "scale4d_branch2c"
  type: "Scale"
  bottom: "res4d_branch2c"
  top: "res4d_branch2c"
  scale_param {
    bias_term: true
  }
}
layer {
  name: "res4d"
  type: "Eltwise"
  bottom: "res4c"
  bottom: "res4d_branch2c"
  top: "res4d"
  eltwise_param {
    operation: SUM
  }
}
layer {
  name: "res4d_relu"
  type: "ReLU"
  bottom: "res4d"
  top: "res4d"
}
layer {
  name: "res4e_branch2a"
  type: "Convolution"
  bottom: "res4d"
  top: "res4e_branch2a"
  convolution_param {
    num_output: 256
    bias_term: false
    pad: 0
    kernel_size: 1
    stride: 1
    weight_filler {
      type: "msra"
    }
  }
}
layer {
  name: "bn4e_branch2a"
  type: "BatchNorm"
  bottom: "res4e_branch2a"
  top: "res4e_branch2a"
  batch_norm_param {
    use_global_stats: false
  }
}
layer {
  name: "scale4e_branch2a"
  type: "Scale"
  bottom: "res4e_branch2a"
  top: "res4e_branch2a"
  scale_param {
    bias_term: true
  }
}
layer {
  name: "res4e_branch2a_relu"
  type: "ReLU"
  bottom: "res4e_branch2a"
  top: "res4e_branch2a"
}
layer {
  name: "res4e_branch2b"
  type: "Convolution"
  bottom: "res4e_branch2a"
  top: "res4e_branch2b"
  convolution_param {
    num_output: 256
    bias_term: false
    pad: 1
    kernel_size: 3
    stride: 1
    weight_filler {
      type: "msra"
    }
  }
}
layer {
  name: "bn4e_branch2b"
  type: "BatchNorm"
  bottom: "res4e_branch2b"
  top: "res4e_branch2b"
  batch_norm_param {
    use_global_stats: false
  }
}
layer {
  name: "scale4e_branch2b"
  type: "Scale"
  bottom: "res4e_branch2b"
  top: "res4e_branch2b"
  scale_param {
    bias_term: true
  }
}
layer {
  name: "res4e_branch2b_relu"
  type: "ReLU"
  bottom: "res4e_branch2b"
  top: "res4e_branch2b"
}
layer {
  name: "res4e_branch2c"
  type: "Convolution"
  bottom: "res4e_branch2b"
  top: "res4e_branch2c"
  convolution_param {
    num_output: 1024
    bias_term: false
    pad: 0
    kernel_size: 1
    stride: 1
    weight_filler {
      type: "msra"
    }
  }
}
layer {
  name: "bn4e_branch2c"
  type: "BatchNorm"
  bottom: "res4e_branch2c"
  top: "res4e_branch2c"
  batch_norm_param {
    use_global_stats: false
  }
}
layer {
  name: "scale4e_branch2c"
  type: "Scale"
  bottom: "res4e_branch2c"
  top: "res4e_branch2c"
  scale_param {
    bias_term: true
  }
}
layer {
  name: "res4e"
  type: "Eltwise"
  bottom: "res4d"
  bottom: "res4e_branch2c"
  top: "res4e"
  eltwise_param {
    operation: SUM
  }
}
layer {
  name: "res4e_relu"
  type: "ReLU"
  bottom: "res4e"
  top: "res4e"
}
layer {
  name: "res4f_branch2a"
  type: "Convolution"
  bottom: "res4e"
  top: "res4f_branch2a"
  convolution_param {
    num_output: 256
    bias_term: false
    pad: 0
    kernel_size: 1
    stride: 1
    weight_filler {
      type: "msra"
    }
  }
}
layer {
  name: "bn4f_branch2a"
  type: "BatchNorm"
  bottom: "res4f_branch2a"
  top: "res4f_branch2a"
  batch_norm_param {
    use_global_stats: false
  }
}
layer {
  name: "scale4f_branch2a"
  type: "Scale"
  bottom: "res4f_branch2a"
  top: "res4f_branch2a"
  scale_param {
    bias_term: true
  }
}
layer {
  name: "res4f_branch2a_relu"
  type: "ReLU"
  bottom: "res4f_branch2a"
  top: "res4f_branch2a"
}
layer {
  name: "res4f_branch2b"
  type: "Convolution"
  bottom: "res4f_branch2a"
  top: "res4f_branch2b"
  convolution_param {
    num_output: 256
    bias_term: false
    pad: 1
    kernel_size: 3
    stride: 1
    weight_filler {
      type: "msra"
    }
  }
}
layer {
  name: "bn4f_branch2b"
  type: "BatchNorm"
  bottom: "res4f_branch2b"
  top: "res4f_branch2b"
  batch_norm_param {
    use_global_stats: false
  }
}
layer {
  name: "scale4f_branch2b"
  type: "Scale"
  bottom: "res4f_branch2b"
  top: "res4f_branch2b"
  scale_param {
    bias_term: true
  }
}
layer {
  name: "res4f_branch2b_relu"
  type: "ReLU"
  bottom: "res4f_branch2b"
  top: "res4f_branch2b"
}
layer {
  name: "res4f_branch2c"
  type: "Convolution"
  bottom: "res4f_branch2b"
  top: "res4f_branch2c"
  convolution_param {
    num_output: 1024
    bias_ter
I0701 23:43:23.271626  7938 layer_factory.hpp:77] Creating layer data
I0701 23:43:23.273603  7938 net.cpp:106] Creating Layer data
I0701 23:43:23.273638  7938 net.cpp:411] data -> data
I0701 23:43:23.275511  7938 net.cpp:411] data -> label
I0701 23:43:23.276505  7938 image_data_layer.cpp:49] 0 MPI_Barrier 0
I0701 23:43:23.276523  7938 image_data_layer.cpp:51] 0: Opening file /HOME/sysu_sc_ll/WORKSPACE/wenyp/0314/cifar-10/train/label.txt
I0701 23:43:23.311277  7938 image_data_layer.cpp:58] List loaded
I0701 23:43:23.311298  7938 image_data_layer.cpp:61] Shuffling data
I0701 23:43:23.316821  7938 image_data_layer.cpp:69] 0: A total of 50000 images.
I0701 23:43:23.379161  7938 image_data_layer.cpp:96] output data size: 32,3,32,32
I0701 23:43:23.380046  7938 net.cpp:150] Setting up data
I0701 23:43:23.380067  7938 net.cpp:157] Top shape: 32 3 32 32 (98304)
I0701 23:43:23.380123  7938 net.cpp:157] Top shape: 32 (32)
I0701 23:43:23.380134  7938 net.cpp:165] Memory required for data: 393344
I0701 23:43:23.380146  7938 layer_factory.hpp:77] Creating layer conv1
I0701 23:43:23.380198  7938 net.cpp:106] Creating Layer conv1
I0701 23:43:23.380215  7938 net.cpp:454] conv1 <- data
I0701 23:43:23.380241  7938 net.cpp:411] conv1 -> conv1
I0701 23:43:23.382807  7938 net.cpp:150] Setting up conv1
I0701 23:43:23.382830  7938 net.cpp:157] Top shape: 32 64 16 16 (524288)
I0701 23:43:23.382843  7938 net.cpp:165] Memory required for data: 2490496
I0701 23:43:23.382932  7938 layer_factory.hpp:77] Creating layer bn_conv1
I0701 23:43:23.382987  7938 net.cpp:106] Creating Layer bn_conv1
I0701 23:43:23.383019  7938 net.cpp:454] bn_conv1 <- conv1
I0701 23:43:23.383036  7938 net.cpp:397] bn_conv1 -> conv1 (in-place)
I0701 23:43:23.383183  7938 net.cpp:150] Setting up bn_conv1
I0701 23:43:23.383196  7938 net.cpp:157] Top shape: 32 64 16 16 (524288)
I0701 23:43:23.383206  7938 net.cpp:165] Memory required for data: 4587648
I0701 23:43:23.383273  7938 layer_factory.hpp:77] Creating layer scale_conv1
I0701 23:43:23.383332  7938 net.cpp:106] Creating Layer scale_conv1
I0701 23:43:23.383345  7938 net.cpp:454] scale_conv1 <- conv1
I0701 23:43:23.383355  7938 net.cpp:397] scale_conv1 -> conv1 (in-place)
I0701 23:43:23.383443  7938 layer_factory.hpp:77] Creating layer scale_conv1
I0701 23:43:23.388826  7938 net.cpp:150] Setting up scale_conv1
I0701 23:43:23.388850  7938 net.cpp:157] Top shape: 32 64 16 16 (524288)
I0701 23:43:23.388862  7938 net.cpp:165] Memory required for data: 6684800
I0701 23:43:23.388876  7938 layer_factory.hpp:77] Creating layer conv1_relu
I0701 23:43:23.388941  7938 net.cpp:106] Creating Layer conv1_relu
I0701 23:43:23.388957  7938 net.cpp:454] conv1_relu <- conv1
I0701 23:43:23.388967  7938 net.cpp:397] conv1_relu -> conv1 (in-place)
I0701 23:43:23.388980  7938 net.cpp:150] Setting up conv1_relu
I0701 23:43:23.388988  7938 net.cpp:157] Top shape: 32 64 16 16 (524288)
I0701 23:43:23.388998  7938 net.cpp:165] Memory required for data: 8781952
I0701 23:43:23.389014  7938 layer_factory.hpp:77] Creating layer pool1
I0701 23:43:23.389025  7938 net.cpp:106] Creating Layer pool1
I0701 23:43:23.389032  7938 net.cpp:454] pool1 <- conv1
I0701 23:43:23.389045  7938 net.cpp:411] pool1 -> pool1
I0701 23:43:23.389184  7938 net.cpp:150] Setting up pool1
I0701 23:43:23.389199  7938 net.cpp:157] Top shape: 32 64 8 8 (131072)
I0701 23:43:23.389209  7938 net.cpp:165] Memory required for data: 9306240
I0701 23:43:23.389216  7938 layer_factory.hpp:77] Creating layer pool1_pool1_0_split
I0701 23:43:23.389259  7938 net.cpp:106] Creating Layer pool1_pool1_0_split
I0701 23:43:23.389273  7938 net.cpp:454] pool1_pool1_0_split <- pool1
I0701 23:43:23.389289  7938 net.cpp:411] pool1_pool1_0_split -> pool1_pool1_0_split_0
I0701 23:43:23.389308  7938 net.cpp:411] pool1_pool1_0_split -> pool1_pool1_0_split_1
I0701 23:43:23.389324  7938 net.cpp:150] Setting up pool1_pool1_0_split
I0701 23:43:23.389343  7938 net.cpp:157] Top shape: 32 64 8 8 (131072)
I0701 23:43:23.389353  7938 net.cpp:157] Top shape: 32 64 8 8 (131072)
I0701 23:43:23.389361  7938 net.cpp:165] Memory required for data: 10354816
I0701 23:43:23.389369  7938 layer_factory.hpp:77] Creating layer res2a_branch1
I0701 23:43:23.389389  7938 net.cpp:106] Creating Layer res2a_branch1
I0701 23:43:23.389397  7938 net.cpp:454] res2a_branch1 <- pool1_pool1_0_split_0
I0701 23:43:23.389407  7938 net.cpp:411] res2a_branch1 -> res2a_branch1
I0701 23:43:23.389803  7938 net.cpp:150] Setting up res2a_branch1
I0701 23:43:23.389817  7938 net.cpp:157] Top shape: 32 256 8 8 (524288)
I0701 23:43:23.389827  7938 net.cpp:165] Memory required for data: 12451968
I0701 23:43:23.389837  7938 layer_factory.hpp:77] Creating layer bn2a_branch1
I0701 23:43:23.389853  7938 net.cpp:106] Creating Layer bn2a_branch1
I0701 23:43:23.389861  7938 net.cpp:454] bn2a_branch1 <- res2a_branch1
I0701 23:43:23.389873  7938 net.cpp:397] bn2a_branch1 -> res2a_branch1 (in-place)
I0701 23:43:23.389899  7938 net.cpp:150] Setting up bn2a_branch1
I0701 23:43:23.389909  7938 net.cpp:157] Top shape: 32 256 8 8 (524288)
I0701 23:43:23.389917  7938 net.cpp:165] Memory required for data: 14549120
I0701 23:43:23.389935  7938 layer_factory.hpp:77] Creating layer scale2a_branch1
I0701 23:43:23.389948  7938 net.cpp:106] Creating Layer scale2a_branch1
I0701 23:43:23.389955  7938 net.cpp:454] scale2a_branch1 <- res2a_branch1
I0701 23:43:23.389968  7938 net.cpp:397] scale2a_branch1 -> res2a_branch1 (in-place)
I0701 23:43:23.389986  7938 layer_factory.hpp:77] Creating layer scale2a_branch1
I0701 23:43:23.390022  7938 net.cpp:150] Setting up scale2a_branch1
I0701 23:43:23.390033  7938 net.cpp:157] Top shape: 32 256 8 8 (524288)
I0701 23:43:23.390044  7938 net.cpp:165] Memory required for data: 16646272
I0701 23:43:23.390056  7938 layer_factory.hpp:77] Creating layer res2a_branch2a
I0701 23:43:23.390079  7938 net.cpp:106] Creating Layer res2a_branch2a
I0701 23:43:23.390086  7938 net.cpp:454] res2a_branch2a <- pool1_pool1_0_split_1
I0701 23:43:23.390107  7938 net.cpp:411] res2a_branch2a -> res2a_branch2a
I0701 23:43:23.390240  7938 net.cpp:150] Setting up res2a_branch2a
I0701 23:43:23.390252  7938 net.cpp:157] Top shape: 32 64 8 8 (131072)
I0701 23:43:23.390311  7938 net.cpp:165] Memory required for data: 17170560
I0701 23:43:23.390324  7938 layer_factory.hpp:77] Creating layer bn2a_branch2a
I0701 23:43:23.390339  7938 net.cpp:106] Creating Layer bn2a_branch2a
I0701 23:43:23.390347  7938 net.cpp:454] bn2a_branch2a <- res2a_branch2a
I0701 23:43:23.390357  7938 net.cpp:397] bn2a_branch2a -> res2a_branch2a (in-place)
I0701 23:43:23.390380  7938 net.cpp:150] Setting up bn2a_branch2a
I0701 23:43:23.390388  7938 net.cpp:157] Top shape: 32 64 8 8 (131072)
I0701 23:43:23.390396  7938 net.cpp:165] Memory required for data: 17694848
I0701 23:43:23.390416  7938 layer_factory.hpp:77] Creating layer scale2a_branch2a
I0701 23:43:23.390429  7938 net.cpp:106] Creating Layer scale2a_branch2a
I0701 23:43:23.390436  7938 net.cpp:454] scale2a_branch2a <- res2a_branch2a
I0701 23:43:23.390447  7938 net.cpp:397] scale2a_branch2a -> res2a_branch2a (in-place)
I0701 23:43:23.390465  7938 layer_factory.hpp:77] Creating layer scale2a_branch2a
I0701 23:43:23.390493  7938 net.cpp:150] Setting up scale2a_branch2a
I0701 23:43:23.390501  7938 net.cpp:157] Top shape: 32 64 8 8 (131072)
I0701 23:43:23.390509  7938 net.cpp:165] Memory required for data: 18219136
I0701 23:43:23.390521  7938 layer_factory.hpp:77] Creating layer res2a_branch2a_relu
I0701 23:43:23.390530  7938 net.cpp:106] Creating Layer res2a_branch2a_relu
I0701 23:43:23.390537  7938 net.cpp:454] res2a_branch2a_relu <- res2a_branch2a
I0701 23:43:23.390544  7938 net.cpp:397] res2a_branch2a_relu -> res2a_branch2a (in-place)
I0701 23:43:23.390554  7938 net.cpp:150] Setting up res2a_branch2a_relu
I0701 23:43:23.390561  7938 net.cpp:157] Top shape: 32 64 8 8 (131072)
I0701 23:43:23.390569  7938 net.cpp:165] Memory required for data: 18743424
I0701 23:43:23.390575  7938 layer_factory.hpp:77] Creating layer res2a_branch2b
I0701 23:43:23.390599  7938 net.cpp:106] Creating Layer res2a_branch2b
I0701 23:43:23.390605  7938 net.cpp:454] res2a_branch2b <- res2a_branch2a
I0701 23:43:23.390615  7938 net.cpp:411] res2a_branch2b -> res2a_branch2b
I0701 23:43:23.391430  7938 net.cpp:150] Setting up res2a_branch2b
I0701 23:43:23.391445  7938 net.cpp:157] Top shape: 32 64 8 8 (131072)
I0701 23:43:23.391454  7938 net.cpp:165] Memory required for data: 19267712
I0701 23:43:23.391465  7938 layer_factory.hpp:77] Creating layer bn2a_branch2b
I0701 23:43:23.391476  7938 net.cpp:106] Creating Layer bn2a_branch2b
I0701 23:43:23.391487  7938 net.cpp:454] bn2a_branch2b <- res2a_branch2b
I0701 23:43:23.391497  7938 net.cpp:397] bn2a_branch2b -> res2a_branch2b (in-place)
I0701 23:43:23.391520  7938 net.cpp:150] Setting up bn2a_branch2b
I0701 23:43:23.391527  7938 net.cpp:157] Top shape: 32 64 8 8 (131072)
I0701 23:43:23.391536  7938 net.cpp:165] Memory required for data: 19792000
I0701 23:43:23.391549  7938 layer_factory.hpp:77] Creating layer scale2a_branch2b
I0701 23:43:23.391566  7938 net.cpp:106] Creating Layer scale2a_branch2b
I0701 23:43:23.391574  7938 net.cpp:454] scale2a_branch2b <- res2a_branch2b
I0701 23:43:23.391584  7938 net.cpp:397] scale2a_branch2b -> res2a_branch2b (in-place)
I0701 23:43:23.391600  7938 layer_factory.hpp:77] Creating layer scale2a_branch2b
I0701 23:43:23.391628  7938 net.cpp:150] Setting up scale2a_branch2b
I0701 23:43:23.391638  7938 net.cpp:157] Top shape: 32 64 8 8 (131072)
I0701 23:43:23.391646  7938 net.cpp:165] Memory required for data: 20316288
I0701 23:43:23.391659  7938 layer_factory.hpp:77] Creating layer res2a_branch2b_relu
I0701 23:43:23.391669  7938 net.cpp:106] Creating Layer res2a_branch2b_relu
I0701 23:43:23.391676  7938 net.cpp:454] res2a_branch2b_relu <- res2a_branch2b
I0701 23:43:23.391685  7938 net.cpp:397] res2a_branch2b_relu -> res2a_branch2b (in-place)
I0701 23:43:23.391695  7938 net.cpp:150] Setting up res2a_branch2b_relu
I0701 23:43:23.391701  7938 net.cpp:157] Top shape: 32 64 8 8 (131072)
I0701 23:43:23.391717  7938 net.cpp:165] Memory required for data: 20840576
I0701 23:43:23.391724  7938 layer_factory.hpp:77] Creating layer res2a_branch2c
I0701 23:43:23.391746  7938 net.cpp:106] Creating Layer res2a_branch2c
I0701 23:43:23.391752  7938 net.cpp:454] res2a_branch2c <- res2a_branch2b
I0701 23:43:23.391762  7938 net.cpp:411] res2a_branch2c -> res2a_branch2c
I0701 23:43:23.392155  7938 net.cpp:150] Setting up res2a_branch2c
I0701 23:43:23.392168  7938 net.cpp:157] Top shape: 32 256 8 8 (524288)
I0701 23:43:23.392179  7938 net.cpp:165] Memory required for data: 22937728
I0701 23:43:23.392189  7938 layer_factory.hpp:77] Creating layer bn2a_branch2c
I0701 23:43:23.392202  7938 net.cpp:106] Creating Layer bn2a_branch2c
I0701 23:43:23.392210  7938 net.cpp:454] bn2a_branch2c <- res2a_branch2c
I0701 23:43:23.392220  7938 net.cpp:397] bn2a_branch2c -> res2a_branch2c (in-place)
I0701 23:43:23.392246  7938 net.cpp:150] Setting up bn2a_branch2c
I0701 23:43:23.392253  7938 net.cpp:157] Top shape: 32 256 8 8 (524288)
I0701 23:43:23.392261  7938 net.cpp:165] Memory required for data: 25034880
I0701 23:43:23.392276  7938 layer_factory.hpp:77] Creating layer scale2a_branch2c
I0701 23:43:23.392288  7938 net.cpp:106] Creating Layer scale2a_branch2c
I0701 23:43:23.392295  7938 net.cpp:454] scale2a_branch2c <- res2a_branch2c
I0701 23:43:23.392303  7938 net.cpp:397] scale2a_branch2c -> res2a_branch2c (in-place)
I0701 23:43:23.392323  7938 layer_factory.hpp:77] Creating layer scale2a_branch2c
I0701 23:43:23.392351  7938 net.cpp:150] Setting up scale2a_branch2c
I0701 23:43:23.392360  7938 net.cpp:157] Top shape: 32 256 8 8 (524288)
I0701 23:43:23.392369  7938 net.cpp:165] Memory required for data: 27132032
I0701 23:43:23.392381  7938 layer_factory.hpp:77] Creating layer res2a
I0701 23:43:23.392437  7938 net.cpp:106] Creating Layer res2a
I0701 23:43:23.392452  7938 net.cpp:454] res2a <- res2a_branch1
I0701 23:43:23.392460  7938 net.cpp:454] res2a <- res2a_branch2c
I0701 23:43:23.392473  7938 net.cpp:411] res2a -> res2a
I0701 23:43:23.393944  7938 net.cpp:150] Setting up res2a
I0701 23:43:23.393967  7938 net.cpp:157] Top shape: 32 256 8 8 (524288)
I0701 23:43:23.393980  7938 net.cpp:165] Memory required for data: 29229184
I0701 23:43:23.393987  7938 layer_factory.hpp:77] Creating layer res2a_relu
I0701 23:43:23.393999  7938 net.cpp:106] Creating Layer res2a_relu
I0701 23:43:23.394024  7938 net.cpp:454] res2a_relu <- res2a
I0701 23:43:23.394040  7938 net.cpp:397] res2a_relu -> res2a (in-place)
I0701 23:43:23.394054  7938 net.cpp:150] Setting up res2a_relu
I0701 23:43:23.394062  7938 net.cpp:157] Top shape: 32 256 8 8 (524288)
I0701 23:43:23.394070  7938 net.cpp:165] Memory required for data: 31326336
I0701 23:43:23.394078  7938 layer_factory.hpp:77] Creating layer res2a_res2a_relu_0_split
I0701 23:43:23.394086  7938 net.cpp:106] Creating Layer res2a_res2a_relu_0_split
I0701 23:43:23.394093  7938 net.cpp:454] res2a_res2a_relu_0_split <- res2a
I0701 23:43:23.394102  7938 net.cpp:411] res2a_res2a_relu_0_split -> res2a_res2a_relu_0_split_0
I0701 23:43:23.394114  7938 net.cpp:411] res2a_res2a_relu_0_split -> res2a_res2a_relu_0_split_1
I0701 23:43:23.394126  7938 net.cpp:150] Setting up res2a_res2a_relu_0_split
I0701 23:43:23.394132  7938 net.cpp:157] Top shape: 32 256 8 8 (524288)
I0701 23:43:23.394146  7938 net.cpp:157] Top shape: 32 256 8 8 (524288)
I0701 23:43:23.394155  7938 net.cpp:165] Memory required for data: 35520640
I0701 23:43:23.394161  7938 layer_factory.hpp:77] Creating layer res2b_branch2a
I0701 23:43:23.394181  7938 net.cpp:106] Creating Layer res2b_branch2a
I0701 23:43:23.394191  7938 net.cpp:454] res2b_branch2a <- res2a_res2a_relu_0_split_0
I0701 23:43:23.394204  7938 net.cpp:411] res2b_branch2a -> res2b_branch2a
I0701 23:43:23.394590  7938 net.cpp:150] Setting up res2b_branch2a
I0701 23:43:23.394603  7938 net.cpp:157] Top shape: 32 64 8 8 (131072)
I0701 23:43:23.394613  7938 net.cpp:165] Memory required for data: 36044928
I0701 23:43:23.394624  7938 layer_factory.hpp:77] Creating layer bn2b_branch2a
I0701 23:43:23.394639  7938 net.cpp:106] Creating Layer bn2b_branch2a
I0701 23:43:23.394655  7938 net.cpp:454] bn2b_branch2a <- res2b_branch2a
I0701 23:43:23.394665  7938 net.cpp:397] bn2b_branch2a -> res2b_branch2a (in-place)
I0701 23:43:23.394691  7938 net.cpp:150] Setting up bn2b_branch2a
I0701 23:43:23.394701  7938 net.cpp:157] Top shape: 32 64 8 8 (131072)
I0701 23:43:23.394709  7938 net.cpp:165] Memory required for data: 36569216
I0701 23:43:23.394731  7938 layer_factory.hpp:77] Creating layer scale2b_branch2a
I0701 23:43:23.394749  7938 net.cpp:106] Creating Layer scale2b_branch2a
I0701 23:43:23.394758  7938 net.cpp:454] scale2b_branch2a <- res2b_branch2a
I0701 23:43:23.394768  7938 net.cpp:397] scale2b_branch2a -> res2b_branch2a (in-place)
I0701 23:43:23.394785  7938 layer_factory.hpp:77] Creating layer scale2b_branch2a
I0701 23:43:23.394814  7938 net.cpp:150] Setting up scale2b_branch2a
I0701 23:43:23.394821  7938 net.cpp:157] Top shape: 32 64 8 8 (131072)
I0701 23:43:23.394830  7938 net.cpp:165] Memory required for data: 37093504
I0701 23:43:23.394842  7938 layer_factory.hpp:77] Creating layer res2b_branch2a_relu
I0701 23:43:23.394853  7938 net.cpp:106] Creating Layer res2b_branch2a_relu
I0701 23:43:23.394860  7938 net.cpp:454] res2b_branch2a_relu <- res2b_branch2a
I0701 23:43:23.394868  7938 net.cpp:397] res2b_branch2a_relu -> res2b_branch2a (in-place)
I0701 23:43:23.394879  7938 net.cpp:150] Setting up res2b_branch2a_relu
I0701 23:43:23.394886  7938 net.cpp:157] Top shape: 32 64 8 8 (131072)
I0701 23:43:23.394894  7938 net.cpp:165] Memory required for data: 37617792
I0701 23:43:23.394901  7938 layer_factory.hpp:77] Creating layer res2b_branch2b
I0701 23:43:23.394923  7938 net.cpp:106] Creating Layer res2b_branch2b
I0701 23:43:23.394932  7938 net.cpp:454] res2b_branch2b <- res2b_branch2a
I0701 23:43:23.394944  7938 net.cpp:411] res2b_branch2b -> res2b_branch2b
I0701 23:43:23.395741  7938 net.cpp:150] Setting up res2b_branch2b
I0701 23:43:23.395756  7938 net.cpp:157] Top shape: 32 64 8 8 (131072)
I0701 23:43:23.395766  7938 net.cpp:165] Memory required for data: 38142080
I0701 23:43:23.395776  7938 layer_factory.hpp:77] Creating layer bn2b_branch2b
I0701 23:43:23.395792  7938 net.cpp:106] Creating Layer bn2b_branch2b
I0701 23:43:23.395799  7938 net.cpp:454] bn2b_branch2b <- res2b_branch2b
I0701 23:43:23.395809  7938 net.cpp:397] bn2b_branch2b -> res2b_branch2b (in-place)
I0701 23:43:23.395833  7938 net.cpp:150] Setting up bn2b_branch2b
I0701 23:43:23.395840  7938 net.cpp:157] Top shape: 32 64 8 8 (131072)
I0701 23:43:23.395848  7938 net.cpp:165] Memory required for data: 38666368
I0701 23:43:23.395862  7938 layer_factory.hpp:77] Creating layer scale2b_branch2b
I0701 23:43:23.395875  7938 net.cpp:106] Creating Layer scale2b_branch2b
I0701 23:43:23.395882  7938 net.cpp:454] scale2b_branch2b <- res2b_branch2b
I0701 23:43:23.395891  7938 net.cpp:397] scale2b_branch2b -> res2b_branch2b (in-place)
I0701 23:43:23.395911  7938 layer_factory.hpp:77] Creating layer scale2b_branch2b
I0701 23:43:23.395939  7938 net.cpp:150] Setting up scale2b_branch2b
I0701 23:43:23.395948  7938 net.cpp:157] Top shape: 32 64 8 8 (131072)
I0701 23:43:23.395958  7938 net.cpp:165] Memory required for data: 39190656
I0701 23:43:23.395969  7938 layer_factory.hpp:77] Creating layer res2b_branch2b_relu
I0701 23:43:23.395978  7938 net.cpp:106] Creating Layer res2b_branch2b_relu
I0701 23:43:23.395985  7938 net.cpp:454] res2b_branch2b_relu <- res2b_branch2b
I0701 23:43:23.395993  7938 net.cpp:397] res2b_branch2b_relu -> res2b_branch2b (in-place)
I0701 23:43:23.396010  7938 net.cpp:150] Setting up res2b_branch2b_relu
I0701 23:43:23.396019  7938 net.cpp:157] Top shape: 32 64 8 8 (131072)
I0701 23:43:23.396028  7938 net.cpp:165] Memory required for data: 39714944
I0701 23:43:23.396034  7938 layer_factory.hpp:77] Creating layer res2b_branch2c
I0701 23:43:23.396057  7938 net.cpp:106] Creating Layer res2b_branch2c
I0701 23:43:23.396066  7938 net.cpp:454] res2b_branch2c <- res2b_branch2b
I0701 23:43:23.396080  7938 net.cpp:411] res2b_branch2c -> res2b_branch2c
I0701 23:43:23.396463  7938 net.cpp:150] Setting up res2b_branch2c
I0701 23:43:23.396483  7938 net.cpp:157] Top shape: 32 256 8 8 (524288)
I0701 23:43:23.396493  7938 net.cpp:165] Memory required for data: 41812096
I0701 23:43:23.396503  7938 layer_factory.hpp:77] Creating layer bn2b_branch2c
I0701 23:43:23.396518  7938 net.cpp:106] Creating Layer bn2b_branch2c
I0701 23:43:23.396525  7938 net.cpp:454] bn2b_branch2c <- res2b_branch2c
I0701 23:43:23.396533  7938 net.cpp:397] bn2b_branch2c -> res2b_branch2c (in-place)
I0701 23:43:23.396560  7938 net.cpp:150] Setting up bn2b_branch2c
I0701 23:43:23.396569  7938 net.cpp:157] Top shape: 32 256 8 8 (524288)
I0701 23:43:23.396576  7938 net.cpp:165] Memory required for data: 43909248
I0701 23:43:23.396590  7938 layer_factory.hpp:77] Creating layer scale2b_branch2c
I0701 23:43:23.396601  7938 net.cpp:106] Creating Layer scale2b_branch2c
I0701 23:43:23.396613  7938 net.cpp:454] scale2b_branch2c <- res2b_branch2c
I0701 23:43:23.396622  7938 net.cpp:397] scale2b_branch2c -> res2b_branch2c (in-place)
I0701 23:43:23.396638  7938 layer_factory.hpp:77] Creating layer scale2b_branch2c
I0701 23:43:23.396668  7938 net.cpp:150] Setting up scale2b_branch2c
I0701 23:43:23.396677  7938 net.cpp:157] Top shape: 32 256 8 8 (524288)
I0701 23:43:23.396687  7938 net.cpp:165] Memory required for data: 46006400
I0701 23:43:23.396698  7938 layer_factory.hpp:77] Creating layer res2b
I0701 23:43:23.396708  7938 net.cpp:106] Creating Layer res2b
I0701 23:43:23.396715  7938 net.cpp:454] res2b <- res2a_res2a_relu_0_split_1
I0701 23:43:23.396723  7938 net.cpp:454] res2b <- res2b_branch2c
I0701 23:43:23.396735  7938 net.cpp:411] res2b -> res2b
I0701 23:43:23.396750  7938 net.cpp:150] Setting up res2b
I0701 23:43:23.396759  7938 net.cpp:157] Top shape: 32 256 8 8 (524288)
I0701 23:43:23.396766  7938 net.cpp:165] Memory required for data: 48103552
I0701 23:43:23.396773  7938 layer_factory.hpp:77] Creating layer res2b_relu
I0701 23:43:23.396781  7938 net.cpp:106] Creating Layer res2b_relu
I0701 23:43:23.396788  7938 net.cpp:454] res2b_relu <- res2b
I0701 23:43:23.396800  7938 net.cpp:397] res2b_relu -> res2b (in-place)
I0701 23:43:23.396811  7938 net.cpp:150] Setting up res2b_relu
I0701 23:43:23.396816  7938 net.cpp:157] Top shape: 32 256 8 8 (524288)
I0701 23:43:23.396824  7938 net.cpp:165] Memory required for data: 50200704
I0701 23:43:23.396831  7938 layer_factory.hpp:77] Creating layer res2b_res2b_relu_0_split
I0701 23:43:23.396841  7938 net.cpp:106] Creating Layer res2b_res2b_relu_0_split
I0701 23:43:23.396847  7938 net.cpp:454] res2b_res2b_relu_0_split <- res2b
I0701 23:43:23.396855  7938 net.cpp:411] res2b_res2b_relu_0_split -> res2b_res2b_relu_0_split_0
I0701 23:43:23.396867  7938 net.cpp:411] res2b_res2b_relu_0_split -> res2b_res2b_relu_0_split_1
I0701 23:43:23.396880  7938 net.cpp:150] Setting up res2b_res2b_relu_0_split
I0701 23:43:23.396888  7938 net.cpp:157] Top shape: 32 256 8 8 (524288)
I0701 23:43:23.396896  7938 net.cpp:157] Top shape: 32 256 8 8 (524288)
I0701 23:43:23.396904  7938 net.cpp:165] Memory required for data: 54395008
I0701 23:43:23.396910  7938 layer_factory.hpp:77] Creating layer res2c_branch2a
I0701 23:43:23.396929  7938 net.cpp:106] Creating Layer res2c_branch2a
I0701 23:43:23.396936  7938 net.cpp:454] res2c_branch2a <- res2b_res2b_relu_0_split_0
I0701 23:43:23.396946  7938 net.cpp:411] res2c_branch2a -> res2c_branch2a
I0701 23:43:23.397336  7938 net.cpp:150] Setting up res2c_branch2a
I0701 23:43:23.397349  7938 net.cpp:157] Top shape: 32 64 8 8 (131072)
I0701 23:43:23.397358  7938 net.cpp:165] Memory required for data: 54919296
I0701 23:43:23.397369  7938 layer_factory.hpp:77] Creating layer bn2c_branch2a
I0701 23:43:23.397380  7938 net.cpp:106] Creating Layer bn2c_branch2a
I0701 23:43:23.397387  7938 net.cpp:454] bn2c_branch2a <- res2c_branch2a
I0701 23:43:23.397398  7938 net.cpp:397] bn2c_branch2a -> res2c_branch2a (in-place)
I0701 23:43:23.397423  7938 net.cpp:150] Setting up bn2c_branch2a
I0701 23:43:23.397431  7938 net.cpp:157] Top shape: 32 64 8 8 (131072)
I0701 23:43:23.397440  7938 net.cpp:165] Memory required for data: 55443584
I0701 23:43:23.397461  7938 layer_factory.hpp:77] Creating layer scale2c_branch2a
I0701 23:43:23.397477  7938 net.cpp:106] Creating Layer scale2c_branch2a
I0701 23:43:23.397485  7938 net.cpp:454] scale2c_branch2a <- res2c_branch2a
I0701 23:43:23.397495  7938 net.cpp:397] scale2c_branch2a -> res2c_branch2a (in-place)
I0701 23:43:23.397511  7938 layer_factory.hpp:77] Creating layer scale2c_branch2a
I0701 23:43:23.397536  7938 net.cpp:150] Setting up scale2c_branch2a
I0701 23:43:23.397544  7938 net.cpp:157] Top shape: 32 64 8 8 (131072)
I0701 23:43:23.397552  7938 net.cpp:165] Memory required for data: 55967872
I0701 23:43:23.397563  7938 layer_factory.hpp:77] Creating layer res2c_branch2a_relu
I0701 23:43:23.397575  7938 net.cpp:106] Creating Layer res2c_branch2a_relu
I0701 23:43:23.397583  7938 net.cpp:454] res2c_branch2a_relu <- res2c_branch2a
I0701 23:43:23.397591  7938 net.cpp:397] res2c_branch2a_relu -> res2c_branch2a (in-place)
I0701 23:43:23.397601  7938 net.cpp:150] Setting up res2c_branch2a_relu
I0701 23:43:23.397608  7938 net.cpp:157] Top shape: 32 64 8 8 (131072)
I0701 23:43:23.397615  7938 net.cpp:165] Memory required for data: 56492160
I0701 23:43:23.397622  7938 layer_factory.hpp:77] Creating layer res2c_branch2b
I0701 23:43:23.397644  7938 net.cpp:106] Creating Layer res2c_branch2b
I0701 23:43:23.397651  7938 net.cpp:454] res2c_branch2b <- res2c_branch2a
I0701 23:43:23.397663  7938 net.cpp:411] res2c_branch2b -> res2c_branch2b
I0701 23:43:23.398453  7938 net.cpp:150] Setting up res2c_branch2b
I0701 23:43:23.398468  7938 net.cpp:157] Top shape: 32 64 8 8 (131072)
I0701 23:43:23.398478  7938 net.cpp:165] Memory required for data: 57016448
I0701 23:43:23.398488  7938 layer_factory.hpp:77] Creating layer bn2c_branch2b
I0701 23:43:23.398502  7938 net.cpp:106] Creating Layer bn2c_branch2b
I0701 23:43:23.398509  7938 net.cpp:454] bn2c_branch2b <- res2c_branch2b
I0701 23:43:23.398519  7938 net.cpp:397] bn2c_branch2b -> res2c_branch2b (in-place)
I0701 23:43:23.398541  7938 net.cpp:150] Setting up bn2c_branch2b
I0701 23:43:23.398548  7938 net.cpp:157] Top shape: 32 64 8 8 (131072)
I0701 23:43:23.398556  7938 net.cpp:165] Memory required for data: 57540736
I0701 23:43:23.398571  7938 layer_factory.hpp:77] Creating layer scale2c_branch2b
I0701 23:43:23.398583  7938 net.cpp:106] Creating Layer scale2c_branch2b
I0701 23:43:23.398591  7938 net.cpp:454] scale2c_branch2b <- res2c_branch2b
I0701 23:43:23.398600  7938 net.cpp:397] scale2c_branch2b -> res2c_branch2b (in-place)
I0701 23:43:23.398619  7938 layer_factory.hpp:77] Creating layer scale2c_branch2b
I0701 23:43:23.398649  7938 net.cpp:150] Setting up scale2c_branch2b
I0701 23:43:23.398659  7938 net.cpp:157] Top shape: 32 64 8 8 (131072)
I0701 23:43:23.398667  7938 net.cpp:165] Memory required for data: 58065024
I0701 23:43:23.398679  7938 layer_factory.hpp:77] Creating layer res2c_branch2b_relu
I0701 23:43:23.398689  7938 net.cpp:106] Creating Layer res2c_branch2b_relu
I0701 23:43:23.398694  7938 net.cpp:454] res2c_branch2b_relu <- res2c_branch2b
I0701 23:43:23.398703  7938 net.cpp:397] res2c_branch2b_relu -> res2c_branch2b (in-place)
I0701 23:43:23.398712  7938 net.cpp:150] Setting up res2c_branch2b_relu
I0701 23:43:23.398718  7938 net.cpp:157] Top shape: 32 64 8 8 (131072)
I0701 23:43:23.398726  7938 net.cpp:165] Memory required for data: 58589312
I0701 23:43:23.398733  7938 layer_factory.hpp:77] Creating layer res2c_branch2c
I0701 23:43:23.398752  7938 net.cpp:106] Creating Layer res2c_branch2c
I0701 23:43:23.398761  7938 net.cpp:454] res2c_branch2c <- res2c_branch2b
I0701 23:43:23.398769  7938 net.cpp:411] res2c_branch2c -> res2c_branch2c
I0701 23:43:23.399155  7938 net.cpp:150] Setting up res2c_branch2c
I0701 23:43:23.399168  7938 net.cpp:157] Top shape: 32 256 8 8 (524288)
I0701 23:43:23.399181  7938 net.cpp:165] Memory required for data: 60686464
I0701 23:43:23.399191  7938 layer_factory.hpp:77] Creating layer bn2c_branch2c
I0701 23:43:23.399202  7938 net.cpp:106] Creating Layer bn2c_branch2c
I0701 23:43:23.399209  7938 net.cpp:454] bn2c_branch2c <- res2c_branch2c
I0701 23:43:23.399230  7938 net.cpp:397] bn2c_branch2c -> res2c_branch2c (in-place)
I0701 23:43:23.399253  7938 net.cpp:150] Setting up bn2c_branch2c
I0701 23:43:23.399260  7938 net.cpp:157] Top shape: 32 256 8 8 (524288)
I0701 23:43:23.399269  7938 net.cpp:165] Memory required for data: 62783616
I0701 23:43:23.399296  7938 layer_factory.hpp:77] Creating layer scale2c_branch2c
I0701 23:43:23.399312  7938 net.cpp:106] Creating Layer scale2c_branch2c
I0701 23:43:23.399319  7938 net.cpp:454] scale2c_branch2c <- res2c_branch2c
I0701 23:43:23.399332  7938 net.cpp:397] scale2c_branch2c -> res2c_branch2c (in-place)
I0701 23:43:23.399348  7938 layer_factory.hpp:77] Creating layer scale2c_branch2c
I0701 23:43:23.399374  7938 net.cpp:150] Setting up scale2c_branch2c
I0701 23:43:23.399381  7938 net.cpp:157] Top shape: 32 256 8 8 (524288)
I0701 23:43:23.399390  7938 net.cpp:165] Memory required for data: 64880768
I0701 23:43:23.399401  7938 layer_factory.hpp:77] Creating layer res2c
I0701 23:43:23.399411  7938 net.cpp:106] Creating Layer res2c
I0701 23:43:23.399418  7938 net.cpp:454] res2c <- res2b_res2b_relu_0_split_1
I0701 23:43:23.399425  7938 net.cpp:454] res2c <- res2c_branch2c
I0701 23:43:23.399441  7938 net.cpp:411] res2c -> res2c
I0701 23:43:23.399453  7938 net.cpp:150] Setting up res2c
I0701 23:43:23.399461  7938 net.cpp:157] Top shape: 32 256 8 8 (524288)
I0701 23:43:23.399468  7938 net.cpp:165] Memory required for data: 66977920
I0701 23:43:23.399475  7938 layer_factory.hpp:77] Creating layer res2c_relu
I0701 23:43:23.399483  7938 net.cpp:106] Creating Layer res2c_relu
I0701 23:43:23.399490  7938 net.cpp:454] res2c_relu <- res2c
I0701 23:43:23.399502  7938 net.cpp:397] res2c_relu -> res2c (in-place)
I0701 23:43:23.399511  7938 net.cpp:150] Setting up res2c_relu
I0701 23:43:23.399518  7938 net.cpp:157] Top shape: 32 256 8 8 (524288)
I0701 23:43:23.399526  7938 net.cpp:165] Memory required for data: 69075072
I0701 23:43:23.399533  7938 layer_factory.hpp:77] Creating layer res2c_res2c_relu_0_split
I0701 23:43:23.399540  7938 net.cpp:106] Creating Layer res2c_res2c_relu_0_split
I0701 23:43:23.399547  7938 net.cpp:454] res2c_res2c_relu_0_split <- res2c
I0701 23:43:23.399556  7938 net.cpp:411] res2c_res2c_relu_0_split -> res2c_res2c_relu_0_split_0
I0701 23:43:23.399566  7938 net.cpp:411] res2c_res2c_relu_0_split -> res2c_res2c_relu_0_split_1
I0701 23:43:23.399579  7938 net.cpp:150] Setting up res2c_res2c_relu_0_split
I0701 23:43:23.399585  7938 net.cpp:157] Top shape: 32 256 8 8 (524288)
I0701 23:43:23.399596  7938 net.cpp:157] Top shape: 32 256 8 8 (524288)
I0701 23:43:23.399605  7938 net.cpp:165] Memory required for data: 73269376
I0701 23:43:23.399610  7938 layer_factory.hpp:77] Creating layer res3a_branch1
I0701 23:43:23.399628  7938 net.cpp:106] Creating Layer res3a_branch1
I0701 23:43:23.399636  7938 net.cpp:454] res3a_branch1 <- res2c_res2c_relu_0_split_0
I0701 23:43:23.399648  7938 net.cpp:411] res3a_branch1 -> res3a_branch1
I0701 23:43:23.402346  7938 net.cpp:150] Setting up res3a_branch1
I0701 23:43:23.402362  7938 net.cpp:157] Top shape: 32 512 4 4 (262144)
I0701 23:43:23.402371  7938 net.cpp:165] Memory required for data: 74317952
I0701 23:43:23.402382  7938 layer_factory.hpp:77] Creating layer bn3a_branch1
I0701 23:43:23.402396  7938 net.cpp:106] Creating Layer bn3a_branch1
I0701 23:43:23.402403  7938 net.cpp:454] bn3a_branch1 <- res3a_branch1
I0701 23:43:23.402413  7938 net.cpp:397] bn3a_branch1 -> res3a_branch1 (in-place)
I0701 23:43:23.402441  7938 net.cpp:150] Setting up bn3a_branch1
I0701 23:43:23.402448  7938 net.cpp:157] Top shape: 32 512 4 4 (262144)
I0701 23:43:23.402456  7938 net.cpp:165] Memory required for data: 75366528
I0701 23:43:23.402469  7938 layer_factory.hpp:77] Creating layer scale3a_branch1
I0701 23:43:23.402480  7938 net.cpp:106] Creating Layer scale3a_branch1
I0701 23:43:23.402487  7938 net.cpp:454] scale3a_branch1 <- res3a_branch1
I0701 23:43:23.402499  7938 net.cpp:397] scale3a_branch1 -> res3a_branch1 (in-place)
I0701 23:43:23.402519  7938 layer_factory.hpp:77] Creating layer scale3a_branch1
I0701 23:43:23.402556  7938 net.cpp:150] Setting up scale3a_branch1
I0701 23:43:23.402566  7938 net.cpp:157] Top shape: 32 512 4 4 (262144)
I0701 23:43:23.402578  7938 net.cpp:165] Memory required for data: 76415104
I0701 23:43:23.402590  7938 layer_factory.hpp:77] Creating layer res3a_branch2a
I0701 23:43:23.402609  7938 net.cpp:106] Creating Layer res3a_branch2a
I0701 23:43:23.402617  7938 net.cpp:454] res3a_branch2a <- res2c_res2c_relu_0_split_1
I0701 23:43:23.402631  7938 net.cpp:411] res3a_branch2a -> res3a_branch2a
I0701 23:43:23.403347  7938 net.cpp:150] Setting up res3a_branch2a
I0701 23:43:23.403362  7938 net.cpp:157] Top shape: 32 128 4 4 (65536)
I0701 23:43:23.403372  7938 net.cpp:165] Memory required for data: 76677248
I0701 23:43:23.403383  7938 layer_factory.hpp:77] Creating layer bn3a_branch2a
I0701 23:43:23.403398  7938 net.cpp:106] Creating Layer bn3a_branch2a
I0701 23:43:23.403404  7938 net.cpp:454] bn3a_branch2a <- res3a_branch2a
I0701 23:43:23.403414  7938 net.cpp:397] bn3a_branch2a -> res3a_branch2a (in-place)
I0701 23:43:23.403437  7938 net.cpp:150] Setting up bn3a_branch2a
I0701 23:43:23.403446  7938 net.cpp:157] Top shape: 32 128 4 4 (65536)
I0701 23:43:23.403455  7938 net.cpp:165] Memory required for data: 76939392
I0701 23:43:23.403470  7938 layer_factory.hpp:77] Creating layer scale3a_branch2a
I0701 23:43:23.403481  7938 net.cpp:106] Creating Layer scale3a_branch2a
I0701 23:43:23.403489  7938 net.cpp:454] scale3a_branch2a <- res3a_branch2a
I0701 23:43:23.403498  7938 net.cpp:397] scale3a_branch2a -> res3a_branch2a (in-place)
I0701 23:43:23.403518  7938 layer_factory.hpp:77] Creating layer scale3a_branch2a
I0701 23:43:23.403545  7938 net.cpp:150] Setting up scale3a_branch2a
I0701 23:43:23.403555  7938 net.cpp:157] Top shape: 32 128 4 4 (65536)
I0701 23:43:23.403564  7938 net.cpp:165] Memory required for data: 77201536
I0701 23:43:23.403575  7938 layer_factory.hpp:77] Creating layer res3a_branch2a_relu
I0701 23:43:23.403584  7938 net.cpp:106] Creating Layer res3a_branch2a_relu
I0701 23:43:23.403590  7938 net.cpp:454] res3a_branch2a_relu <- res3a_branch2a
I0701 23:43:23.403599  7938 net.cpp:397] res3a_branch2a_relu -> res3a_branch2a (in-place)
I0701 23:43:23.403609  7938 net.cpp:150] Setting up res3a_branch2a_relu
I0701 23:43:23.403615  7938 net.cpp:157] Top shape: 32 128 4 4 (65536)
I0701 23:43:23.403623  7938 net.cpp:165] Memory required for data: 77463680
I0701 23:43:23.403630  7938 layer_factory.hpp:77] Creating layer res3a_branch2b
I0701 23:43:23.403650  7938 net.cpp:106] Creating Layer res3a_branch2b
I0701 23:43:23.403656  7938 net.cpp:454] res3a_branch2b <- res3a_branch2a
I0701 23:43:23.403666  7938 net.cpp:411] res3a_branch2b -> res3a_branch2b
I0701 23:43:23.406718  7938 net.cpp:150] Setting up res3a_branch2b
I0701 23:43:23.406734  7938 net.cpp:157] Top shape: 32 128 4 4 (65536)
I0701 23:43:23.406749  7938 net.cpp:165] Memory required for data: 77725824
I0701 23:43:23.406759  7938 layer_factory.hpp:77] Creating layer bn3a_branch2b
I0701 23:43:23.406770  7938 net.cpp:106] Creating Layer bn3a_branch2b
I0701 23:43:23.406778  7938 net.cpp:454] bn3a_branch2b <- res3a_branch2b
I0701 23:43:23.406790  7938 net.cpp:397] bn3a_branch2b -> res3a_branch2b (in-place)
I0701 23:43:23.406814  7938 net.cpp:150] Setting up bn3a_branch2b
I0701 23:43:23.406823  7938 net.cpp:157] Top shape: 32 128 4 4 (65536)
I0701 23:43:23.406831  7938 net.cpp:165] Memory required for data: 77987968
I0701 23:43:23.406846  7938 layer_factory.hpp:77] Creating layer scale3a_branch2b
I0701 23:43:23.406855  7938 net.cpp:106] Creating Layer scale3a_branch2b
I0701 23:43:23.406862  7938 net.cpp:454] scale3a_branch2b <- res3a_branch2b
I0701 23:43:23.406874  7938 net.cpp:397] scale3a_branch2b -> res3a_branch2b (in-place)
I0701 23:43:23.406891  7938 layer_factory.hpp:77] Creating layer scale3a_branch2b
I0701 23:43:23.406919  7938 net.cpp:150] Setting up scale3a_branch2b
I0701 23:43:23.406929  7938 net.cpp:157] Top shape: 32 128 4 4 (65536)
I0701 23:43:23.406937  7938 net.cpp:165] Memory required for data: 78250112
I0701 23:43:23.406960  7938 layer_factory.hpp:77] Creating layer res3a_branch2b_relu
I0701 23:43:23.406973  7938 net.cpp:106] Creating Layer res3a_branch2b_relu
I0701 23:43:23.406980  7938 net.cpp:454] res3a_branch2b_relu <- res3a_branch2b
I0701 23:43:23.406988  7938 net.cpp:397] res3a_branch2b_relu -> res3a_branch2b (in-place)
I0701 23:43:23.406999  7938 net.cpp:150] Setting up res3a_branch2b_relu
I0701 23:43:23.407011  7938 net.cpp:157] Top shape: 32 128 4 4 (65536)
I0701 23:43:23.407021  7938 net.cpp:165] Memory required for data: 78512256
I0701 23:43:23.407027  7938 layer_factory.hpp:77] Creating layer res3a_branch2c
I0701 23:43:23.407047  7938 net.cpp:106] Creating Layer res3a_branch2c
I0701 23:43:23.407057  7938 net.cpp:454] res3a_branch2c <- res3a_branch2b
I0701 23:43:23.407066  7938 net.cpp:411] res3a_branch2c -> res3a_branch2c
I0701 23:43:23.408440  7938 net.cpp:150] Setting up res3a_branch2c
I0701 23:43:23.408454  7938 net.cpp:157] Top shape: 32 512 4 4 (262144)
I0701 23:43:23.408464  7938 net.cpp:165] Memory required for data: 79560832
I0701 23:43:23.408474  7938 layer_factory.hpp:77] Creating layer bn3a_branch2c
I0701 23:43:23.408499  7938 net.cpp:106] Creating Layer bn3a_branch2c
I0701 23:43:23.408505  7938 net.cpp:454] bn3a_branch2c <- res3a_branch2c
I0701 23:43:23.408515  7938 net.cpp:397] bn3a_branch2c -> res3a_branch2c (in-place)
I0701 23:43:23.408541  7938 net.cpp:150] Setting up bn3a_branch2c
I0701 23:43:23.408550  7938 net.cpp:157] Top shape: 32 512 4 4 (262144)
I0701 23:43:23.408560  7938 net.cpp:165] Memory required for data: 80609408
I0701 23:43:23.408573  7938 layer_factory.hpp:77] Creating layer scale3a_branch2c
I0701 23:43:23.408583  7938 net.cpp:106] Creating Layer scale3a_branch2c
I0701 23:43:23.408591  7938 net.cpp:454] scale3a_branch2c <- res3a_branch2c
I0701 23:43:23.408602  7938 net.cpp:397] scale3a_branch2c -> res3a_branch2c (in-place)
I0701 23:43:23.408622  7938 layer_factory.hpp:77] Creating layer scale3a_branch2c
I0701 23:43:23.408648  7938 net.cpp:150] Setting up scale3a_branch2c
I0701 23:43:23.408658  7938 net.cpp:157] Top shape: 32 512 4 4 (262144)
I0701 23:43:23.408669  7938 net.cpp:165] Memory required for data: 81657984
I0701 23:43:23.408681  7938 layer_factory.hpp:77] Creating layer res3a
I0701 23:43:23.408692  7938 net.cpp:106] Creating Layer res3a
I0701 23:43:23.408699  7938 net.cpp:454] res3a <- res3a_branch1
I0701 23:43:23.408706  7938 net.cpp:454] res3a <- res3a_branch2c
I0701 23:43:23.408715  7938 net.cpp:411] res3a -> res3a
I0701 23:43:23.408733  7938 net.cpp:150] Setting up res3a
I0701 23:43:23.408740  7938 net.cpp:157] Top shape: 32 512 4 4 (262144)
I0701 23:43:23.408748  7938 net.cpp:165] Memory required for data: 82706560
I0701 23:43:23.408756  7938 layer_factory.hpp:77] Creating layer res3a_relu
I0701 23:43:23.408764  7938 net.cpp:106] Creating Layer res3a_relu
I0701 23:43:23.408771  7938 net.cpp:454] res3a_relu <- res3a
I0701 23:43:23.408779  7938 net.cpp:397] res3a_relu -> res3a (in-place)
I0701 23:43:23.408788  7938 net.cpp:150] Setting up res3a_relu
I0701 23:43:23.408795  7938 net.cpp:157] Top shape: 32 512 4 4 (262144)
I0701 23:43:23.408803  7938 net.cpp:165] Memory required for data: 83755136
I0701 23:43:23.408809  7938 layer_factory.hpp:77] Creating layer res3a_res3a_relu_0_split
I0701 23:43:23.408818  7938 net.cpp:106] Creating Layer res3a_res3a_relu_0_split
I0701 23:43:23.408825  7938 net.cpp:454] res3a_res3a_relu_0_split <- res3a
I0701 23:43:23.408836  7938 net.cpp:411] res3a_res3a_relu_0_split -> res3a_res3a_relu_0_split_0
I0701 23:43:23.408848  7938 net.cpp:411] res3a_res3a_relu_0_split -> res3a_res3a_relu_0_split_1
I0701 23:43:23.408859  7938 net.cpp:150] Setting up res3a_res3a_relu_0_split
I0701 23:43:23.408865  7938 net.cpp:157] Top shape: 32 512 4 4 (262144)
I0701 23:43:23.408874  7938 net.cpp:157] Top shape: 32 512 4 4 (262144)
I0701 23:43:23.408882  7938 net.cpp:165] Memory required for data: 85852288
I0701 23:43:23.408888  7938 layer_factory.hpp:77] Creating layer res3b_branch2a
I0701 23:43:23.408905  7938 net.cpp:106] Creating Layer res3b_branch2a
I0701 23:43:23.408922  7938 net.cpp:454] res3b_branch2a <- res3a_res3a_relu_0_split_0
I0701 23:43:23.408933  7938 net.cpp:411] res3b_branch2a -> res3b_branch2a
I0701 23:43:23.410326  7938 net.cpp:150] Setting up res3b_branch2a
I0701 23:43:23.410341  7938 net.cpp:157] Top shape: 32 128 4 4 (65536)
I0701 23:43:23.410349  7938 net.cpp:165] Memory required for data: 86114432
I0701 23:43:23.410360  7938 layer_factory.hpp:77] Creating layer bn3b_branch2a
I0701 23:43:23.410372  7938 net.cpp:106] Creating Layer bn3b_branch2a
I0701 23:43:23.410378  7938 net.cpp:454] bn3b_branch2a <- res3b_branch2a
I0701 23:43:23.410390  7938 net.cpp:397] bn3b_branch2a -> res3b_branch2a (in-place)
I0701 23:43:23.410414  7938 net.cpp:150] Setting up bn3b_branch2a
I0701 23:43:23.410421  7938 net.cpp:157] Top shape: 32 128 4 4 (65536)
I0701 23:43:23.410429  7938 net.cpp:165] Memory required for data: 86376576
I0701 23:43:23.410447  7938 layer_factory.hpp:77] Creating layer scale3b_branch2a
I0701 23:43:23.410459  7938 net.cpp:106] Creating Layer scale3b_branch2a
I0701 23:43:23.410465  7938 net.cpp:454] scale3b_branch2a <- res3b_branch2a
I0701 23:43:23.410473  7938 net.cpp:397] scale3b_branch2a -> res3b_branch2a (in-place)
I0701 23:43:23.410492  7938 layer_factory.hpp:77] Creating layer scale3b_branch2a
I0701 23:43:23.410519  7938 net.cpp:150] Setting up scale3b_branch2a
I0701 23:43:23.410528  7938 net.cpp:157] Top shape: 32 128 4 4 (65536)
I0701 23:43:23.410540  7938 net.cpp:165] Memory required for data: 86638720
I0701 23:43:23.410552  7938 layer_factory.hpp:77] Creating layer res3b_branch2a_relu
I0701 23:43:23.410562  7938 net.cpp:106] Creating Layer res3b_branch2a_relu
I0701 23:43:23.410568  7938 net.cpp:454] res3b_branch2a_relu <- res3b_branch2a
I0701 23:43:23.410576  7938 net.cpp:397] res3b_branch2a_relu -> res3b_branch2a (in-place)
I0701 23:43:23.410586  7938 net.cpp:150] Setting up res3b_branch2a_relu
I0701 23:43:23.410593  7938 net.cpp:157] Top shape: 32 128 4 4 (65536)
I0701 23:43:23.410601  7938 net.cpp:165] Memory required for data: 86900864
I0701 23:43:23.410607  7938 layer_factory.hpp:77] Creating layer res3b_branch2b
I0701 23:43:23.410627  7938 net.cpp:106] Creating Layer res3b_branch2b
I0701 23:43:23.410634  7938 net.cpp:454] res3b_branch2b <- res3b_branch2a
I0701 23:43:23.410643  7938 net.cpp:411] res3b_branch2b -> res3b_branch2b
I0701 23:43:23.413661  7938 net.cpp:150] Setting up res3b_branch2b
I0701 23:43:23.413677  7938 net.cpp:157] Top shape: 32 128 4 4 (65536)
I0701 23:43:23.413687  7938 net.cpp:165] Memory required for data: 87163008
I0701 23:43:23.413698  7938 layer_factory.hpp:77] Creating layer bn3b_branch2b
I0701 23:43:23.413710  7938 net.cpp:106] Creating Layer bn3b_branch2b
I0701 23:43:23.413718  7938 net.cpp:454] bn3b_branch2b <- res3b_branch2b
I0701 23:43:23.413727  7938 net.cpp:397] bn3b_branch2b -> res3b_branch2b (in-place)
I0701 23:43:23.413751  7938 net.cpp:150] Setting up bn3b_branch2b
I0701 23:43:23.413758  7938 net.cpp:157] Top shape: 32 128 4 4 (65536)
I0701 23:43:23.413770  7938 net.cpp:165] Memory required for data: 87425152
I0701 23:43:23.413784  7938 layer_factory.hpp:77] Creating layer scale3b_branch2b
I0701 23:43:23.413794  7938 net.cpp:106] Creating Layer scale3b_branch2b
I0701 23:43:23.413801  7938 net.cpp:454] scale3b_branch2b <- res3b_branch2b
I0701 23:43:23.413815  7938 net.cpp:397] scale3b_branch2b -> res3b_branch2b (in-place)
I0701 23:43:23.413831  7938 layer_factory.hpp:77] Creating layer scale3b_branch2b
I0701 23:43:23.413856  7938 net.cpp:150] Setting up scale3b_branch2b
I0701 23:43:23.413866  7938 net.cpp:157] Top shape: 32 128 4 4 (65536)
I0701 23:43:23.413875  7938 net.cpp:165] Memory required for data: 87687296
I0701 23:43:23.413887  7938 layer_factory.hpp:77] Creating layer res3b_branch2b_relu
I0701 23:43:23.413895  7938 net.cpp:106] Creating Layer res3b_branch2b_relu
I0701 23:43:23.413902  7938 net.cpp:454] res3b_branch2b_relu <- res3b_branch2b
I0701 23:43:23.413913  7938 net.cpp:397] res3b_branch2b_relu -> res3b_branch2b (in-place)
I0701 23:43:23.413923  7938 net.cpp:150] Setting up res3b_branch2b_relu
I0701 23:43:23.413938  7938 net.cpp:157] Top shape: 32 128 4 4 (65536)
I0701 23:43:23.413946  7938 net.cpp:165] Memory required for data: 87949440
I0701 23:43:23.413954  7938 layer_factory.hpp:77] Creating layer res3b_branch2c
I0701 23:43:23.413972  7938 net.cpp:106] Creating Layer res3b_branch2c
I0701 23:43:23.413980  7938 net.cpp:454] res3b_branch2c <- res3b_branch2b
I0701 23:43:23.413992  7938 net.cpp:411] res3b_branch2c -> res3b_branch2c
I0701 23:43:23.415374  7938 net.cpp:150] Setting up res3b_branch2c
I0701 23:43:23.415390  7938 net.cpp:157] Top shape: 32 512 4 4 (262144)
I0701 23:43:23.415398  7938 net.cpp:165] Memory required for data: 88998016
I0701 23:43:23.415410  7938 layer_factory.hpp:77] Creating layer bn3b_branch2c
I0701 23:43:23.415424  7938 net.cpp:106] Creating Layer bn3b_branch2c
I0701 23:43:23.415432  7938 net.cpp:454] bn3b_branch2c <- res3b_branch2c
I0701 23:43:23.415441  7938 net.cpp:397] bn3b_branch2c -> res3b_branch2c (in-place)
I0701 23:43:23.415467  7938 net.cpp:150] Setting up bn3b_branch2c
I0701 23:43:23.415474  7938 net.cpp:157] Top shape: 32 512 4 4 (262144)
I0701 23:43:23.415482  7938 net.cpp:165] Memory required for data: 90046592
I0701 23:43:23.415496  7938 layer_factory.hpp:77] Creating layer scale3b_branch2c
I0701 23:43:23.415506  7938 net.cpp:106] Creating Layer scale3b_branch2c
I0701 23:43:23.415513  7938 net.cpp:454] scale3b_branch2c <- res3b_branch2c
I0701 23:43:23.415527  7938 net.cpp:397] scale3b_branch2c -> res3b_branch2c (in-place)
I0701 23:43:23.415547  7938 layer_factory.hpp:77] Creating layer scale3b_branch2c
I0701 23:43:23.415572  7938 net.cpp:150] Setting up scale3b_branch2c
I0701 23:43:23.415580  7938 net.cpp:157] Top shape: 32 512 4 4 (262144)
I0701 23:43:23.415591  7938 net.cpp:165] Memory required for data: 91095168
I0701 23:43:23.415602  7938 layer_factory.hpp:77] Creating layer res3b
I0701 23:43:23.415612  7938 net.cpp:106] Creating Layer res3b
I0701 23:43:23.415621  7938 net.cpp:454] res3b <- res3a_res3a_relu_0_split_1
I0701 23:43:23.415628  7938 net.cpp:454] res3b <- res3b_branch2c
I0701 23:43:23.415639  7938 net.cpp:411] res3b -> res3b
I0701 23:43:23.415652  7938 net.cpp:150] Setting up res3b
I0701 23:43:23.415659  7938 net.cpp:157] Top shape: 32 512 4 4 (262144)
I0701 23:43:23.415668  7938 net.cpp:165] Memory required for data: 92143744
I0701 23:43:23.415674  7938 layer_factory.hpp:77] Creating layer res3b_relu
I0701 23:43:23.415683  7938 net.cpp:106] Creating Layer res3b_relu
I0701 23:43:23.415689  7938 net.cpp:454] res3b_relu <- res3b
I0701 23:43:23.415699  7938 net.cpp:397] res3b_relu -> res3b (in-place)
I0701 23:43:23.415707  7938 net.cpp:150] Setting up res3b_relu
I0701 23:43:23.415714  7938 net.cpp:157] Top shape: 32 512 4 4 (262144)
I0701 23:43:23.415721  7938 net.cpp:165] Memory required for data: 93192320
I0701 23:43:23.415729  7938 layer_factory.hpp:77] Creating layer res3b_res3b_relu_0_split
I0701 23:43:23.415740  7938 net.cpp:106] Creating Layer res3b_res3b_relu_0_split
I0701 23:43:23.415746  7938 net.cpp:454] res3b_res3b_relu_0_split <- res3b
I0701 23:43:23.415755  7938 net.cpp:411] res3b_res3b_relu_0_split -> res3b_res3b_relu_0_split_0
I0701 23:43:23.415766  7938 net.cpp:411] res3b_res3b_relu_0_split -> res3b_res3b_relu_0_split_1
I0701 23:43:23.415776  7938 net.cpp:150] Setting up res3b_res3b_relu_0_split
I0701 23:43:23.415783  7938 net.cpp:157] Top shape: 32 512 4 4 (262144)
I0701 23:43:23.415792  7938 net.cpp:157] Top shape: 32 512 4 4 (262144)
I0701 23:43:23.415799  7938 net.cpp:165] Memory required for data: 95289472
I0701 23:43:23.415807  7938 layer_factory.hpp:77] Creating layer res3c_branch2a
I0701 23:43:23.415823  7938 net.cpp:106] Creating Layer res3c_branch2a
I0701 23:43:23.415832  7938 net.cpp:454] res3c_branch2a <- res3b_res3b_relu_0_split_0
I0701 23:43:23.415843  7938 net.cpp:411] res3c_branch2a -> res3c_branch2a
I0701 23:43:23.417220  7938 net.cpp:150] Setting up res3c_branch2a
I0701 23:43:23.417235  7938 net.cpp:157] Top shape: 32 128 4 4 (65536)
I0701 23:43:23.417245  7938 net.cpp:165] Memory required for data: 95551616
I0701 23:43:23.417264  7938 layer_factory.hpp:77] Creating layer bn3c_branch2a
I0701 23:43:23.417276  7938 net.cpp:106] Creating Layer bn3c_branch2a
I0701 23:43:23.417284  7938 net.cpp:454] bn3c_branch2a <- res3c_branch2a
I0701 23:43:23.417295  7938 net.cpp:397] bn3c_branch2a -> res3c_branch2a (in-place)
I0701 23:43:23.417318  7938 net.cpp:150] Setting up bn3c_branch2a
I0701 23:43:23.417325  7938 net.cpp:157] Top shape: 32 128 4 4 (65536)
I0701 23:43:23.417335  7938 net.cpp:165] Memory required for data: 95813760
I0701 23:43:23.417347  7938 layer_factory.hpp:77] Creating layer scale3c_branch2a
I0701 23:43:23.417361  7938 net.cpp:106] Creating Layer scale3c_branch2a
I0701 23:43:23.417367  7938 net.cpp:454] scale3c_branch2a <- res3c_branch2a
I0701 23:43:23.417376  7938 net.cpp:397] scale3c_branch2a -> res3c_branch2a (in-place)
I0701 23:43:23.417392  7938 layer_factory.hpp:77] Creating layer scale3c_branch2a
I0701 23:43:23.417418  7938 net.cpp:150] Setting up scale3c_branch2a
I0701 23:43:23.417425  7938 net.cpp:157] Top shape: 32 128 4 4 (65536)
I0701 23:43:23.417434  7938 net.cpp:165] Memory required for data: 96075904
I0701 23:43:23.417445  7938 layer_factory.hpp:77] Creating layer res3c_branch2a_relu
I0701 23:43:23.417454  7938 net.cpp:106] Creating Layer res3c_branch2a_relu
I0701 23:43:23.417461  7938 net.cpp:454] res3c_branch2a_relu <- res3c_branch2a
I0701 23:43:23.417472  7938 net.cpp:397] res3c_branch2a_relu -> res3c_branch2a (in-place)
I0701 23:43:23.417482  7938 net.cpp:150] Setting up res3c_branch2a_relu
I0701 23:43:23.417488  7938 net.cpp:157] Top shape: 32 128 4 4 (65536)
I0701 23:43:23.417496  7938 net.cpp:165] Memory required for data: 96338048
I0701 23:43:23.417503  7938 layer_factory.hpp:77] Creating layer res3c_branch2b
I0701 23:43:23.417523  7938 net.cpp:106] Creating Layer res3c_branch2b
I0701 23:43:23.417531  7938 net.cpp:454] res3c_branch2b <- res3c_branch2a
I0701 23:43:23.417543  7938 net.cpp:411] res3c_branch2b -> res3c_branch2b
I0701 23:43:23.420552  7938 net.cpp:150] Setting up res3c_branch2b
I0701 23:43:23.420567  7938 net.cpp:157] Top shape: 32 128 4 4 (65536)
I0701 23:43:23.420577  7938 net.cpp:165] Memory required for data: 96600192
I0701 23:43:23.420588  7938 layer_factory.hpp:77] Creating layer bn3c_branch2b
I0701 23:43:23.420601  7938 net.cpp:106] Creating Layer bn3c_branch2b
I0701 23:43:23.420609  7938 net.cpp:454] bn3c_branch2b <- res3c_branch2b
I0701 23:43:23.420617  7938 net.cpp:397] bn3c_branch2b -> res3c_branch2b (in-place)
I0701 23:43:23.420641  7938 net.cpp:150] Setting up bn3c_branch2b
I0701 23:43:23.420650  7938 net.cpp:157] Top shape: 32 128 4 4 (65536)
I0701 23:43:23.420657  7938 net.cpp:165] Memory required for data: 96862336
I0701 23:43:23.420670  7938 layer_factory.hpp:77] Creating layer scale3c_branch2b
I0701 23:43:23.420686  7938 net.cpp:106] Creating Layer scale3c_branch2b
I0701 23:43:23.420692  7938 net.cpp:454] scale3c_branch2b <- res3c_branch2b
I0701 23:43:23.420703  7938 net.cpp:397] scale3c_branch2b -> res3c_branch2b (in-place)
I0701 23:43:23.420722  7938 layer_factory.hpp:77] Creating layer scale3c_branch2b
I0701 23:43:23.420747  7938 net.cpp:150] Setting up scale3c_branch2b
I0701 23:43:23.420758  7938 net.cpp:157] Top shape: 32 128 4 4 (65536)
I0701 23:43:23.420766  7938 net.cpp:165] Memory required for data: 97124480
I0701 23:43:23.420778  7938 layer_factory.hpp:77] Creating layer res3c_branch2b_relu
I0701 23:43:23.420786  7938 net.cpp:106] Creating Layer res3c_branch2b_relu
I0701 23:43:23.420794  7938 net.cpp:454] res3c_branch2b_relu <- res3c_branch2b
I0701 23:43:23.420801  7938 net.cpp:397] res3c_branch2b_relu -> res3c_branch2b (in-place)
I0701 23:43:23.420811  7938 net.cpp:150] Setting up res3c_branch2b_relu
I0701 23:43:23.420817  7938 net.cpp:157] Top shape: 32 128 4 4 (65536)
I0701 23:43:23.420825  7938 net.cpp:165] Memory required for data: 97386624
I0701 23:43:23.420832  7938 layer_factory.hpp:77] Creating layer res3c_branch2c
I0701 23:43:23.420852  7938 net.cpp:106] Creating Layer res3c_branch2c
I0701 23:43:23.420861  7938 net.cpp:454] res3c_branch2c <- res3c_branch2b
I0701 23:43:23.420878  7938 net.cpp:411] res3c_branch2c -> res3c_branch2c
I0701 23:43:23.422271  7938 net.cpp:150] Setting up res3c_branch2c
I0701 23:43:23.422286  7938 net.cpp:157] Top shape: 32 512 4 4 (262144)
I0701 23:43:23.422296  7938 net.cpp:165] Memory required for data: 98435200
I0701 23:43:23.422305  7938 layer_factory.hpp:77] Creating layer bn3c_branch2c
I0701 23:43:23.422317  7938 net.cpp:106] Creating Layer bn3c_branch2c
I0701 23:43:23.422324  7938 net.cpp:454] bn3c_branch2c <- res3c_branch2c
I0701 23:43:23.422336  7938 net.cpp:397] bn3c_branch2c -> res3c_branch2c (in-place)
I0701 23:43:23.422360  7938 net.cpp:150] Setting up bn3c_branch2c
I0701 23:43:23.422368  7938 net.cpp:157] Top shape: 32 512 4 4 (262144)
I0701 23:43:23.422376  7938 net.cpp:165] Memory required for data: 99483776
I0701 23:43:23.422394  7938 layer_factory.hpp:77] Creating layer scale3c_branch2c
I0701 23:43:23.422406  7938 net.cpp:106] Creating Layer scale3c_branch2c
I0701 23:43:23.422413  7938 net.cpp:454] scale3c_branch2c <- res3c_branch2c
I0701 23:43:23.422421  7938 net.cpp:397] scale3c_branch2c -> res3c_branch2c (in-place)
I0701 23:43:23.422443  7938 layer_factory.hpp:77] Creating layer scale3c_branch2c
I0701 23:43:23.422473  7938 net.cpp:150] Setting up scale3c_branch2c
I0701 23:43:23.422483  7938 net.cpp:157] Top shape: 32 512 4 4 (262144)
I0701 23:43:23.422492  7938 net.cpp:165] Memory required for data: 100532352
I0701 23:43:23.422503  7938 layer_factory.hpp:77] Creating layer res3c
I0701 23:43:23.422516  7938 net.cpp:106] Creating Layer res3c
I0701 23:43:23.422523  7938 net.cpp:454] res3c <- res3b_res3b_relu_0_split_1
I0701 23:43:23.422531  7938 net.cpp:454] res3c <- res3c_branch2c
I0701 23:43:23.422540  7938 net.cpp:411] res3c -> res3c
I0701 23:43:23.422554  7938 net.cpp:150] Setting up res3c
I0701 23:43:23.422559  7938 net.cpp:157] Top shape: 32 512 4 4 (262144)
I0701 23:43:23.422567  7938 net.cpp:165] Memory required for data: 101580928
I0701 23:43:23.422574  7938 layer_factory.hpp:77] Creating layer res3c_relu
I0701 23:43:23.422585  7938 net.cpp:106] Creating Layer res3c_relu
I0701 23:43:23.422592  7938 net.cpp:454] res3c_relu <- res3c
I0701 23:43:23.422601  7938 net.cpp:397] res3c_relu -> res3c (in-place)
I0701 23:43:23.422610  7938 net.cpp:150] Setting up res3c_relu
I0701 23:43:23.422617  7938 net.cpp:157] Top shape: 32 512 4 4 (262144)
I0701 23:43:23.422626  7938 net.cpp:165] Memory required for data: 102629504
I0701 23:43:23.422631  7938 layer_factory.hpp:77] Creating layer res3c_res3c_relu_0_split
I0701 23:43:23.422641  7938 net.cpp:106] Creating Layer res3c_res3c_relu_0_split
I0701 23:43:23.422646  7938 net.cpp:454] res3c_res3c_relu_0_split <- res3c
I0701 23:43:23.422658  7938 net.cpp:411] res3c_res3c_relu_0_split -> res3c_res3c_relu_0_split_0
I0701 23:43:23.422669  7938 net.cpp:411] res3c_res3c_relu_0_split -> res3c_res3c_relu_0_split_1
I0701 23:43:23.422682  7938 net.cpp:150] Setting up res3c_res3c_relu_0_split
I0701 23:43:23.422688  7938 net.cpp:157] Top shape: 32 512 4 4 (262144)
I0701 23:43:23.422696  7938 net.cpp:157] Top shape: 32 512 4 4 (262144)
I0701 23:43:23.422704  7938 net.cpp:165] Memory required for data: 104726656
I0701 23:43:23.422711  7938 layer_factory.hpp:77] Creating layer res3d_branch2a
I0701 23:43:23.422729  7938 net.cpp:106] Creating Layer res3d_branch2a
I0701 23:43:23.422736  7938 net.cpp:454] res3d_branch2a <- res3c_res3c_relu_0_split_0
I0701 23:43:23.422745  7938 net.cpp:411] res3d_branch2a -> res3d_branch2a
I0701 23:43:23.424119  7938 net.cpp:150] Setting up res3d_branch2a
I0701 23:43:23.424134  7938 net.cpp:157] Top shape: 32 128 4 4 (65536)
I0701 23:43:23.424144  7938 net.cpp:165] Memory required for data: 104988800
I0701 23:43:23.424155  7938 layer_factory.hpp:77] Creating layer bn3d_branch2a
I0701 23:43:23.424170  7938 net.cpp:106] Creating Layer bn3d_branch2a
I0701 23:43:23.424176  7938 net.cpp:454] bn3d_branch2a <- res3d_branch2a
I0701 23:43:23.424185  7938 net.cpp:397] bn3d_branch2a -> res3d_branch2a (in-place)
I0701 23:43:23.424209  7938 net.cpp:150] Setting up bn3d_branch2a
I0701 23:43:23.424224  7938 net.cpp:157] Top shape: 32 128 4 4 (65536)
I0701 23:43:23.424237  7938 net.cpp:165] Memory required for data: 105250944
I0701 23:43:23.424269  7938 layer_factory.hpp:77] Creating layer scale3d_branch2a
I0701 23:43:23.424288  7938 net.cpp:106] Creating Layer scale3d_branch2a
I0701 23:43:23.424294  7938 net.cpp:454] scale3d_branch2a <- res3d_branch2a
I0701 23:43:23.424304  7938 net.cpp:397] scale3d_branch2a -> res3d_branch2a (in-place)
I0701 23:43:23.424324  7938 layer_factory.hpp:77] Creating layer scale3d_branch2a
I0701 23:43:23.424346  7938 net.cpp:150] Setting up scale3d_branch2a
I0701 23:43:23.424356  7938 net.cpp:157] Top shape: 32 128 4 4 (65536)
I0701 23:43:23.424365  7938 net.cpp:165] Memory required for data: 105513088
I0701 23:43:23.424377  7938 layer_factory.hpp:77] Creating layer res3d_branch2a_relu
I0701 23:43:23.424389  7938 net.cpp:106] Creating Layer res3d_branch2a_relu
I0701 23:43:23.424396  7938 net.cpp:454] res3d_branch2a_relu <- res3d_branch2a
I0701 23:43:23.424405  7938 net.cpp:397] res3d_branch2a_relu -> res3d_branch2a (in-place)
I0701 23:43:23.424415  7938 net.cpp:150] Setting up res3d_branch2a_relu
I0701 23:43:23.424422  7938 net.cpp:157] Top shape: 32 128 4 4 (65536)
I0701 23:43:23.424429  7938 net.cpp:165] Memory required for data: 105775232
I0701 23:43:23.424437  7938 layer_factory.hpp:77] Creating layer res3d_branch2b
I0701 23:43:23.424453  7938 net.cpp:106] Creating Layer res3d_branch2b
I0701 23:43:23.424460  7938 net.cpp:454] res3d_branch2b <- res3d_branch2a
I0701 23:43:23.424470  7938 net.cpp:411] res3d_branch2b -> res3d_branch2b
I0701 23:43:23.427486  7938 net.cpp:150] Setting up res3d_branch2b
I0701 23:43:23.427501  7938 net.cpp:157] Top shape: 32 128 4 4 (65536)
I0701 23:43:23.427510  7938 net.cpp:165] Memory required for data: 106037376
I0701 23:43:23.427521  7938 layer_factory.hpp:77] Creating layer bn3d_branch2b
I0701 23:43:23.427536  7938 net.cpp:106] Creating Layer bn3d_branch2b
I0701 23:43:23.427542  7938 net.cpp:454] bn3d_branch2b <- res3d_branch2b
I0701 23:43:23.427551  7938 net.cpp:397] bn3d_branch2b -> res3d_branch2b (in-place)
I0701 23:43:23.427574  7938 net.cpp:150] Setting up bn3d_branch2b
I0701 23:43:23.427584  7938 net.cpp:157] Top shape: 32 128 4 4 (65536)
I0701 23:43:23.427593  7938 net.cpp:165] Memory required for data: 106299520
I0701 23:43:23.427606  7938 layer_factory.hpp:77] Creating layer scale3d_branch2b
I0701 23:43:23.427616  7938 net.cpp:106] Creating Layer scale3d_branch2b
I0701 23:43:23.427624  7938 net.cpp:454] scale3d_branch2b <- res3d_branch2b
I0701 23:43:23.427635  7938 net.cpp:397] scale3d_branch2b -> res3d_branch2b (in-place)
I0701 23:43:23.427652  7938 layer_factory.hpp:77] Creating layer scale3d_branch2b
I0701 23:43:23.427680  7938 net.cpp:150] Setting up scale3d_branch2b
I0701 23:43:23.427688  7938 net.cpp:157] Top shape: 32 128 4 4 (65536)
I0701 23:43:23.427697  7938 net.cpp:165] Memory required for data: 106561664
I0701 23:43:23.427708  7938 layer_factory.hpp:77] Creating layer res3d_branch2b_relu
I0701 23:43:23.427717  7938 net.cpp:106] Creating Layer res3d_branch2b_relu
I0701 23:43:23.427724  7938 net.cpp:454] res3d_branch2b_relu <- res3d_branch2b
I0701 23:43:23.427736  7938 net.cpp:397] res3d_branch2b_relu -> res3d_branch2b (in-place)
I0701 23:43:23.427745  7938 net.cpp:150] Setting up res3d_branch2b_relu
I0701 23:43:23.427752  7938 net.cpp:157] Top shape: 32 128 4 4 (65536)
I0701 23:43:23.427760  7938 net.cpp:165] Memory required for data: 106823808
I0701 23:43:23.427767  7938 layer_factory.hpp:77] Creating layer res3d_branch2c
I0701 23:43:23.427783  7938 net.cpp:106] Creating Layer res3d_branch2c
I0701 23:43:23.427791  7938 net.cpp:454] res3d_branch2c <- res3d_branch2b
I0701 23:43:23.427804  7938 net.cpp:411] res3d_branch2c -> res3d_branch2c
I0701 23:43:23.429181  7938 net.cpp:150] Setting up res3d_branch2c
I0701 23:43:23.429196  7938 net.cpp:157] Top shape: 32 512 4 4 (262144)
I0701 23:43:23.429205  7938 net.cpp:165] Memory required for data: 107872384
I0701 23:43:23.429216  7938 layer_factory.hpp:77] Creating layer bn3d_branch2c
I0701 23:43:23.429235  7938 net.cpp:106] Creating Layer bn3d_branch2c
I0701 23:43:23.429242  7938 net.cpp:454] bn3d_branch2c <- res3d_branch2c
I0701 23:43:23.429255  7938 net.cpp:397] bn3d_branch2c -> res3d_branch2c (in-place)
I0701 23:43:23.429280  7938 net.cpp:150] Setting up bn3d_branch2c
I0701 23:43:23.429288  7938 net.cpp:157] Top shape: 32 512 4 4 (262144)
I0701 23:43:23.429301  7938 net.cpp:165] Memory required for data: 108920960
I0701 23:43:23.429313  7938 layer_factory.hpp:77] Creating layer scale3d_branch2c
I0701 23:43:23.429324  7938 net.cpp:106] Creating Layer scale3d_branch2c
I0701 23:43:23.429332  7938 net.cpp:454] scale3d_branch2c <- res3d_branch2c
I0701 23:43:23.429342  7938 net.cpp:397] scale3d_branch2c -> res3d_branch2c (in-place)
I0701 23:43:23.429363  7938 layer_factory.hpp:77] Creating layer scale3d_branch2c
I0701 23:43:23.429390  7938 net.cpp:150] Setting up scale3d_branch2c
I0701 23:43:23.429400  7938 net.cpp:157] Top shape: 32 512 4 4 (262144)
I0701 23:43:23.429409  7938 net.cpp:165] Memory required for data: 109969536
I0701 23:43:23.429422  7938 layer_factory.hpp:77] Creating layer res3d
I0701 23:43:23.429433  7938 net.cpp:106] Creating Layer res3d
I0701 23:43:23.429440  7938 net.cpp:454] res3d <- res3c_res3c_relu_0_split_1
I0701 23:43:23.429447  7938 net.cpp:454] res3d <- res3d_branch2c
I0701 23:43:23.429456  7938 net.cpp:411] res3d -> res3d
I0701 23:43:23.429469  7938 net.cpp:150] Setting up res3d
I0701 23:43:23.429476  7938 net.cpp:157] Top shape: 32 512 4 4 (262144)
I0701 23:43:23.429491  7938 net.cpp:165] Memory required for data: 111018112
I0701 23:43:23.429497  7938 layer_factory.hpp:77] Creating layer res3d_relu
I0701 23:43:23.429505  7938 net.cpp:106] Creating Layer res3d_relu
I0701 23:43:23.429512  7938 net.cpp:454] res3d_relu <- res3d
I0701 23:43:23.429520  7938 net.cpp:397] res3d_relu -> res3d (in-place)
I0701 23:43:23.429530  7938 net.cpp:150] Setting up res3d_relu
I0701 23:43:23.429538  7938 net.cpp:157] Top shape: 32 512 4 4 (262144)
I0701 23:43:23.429545  7938 net.cpp:165] Memory required for data: 112066688
I0701 23:43:23.429551  7938 layer_factory.hpp:77] Creating layer res3d_res3d_relu_0_split
I0701 23:43:23.429563  7938 net.cpp:106] Creating Layer res3d_res3d_relu_0_split
I0701 23:43:23.429570  7938 net.cpp:454] res3d_res3d_relu_0_split <- res3d
I0701 23:43:23.429579  7938 net.cpp:411] res3d_res3d_relu_0_split -> res3d_res3d_relu_0_split_0
I0701 23:43:23.429589  7938 net.cpp:411] res3d_res3d_relu_0_split -> res3d_res3d_relu_0_split_1
I0701 23:43:23.429600  7938 net.cpp:150] Setting up res3d_res3d_relu_0_split
I0701 23:43:23.429607  7938 net.cpp:157] Top shape: 32 512 4 4 (262144)
I0701 23:43:23.429615  7938 net.cpp:157] Top shape: 32 512 4 4 (262144)
I0701 23:43:23.429623  7938 net.cpp:165] Memory required for data: 114163840
I0701 23:43:23.429630  7938 layer_factory.hpp:77] Creating layer res4a_branch1
I0701 23:43:23.429646  7938 net.cpp:106] Creating Layer res4a_branch1
I0701 23:43:23.429653  7938 net.cpp:454] res4a_branch1 <- res3d_res3d_relu_0_split_0
I0701 23:43:23.429663  7938 net.cpp:411] res4a_branch1 -> res4a_branch1
I0701 23:43:23.440209  7938 net.cpp:150] Setting up res4a_branch1
I0701 23:43:23.440225  7938 net.cpp:157] Top shape: 32 1024 2 2 (131072)
I0701 23:43:23.440238  7938 net.cpp:165] Memory required for data: 114688128
I0701 23:43:23.440250  7938 layer_factory.hpp:77] Creating layer bn4a_branch1
I0701 23:43:23.440263  7938 net.cpp:106] Creating Layer bn4a_branch1
I0701 23:43:23.440269  7938 net.cpp:454] bn4a_branch1 <- res4a_branch1
I0701 23:43:23.440279  7938 net.cpp:397] bn4a_branch1 -> res4a_branch1 (in-place)
I0701 23:43:23.440310  7938 net.cpp:150] Setting up bn4a_branch1
I0701 23:43:23.440320  7938 net.cpp:157] Top shape: 32 1024 2 2 (131072)
I0701 23:43:23.440328  7938 net.cpp:165] Memory required for data: 115212416
I0701 23:43:23.440345  7938 layer_factory.hpp:77] Creating layer scale4a_branch1
I0701 23:43:23.440356  7938 net.cpp:106] Creating Layer scale4a_branch1
I0701 23:43:23.440362  7938 net.cpp:454] scale4a_branch1 <- res4a_branch1
I0701 23:43:23.440380  7938 net.cpp:397] scale4a_branch1 -> res4a_branch1 (in-place)
I0701 23:43:23.440404  7938 layer_factory.hpp:77] Creating layer scale4a_branch1
I0701 23:43:23.440433  7938 net.cpp:150] Setting up scale4a_branch1
I0701 23:43:23.440443  7938 net.cpp:157] Top shape: 32 1024 2 2 (131072)
I0701 23:43:23.440450  7938 net.cpp:165] Memory required for data: 115736704
I0701 23:43:23.440462  7938 layer_factory.hpp:77] Creating layer res4a_branch2a
I0701 23:43:23.440485  7938 net.cpp:106] Creating Layer res4a_branch2a
I0701 23:43:23.440492  7938 net.cpp:454] res4a_branch2a <- res3d_res3d_relu_0_split_1
I0701 23:43:23.440503  7938 net.cpp:411] res4a_branch2a -> res4a_branch2a
I0701 23:43:23.443210  7938 net.cpp:150] Setting up res4a_branch2a
I0701 23:43:23.443225  7938 net.cpp:157] Top shape: 32 256 2 2 (32768)
I0701 23:43:23.443235  7938 net.cpp:165] Memory required for data: 115867776
I0701 23:43:23.443246  7938 layer_factory.hpp:77] Creating layer bn4a_branch2a
I0701 23:43:23.443259  7938 net.cpp:106] Creating Layer bn4a_branch2a
I0701 23:43:23.443267  7938 net.cpp:454] bn4a_branch2a <- res4a_branch2a
I0701 23:43:23.443279  7938 net.cpp:397] bn4a_branch2a -> res4a_branch2a (in-place)
I0701 23:43:23.443303  7938 net.cpp:150] Setting up bn4a_branch2a
I0701 23:43:23.443310  7938 net.cpp:157] Top shape: 32 256 2 2 (32768)
I0701 23:43:23.443318  7938 net.cpp:165] Memory required for data: 115998848
I0701 23:43:23.443332  7938 layer_factory.hpp:77] Creating layer scale4a_branch2a
I0701 23:43:23.443347  7938 net.cpp:106] Creating Layer scale4a_branch2a
I0701 23:43:23.443354  7938 net.cpp:454] scale4a_branch2a <- res4a_branch2a
I0701 23:43:23.443364  7938 net.cpp:397] scale4a_branch2a -> res4a_branch2a (in-place)
I0701 23:43:23.443383  7938 layer_factory.hpp:77] Creating layer scale4a_branch2a
I0701 23:43:23.443411  7938 net.cpp:150] Setting up scale4a_branch2a
I0701 23:43:23.443420  7938 net.cpp:157] Top shape: 32 256 2 2 (32768)
I0701 23:43:23.443429  7938 net.cpp:165] Memory required for data: 116129920
I0701 23:43:23.443441  7938 layer_factory.hpp:77] Creating layer res4a_branch2a_relu
I0701 23:43:23.443450  7938 net.cpp:106] Creating Layer res4a_branch2a_relu
I0701 23:43:23.443457  7938 net.cpp:454] res4a_branch2a_relu <- res4a_branch2a
I0701 23:43:23.443469  7938 net.cpp:397] res4a_branch2a_relu -> res4a_branch2a (in-place)
I0701 23:43:23.443478  7938 net.cpp:150] Setting up res4a_branch2a_relu
I0701 23:43:23.443485  7938 net.cpp:157] Top shape: 32 256 2 2 (32768)
I0701 23:43:23.443493  7938 net.cpp:165] Memory required for data: 116260992
I0701 23:43:23.443500  7938 layer_factory.hpp:77] Creating layer res4a_branch2b
I0701 23:43:23.443519  7938 net.cpp:106] Creating Layer res4a_branch2b
I0701 23:43:23.443529  7938 net.cpp:454] res4a_branch2b <- res4a_branch2a
I0701 23:43:23.443542  7938 net.cpp:411] res4a_branch2b -> res4a_branch2b
I0701 23:43:23.455421  7938 net.cpp:150] Setting up res4a_branch2b
I0701 23:43:23.455437  7938 net.cpp:157] Top shape: 32 256 2 2 (32768)
I0701 23:43:23.455447  7938 net.cpp:165] Memory required for data: 116392064
I0701 23:43:23.455458  7938 layer_factory.hpp:77] Creating layer bn4a_branch2b
I0701 23:43:23.455469  7938 net.cpp:106] Creating Layer bn4a_branch2b
I0701 23:43:23.455476  7938 net.cpp:454] bn4a_branch2b <- res4a_branch2b
I0701 23:43:23.455485  7938 net.cpp:397] bn4a_branch2b -> res4a_branch2b (in-place)
I0701 23:43:23.455507  7938 net.cpp:150] Setting up bn4a_branch2b
I0701 23:43:23.455515  7938 net.cpp:157] Top shape: 32 256 2 2 (32768)
I0701 23:43:23.455526  7938 net.cpp:165] Memory required for data: 116523136
I0701 23:43:23.455540  7938 layer_factory.hpp:77] Creating layer scale4a_branch2b
I0701 23:43:23.455552  7938 net.cpp:106] Creating Layer scale4a_branch2b
I0701 23:43:23.455559  7938 net.cpp:454] scale4a_branch2b <- res4a_branch2b
I0701 23:43:23.455569  7938 net.cpp:397] scale4a_branch2b -> res4a_branch2b (in-place)
I0701 23:43:23.455585  7938 layer_factory.hpp:77] Creating layer scale4a_branch2b
I0701 23:43:23.455610  7938 net.cpp:150] Setting up scale4a_branch2b
I0701 23:43:23.455626  7938 net.cpp:157] Top shape: 32 256 2 2 (32768)
I0701 23:43:23.455638  7938 net.cpp:165] Memory required for data: 116654208
I0701 23:43:23.455651  7938 layer_factory.hpp:77] Creating layer res4a_branch2b_relu
I0701 23:43:23.455659  7938 net.cpp:106] Creating Layer res4a_branch2b_relu
I0701 23:43:23.455667  7938 net.cpp:454] res4a_branch2b_relu <- res4a_branch2b
I0701 23:43:23.455674  7938 net.cpp:397] res4a_branch2b_relu -> res4a_branch2b (in-place)
I0701 23:43:23.455685  7938 net.cpp:150] Setting up res4a_branch2b_relu
I0701 23:43:23.455691  7938 net.cpp:157] Top shape: 32 256 2 2 (32768)
I0701 23:43:23.455699  7938 net.cpp:165] Memory required for data: 116785280
I0701 23:43:23.455706  7938 layer_factory.hpp:77] Creating layer res4a_branch2c
I0701 23:43:23.455729  7938 net.cpp:106] Creating Layer res4a_branch2c
I0701 23:43:23.455735  7938 net.cpp:454] res4a_branch2c <- res4a_branch2b
I0701 23:43:23.455745  7938 net.cpp:411] res4a_branch2c -> res4a_branch2c
I0701 23:43:23.461066  7938 net.cpp:150] Setting up res4a_branch2c
I0701 23:43:23.461081  7938 net.cpp:157] Top shape: 32 1024 2 2 (131072)
I0701 23:43:23.461091  7938 net.cpp:165] Memory required for data: 117309568
I0701 23:43:23.461105  7938 layer_factory.hpp:77] Creating layer bn4a_branch2c
I0701 23:43:23.461117  7938 net.cpp:106] Creating Layer bn4a_branch2c
I0701 23:43:23.461124  7938 net.cpp:454] bn4a_branch2c <- res4a_branch2c
I0701 23:43:23.461133  7938 net.cpp:397] bn4a_branch2c -> res4a_branch2c (in-place)
I0701 23:43:23.461161  7938 net.cpp:150] Setting up bn4a_branch2c
I0701 23:43:23.461169  7938 net.cpp:157] Top shape: 32 1024 2 2 (131072)
I0701 23:43:23.461177  7938 net.cpp:165] Memory required for data: 117833856
I0701 23:43:23.461190  7938 layer_factory.hpp:77] Creating layer scale4a_branch2c
I0701 23:43:23.461205  7938 net.cpp:106] Creating Layer scale4a_branch2c
I0701 23:43:23.461213  7938 net.cpp:454] scale4a_branch2c <- res4a_branch2c
I0701 23:43:23.461222  7938 net.cpp:397] scale4a_branch2c -> res4a_branch2c (in-place)
I0701 23:43:23.461246  7938 layer_factory.hpp:77] Creating layer scale4a_branch2c
I0701 23:43:23.461278  7938 net.cpp:150] Setting up scale4a_branch2c
I0701 23:43:23.461287  7938 net.cpp:157] Top shape: 32 1024 2 2 (131072)
I0701 23:43:23.461297  7938 net.cpp:165] Memory required for data: 118358144
I0701 23:43:23.461308  7938 layer_factory.hpp:77] Creating layer res4a
I0701 23:43:23.461318  7938 net.cpp:106] Creating Layer res4a
I0701 23:43:23.461325  7938 net.cpp:454] res4a <- res4a_branch1
I0701 23:43:23.461333  7938 net.cpp:454] res4a <- res4a_branch2c
I0701 23:43:23.461341  7938 net.cpp:411] res4a -> res4a
I0701 23:43:23.461354  7938 net.cpp:150] Setting up res4a
I0701 23:43:23.461361  7938 net.cpp:157] Top shape: 32 1024 2 2 (131072)
I0701 23:43:23.461369  7938 net.cpp:165] Memory required for data: 118882432
I0701 23:43:23.461376  7938 layer_factory.hpp:77] Creating layer res4a_relu
I0701 23:43:23.461385  7938 net.cpp:106] Creating Layer res4a_relu
I0701 23:43:23.461392  7938 net.cpp:454] res4a_relu <- res4a
I0701 23:43:23.461400  7938 net.cpp:397] res4a_relu -> res4a (in-place)
I0701 23:43:23.461410  7938 net.cpp:150] Setting up res4a_relu
I0701 23:43:23.461416  7938 net.cpp:157] Top shape: 32 1024 2 2 (131072)
I0701 23:43:23.461428  7938 net.cpp:165] Memory required for data: 119406720
I0701 23:43:23.461436  7938 layer_factory.hpp:77] Creating layer res4a_res4a_relu_0_split
I0701 23:43:23.461444  7938 net.cpp:106] Creating Layer res4a_res4a_relu_0_split
I0701 23:43:23.461452  7938 net.cpp:454] res4a_res4a_relu_0_split <- res4a
I0701 23:43:23.461459  7938 net.cpp:411] res4a_res4a_relu_0_split -> res4a_res4a_relu_0_split_0
I0701 23:43:23.461470  7938 net.cpp:411] res4a_res4a_relu_0_split -> res4a_res4a_relu_0_split_1
I0701 23:43:23.461482  7938 net.cpp:150] Setting up res4a_res4a_relu_0_split
I0701 23:43:23.461488  7938 net.cpp:157] Top shape: 32 1024 2 2 (131072)
I0701 23:43:23.461496  7938 net.cpp:157] Top shape: 32 1024 2 2 (131072)
I0701 23:43:23.461504  7938 net.cpp:165] Memory required for data: 120455296
I0701 23:43:23.461519  7938 layer_factory.hpp:77] Creating layer res4b_branch2a
I0701 23:43:23.461549  7938 net.cpp:106] Creating Layer res4b_branch2a
I0701 23:43:23.461557  7938 net.cpp:454] res4b_branch2a <- res4a_res4a_relu_0_split_0
I0701 23:43:23.461568  7938 net.cpp:411] res4b_branch2a -> res4b_branch2a
I0701 23:43:23.466890  7938 net.cpp:150] Setting up res4b_branch2a
I0701 23:43:23.466907  7938 net.cpp:157] Top shape: 32 256 2 2 (32768)
I0701 23:43:23.466915  7938 net.cpp:165] Memory required for data: 120586368
I0701 23:43:23.466930  7938 layer_factory.hpp:77] Creating layer bn4b_branch2a
I0701 23:43:23.466943  7938 net.cpp:106] Creating Layer bn4b_branch2a
I0701 23:43:23.466950  7938 net.cpp:454] bn4b_branch2a <- res4b_branch2a
I0701 23:43:23.466958  7938 net.cpp:397] bn4b_branch2a -> res4b_branch2a (in-place)
I0701 23:43:23.466984  7938 net.cpp:150] Setting up bn4b_branch2a
I0701 23:43:23.466990  7938 net.cpp:157] Top shape: 32 256 2 2 (32768)
I0701 23:43:23.467000  7938 net.cpp:165] Memory required for data: 120717440
I0701 23:43:23.467021  7938 layer_factory.hpp:77] Creating layer scale4b_branch2a
I0701 23:43:23.467033  7938 net.cpp:106] Creating Layer scale4b_branch2a
I0701 23:43:23.467041  7938 net.cpp:454] scale4b_branch2a <- res4b_branch2a
I0701 23:43:23.467049  7938 net.cpp:397] scale4b_branch2a -> res4b_branch2a (in-place)
I0701 23:43:23.467069  7938 layer_factory.hpp:77] Creating layer scale4b_branch2a
I0701 23:43:23.467097  7938 net.cpp:150] Setting up scale4b_branch2a
I0701 23:43:23.467108  7938 net.cpp:157] Top shape: 32 256 2 2 (32768)
I0701 23:43:23.467116  7938 net.cpp:165] Memory required for data: 120848512
I0701 23:43:23.467128  7938 layer_factory.hpp:77] Creating layer res4b_branch2a_relu
I0701 23:43:23.467136  7938 net.cpp:106] Creating Layer res4b_branch2a_relu
I0701 23:43:23.467144  7938 net.cpp:454] res4b_branch2a_relu <- res4b_branch2a
I0701 23:43:23.467154  7938 net.cpp:397] res4b_branch2a_relu -> res4b_branch2a (in-place)
I0701 23:43:23.467164  7938 net.cpp:150] Setting up res4b_branch2a_relu
I0701 23:43:23.467171  7938 net.cpp:157] Top shape: 32 256 2 2 (32768)
I0701 23:43:23.467180  7938 net.cpp:165] Memory required for data: 120979584
I0701 23:43:23.467186  7938 layer_factory.hpp:77] Creating layer res4b_branch2b
I0701 23:43:23.467206  7938 net.cpp:106] Creating Layer res4b_branch2b
I0701 23:43:23.467213  7938 net.cpp:454] res4b_branch2b <- res4b_branch2a
I0701 23:43:23.467226  7938 net.cpp:411] res4b_branch2b -> res4b_branch2b
I0701 23:43:23.479090  7938 net.cpp:150] Setting up res4b_branch2b
I0701 23:43:23.479106  7938 net.cpp:157] Top shape: 32 256 2 2 (32768)
I0701 23:43:23.479115  7938 net.cpp:165] Memory required for data: 121110656
I0701 23:43:23.479126  7938 layer_factory.hpp:77] Creating layer bn4b_branch2b
I0701 23:43:23.479137  7938 net.cpp:106] Creating Layer bn4b_branch2b
I0701 23:43:23.479144  7938 net.cpp:454] bn4b_branch2b <- res4b_branch2b
I0701 23:43:23.479156  7938 net.cpp:397] bn4b_branch2b -> res4b_branch2b (in-place)
I0701 23:43:23.479180  7938 net.cpp:150] Setting up bn4b_branch2b
I0701 23:43:23.479189  7938 net.cpp:157] Top shape: 32 256 2 2 (32768)
I0701 23:43:23.479197  7938 net.cpp:165] Memory required for data: 121241728
I0701 23:43:23.479212  7938 layer_factory.hpp:77] Creating layer scale4b_branch2b
I0701 23:43:23.479221  7938 net.cpp:106] Creating Layer scale4b_branch2b
I0701 23:43:23.479228  7938 net.cpp:454] scale4b_branch2b <- res4b_branch2b
I0701 23:43:23.479239  7938 net.cpp:397] scale4b_branch2b -> res4b_branch2b (in-place)
I0701 23:43:23.479256  7938 layer_factory.hpp:77] Creating layer scale4b_branch2b
I0701 23:43:23.479281  7938 net.cpp:150] Setting up scale4b_branch2b
I0701 23:43:23.479291  7938 net.cpp:157] Top shape: 32 256 2 2 (32768)
I0701 23:43:23.479300  7938 net.cpp:165] Memory required for data: 121372800
I0701 23:43:23.479315  7938 layer_factory.hpp:77] Creating layer res4b_branch2b_relu
I0701 23:43:23.479324  7938 net.cpp:106] Creating Layer res4b_branch2b_relu
I0701 23:43:23.479331  7938 net.cpp:454] res4b_branch2b_relu <- res4b_branch2b
I0701 23:43:23.479348  7938 net.cpp:397] res4b_branch2b_relu -> res4b_branch2b (in-place)
I0701 23:43:23.479359  7938 net.cpp:150] Setting up res4b_branch2b_relu
I0701 23:43:23.479367  7938 net.cpp:157] Top shape: 32 256 2 2 (32768)
I0701 23:43:23.479374  7938 net.cpp:165] Memory required for data: 121503872
I0701 23:43:23.479382  7938 layer_factory.hpp:77] Creating layer res4b_branch2c
I0701 23:43:23.479403  7938 net.cpp:106] Creating Layer res4b_branch2c
I0701 23:43:23.479413  7938 net.cpp:454] res4b_branch2c <- res4b_branch2b
I0701 23:43:23.479423  7938 net.cpp:411] res4b_branch2c -> res4b_branch2c
I0701 23:43:23.484726  7938 net.cpp:150] Setting up res4b_branch2c
I0701 23:43:23.484741  7938 net.cpp:157] Top shape: 32 1024 2 2 (131072)
I0701 23:43:23.484751  7938 net.cpp:165] Memory required for data: 122028160
I0701 23:43:23.484762  7938 layer_factory.hpp:77] Creating layer bn4b_branch2c
I0701 23:43:23.484776  7938 net.cpp:106] Creating Layer bn4b_branch2c
I0701 23:43:23.484784  7938 net.cpp:454] bn4b_branch2c <- res4b_branch2c
I0701 23:43:23.484796  7938 net.cpp:397] bn4b_branch2c -> res4b_branch2c (in-place)
I0701 23:43:23.484822  7938 net.cpp:150] Setting up bn4b_branch2c
I0701 23:43:23.484832  7938 net.cpp:157] Top shape: 32 1024 2 2 (131072)
I0701 23:43:23.484840  7938 net.cpp:165] Memory required for data: 122552448
I0701 23:43:23.484856  7938 layer_factory.hpp:77] Creating layer scale4b_branch2c
I0701 23:43:23.484869  7938 net.cpp:106] Creating Layer scale4b_branch2c
I0701 23:43:23.484876  7938 net.cpp:454] scale4b_branch2c <- res4b_branch2c
I0701 23:43:23.484885  7938 net.cpp:397] scale4b_branch2c -> res4b_branch2c (in-place)
I0701 23:43:23.484907  7938 layer_factory.hpp:77] Creating layer scale4b_branch2c
I0701 23:43:23.484936  7938 net.cpp:150] Setting up scale4b_branch2c
I0701 23:43:23.484946  7938 net.cpp:157] Top shape: 32 1024 2 2 (131072)
I0701 23:43:23.484954  7938 net.cpp:165] Memory required for data: 123076736
I0701 23:43:23.484966  7938 layer_factory.hpp:77] Creating layer res4b
I0701 23:43:23.484977  7938 net.cpp:106] Creating Layer res4b
I0701 23:43:23.484984  7938 net.cpp:454] res4b <- res4a_res4a_relu_0_split_1
I0701 23:43:23.484992  7938 net.cpp:454] res4b <- res4b_branch2c
I0701 23:43:23.485015  7938 net.cpp:411] res4b -> res4b
I0701 23:43:23.485030  7938 net.cpp:150] Setting up res4b
I0701 23:43:23.485039  7938 net.cpp:157] Top shape: 32 1024 2 2 (131072)
I0701 23:43:23.485047  7938 net.cpp:165] Memory required for data: 123601024
I0701 23:43:23.485054  7938 layer_factory.hpp:77] Creating layer res4b_relu
I0701 23:43:23.485064  7938 net.cpp:106] Creating Layer res4b_relu
I0701 23:43:23.485070  7938 net.cpp:454] res4b_relu <- res4b
I0701 23:43:23.485080  7938 net.cpp:397] res4b_relu -> res4b (in-place)
I0701 23:43:23.485090  7938 net.cpp:150] Setting up res4b_relu
I0701 23:43:23.485095  7938 net.cpp:157] Top shape: 32 1024 2 2 (131072)
I0701 23:43:23.485103  7938 net.cpp:165] Memory required for data: 124125312
I0701 23:43:23.485110  7938 layer_factory.hpp:77] Creating layer res4b_res4b_relu_0_split
I0701 23:43:23.485119  7938 net.cpp:106] Creating Layer res4b_res4b_relu_0_split
I0701 23:43:23.485126  7938 net.cpp:454] res4b_res4b_relu_0_split <- res4b
I0701 23:43:23.485134  7938 net.cpp:411] res4b_res4b_relu_0_split -> res4b_res4b_relu_0_split_0
I0701 23:43:23.485146  7938 net.cpp:411] res4b_res4b_relu_0_split -> res4b_res4b_relu_0_split_1
I0701 23:43:23.485157  7938 net.cpp:150] Setting up res4b_res4b_relu_0_split
I0701 23:43:23.485163  7938 net.cpp:157] Top shape: 32 1024 2 2 (131072)
I0701 23:43:23.485177  7938 net.cpp:157] Top shape: 32 1024 2 2 (131072)
I0701 23:43:23.485185  7938 net.cpp:165] Memory required for data: 125173888
I0701 23:43:23.485193  7938 layer_factory.hpp:77] Creating layer res4c_branch2a
I0701 23:43:23.485211  7938 net.cpp:106] Creating Layer res4c_branch2a
I0701 23:43:23.485220  7938 net.cpp:454] res4c_branch2a <- res4b_res4b_relu_0_split_0
I0701 23:43:23.485234  7938 net.cpp:411] res4c_branch2a -> res4c_branch2a
I0701 23:43:23.490535  7938 net.cpp:150] Setting up res4c_branch2a
I0701 23:43:23.490550  7938 net.cpp:157] Top shape: 32 256 2 2 (32768)
I0701 23:43:23.490559  7938 net.cpp:165] Memory required for data: 125304960
I0701 23:43:23.490571  7938 layer_factory.hpp:77] Creating layer bn4c_branch2a
I0701 23:43:23.490584  7938 net.cpp:106] Creating Layer bn4c_branch2a
I0701 23:43:23.490592  7938 net.cpp:454] bn4c_branch2a <- res4c_branch2a
I0701 23:43:23.490602  7938 net.cpp:397] bn4c_branch2a -> res4c_branch2a (in-place)
I0701 23:43:23.490625  7938 net.cpp:150] Setting up bn4c_branch2a
I0701 23:43:23.490633  7938 net.cpp:157] Top shape: 32 256 2 2 (32768)
I0701 23:43:23.490644  7938 net.cpp:165] Memory required for data: 125436032
I0701 23:43:23.490658  7938 layer_factory.hpp:77] Creating layer scale4c_branch2a
I0701 23:43:23.490671  7938 net.cpp:106] Creating Layer scale4c_branch2a
I0701 23:43:23.490679  7938 net.cpp:454] scale4c_branch2a <- res4c_branch2a
I0701 23:43:23.490691  7938 net.cpp:397] scale4c_branch2a -> res4c_branch2a (in-place)
I0701 23:43:23.490708  7938 layer_factory.hpp:77] Creating layer scale4c_branch2a
I0701 23:43:23.490739  7938 net.cpp:150] Setting up scale4c_branch2a
I0701 23:43:23.490749  7938 net.cpp:157] Top shape: 32 256 2 2 (32768)
I0701 23:43:23.490761  7938 net.cpp:165] Memory required for data: 125567104
I0701 23:43:23.490772  7938 layer_factory.hpp:77] Creating layer res4c_branch2a_relu
I0701 23:43:23.490782  7938 net.cpp:106] Creating Layer res4c_branch2a_relu
I0701 23:43:23.490788  7938 net.cpp:454] res4c_branch2a_relu <- res4c_branch2a
I0701 23:43:23.490797  7938 net.cpp:397] res4c_branch2a_relu -> res4c_branch2a (in-place)
I0701 23:43:23.490806  7938 net.cpp:150] Setting up res4c_branch2a_relu
I0701 23:43:23.490813  7938 net.cpp:157] Top shape: 32 256 2 2 (32768)
I0701 23:43:23.490821  7938 net.cpp:165] Memory required for data: 125698176
I0701 23:43:23.490828  7938 layer_factory.hpp:77] Creating layer res4c_branch2b
I0701 23:43:23.490849  7938 net.cpp:106] Creating Layer res4c_branch2b
I0701 23:43:23.490857  7938 net.cpp:454] res4c_branch2b <- res4c_branch2a
I0701 23:43:23.490867  7938 net.cpp:411] res4c_branch2b -> res4c_branch2b
I0701 23:43:23.502722  7938 net.cpp:150] Setting up res4c_branch2b
I0701 23:43:23.502737  7938 net.cpp:157] Top shape: 32 256 2 2 (32768)
I0701 23:43:23.502748  7938 net.cpp:165] Memory required for data: 125829248
I0701 23:43:23.502758  7938 layer_factory.hpp:77] Creating layer bn4c_branch2b
I0701 23:43:23.502774  7938 net.cpp:106] Creating Layer bn4c_branch2b
I0701 23:43:23.502781  7938 net.cpp:454] bn4c_branch2b <- res4c_branch2b
I0701 23:43:23.502790  7938 net.cpp:397] bn4c_branch2b -> res4c_branch2b (in-place)
I0701 23:43:23.502815  7938 net.cpp:150] Setting up bn4c_branch2b
I0701 23:43:23.502821  7938 net.cpp:157] Top shape: 32 256 2 2 (32768)
I0701 23:43:23.502830  7938 net.cpp:165] Memory required for data: 125960320
I0701 23:43:23.502843  7938 layer_factory.hpp:77] Creating layer scale4c_branch2b
I0701 23:43:23.502859  7938 net.cpp:106] Creating Layer scale4c_branch2b
I0701 23:43:23.502867  7938 net.cpp:454] scale4c_branch2b <- res4c_branch2b
I0701 23:43:23.502876  7938 net.cpp:397] scale4c_branch2b -> res4c_branch2b (in-place)
I0701 23:43:23.502892  7938 layer_factory.hpp:77] Creating layer scale4c_branch2b
I0701 23:43:23.502923  7938 net.cpp:150] Setting up scale4c_branch2b
I0701 23:43:23.502933  7938 net.cpp:157] Top shape: 32 256 2 2 (32768)
I0701 23:43:23.502941  7938 net.cpp:165] Memory required for data: 126091392
I0701 23:43:23.502954  7938 layer_factory.hpp:77] Creating layer res4c_branch2b_relu
I0701 23:43:23.502964  7938 net.cpp:106] Creating Layer res4c_branch2b_relu
I0701 23:43:23.502970  7938 net.cpp:454] res4c_branch2b_relu <- res4c_branch2b
I0701 23:43:23.502979  7938 net.cpp:397] res4c_branch2b_relu -> res4c_branch2b (in-place)
I0701 23:43:23.502988  7938 net.cpp:150] Setting up res4c_branch2b_relu
I0701 23:43:23.502995  7938 net.cpp:157] Top shape: 32 256 2 2 (32768)
I0701 23:43:23.503013  7938 net.cpp:165] Memory required for data: 126222464
I0701 23:43:23.503027  7938 layer_factory.hpp:77] Creating layer res4c_branch2c
I0701 23:43:23.503049  7938 net.cpp:106] Creating Layer res4c_branch2c
I0701 23:43:23.503058  7938 net.cpp:454] res4c_branch2c <- res4c_branch2b
I0701 23:43:23.503072  7938 net.cpp:411] res4c_branch2c -> res4c_branch2c
I0701 23:43:23.508353  7938 net.cpp:150] Setting up res4c_branch2c
I0701 23:43:23.508368  7938 net.cpp:157] Top shape: 32 1024 2 2 (131072)
I0701 23:43:23.508378  7938 net.cpp:165] Memory required for data: 126746752
I0701 23:43:23.508389  7938 layer_factory.hpp:77] Creating layer bn4c_branch2c
I0701 23:43:23.508401  7938 net.cpp:106] Creating Layer bn4c_branch2c
I0701 23:43:23.508412  7938 net.cpp:454] bn4c_branch2c <- res4c_branch2c
I0701 23:43:23.508421  7938 net.cpp:397] bn4c_branch2c -> res4c_branch2c (in-place)
I0701 23:43:23.508450  7938 net.cpp:150] Setting up bn4c_branch2c
I0701 23:43:23.508458  7938 net.cpp:157] Top shape: 32 1024 2 2 (131072)
I0701 23:43:23.508467  7938 net.cpp:165] Memory required for data: 127271040
I0701 23:43:23.508483  7938 layer_factory.hpp:77] Creating layer scale4c_branch2c
I0701 23:43:23.508494  7938 net.cpp:106] Creating Layer scale4c_branch2c
I0701 23:43:23.508502  7938 net.cpp:454] scale4c_branch2c <- res4c_branch2c
I0701 23:43:23.508510  7938 net.cpp:397] scale4c_branch2c -> res4c_branch2c (in-place)
I0701 23:43:23.508533  7938 layer_factory.hpp:77] Creating layer scale4c_branch2c
I0701 23:43:23.508563  7938 net.cpp:150] Setting up scale4c_branch2c
I0701 23:43:23.508571  7938 net.cpp:157] Top shape: 32 1024 2 2 (131072)
I0701 23:43:23.508580  7938 net.cpp:165] Memory required for data: 127795328
I0701 23:43:23.508591  7938 layer_factory.hpp:77] Creating layer res4c
I0701 23:43:23.508605  7938 net.cpp:106] Creating Layer res4c
I0701 23:43:23.508612  7938 net.cpp:454] res4c <- res4b_res4b_relu_0_split_1
I0701 23:43:23.508620  7938 net.cpp:454] res4c <- res4c_branch2c
I0701 23:43:23.508630  7938 net.cpp:411] res4c -> res4c
I0701 23:43:23.508642  7938 net.cpp:150] Setting up res4c
I0701 23:43:23.508649  7938 net.cpp:157] Top shape: 32 1024 2 2 (131072)
I0701 23:43:23.508657  7938 net.cpp:165] Memory required for data: 128319616
I0701 23:43:23.508664  7938 layer_factory.hpp:77] Creating layer res4c_relu
I0701 23:43:23.508673  7938 net.cpp:106] Creating Layer res4c_relu
I0701 23:43:23.508680  7938 net.cpp:454] res4c_relu <- res4c
I0701 23:43:23.508688  7938 net.cpp:397] res4c_relu -> res4c (in-place)
I0701 23:43:23.508698  7938 net.cpp:150] Setting up res4c_relu
I0701 23:43:23.508704  7938 net.cpp:157] Top shape: 32 1024 2 2 (131072)
I0701 23:43:23.508713  7938 net.cpp:165] Memory required for data: 128843904
I0701 23:43:23.508719  7938 layer_factory.hpp:77] Creating layer res4c_res4c_relu_0_split
I0701 23:43:23.508728  7938 net.cpp:106] Creating Layer res4c_res4c_relu_0_split
I0701 23:43:23.508735  7938 net.cpp:454] res4c_res4c_relu_0_split <- res4c
I0701 23:43:23.508746  7938 net.cpp:411] res4c_res4c_relu_0_split -> res4c_res4c_relu_0_split_0
I0701 23:43:23.508759  7938 net.cpp:411] res4c_res4c_relu_0_split -> res4c_res4c_relu_0_split_1
I0701 23:43:23.508769  7938 net.cpp:150] Setting up res4c_res4c_relu_0_split
I0701 23:43:23.508776  7938 net.cpp:157] Top shape: 32 1024 2 2 (131072)
I0701 23:43:23.508785  7938 net.cpp:157] Top shape: 32 1024 2 2 (131072)
I0701 23:43:23.508792  7938 net.cpp:165] Memory required for data: 129892480
I0701 23:43:23.508800  7938 layer_factory.hpp:77] Creating layer res4d_branch2a
I0701 23:43:23.508821  7938 net.cpp:106] Creating Layer res4d_branch2a
I0701 23:43:23.508828  7938 net.cpp:454] res4d_branch2a <- res4c_res4c_relu_0_split_0
I0701 23:43:23.508838  7938 net.cpp:411] res4d_branch2a -> res4d_branch2a
I0701 23:43:23.514161  7938 net.cpp:150] Setting up res4d_branch2a
I0701 23:43:23.514176  7938 net.cpp:157] Top shape: 32 256 2 2 (32768)
I0701 23:43:23.514186  7938 net.cpp:165] Memory required for data: 130023552
I0701 23:43:23.514197  7938 layer_factory.hpp:77] Creating layer bn4d_branch2a
I0701 23:43:23.514214  7938 net.cpp:106] Creating Layer bn4d_branch2a
I0701 23:43:23.514228  7938 net.cpp:454] bn4d_branch2a <- res4d_branch2a
I0701 23:43:23.514237  7938 net.cpp:397] bn4d_branch2a -> res4d_branch2a (in-place)
I0701 23:43:23.514262  7938 net.cpp:150] Setting up bn4d_branch2a
I0701 23:43:23.514271  7938 net.cpp:157] Top shape: 32 256 2 2 (32768)
I0701 23:43:23.514281  7938 net.cpp:165] Memory required for data: 130154624
I0701 23:43:23.514294  7938 layer_factory.hpp:77] Creating layer scale4d_branch2a
I0701 23:43:23.514308  7938 net.cpp:106] Creating Layer scale4d_branch2a
I0701 23:43:23.514317  7938 net.cpp:454] scale4d_branch2a <- res4d_branch2a
I0701 23:43:23.514327  7938 net.cpp:397] scale4d_branch2a -> res4d_branch2a (in-place)
I0701 23:43:23.514345  7938 layer_factory.hpp:77] Creating layer scale4d_branch2a
I0701 23:43:23.514374  7938 net.cpp:150] Setting up scale4d_branch2a
I0701 23:43:23.514382  7938 net.cpp:157] Top shape: 32 256 2 2 (32768)
I0701 23:43:23.514391  7938 net.cpp:165] Memory required for data: 130285696
I0701 23:43:23.514403  7938 layer_factory.hpp:77] Creating layer res4d_branch2a_relu
I0701 23:43:23.514412  7938 net.cpp:106] Creating Layer res4d_branch2a_relu
I0701 23:43:23.514420  7938 net.cpp:454] res4d_branch2a_relu <- res4d_branch2a
I0701 23:43:23.514430  7938 net.cpp:397] res4d_branch2a_relu -> res4d_branch2a (in-place)
I0701 23:43:23.514441  7938 net.cpp:150] Setting up res4d_branch2a_relu
I0701 23:43:23.514447  7938 net.cpp:157] Top shape: 32 256 2 2 (32768)
I0701 23:43:23.514456  7938 net.cpp:165] Memory required for data: 130416768
I0701 23:43:23.514462  7938 layer_factory.hpp:77] Creating layer res4d_branch2b
I0701 23:43:23.514480  7938 net.cpp:106] Creating Layer res4d_branch2b
I0701 23:43:23.514488  7938 net.cpp:454] res4d_branch2b <- res4d_branch2a
I0701 23:43:23.514500  7938 net.cpp:411] res4d_branch2b -> res4d_branch2b
I0701 23:43:23.526305  7938 net.cpp:150] Setting up res4d_branch2b
I0701 23:43:23.526320  7938 net.cpp:157] Top shape: 32 256 2 2 (32768)
I0701 23:43:23.526330  7938 net.cpp:165] Memory required for data: 130547840
I0701 23:43:23.526341  7938 layer_factory.hpp:77] Creating layer bn4d_branch2b
I0701 23:43:23.526353  7938 net.cpp:106] Creating Layer bn4d_branch2b
I0701 23:43:23.526360  7938 net.cpp:454] bn4d_branch2b <- res4d_branch2b
I0701 23:43:23.526373  7938 net.cpp:397] bn4d_branch2b -> res4d_branch2b (in-place)
I0701 23:43:23.526394  7938 net.cpp:150] Setting up bn4d_branch2b
I0701 23:43:23.526402  7938 net.cpp:157] Top shape: 32 256 2 2 (32768)
I0701 23:43:23.526410  7938 net.cpp:165] Memory required for data: 130678912
I0701 23:43:23.526427  7938 layer_factory.hpp:77] Creating layer scale4d_branch2b
I0701 23:43:23.526440  7938 net.cpp:106] Creating Layer scale4d_branch2b
I0701 23:43:23.526448  7938 net.cpp:454] scale4d_branch2b <- res4d_branch2b
I0701 23:43:23.526455  7938 net.cpp:397] scale4d_branch2b -> res4d_branch2b (in-place)
I0701 23:43:23.526475  7938 layer_factory.hpp:77] Creating layer scale4d_branch2b
I0701 23:43:23.526501  7938 net.cpp:150] Setting up scale4d_branch2b
I0701 23:43:23.526510  7938 net.cpp:157] Top shape: 32 256 2 2 (32768)
I0701 23:43:23.526520  7938 net.cpp:165] Memory required for data: 130809984
I0701 23:43:23.526533  7938 layer_factory.hpp:77] Creating layer res4d_branch2b_relu
I0701 23:43:23.526543  7938 net.cpp:106] Creating Layer res4d_branch2b_relu
I0701 23:43:23.526551  7938 net.cpp:454] res4d_branch2b_relu <- res4d_branch2b
I0701 23:43:23.526558  7938 net.cpp:397] res4d_branch2b_relu -> res4d_branch2b (in-place)
I0701 23:43:23.526568  7938 net.cpp:150] Setting up res4d_branch2b_relu
I0701 23:43:23.526576  7938 net.cpp:157] Top shape: 32 256 2 2 (32768)
I0701 23:43:23.526583  7938 net.cpp:165] Memory required for data: 130941056
I0701 23:43:23.526590  7938 layer_factory.hpp:77] Creating layer res4d_branch2c
I0701 23:43:23.526610  7938 net.cpp:106] Creating Layer res4d_branch2c
I0701 23:43:23.526618  7938 net.cpp:454] res4d_branch2c <- res4d_branch2b
I0701 23:43:23.526628  7938 net.cpp:411] res4d_branch2c -> res4d_branch2c
I0701 23:43:23.531965  7938 net.cpp:150] Setting up res4d_branch2c
I0701 23:43:23.531987  7938 net.cpp:157] Top shape: 32 1024 2 2 (131072)
I0701 23:43:23.531997  7938 net.cpp:165] Memory required for data: 131465344
I0701 23:43:23.532014  7938 layer_factory.hpp:77] Creating layer bn4d_branch2c
I0701 23:43:23.532030  7938 net.cpp:106] Creating Layer bn4d_branch2c
I0701 23:43:23.532038  7938 net.cpp:454] bn4d_branch2c <- res4d_branch2c
I0701 23:43:23.532047  7938 net.cpp:397] bn4d_branch2c -> res4d_branch2c (in-place)
I0701 23:43:23.532076  7938 net.cpp:150] Setting up bn4d_branch2c
I0701 23:43:23.532085  7938 net.cpp:157] Top shape: 32 1024 2 2 (131072)
I0701 23:43:23.532094  7938 net.cpp:165] Memory required for data: 131989632
I0701 23:43:23.532109  7938 layer_factory.hpp:77] Creating layer scale4d_branch2c
I0701 23:43:23.532122  7938 net.cpp:106] Creating Layer scale4d_branch2c
I0701 23:43:23.532130  7938 net.cpp:454] scale4d_branch2c <- res4d_branch2c
I0701 23:43:23.532140  7938 net.cpp:397] scale4d_branch2c -> res4d_branch2c (in-place)
I0701 23:43:23.532161  7938 layer_factory.hpp:77] Creating layer scale4d_branch2c
I0701 23:43:23.532192  7938 net.cpp:150] Setting up scale4d_branch2c
I0701 23:43:23.532202  7938 net.cpp:157] Top shape: 32 1024 2 2 (131072)
I0701 23:43:23.532212  7938 net.cpp:165] Memory required for data: 132513920
I0701 23:43:23.532223  7938 layer_factory.hpp:77] Creating layer res4d
I0701 23:43:23.532233  7938 net.cpp:106] Creating Layer res4d
I0701 23:43:23.532240  7938 net.cpp:454] res4d <- res4c_res4c_relu_0_split_1
I0701 23:43:23.532248  7938 net.cpp:454] res4d <- res4d_branch2c
I0701 23:43:23.532260  7938 net.cpp:411] res4d -> res4d
I0701 23:43:23.532274  7938 net.cpp:150] Setting up res4d
I0701 23:43:23.532280  7938 net.cpp:157] Top shape: 32 1024 2 2 (131072)
I0701 23:43:23.532289  7938 net.cpp:165] Memory required for data: 133038208
I0701 23:43:23.532295  7938 layer_factory.hpp:77] Creating layer res4d_relu
I0701 23:43:23.532305  7938 net.cpp:106] Creating Layer res4d_relu
I0701 23:43:23.532311  7938 net.cpp:454] res4d_relu <- res4d
I0701 23:43:23.532320  7938 net.cpp:397] res4d_relu -> res4d (in-place)
I0701 23:43:23.532330  7938 net.cpp:150] Setting up res4d_relu
I0701 23:43:23.532336  7938 net.cpp:157] Top shape: 32 1024 2 2 (131072)
I0701 23:43:23.532344  7938 net.cpp:165] Memory required for data: 133562496
I0701 23:43:23.532351  7938 layer_factory.hpp:77] Creating layer res4d_res4d_relu_0_split
I0701 23:43:23.532361  7938 net.cpp:106] Creating Layer res4d_res4d_relu_0_split
I0701 23:43:23.532366  7938 net.cpp:454] res4d_res4d_relu_0_split <- res4d
I0701 23:43:23.532375  7938 net.cpp:411] res4d_res4d_relu_0_split -> res4d_res4d_relu_0_split_0
I0701 23:43:23.532387  7938 net.cpp:411] res4d_res4d_relu_0_split -> res4d_res4d_relu_0_split_1
I0701 23:43:23.532397  7938 net.cpp:150] Setting up res4d_res4d_relu_0_split
I0701 23:43:23.532404  7938 net.cpp:157] Top shape: 32 1024 2 2 (131072)
I0701 23:43:23.532415  7938 net.cpp:157] Top shape: 32 1024 2 2 (131072)
I0701 23:43:23.532423  7938 net.cpp:165] Memory required for data: 134611072
I0701 23:43:23.532430  7938 layer_factory.hpp:77] Creating layer res4e_branch2a
I0701 23:43:23.532451  7938 net.cpp:106] Creating Layer res4e_branch2a
I0701 23:43:23.532459  7938 net.cpp:454] res4e_branch2a <- res4d_res4d_relu_0_split_0
I0701 23:43:23.532472  7938 net.cpp:411] res4e_branch2a -> res4e_branch2a
I0701 23:43:23.537794  7938 net.cpp:150] Setting up res4e_branch2a
I0701 23:43:23.537811  7938 net.cpp:157] Top shape: 32 256 2 2 (32768)
I0701 23:43:23.537820  7938 net.cpp:165] Memory required for data: 134742144
I0701 23:43:23.537830  7938 layer_factory.hpp:77] Creating layer bn4e_branch2a
I0701 23:43:23.537847  7938 net.cpp:106] Creating Layer bn4e_branch2a
I0701 23:43:23.537853  7938 net.cpp:454] bn4e_branch2a <- res4e_branch2a
I0701 23:43:23.537863  7938 net.cpp:397] bn4e_branch2a -> res4e_branch2a (in-place)
I0701 23:43:23.537886  7938 net.cpp:150] Setting up bn4e_branch2a
I0701 23:43:23.537894  7938 net.cpp:157] Top shape: 32 256 2 2 (32768)
I0701 23:43:23.537905  7938 net.cpp:165] Memory required for data: 134873216
I0701 23:43:23.537928  7938 layer_factory.hpp:77] Creating layer scale4e_branch2a
I0701 23:43:23.537941  7938 net.cpp:106] Creating Layer scale4e_branch2a
I0701 23:43:23.537950  7938 net.cpp:454] scale4e_branch2a <- res4e_branch2a
I0701 23:43:23.537961  7938 net.cpp:397] scale4e_branch2a -> res4e_branch2a (in-place)
I0701 23:43:23.537981  7938 layer_factory.hpp:77] Creating layer scale4e_branch2a
I0701 23:43:23.538012  7938 net.cpp:150] Setting up scale4e_branch2a
I0701 23:43:23.538023  7938 net.cpp:157] Top shape: 32 256 2 2 (32768)
I0701 23:43:23.538033  7938 net.cpp:165] Memory required for data: 135004288
I0701 23:43:23.538044  7938 layer_factory.hpp:77] Creating layer res4e_branch2a_relu
I0701 23:43:23.538058  7938 net.cpp:106] Creating Layer res4e_branch2a_relu
I0701 23:43:23.538065  7938 net.cpp:454] res4e_branch2a_relu <- res4e_branch2a
I0701 23:43:23.538074  7938 net.cpp:397] res4e_branch2a_relu -> res4e_branch2a (in-place)
I0701 23:43:23.538084  7938 net.cpp:150] Setting up res4e_branch2a_relu
I0701 23:43:23.538091  7938 net.cpp:157] Top shape: 32 256 2 2 (32768)
I0701 23:43:23.538100  7938 net.cpp:165] Memory required for data: 135135360
I0701 23:43:23.538106  7938 layer_factory.hpp:77] Creating layer res4e_branch2b
I0701 23:43:23.538130  7938 net.cpp:106] Creating Layer res4e_branch2b
I0701 23:43:23.538141  7938 net.cpp:454] res4e_branch2b <- res4e_branch2a
I0701 23:43:23.538151  7938 net.cpp:411] res4e_branch2b -> res4e_branch2b
I0701 23:43:23.549968  7938 net.cpp:150] Setting up res4e_branch2b
I0701 23:43:23.549983  7938 net.cpp:157] Top shape: 32 256 2 2 (32768)
I0701 23:43:23.549993  7938 net.cpp:165] Memory required for data: 135266432
I0701 23:43:23.550010  7938 layer_factory.hpp:77] Creating layer bn4e_branch2b
I0701 23:43:23.550024  7938 net.cpp:106] Creating Layer bn4e_branch2b
I0701 23:43:23.550030  7938 net.cpp:454] bn4e_branch2b <- res4e_branch2b
I0701 23:43:23.550040  7938 net.cpp:397] bn4e_branch2b -> res4e_branch2b (in-place)
I0701 23:43:23.550061  7938 net.cpp:150] Setting up bn4e_branch2b
I0701 23:43:23.550071  7938 net.cpp:157] Top shape: 32 256 2 2 (32768)
I0701 23:43:23.550081  7938 net.cpp:165] Memory required for data: 135397504
I0701 23:43:23.550093  7938 layer_factory.hpp:77] Creating layer scale4e_branch2b
I0701 23:43:23.550106  7938 net.cpp:106] Creating Layer scale4e_branch2b
I0701 23:43:23.550113  7938 net.cpp:454] scale4e_branch2b <- res4e_branch2b
I0701 23:43:23.550122  7938 net.cpp:397] scale4e_branch2b -> res4e_branch2b (in-place)
I0701 23:43:23.550143  7938 layer_factory.hpp:77] Creating layer scale4e_branch2b
I0701 23:43:23.550168  7938 net.cpp:150] Setting up scale4e_branch2b
I0701 23:43:23.550177  7938 net.cpp:157] Top shape: 32 256 2 2 (32768)
I0701 23:43:23.550186  7938 net.cpp:165] Memory required for data: 135528576
I0701 23:43:23.550197  7938 layer_factory.hpp:77] Creating layer res4e_branch2b_relu
I0701 23:43:23.550207  7938 net.cpp:106] Creating Layer res4e_branch2b_relu
I0701 23:43:23.550215  7938 net.cpp:454] res4e_branch2b_relu <- res4e_branch2b
I0701 23:43:23.550225  7938 net.cpp:397] res4e_branch2b_relu -> res4e_branch2b (in-place)
I0701 23:43:23.550235  7938 net.cpp:150] Setting up res4e_branch2b_relu
I0701 23:43:23.550246  7938 net.cpp:157] Top shape: 32 256 2 2 (32768)
I0701 23:43:23.550256  7938 net.cpp:165] Memory required for data: 135659648
I0701 23:43:23.550262  7938 layer_factory.hpp:77] Creating layer res4e_branch2c
I0701 23:43:23.550282  7938 net.cpp:106] Creating Layer res4e_branch2c
I0701 23:43:23.550290  7938 net.cpp:454] res4e_branch2c <- res4e_branch2b
I0701 23:43:23.550303  7938 net.cpp:411] res4e_branch2c -> res4e_branch2c
I0701 23:43:23.555634  7938 net.cpp:150] Setting up res4e_branch2c
I0701 23:43:23.555649  7938 net.cpp:157] Top shape: 32 1024 2 2 (131072)
I0701 23:43:23.555660  7938 net.cpp:165] Memory required for data: 136183936
I0701 23:43:23.555670  7938 layer_factory.hpp:77] Creating layer bn4e_branch2c
I0701 23:43:23.555681  7938 net.cpp:106] Creating Layer bn4e_branch2c
I0701 23:43:23.555688  7938 net.cpp:454] bn4e_branch2c <- res4e_branch2c
I0701 23:43:23.555707  7938 net.cpp:397] bn4e_branch2c -> res4e_branch2c (in-place)
I0701 23:43:23.555737  7938 net.cpp:150] Setting up bn4e_branch2c
I0701 23:43:23.555747  7938 net.cpp:157] Top shape: 32 1024 2 2 (131072)
I0701 23:43:23.555759  7938 net.cpp:165] Memory required for data: 136708224
I0701 23:43:23.555773  7938 layer_factory.hpp:77] Creating layer scale4e_branch2c
I0701 23:43:23.555785  7938 net.cpp:106] Creating Layer scale4e_branch2c
I0701 23:43:23.555794  7938 net.cpp:454] scale4e_branch2c <- res4e_branch2c
I0701 23:43:23.555804  7938 net.cpp:397] scale4e_branch2c -> res4e_branch2c (in-place)
I0701 23:43:23.555827  7938 layer_factory.hpp:77] Creating layer scale4e_branch2c
I0701 23:43:23.555856  7938 net.cpp:150] Setting up scale4e_branch2c
I0701 23:43:23.555866  7938 net.cpp:157] Top shape: 32 1024 2 2 (131072)
I0701 23:43:23.555874  7938 net.cpp:165] Memory required for data: 137232512
I0701 23:43:23.555886  7938 layer_factory.hpp:77] Creating layer res4e
I0701 23:43:23.555896  7938 net.cpp:106] Creating Layer res4e
I0701 23:43:23.555903  7938 net.cpp:454] res4e <- res4d_res4d_relu_0_split_1
I0701 23:43:23.555912  7938 net.cpp:454] res4e <- res4e_branch2c
I0701 23:43:23.555920  7938 net.cpp:411] res4e -> res4e
I0701 23:43:23.555933  7938 net.cpp:150] Setting up res4e
I0701 23:43:23.555940  7938 net.cpp:157] Top shape: 32 1024 2 2 (131072)
I0701 23:43:23.555948  7938 net.cpp:165] Memory required for data: 137756800
I0701 23:43:23.555955  7938 layer_factory.hpp:77] Creating layer res4e_relu
I0701 23:43:23.555968  7938 net.cpp:106] Creating Layer res4e_relu
I0701 23:43:23.555974  7938 net.cpp:454] res4e_relu <- res4e
I0701 23:43:23.555982  7938 net.cpp:397] res4e_relu -> res4e (in-place)
I0701 23:43:23.555992  7938 net.cpp:150] Setting up res4e_relu
I0701 23:43:23.555999  7938 net.cpp:157] Top shape: 32 1024 2 2 (131072)
I0701 23:43:23.556020  7938 net.cpp:165] Memory required for data: 138281088
I0701 23:43:23.556027  7938 layer_factory.hpp:77] Creating layer res4e_res4e_relu_0_split
I0701 23:43:23.556036  7938 net.cpp:106] Creating Layer res4e_res4e_relu_0_split
I0701 23:43:23.556043  7938 net.cpp:454] res4e_res4e_relu_0_split <- res4e
I0701 23:43:23.556052  7938 net.cpp:411] res4e_res4e_relu_0_split -> res4e_res4e_relu_0_split_0
I0701 23:43:23.556063  7938 net.cpp:411] res4e_res4e_relu_0_split -> res4e_res4e_relu_0_split_1
I0701 23:43:23.556074  7938 net.cpp:150] Setting up res4e_res4e_relu_0_split
I0701 23:43:23.556082  7938 net.cpp:157] Top shape: 32 1024 2 2 (131072)
I0701 23:43:23.556090  7938 net.cpp:157] Top shape: 32 1024 2 2 (131072)
I0701 23:43:23.556097  7938 net.cpp:165] Memory required for data: 139329664
I0701 23:43:23.556104  7938 layer_factory.hpp:77] Creating layer res4f_branch2a
I0701 23:43:23.556123  7938 net.cpp:106] Creating Layer res4f_branch2a
I0701 23:43:23.556131  7938 net.cpp:454] res4f_branch2a <- res4e_res4e_relu_0_split_0
I0701 23:43:23.556141  7938 net.cpp:411] res4f_branch2a -> res4f_branch2a
I0701 23:43:23.561446  7938 net.cpp:150] Setting up res4f_branch2a
I0701 23:43:23.561461  7938 net.cpp:157] Top shape: 32 256 2 2 (32768)
I0701 23:43:23.561470  7938 net.cpp:165] Memory required for data: 139460736
I0701 23:43:23.561481  7938 layer_factory.hpp:77] Creating layer bn4f_branch2a
I0701 23:43:23.561496  7938 net.cpp:106] Creating Layer bn4f_branch2a
I0701 23:43:23.561504  7938 net.cpp:454] bn4f_branch2a <- res4f_branch2a
I0701 23:43:23.561513  7938 net.cpp:397] bn4f_branch2a -> res4f_branch2a (in-place)
I0701 23:43:23.561539  7938 net.cpp:150] Setting up bn4f_branch2a
I0701 23:43:23.561547  7938 net.cpp:157] Top shape: 32 256 2 2 (32768)
I0701 23:43:23.561555  7938 net.cpp:165] Memory required for data: 139591808
I0701 23:43:23.561569  7938 layer_factory.hpp:77] Creating layer scale4f_branch2a
I0701 23:43:23.561584  7938 net.cpp:106] Creating Layer scale4f_branch2a
I0701 23:43:23.561592  7938 net.cpp:454] scale4f_branch2a <- res4f_branch2a
I0701 23:43:23.561601  7938 net.cpp:397] scale4f_branch2a -> res4f_branch2a (in-place)
I0701 23:43:23.561621  7938 layer_factory.hpp:77] Creating layer scale4f_branch2a
I0701 23:43:23.561661  7938 net.cpp:150] Setting up scale4f_branch2a
I0701 23:43:23.561671  7938 net.cpp:157] Top shape: 32 256 2 2 (32768)
I0701 23:43:23.561679  7938 net.cpp:165] Memory required for data: 139722880
I0701 23:43:23.561691  7938 layer_factory.hpp:77] Creating layer res4f_branch2a_relu
I0701 23:43:23.561702  7938 net.cpp:106] Creating Layer res4f_branch2a_relu
I0701 23:43:23.561708  7938 net.cpp:454] res4f_branch2a_relu <- res4f_branch2a
I0701 23:43:23.561719  7938 net.cpp:397] res4f_branch2a_relu -> res4f_branch2a (in-place)
I0701 23:43:23.561729  7938 net.cpp:150] Setting up res4f_branch2a_relu
I0701 23:43:23.561736  7938 net.cpp:157] Top shape: 32 256 2 2 (32768)
I0701 23:43:23.561744  7938 net.cpp:165] Memory required for data: 139853952
I0701 23:43:23.561751  7938 layer_factory.hpp:77] Creating layer res4f_branch2b
I0701 23:43:23.561771  7938 net.cpp:106] Creating Layer res4f_branch2b
I0701 23:43:23.561779  7938 net.cpp:454] res4f_branch2b <- res4f_branch2a
I0701 23:43:23.561791  7938 net.cpp:411] res4f_branch2b -> res4f_branch2b
I0701 23:43:23.573669  7938 net.cpp:150] Setting up res4f_branch2b
I0701 23:43:23.573685  7938 net.cpp:157] Top shape: 32 256 2 2 (32768)
I0701 23:43:23.573695  7938 net.cpp:165] Memory required for data: 139985024
I0701 23:43:23.573706  7938 layer_factory.hpp:77] Creating layer bn4f_branch2b
I0701 23:43:23.573719  7938 net.cpp:106] Creating Layer bn4f_branch2b
I0701 23:43:23.573725  7938 net.cpp:454] bn4f_branch2b <- res4f_branch2b
I0701 23:43:23.573734  7938 net.cpp:397] bn4f_branch2b -> res4f_branch2b (in-place)
I0701 23:43:23.573756  7938 net.cpp:150] Setting up bn4f_branch2b
I0701 23:43:23.573765  7938 net.cpp:157] Top shape: 32 256 2 2 (32768)
I0701 23:43:23.573776  7938 net.cpp:165] Memory required for data: 140116096
I0701 23:43:23.573789  7938 layer_factory.hpp:77] Creating layer scale4f_branch2b
I0701 23:43:23.573803  7938 net.cpp:106] Creating Layer scale4f_branch2b
I0701 23:43:23.573813  7938 net.cpp:454] scale4f_branch2b <- res4f_branch2b
I0701 23:43:23.573822  7938 net.cpp:397] scale4f_branch2b -> res4f_branch2b (in-place)
I0701 23:43:23.573840  7938 layer_factory.hpp:77] Creating layer scale4f_branch2b
I0701 23:43:23.573868  7938 net.cpp:150] Setting up scale4f_branch2b
I0701 23:43:23.573878  7938 net.cpp:157] Top shape: 32 256 2 2 (32768)
I0701 23:43:23.573886  7938 net.cpp:165] Memory required for data: 140247168
I0701 23:43:23.573897  7938 layer_factory.hpp:77] Creating layer res4f_branch2b_relu
I0701 23:43:23.573913  7938 net.cpp:106] Creating Layer res4f_branch2b_relu
I0701 23:43:23.573921  7938 net.cpp:454] res4f_branch2b_relu <- res4f_branch2b
I0701 23:43:23.573930  7938 net.cpp:397] res4f_branch2b_relu -> res4f_branch2b (in-place)
I0701 23:43:23.573940  7938 net.cpp:150] Setting up res4f_branch2b_relu
I0701 23:43:23.573947  7938 net.cpp:157] Top shape: 32 256 2 2 (32768)
I0701 23:43:23.573956  7938 net.cpp:165] Memory required for data: 140378240
I0701 23:43:23.573962  7938 layer_factory.hpp:77] Creating layer res4f_branch2c
I0701 23:43:23.573983  7938 net.cpp:106] Creating Layer res4f_branch2c
I0701 23:43:23.573992  7938 net.cpp:454] res4f_branch2c <- res4f_branch2b
I0701 23:43:23.574007  7938 net.cpp:411] res4f_branch2c -> res4f_branch2c
I0701 23:43:23.579316  7938 net.cpp:150] Setting up res4f_branch2c
I0701 23:43:23.579331  7938 net.cpp:157] Top shape: 32 1024 2 2 (131072)
I0701 23:43:23.579341  7938 net.cpp:165] Memory required for data: 140902528
I0701 23:43:23.579355  7938 layer_factory.hpp:77] Creating layer bn4f_branch2c
I0701 23:43:23.579367  7938 net.cpp:106] Creating Layer bn4f_branch2c
I0701 23:43:23.579375  7938 net.cpp:454] bn4f_branch2c <- res4f_branch2c
I0701 23:43:23.579383  7938 net.cpp:397] bn4f_branch2c -> res4f_branch2c (in-place)
I0701 23:43:23.579411  7938 net.cpp:150] Setting up bn4f_branch2c
I0701 23:43:23.579421  7938 net.cpp:157] Top shape: 32 1024 2 2 (131072)
I0701 23:43:23.579429  7938 net.cpp:165] Memory required for data: 141426816
I0701 23:43:23.579488  7938 layer_factory.hpp:77] Creating layer scale4f_branch2c
I0701 23:43:23.579514  7938 net.cpp:106] Creating Layer scale4f_branch2c
I0701 23:43:23.579522  7938 net.cpp:454] scale4f_branch2c <- res4f_branch2c
I0701 23:43:23.579532  7938 net.cpp:397] scale4f_branch2c -> res4f_branch2c (in-place)
I0701 23:43:23.579556  7938 layer_factory.hpp:77] Creating layer scale4f_branch2c
I0701 23:43:23.579584  7938 net.cpp:150] Setting up scale4f_branch2c
I0701 23:43:23.579592  7938 net.cpp:157] Top shape: 32 1024 2 2 (131072)
I0701 23:43:23.579602  7938 net.cpp:165] Memory required for data: 141951104
I0701 23:43:23.579612  7938 layer_factory.hpp:77] Creating layer res4f
I0701 23:43:23.579623  7938 net.cpp:106] Creating Layer res4f
I0701 23:43:23.579630  7938 net.cpp:454] res4f <- res4e_res4e_relu_0_split_1
I0701 23:43:23.579638  7938 net.cpp:454] res4f <- res4f_branch2c
I0701 23:43:23.579649  7938 net.cpp:411] res4f -> res4f
I0701 23:43:23.579663  7938 net.cpp:150] Setting up res4f
I0701 23:43:23.579670  7938 net.cpp:157] Top shape: 32 1024 2 2 (131072)
I0701 23:43:23.579679  7938 net.cpp:165] Memory required for data: 142475392
I0701 23:43:23.579685  7938 layer_factory.hpp:77] Creating layer res4f_relu
I0701 23:43:23.579694  7938 net.cpp:106] Creating Layer res4f_relu
I0701 23:43:23.579701  7938 net.cpp:454] res4f_relu <- res4f
I0701 23:43:23.579712  7938 net.cpp:397] res4f_relu -> res4f (in-place)
I0701 23:43:23.579722  7938 net.cpp:150] Setting up res4f_relu
I0701 23:43:23.579730  7938 net.cpp:157] Top shape: 32 1024 2 2 (131072)
I0701 23:43:23.579738  7938 net.cpp:165] Memory required for data: 142999680
I0701 23:43:23.579744  7938 layer_factory.hpp:77] Creating layer res4f_res4f_relu_0_split
I0701 23:43:23.579753  7938 net.cpp:106] Creating Layer res4f_res4f_relu_0_split
I0701 23:43:23.579761  7938 net.cpp:454] res4f_res4f_relu_0_split <- res4f
I0701 23:43:23.579768  7938 net.cpp:411] res4f_res4f_relu_0_split -> res4f_res4f_relu_0_split_0
I0701 23:43:23.579779  7938 net.cpp:411] res4f_res4f_relu_0_split -> res4f_res4f_relu_0_split_1
I0701 23:43:23.579792  7938 net.cpp:150] Setting up res4f_res4f_relu_0_split
I0701 23:43:23.579797  7938 net.cpp:157] Top shape: 32 1024 2 2 (131072)
I0701 23:43:23.579808  7938 net.cpp:157] Top shape: 32 1024 2 2 (131072)
I0701 23:43:23.579818  7938 net.cpp:165] Memory required for data: 144048256
I0701 23:43:23.579824  7938 layer_factory.hpp:77] Creating layer res5a_branch1
I0701 23:43:23.579844  7938 net.cpp:106] Creating Layer res5a_branch1
I0701 23:43:23.579851  7938 net.cpp:454] res5a_branch1 <- res4f_res4f_relu_0_split_0
I0701 23:43:23.579867  7938 net.cpp:411] res5a_branch1 -> res5a_branch1
I0701 23:43:23.621876  7938 net.cpp:150] Setting up res5a_branch1
I0701 23:43:23.621893  7938 net.cpp:157] Top shape: 32 2048 1 1 (65536)
I0701 23:43:23.621903  7938 net.cpp:165] Memory required for data: 144310400
I0701 23:43:23.621914  7938 layer_factory.hpp:77] Creating layer bn5a_branch1
I0701 23:43:23.621927  7938 net.cpp:106] Creating Layer bn5a_branch1
I0701 23:43:23.621934  7938 net.cpp:454] bn5a_branch1 <- res5a_branch1
I0701 23:43:23.621943  7938 net.cpp:397] bn5a_branch1 -> res5a_branch1 (in-place)
I0701 23:43:23.621974  7938 net.cpp:150] Setting up bn5a_branch1
I0701 23:43:23.621982  7938 net.cpp:157] Top shape: 32 2048 1 1 (65536)
I0701 23:43:23.621991  7938 net.cpp:165] Memory required for data: 144572544
I0701 23:43:23.622017  7938 layer_factory.hpp:77] Creating layer scale5a_branch1
I0701 23:43:23.622033  7938 net.cpp:106] Creating Layer scale5a_branch1
I0701 23:43:23.622040  7938 net.cpp:454] scale5a_branch1 <- res5a_branch1
I0701 23:43:23.622052  7938 net.cpp:397] scale5a_branch1 -> res5a_branch1 (in-place)
I0701 23:43:23.622078  7938 layer_factory.hpp:77] Creating layer scale5a_branch1
I0701 23:43:23.622113  7938 net.cpp:150] Setting up scale5a_branch1
I0701 23:43:23.622123  7938 net.cpp:157] Top shape: 32 2048 1 1 (65536)
I0701 23:43:23.622135  7938 net.cpp:165] Memory required for data: 144834688
I0701 23:43:23.622146  7938 layer_factory.hpp:77] Creating layer res5a_branch2a
I0701 23:43:23.622175  7938 net.cpp:106] Creating Layer res5a_branch2a
I0701 23:43:23.622184  7938 net.cpp:454] res5a_branch2a <- res4f_res4f_relu_0_split_1
I0701 23:43:23.622197  7938 net.cpp:411] res5a_branch2a -> res5a_branch2a
I0701 23:43:23.632721  7938 net.cpp:150] Setting up res5a_branch2a
I0701 23:43:23.632737  7938 net.cpp:157] Top shape: 32 512 1 1 (16384)
I0701 23:43:23.632747  7938 net.cpp:165] Memory required for data: 144900224
I0701 23:43:23.632757  7938 layer_factory.hpp:77] Creating layer bn5a_branch2a
I0701 23:43:23.632769  7938 net.cpp:106] Creating Layer bn5a_branch2a
I0701 23:43:23.632777  7938 net.cpp:454] bn5a_branch2a <- res5a_branch2a
I0701 23:43:23.632786  7938 net.cpp:397] bn5a_branch2a -> res5a_branch2a (in-place)
I0701 23:43:23.632808  7938 net.cpp:150] Setting up bn5a_branch2a
I0701 23:43:23.632817  7938 net.cpp:157] Top shape: 32 512 1 1 (16384)
I0701 23:43:23.632824  7938 net.cpp:165] Memory required for data: 144965760
I0701 23:43:23.632838  7938 layer_factory.hpp:77] Creating layer scale5a_branch2a
I0701 23:43:23.632851  7938 net.cpp:106] Creating Layer scale5a_branch2a
I0701 23:43:23.632858  7938 net.cpp:454] scale5a_branch2a <- res5a_branch2a
I0701 23:43:23.632870  7938 net.cpp:397] scale5a_branch2a -> res5a_branch2a (in-place)
I0701 23:43:23.632889  7938 layer_factory.hpp:77] Creating layer scale5a_branch2a
I0701 23:43:23.632915  7938 net.cpp:150] Setting up scale5a_branch2a
I0701 23:43:23.632925  7938 net.cpp:157] Top shape: 32 512 1 1 (16384)
I0701 23:43:23.632933  7938 net.cpp:165] Memory required for data: 145031296
I0701 23:43:23.632946  7938 layer_factory.hpp:77] Creating layer res5a_branch2a_relu
I0701 23:43:23.632957  7938 net.cpp:106] Creating Layer res5a_branch2a_relu
I0701 23:43:23.632964  7938 net.cpp:454] res5a_branch2a_relu <- res5a_branch2a
I0701 23:43:23.632973  7938 net.cpp:397] res5a_branch2a_relu -> res5a_branch2a (in-place)
I0701 23:43:23.632983  7938 net.cpp:150] Setting up res5a_branch2a_relu
I0701 23:43:23.632990  7938 net.cpp:157] Top shape: 32 512 1 1 (16384)
I0701 23:43:23.632998  7938 net.cpp:165] Memory required for data: 145096832
I0701 23:43:23.633013  7938 layer_factory.hpp:77] Creating layer res5a_branch2b
I0701 23:43:23.633033  7938 net.cpp:106] Creating Layer res5a_branch2b
I0701 23:43:23.633041  7938 net.cpp:454] res5a_branch2b <- res5a_branch2a
I0701 23:43:23.633051  7938 net.cpp:411] res5a_branch2b -> res5a_branch2b
I0701 23:43:23.680454  7938 net.cpp:150] Setting up res5a_branch2b
I0701 23:43:23.680470  7938 net.cpp:157] Top shape: 32 512 1 1 (16384)
I0701 23:43:23.680480  7938 net.cpp:165] Memory required for data: 145162368
I0701 23:43:23.680491  7938 layer_factory.hpp:77] Creating layer bn5a_branch2b
I0701 23:43:23.680503  7938 net.cpp:106] Creating Layer bn5a_branch2b
I0701 23:43:23.680510  7938 net.cpp:454] bn5a_branch2b <- res5a_branch2b
I0701 23:43:23.680519  7938 net.cpp:397] bn5a_branch2b -> res5a_branch2b (in-place)
I0701 23:43:23.680543  7938 net.cpp:150] Setting up bn5a_branch2b
I0701 23:43:23.680552  7938 net.cpp:157] Top shape: 32 512 1 1 (16384)
I0701 23:43:23.680559  7938 net.cpp:165] Memory required for data: 145227904
I0701 23:43:23.680573  7938 layer_factory.hpp:77] Creating layer scale5a_branch2b
I0701 23:43:23.680589  7938 net.cpp:106] Creating Layer scale5a_branch2b
I0701 23:43:23.680598  7938 net.cpp:454] scale5a_branch2b <- res5a_branch2b
I0701 23:43:23.680606  7938 net.cpp:397] scale5a_branch2b -> res5a_branch2b (in-place)
I0701 23:43:23.680624  7938 layer_factory.hpp:77] Creating layer scale5a_branch2b
I0701 23:43:23.680652  7938 net.cpp:150] Setting up scale5a_branch2b
I0701 23:43:23.680662  7938 net.cpp:157] Top shape: 32 512 1 1 (16384)
I0701 23:43:23.680670  7938 net.cpp:165] Memory required for data: 145293440
I0701 23:43:23.680682  7938 layer_factory.hpp:77] Creating layer res5a_branch2b_relu
I0701 23:43:23.680693  7938 net.cpp:106] Creating Layer res5a_branch2b_relu
I0701 23:43:23.680701  7938 net.cpp:454] res5a_branch2b_relu <- res5a_branch2b
I0701 23:43:23.680712  7938 net.cpp:397] res5a_branch2b_relu -> res5a_branch2b (in-place)
I0701 23:43:23.680733  7938 net.cpp:150] Setting up res5a_branch2b_relu
I0701 23:43:23.680740  7938 net.cpp:157] Top shape: 32 512 1 1 (16384)
I0701 23:43:23.680749  7938 net.cpp:165] Memory required for data: 145358976
I0701 23:43:23.680757  7938 layer_factory.hpp:77] Creating layer res5a_branch2c
I0701 23:43:23.680775  7938 net.cpp:106] Creating Layer res5a_branch2c
I0701 23:43:23.680784  7938 net.cpp:454] res5a_branch2c <- res5a_branch2b
I0701 23:43:23.680794  7938 net.cpp:411] res5a_branch2c -> res5a_branch2c
I0701 23:43:23.701897  7938 net.cpp:150] Setting up res5a_branch2c
I0701 23:43:23.701913  7938 net.cpp:157] Top shape: 32 2048 1 1 (65536)
I0701 23:43:23.701923  7938 net.cpp:165] Memory required for data: 145621120
I0701 23:43:23.701934  7938 layer_factory.hpp:77] Creating layer bn5a_branch2c
I0701 23:43:23.701947  7938 net.cpp:106] Creating Layer bn5a_branch2c
I0701 23:43:23.701954  7938 net.cpp:454] bn5a_branch2c <- res5a_branch2c
I0701 23:43:23.701967  7938 net.cpp:397] bn5a_branch2c -> res5a_branch2c (in-place)
I0701 23:43:23.701997  7938 net.cpp:150] Setting up bn5a_branch2c
I0701 23:43:23.702016  7938 net.cpp:157] Top shape: 32 2048 1 1 (65536)
I0701 23:43:23.702033  7938 net.cpp:165] Memory required for data: 145883264
I0701 23:43:23.702047  7938 layer_factory.hpp:77] Creating layer scale5a_branch2c
I0701 23:43:23.702060  7938 net.cpp:106] Creating Layer scale5a_branch2c
I0701 23:43:23.702067  7938 net.cpp:454] scale5a_branch2c <- res5a_branch2c
I0701 23:43:23.702080  7938 net.cpp:397] scale5a_branch2c -> res5a_branch2c (in-place)
I0701 23:43:23.702102  7938 layer_factory.hpp:77] Creating layer scale5a_branch2c
I0701 23:43:23.702133  7938 net.cpp:150] Setting up scale5a_branch2c
I0701 23:43:23.702142  7938 net.cpp:157] Top shape: 32 2048 1 1 (65536)
I0701 23:43:23.702152  7938 net.cpp:165] Memory required for data: 146145408
I0701 23:43:23.702167  7938 layer_factory.hpp:77] Creating layer res5a
I0701 23:43:23.702178  7938 net.cpp:106] Creating Layer res5a
I0701 23:43:23.702185  7938 net.cpp:454] res5a <- res5a_branch1
I0701 23:43:23.702193  7938 net.cpp:454] res5a <- res5a_branch2c
I0701 23:43:23.702201  7938 net.cpp:411] res5a -> res5a
I0701 23:43:23.702215  7938 net.cpp:150] Setting up res5a
I0701 23:43:23.702222  7938 net.cpp:157] Top shape: 32 2048 1 1 (65536)
I0701 23:43:23.702230  7938 net.cpp:165] Memory required for data: 146407552
I0701 23:43:23.702236  7938 layer_factory.hpp:77] Creating layer res5a_relu
I0701 23:43:23.702248  7938 net.cpp:106] Creating Layer res5a_relu
I0701 23:43:23.702256  7938 net.cpp:454] res5a_relu <- res5a
I0701 23:43:23.702265  7938 net.cpp:397] res5a_relu -> res5a (in-place)
I0701 23:43:23.702275  7938 net.cpp:150] Setting up res5a_relu
I0701 23:43:23.702281  7938 net.cpp:157] Top shape: 32 2048 1 1 (65536)
I0701 23:43:23.702289  7938 net.cpp:165] Memory required for data: 146669696
I0701 23:43:23.702296  7938 layer_factory.hpp:77] Creating layer res5a_res5a_relu_0_split
I0701 23:43:23.702306  7938 net.cpp:106] Creating Layer res5a_res5a_relu_0_split
I0701 23:43:23.702312  7938 net.cpp:454] res5a_res5a_relu_0_split <- res5a
I0701 23:43:23.702322  7938 net.cpp:411] res5a_res5a_relu_0_split -> res5a_res5a_relu_0_split_0
I0701 23:43:23.702332  7938 net.cpp:411] res5a_res5a_relu_0_split -> res5a_res5a_relu_0_split_1
…
I0701 23:43:24.045061  7938 net.cpp:454] res4c_res4c_relu_0_split <- res4c
I0701 23:43:24.045073  7938 net.cpp:411] res4c_res4c_relu_0_split -> res4c_res4c_relu_0_split_0
I0701 23:43:24.045086  7938 net.cpp:411] res4c_res4c_relu_0_split -> res4c_res4c_relu_0_split_1
I0701 23:43:24.045097  7938 net.cpp:150] Setting up res4c_res4c_relu_0_split
I0701 23:43:24.045105  7938 net.cpp:157] Top shape: 1 1024 2 2 (4096)
I0701 23:43:24.045114  7938 net.cpp:157] Top shape: 1 1024 2 2 (4096)
I0701 23:43:24.045122  7938 net.cpp:165] Memory required for data: 4059152
I0701 23:43:24.045130  7938 layer_factory.hpp:77] Creating layer res4d_branch2a
I0701 23:43:24.045151  7938 net.cpp:106] Creating Layer res4d_branch2a
I0701 23:43:24.045161  7938 net.cpp:454] res4d_branch2a <- res4c_res4c_relu_0_split_0
I0701 23:43:24.045171  7938 net.cpp:411] res4d_branch2a -> res4d_branch2a
I0701 23:43:24.050489  7938 net.cpp:150] Setting up res4d_branch2a
I0701 23:43:24.050505  7938 net.cpp:157] Top shape: 1 256 2 2 (1024)
I0701 23:43:24.050515  7938 net.cpp:165] Memory required for data: 4063248
I0701 23:43:24.050529  7938 layer_factory.hpp:77] Creating layer bn4d_branch2a
I0701 23:43:24.050540  7938 net.cpp:106] Creating Layer bn4d_branch2a
I0701 23:43:24.050549  7938 net.cpp:454] bn4d_branch2a <- res4d_branch2a
I0701 23:43:24.050557  7938 net.cpp:397] bn4d_branch2a -> res4d_branch2a (in-place)
I0701 23:43:24.050581  7938 net.cpp:150] Setting up bn4d_branch2a
I0701 23:43:24.050588  7938 net.cpp:157] Top shape: 1 256 2 2 (1024)
I0701 23:43:24.050597  7938 net.cpp:165] Memory required for data: 4067344
I0701 23:43:24.050611  7938 layer_factory.hpp:77] Creating layer scale4d_branch2a
I0701 23:43:24.050623  7938 net.cpp:106] Creating Layer scale4d_branch2a
I0701 23:43:24.050631  7938 net.cpp:454] scale4d_branch2a <- res4d_branch2a
I0701 23:43:24.050640  7938 net.cpp:397] scale4d_branch2a -> res4d_branch2a (in-place)
I0701 23:43:24.050669  7938 layer_factory.hpp:77] Creating layer scale4d_branch2a
I0701 23:43:24.050699  7938 net.cpp:150] Setting up scale4d_branch2a
I0701 23:43:24.050709  7938 net.cpp:157] Top shape: 1 256 2 2 (1024)
I0701 23:43:24.050719  7938 net.cpp:165] Memory required for data: 4071440
I0701 23:43:24.050729  7938 layer_factory.hpp:77] Creating layer res4d_branch2a_relu
I0701 23:43:24.050739  7938 net.cpp:106] Creating Layer res4d_branch2a_relu
I0701 23:43:24.050745  7938 net.cpp:454] res4d_branch2a_relu <- res4d_branch2a
I0701 23:43:24.050756  7938 net.cpp:397] res4d_branch2a_relu -> res4d_branch2a (in-place)
I0701 23:43:24.050767  7938 net.cpp:150] Setting up res4d_branch2a_relu
I0701 23:43:24.050773  7938 net.cpp:157] Top shape: 1 256 2 2 (1024)
I0701 23:43:24.050782  7938 net.cpp:165] Memory required for data: 4075536
I0701 23:43:24.050788  7938 layer_factory.hpp:77] Creating layer res4d_branch2b
I0701 23:43:24.050806  7938 net.cpp:106] Creating Layer res4d_branch2b
I0701 23:43:24.050813  7938 net.cpp:454] res4d_branch2b <- res4d_branch2a
I0701 23:43:24.050825  7938 net.cpp:411] res4d_branch2b -> res4d_branch2b
I0701 23:43:24.062677  7938 net.cpp:150] Setting up res4d_branch2b
I0701 23:43:24.062693  7938 net.cpp:157] Top shape: 1 256 2 2 (1024)
I0701 23:43:24.062703  7938 net.cpp:165] Memory required for data: 4079632
I0701 23:43:24.062713  7938 layer_factory.hpp:77] Creating layer bn4d_branch2b
I0701 23:43:24.062726  7938 net.cpp:106] Creating Layer bn4d_branch2b
I0701 23:43:24.062732  7938 net.cpp:454] bn4d_branch2b <- res4d_branch2b
I0701 23:43:24.062744  7938 net.cpp:397] bn4d_branch2b -> res4d_branch2b (in-place)
I0701 23:43:24.062767  7938 net.cpp:150] Setting up bn4d_branch2b
I0701 23:43:24.062774  7938 net.cpp:157] Top shape: 1 256 2 2 (1024)
I0701 23:43:24.062783  7938 net.cpp:165] Memory required for data: 4083728
I0701 23:43:24.062799  7938 layer_factory.hpp:77] Creating layer scale4d_branch2b
I0701 23:43:24.062811  7938 net.cpp:106] Creating Layer scale4d_branch2b
I0701 23:43:24.062819  7938 net.cpp:454] scale4d_branch2b <- res4d_branch2b
I0701 23:43:24.062827  7938 net.cpp:397] scale4d_branch2b -> res4d_branch2b (in-place)
I0701 23:43:24.062849  7938 layer_factory.hpp:77] Creating layer scale4d_branch2b
I0701 23:43:24.062875  7938 net.cpp:150] Setting up scale4d_branch2b
I0701 23:43:24.062883  7938 net.cpp:157] Top shape: 1 256 2 2 (1024)
I0701 23:43:24.062892  7938 net.cpp:165] Memory required for data: 4087824
I0701 23:43:24.062904  7938 layer_factory.hpp:77] Creating layer res4d_branch2b_relu
I0701 23:43:24.062916  7938 net.cpp:106] Creating Layer res4d_branch2b_relu
I0701 23:43:24.062925  7938 net.cpp:454] res4d_branch2b_relu <- res4d_branch2b
I0701 23:43:24.062933  7938 net.cpp:397] res4d_branch2b_relu -> res4d_branch2b (in-place)
I0701 23:43:24.062943  7938 net.cpp:150] Setting up res4d_branch2b_relu
I0701 23:43:24.062950  7938 net.cpp:157] Top shape: 1 256 2 2 (1024)
I0701 23:43:24.062958  7938 net.cpp:165] Memory required for data: 4091920
I0701 23:43:24.062965  7938 layer_factory.hpp:77] Creating layer res4d_branch2c
I0701 23:43:24.062985  7938 net.cpp:106] Creating Layer res4d_branch2c
I0701 23:43:24.062993  7938 net.cpp:454] res4d_branch2c <- res4d_branch2b
I0701 23:43:24.063009  7938 net.cpp:411] res4d_branch2c -> res4d_branch2c
I0701 23:43:24.068317  7938 net.cpp:150] Setting up res4d_branch2c
I0701 23:43:24.068332  7938 net.cpp:157] Top shape: 1 1024 2 2 (4096)
I0701 23:43:24.068342  7938 net.cpp:165] Memory required for data: 4108304
I0701 23:43:24.068352  7938 layer_factory.hpp:77] Creating layer bn4d_branch2c
I0701 23:43:24.068367  7938 net.cpp:106] Creating Layer bn4d_branch2c
I0701 23:43:24.068375  7938 net.cpp:454] bn4d_branch2c <- res4d_branch2c
I0701 23:43:24.068384  7938 net.cpp:397] bn4d_branch2c -> res4d_branch2c (in-place)
I0701 23:43:24.068416  7938 net.cpp:150] Setting up bn4d_branch2c
I0701 23:43:24.068425  7938 net.cpp:157] Top shape: 1 1024 2 2 (4096)
I0701 23:43:24.068434  7938 net.cpp:165] Memory required for data: 4124688
I0701 23:43:24.068456  7938 layer_factory.hpp:77] Creating layer scale4d_branch2c
I0701 23:43:24.068472  7938 net.cpp:106] Creating Layer scale4d_branch2c
I0701 23:43:24.068480  7938 net.cpp:454] scale4d_branch2c <- res4d_branch2c
I0701 23:43:24.068490  7938 net.cpp:397] scale4d_branch2c -> res4d_branch2c (in-place)
I0701 23:43:24.068511  7938 layer_factory.hpp:77] Creating layer scale4d_branch2c
I0701 23:43:24.068539  7938 net.cpp:150] Setting up scale4d_branch2c
I0701 23:43:24.068549  7938 net.cpp:157] Top shape: 1 1024 2 2 (4096)
I0701 23:43:24.068557  7938 net.cpp:165] Memory required for data: 4141072
I0701 23:43:24.068568  7938 layer_factory.hpp:77] Creating layer res4d
I0701 23:43:24.068579  7938 net.cpp:106] Creating Layer res4d
I0701 23:43:24.068586  7938 net.cpp:454] res4d <- res4c_res4c_relu_0_split_1
I0701 23:43:24.068594  7938 net.cpp:454] res4d <- res4d_branch2c
I0701 23:43:24.068603  7938 net.cpp:411] res4d -> res4d
I0701 23:43:24.068616  7938 net.cpp:150] Setting up res4d
I0701 23:43:24.068622  7938 net.cpp:157] Top shape: 1 1024 2 2 (4096)
I0701 23:43:24.068634  7938 net.cpp:165] Memory required for data: 4157456
I0701 23:43:24.068641  7938 layer_factory.hpp:77] Creating layer res4d_relu
I0701 23:43:24.068650  7938 net.cpp:106] Creating Layer res4d_relu
I0701 23:43:24.068657  7938 net.cpp:454] res4d_relu <- res4d
I0701 23:43:24.068665  7938 net.cpp:397] res4d_relu -> res4d (in-place)
I0701 23:43:24.068675  7938 net.cpp:150] Setting up res4d_relu
I0701 23:43:24.068681  7938 net.cpp:157] Top shape: 1 1024 2 2 (4096)
I0701 23:43:24.068689  7938 net.cpp:165] Memory required for data: 4173840
I0701 23:43:24.068696  7938 layer_factory.hpp:77] Creating layer res4d_res4d_relu_0_split
I0701 23:43:24.068706  7938 net.cpp:106] Creating Layer res4d_res4d_relu_0_split
I0701 23:43:24.068711  7938 net.cpp:454] res4d_res4d_relu_0_split <- res4d
I0701 23:43:24.068720  7938 net.cpp:411] res4d_res4d_relu_0_split -> res4d_res4d_relu_0_split_0
I0701 23:43:24.068732  7938 net.cpp:411] res4d_res4d_relu_0_split -> res4d_res4d_relu_0_split_1
I0701 23:43:24.068742  7938 net.cpp:150] Setting up res4d_res4d_relu_0_split
I0701 23:43:24.068749  7938 net.cpp:157] Top shape: 1 1024 2 2 (4096)
I0701 23:43:24.068758  7938 net.cpp:157] Top shape: 1 1024 2 2 (4096)
I0701 23:43:24.068765  7938 net.cpp:165] Memory required for data: 4206608
I0701 23:43:24.068771  7938 layer_factory.hpp:77] Creating layer res4e_branch2a
I0701 23:43:24.068789  7938 net.cpp:106] Creating Layer res4e_branch2a
I0701 23:43:24.068797  7938 net.cpp:454] res4e_branch2a <- res4d_res4d_relu_0_split_0
I0701 23:43:24.068807  7938 net.cpp:411] res4e_branch2a -> res4e_branch2a
I0701 23:43:24.074110  7938 net.cpp:150] Setting up res4e_branch2a
I0701 23:43:24.074126  7938 net.cpp:157] Top shape: 1 256 2 2 (1024)
I0701 23:43:24.074138  7938 net.cpp:165] Memory required for data: 4210704
I0701 23:43:24.074149  7938 layer_factory.hpp:77] Creating layer bn4e_branch2a
I0701 23:43:24.074162  7938 net.cpp:106] Creating Layer bn4e_branch2a
I0701 23:43:24.074169  7938 net.cpp:454] bn4e_branch2a <- res4e_branch2a
I0701 23:43:24.074182  7938 net.cpp:397] bn4e_branch2a -> res4e_branch2a (in-place)
I0701 23:43:24.074208  7938 net.cpp:150] Setting up bn4e_branch2a
I0701 23:43:24.074214  7938 net.cpp:157] Top shape: 1 256 2 2 (1024)
I0701 23:43:24.074223  7938 net.cpp:165] Memory required for data: 4214800
I0701 23:43:24.074236  7938 layer_factory.hpp:77] Creating layer scale4e_branch2a
I0701 23:43:24.074250  7938 net.cpp:106] Creating Layer scale4e_branch2a
I0701 23:43:24.074257  7938 net.cpp:454] scale4e_branch2a <- res4e_branch2a
I0701 23:43:24.074266  7938 net.cpp:397] scale4e_branch2a -> res4e_branch2a (in-place)
I0701 23:43:24.074286  7938 layer_factory.hpp:77] Creating layer scale4e_branch2a
I0701 23:43:24.074316  7938 net.cpp:150] Setting up scale4e_branch2a
I0701 23:43:24.074326  7938 net.cpp:157] Top shape: 1 256 2 2 (1024)
I0701 23:43:24.074334  7938 net.cpp:165] Memory required for data: 4218896
I0701 23:43:24.074345  7938 layer_factory.hpp:77] Creating layer res4e_branch2a_relu
I0701 23:43:24.074363  7938 net.cpp:106] Creating Layer res4e_branch2a_relu
I0701 23:43:24.074370  7938 net.cpp:454] res4e_branch2a_relu <- res4e_branch2a
I0701 23:43:24.074383  7938 net.cpp:397] res4e_branch2a_relu -> res4e_branch2a (in-place)
I0701 23:43:24.074393  7938 net.cpp:150] Setting up res4e_branch2a_relu
I0701 23:43:24.074399  7938 net.cpp:157] Top shape: 1 256 2 2 (1024)
I0701 23:43:24.074409  7938 net.cpp:165] Memory required for data: 4222992
I0701 23:43:24.074414  7938 layer_factory.hpp:77] Creating layer res4e_branch2b
I0701 23:43:24.074435  7938 net.cpp:106] Creating Layer res4e_branch2b
I0701 23:43:24.074442  7938 net.cpp:454] res4e_branch2b <- res4e_branch2a
I0701 23:43:24.074455  7938 net.cpp:411] res4e_branch2b -> res4e_branch2b
I0701 23:43:24.086328  7938 net.cpp:150] Setting up res4e_branch2b
I0701 23:43:24.086344  7938 net.cpp:157] Top shape: 1 256 2 2 (1024)
I0701 23:43:24.086354  7938 net.cpp:165] Memory required for data: 4227088
I0701 23:43:24.086364  7938 layer_factory.hpp:77] Creating layer bn4e_branch2b
I0701 23:43:24.086376  7938 net.cpp:106] Creating Layer bn4e_branch2b
I0701 23:43:24.086385  7938 net.cpp:454] bn4e_branch2b <- res4e_branch2b
I0701 23:43:24.086393  7938 net.cpp:397] bn4e_branch2b -> res4e_branch2b (in-place)
I0701 23:43:24.086416  7938 net.cpp:150] Setting up bn4e_branch2b
I0701 23:43:24.086423  7938 net.cpp:157] Top shape: 1 256 2 2 (1024)
I0701 23:43:24.086434  7938 net.cpp:165] Memory required for data: 4231184
I0701 23:43:24.086447  7938 layer_factory.hpp:77] Creating layer scale4e_branch2b
I0701 23:43:24.086459  7938 net.cpp:106] Creating Layer scale4e_branch2b
I0701 23:43:24.086467  7938 net.cpp:454] scale4e_branch2b <- res4e_branch2b
I0701 23:43:24.086474  7938 net.cpp:397] scale4e_branch2b -> res4e_branch2b (in-place)
I0701 23:43:24.086491  7938 layer_factory.hpp:77] Creating layer scale4e_branch2b
I0701 23:43:24.086518  7938 net.cpp:150] Setting up scale4e_branch2b
I0701 23:43:24.086526  7938 net.cpp:157] Top shape: 1 256 2 2 (1024)
I0701 23:43:24.086540  7938 net.cpp:165] Memory required for data: 4235280
I0701 23:43:24.086553  7938 layer_factory.hpp:77] Creating layer res4e_branch2b_relu
I0701 23:43:24.086565  7938 net.cpp:106] Creating Layer res4e_branch2b_relu
I0701 23:43:24.086571  7938 net.cpp:454] res4e_branch2b_relu <- res4e_branch2b
I0701 23:43:24.086580  7938 net.cpp:397] res4e_branch2b_relu -> res4e_branch2b (in-place)
I0701 23:43:24.086589  7938 net.cpp:150] Setting up res4e_branch2b_relu
I0701 23:43:24.086596  7938 net.cpp:157] Top shape: 1 256 2 2 (1024)
I0701 23:43:24.086604  7938 net.cpp:165] Memory required for data: 4239376
I0701 23:43:24.086611  7938 layer_factory.hpp:77] Creating layer res4e_branch2c
I0701 23:43:24.086633  7938 net.cpp:106] Creating Layer res4e_branch2c
I0701 23:43:24.086642  7938 net.cpp:454] res4e_branch2c <- res4e_branch2b
I0701 23:43:24.086652  7938 net.cpp:411] res4e_branch2c -> res4e_branch2c
I0701 23:43:24.091946  7938 net.cpp:150] Setting up res4e_branch2c
I0701 23:43:24.091961  7938 net.cpp:157] Top shape: 1 1024 2 2 (4096)
I0701 23:43:24.091971  7938 net.cpp:165] Memory required for data: 4255760
I0701 23:43:24.091985  7938 layer_factory.hpp:77] Creating layer bn4e_branch2c
I0701 23:43:24.091997  7938 net.cpp:106] Creating Layer bn4e_branch2c
I0701 23:43:24.092025  7938 net.cpp:454] bn4e_branch2c <- res4e_branch2c
I0701 23:43:24.092036  7938 net.cpp:397] bn4e_branch2c -> res4e_branch2c (in-place)
I0701 23:43:24.092067  7938 net.cpp:150] Setting up bn4e_branch2c
I0701 23:43:24.092077  7938 net.cpp:157] Top shape: 1 1024 2 2 (4096)
I0701 23:43:24.092085  7938 net.cpp:165] Memory required for data: 4272144
I0701 23:43:24.092099  7938 layer_factory.hpp:77] Creating layer scale4e_branch2c
I0701 23:43:24.092114  7938 net.cpp:106] Creating Layer scale4e_branch2c
I0701 23:43:24.092123  7938 net.cpp:454] scale4e_branch2c <- res4e_branch2c
I0701 23:43:24.092133  7938 net.cpp:397] scale4e_branch2c -> res4e_branch2c (in-place)
I0701 23:43:24.092154  7938 layer_factory.hpp:77] Creating layer scale4e_branch2c
I0701 23:43:24.092195  7938 net.cpp:150] Setting up scale4e_branch2c
I0701 23:43:24.092205  7938 net.cpp:157] Top shape: 1 1024 2 2 (4096)
I0701 23:43:24.092213  7938 net.cpp:165] Memory required for data: 4288528
I0701 23:43:24.092226  7938 layer_factory.hpp:77] Creating layer res4e
I0701 23:43:24.092236  7938 net.cpp:106] Creating Layer res4e
I0701 23:43:24.092243  7938 net.cpp:454] res4e <- res4d_res4d_relu_0_split_1
I0701 23:43:24.092250  7938 net.cpp:454] res4e <- res4e_branch2c
I0701 23:43:24.092260  7938 net.cpp:411] res4e -> res4e
I0701 23:43:24.092273  7938 net.cpp:150] Setting up res4e
I0701 23:43:24.092280  7938 net.cpp:157] Top shape: 1 1024 2 2 (4096)
I0701 23:43:24.092289  7938 net.cpp:165] Memory required for data: 4304912
I0701 23:43:24.092295  7938 layer_factory.hpp:77] Creating layer res4e_relu
I0701 23:43:24.092305  7938 net.cpp:106] Creating Layer res4e_relu
I0701 23:43:24.092312  7938 net.cpp:454] res4e_relu <- res4e
I0701 23:43:24.092320  7938 net.cpp:397] res4e_relu -> res4e (in-place)
I0701 23:43:24.092330  7938 net.cpp:150] Setting up res4e_relu
I0701 23:43:24.092337  7938 net.cpp:157] Top shape: 1 1024 2 2 (4096)
I0701 23:43:24.092345  7938 net.cpp:165] Memory required for data: 4321296
I0701 23:43:24.092352  7938 layer_factory.hpp:77] Creating layer res4e_res4e_relu_0_split
I0701 23:43:24.092365  7938 net.cpp:106] Creating Layer res4e_res4e_relu_0_split
I0701 23:43:24.092371  7938 net.cpp:454] res4e_res4e_relu_0_split <- res4e
I0701 23:43:24.092381  7938 net.cpp:411] res4e_res4e_relu_0_split -> res4e_res4e_relu_0_split_0
I0701 23:43:24.092391  7938 net.cpp:411] res4e_res4e_relu_0_split -> res4e_res4e_relu_0_split_1
I0701 23:43:24.092402  7938 net.cpp:150] Setting up res4e_res4e_relu_0_split
I0701 23:43:24.092409  7938 net.cpp:157] Top shape: 1 1024 2 2 (4096)
I0701 23:43:24.092417  7938 net.cpp:157] Top shape: 1 1024 2 2 (4096)
I0701 23:43:24.092425  7938 net.cpp:165] Memory required for data: 4354064
I0701 23:43:24.092432  7938 layer_factory.hpp:77] Creating layer res4f_branch2a
I0701 23:43:24.092453  7938 net.cpp:106] Creating Layer res4f_branch2a
I0701 23:43:24.092461  7938 net.cpp:454] res4f_branch2a <- res4e_res4e_relu_0_split_0
I0701 23:43:24.092470  7938 net.cpp:411] res4f_branch2a -> res4f_branch2a
I0701 23:43:24.097775  7938 net.cpp:150] Setting up res4f_branch2a
I0701 23:43:24.097790  7938 net.cpp:157] Top shape: 1 256 2 2 (1024)
I0701 23:43:24.097800  7938 net.cpp:165] Memory required for data: 4358160
I0701 23:43:24.097810  7938 layer_factory.hpp:77] Creating layer bn4f_branch2a
I0701 23:43:24.097822  7938 net.cpp:106] Creating Layer bn4f_branch2a
I0701 23:43:24.097829  7938 net.cpp:454] bn4f_branch2a <- res4f_branch2a
I0701 23:43:24.097841  7938 net.cpp:397] bn4f_branch2a -> res4f_branch2a (in-place)
I0701 23:43:24.097865  7938 net.cpp:150] Setting up bn4f_branch2a
I0701 23:43:24.097872  7938 net.cpp:157] Top shape: 1 256 2 2 (1024)
I0701 23:43:24.097882  7938 net.cpp:165] Memory required for data: 4362256
I0701 23:43:24.097898  7938 layer_factory.hpp:77] Creating layer scale4f_branch2a
I0701 23:43:24.097910  7938 net.cpp:106] Creating Layer scale4f_branch2a
I0701 23:43:24.097918  7938 net.cpp:454] scale4f_branch2a <- res4f_branch2a
I0701 23:43:24.097926  7938 net.cpp:397] scale4f_branch2a -> res4f_branch2a (in-place)
I0701 23:43:24.097945  7938 layer_factory.hpp:77] Creating layer scale4f_branch2a
I0701 23:43:24.097972  7938 net.cpp:150] Setting up scale4f_branch2a
I0701 23:43:24.097982  7938 net.cpp:157] Top shape: 1 256 2 2 (1024)
I0701 23:43:24.097991  7938 net.cpp:165] Memory required for data: 4366352
I0701 23:43:24.098008  7938 layer_factory.hpp:77] Creating layer res4f_branch2a_relu
I0701 23:43:24.098021  7938 net.cpp:106] Creating Layer res4f_branch2a_relu
I0701 23:43:24.098028  7938 net.cpp:454] res4f_branch2a_relu <- res4f_branch2a
I0701 23:43:24.098037  7938 net.cpp:397] res4f_branch2a_relu -> res4f_branch2a (in-place)
I0701 23:43:24.098047  7938 net.cpp:150] Setting up res4f_branch2a_relu
I0701 23:43:24.098054  7938 net.cpp:157] Top shape: 1 256 2 2 (1024)
I0701 23:43:24.098063  7938 net.cpp:165] Memory required for data: 4370448
I0701 23:43:24.098078  7938 layer_factory.hpp:77] Creating layer res4f_branch2b
I0701 23:43:24.098098  7938 net.cpp:106] Creating Layer res4f_branch2b
I0701 23:43:24.098107  7938 net.cpp:454] res4f_branch2b <- res4f_branch2a
I0701 23:43:24.098117  7938 net.cpp:411] res4f_branch2b -> res4f_branch2b
I0701 23:43:24.109948  7938 net.cpp:150] Setting up res4f_branch2b
I0701 23:43:24.109963  7938 net.cpp:157] Top shape: 1 256 2 2 (1024)
I0701 23:43:24.109973  7938 net.cpp:165] Memory required for data: 4374544
I0701 23:43:24.109984  7938 layer_factory.hpp:77] Creating layer bn4f_branch2b
I0701 23:43:24.109999  7938 net.cpp:106] Creating Layer bn4f_branch2b
I0701 23:43:24.110013  7938 net.cpp:454] bn4f_branch2b <- res4f_branch2b
I0701 23:43:24.110021  7938 net.cpp:397] bn4f_branch2b -> res4f_branch2b (in-place)
I0701 23:43:24.110045  7938 net.cpp:150] Setting up bn4f_branch2b
I0701 23:43:24.110055  7938 net.cpp:157] Top shape: 1 256 2 2 (1024)
I0701 23:43:24.110064  7938 net.cpp:165] Memory required for data: 4378640
I0701 23:43:24.110078  7938 layer_factory.hpp:77] Creating layer scale4f_branch2b
I0701 23:43:24.110090  7938 net.cpp:106] Creating Layer scale4f_branch2b
I0701 23:43:24.110097  7938 net.cpp:454] scale4f_branch2b <- res4f_branch2b
I0701 23:43:24.110110  7938 net.cpp:397] scale4f_branch2b -> res4f_branch2b (in-place)
I0701 23:43:24.110126  7938 layer_factory.hpp:77] Creating layer scale4f_branch2b
I0701 23:43:24.110153  7938 net.cpp:150] Setting up scale4f_branch2b
I0701 23:43:24.110163  7938 net.cpp:157] Top shape: 1 256 2 2 (1024)
I0701 23:43:24.110172  7938 net.cpp:165] Memory required for data: 4382736
I0701 23:43:24.110184  7938 layer_factory.hpp:77] Creating layer res4f_branch2b_relu
I0701 23:43:24.110194  7938 net.cpp:106] Creating Layer res4f_branch2b_relu
I0701 23:43:24.110201  7938 net.cpp:454] res4f_branch2b_relu <- res4f_branch2b
I0701 23:43:24.110209  7938 net.cpp:397] res4f_branch2b_relu -> res4f_branch2b (in-place)
I0701 23:43:24.110219  7938 net.cpp:150] Setting up res4f_branch2b_relu
I0701 23:43:24.110225  7938 net.cpp:157] Top shape: 1 256 2 2 (1024)
I0701 23:43:24.110234  7938 net.cpp:165] Memory required for data: 4386832
I0701 23:43:24.110240  7938 layer_factory.hpp:77] Creating layer res4f_branch2c
I0701 23:43:24.110261  7938 net.cpp:106] Creating Layer res4f_branch2c
I0701 23:43:24.110268  7938 net.cpp:454] res4f_branch2c <- res4f_branch2b
I0701 23:43:24.110278  7938 net.cpp:411] res4f_branch2c -> res4f_branch2c
I0701 23:43:24.115598  7938 net.cpp:150] Setting up res4f_branch2c
I0701 23:43:24.115613  7938 net.cpp:157] Top shape: 1 1024 2 2 (4096)
I0701 23:43:24.115626  7938 net.cpp:165] Memory required for data: 4403216
I0701 23:43:24.115638  7938 layer_factory.hpp:77] Creating layer bn4f_branch2c
I0701 23:43:24.115649  7938 net.cpp:106] Creating Layer bn4f_branch2c
I0701 23:43:24.115658  7938 net.cpp:454] bn4f_branch2c <- res4f_branch2c
I0701 23:43:24.115669  7938 net.cpp:397] bn4f_branch2c -> res4f_branch2c (in-place)
I0701 23:43:24.115695  7938 net.cpp:150] Setting up bn4f_branch2c
I0701 23:43:24.115703  7938 net.cpp:157] Top shape: 1 1024 2 2 (4096)
I0701 23:43:24.115711  7938 net.cpp:165] Memory required for data: 4419600
I0701 23:43:24.115769  7938 layer_factory.hpp:77] Creating layer scale4f_branch2c
I0701 23:43:24.115785  7938 net.cpp:106] Creating Layer scale4f_branch2c
I0701 23:43:24.115793  7938 net.cpp:454] scale4f_branch2c <- res4f_branch2c
I0701 23:43:24.115803  7938 net.cpp:397] scale4f_branch2c -> res4f_branch2c (in-place)
I0701 23:43:24.115830  7938 layer_factory.hpp:77] Creating layer scale4f_branch2c
I0701 23:43:24.115859  7938 net.cpp:150] Setting up scale4f_branch2c
I0701 23:43:24.115866  7938 net.cpp:157] Top shape: 1 1024 2 2 (4096)
I0701 23:43:24.115875  7938 net.cpp:165] Memory required for data: 4435984
I0701 23:43:24.115886  7938 layer_factory.hpp:77] Creating layer res4f
I0701 23:43:24.115897  7938 net.cpp:106] Creating Layer res4f
I0701 23:43:24.115905  7938 net.cpp:454] res4f <- res4e_res4e_relu_0_split_1
I0701 23:43:24.115919  7938 net.cpp:454] res4f <- res4f_branch2c
I0701 23:43:24.115931  7938 net.cpp:411] res4f -> res4f
I0701 23:43:24.115943  7938 net.cpp:150] Setting up res4f
I0701 23:43:24.115950  7938 net.cpp:157] Top shape: 1 1024 2 2 (4096)
I0701 23:43:24.115958  7938 net.cpp:165] Memory required for data: 4452368
I0701 23:43:24.115965  7938 layer_factory.hpp:77] Creating layer res4f_relu
I0701 23:43:24.115974  7938 net.cpp:106] Creating Layer res4f_relu
I0701 23:43:24.115981  7938 net.cpp:454] res4f_relu <- res4f
I0701 23:43:24.115993  7938 net.cpp:397] res4f_relu -> res4f (in-place)
I0701 23:43:24.116008  7938 net.cpp:150] Setting up res4f_relu
I0701 23:43:24.116016  7938 net.cpp:157] Top shape: 1 1024 2 2 (4096)
I0701 23:43:24.116024  7938 net.cpp:165] Memory required for data: 4468752
I0701 23:43:24.116031  7938 layer_factory.hpp:77] Creating layer res4f_res4f_relu_0_split
I0701 23:43:24.116040  7938 net.cpp:106] Creating Layer res4f_res4f_relu_0_split
I0701 23:43:24.116047  7938 net.cpp:454] res4f_res4f_relu_0_split <- res4f
I0701 23:43:24.116055  7938 net.cpp:411] res4f_res4f_relu_0_split -> res4f_res4f_relu_0_split_0
I0701 23:43:24.116067  7938 net.cpp:411] res4f_res4f_relu_0_split -> res4f_res4f_relu_0_split_1
I0701 23:43:24.116081  7938 net.cpp:150] Setting up res4f_res4f_relu_0_split
I0701 23:43:24.116093  7938 net.cpp:157] Top shape: 1 1024 2 2 (4096)
I0701 23:43:24.116102  7938 net.cpp:157] Top shape: 1 1024 2 2 (4096)
I0701 23:43:24.116111  7938 net.cpp:165] Memory required for data: 4501520
I0701 23:43:24.116117  7938 layer_factory.hpp:77] Creating layer res5a_branch1
I0701 23:43:24.116137  7938 net.cpp:106] Creating Layer res5a_branch1
I0701 23:43:24.116145  7938 net.cpp:454] res5a_branch1 <- res4f_res4f_relu_0_split_0
I0701 23:43:24.116158  7938 net.cpp:411] res5a_branch1 -> res5a_branch1
I0701 23:43:24.158308  7938 net.cpp:150] Setting up res5a_branch1
I0701 23:43:24.158325  7938 net.cpp:157] Top shape: 1 2048 1 1 (2048)
I0701 23:43:24.158335  7938 net.cpp:165] Memory required for data: 4509712
I0701 23:43:24.158346  7938 layer_factory.hpp:77] Creating layer bn5a_branch1
I0701 23:43:24.158361  7938 net.cpp:106] Creating Layer bn5a_branch1
I0701 23:43:24.158370  7938 net.cpp:454] bn5a_branch1 <- res5a_branch1
I0701 23:43:24.158378  7938 net.cpp:397] bn5a_branch1 -> res5a_branch1 (in-place)
I0701 23:43:24.158412  7938 net.cpp:150] Setting up bn5a_branch1
I0701 23:43:24.158422  7938 net.cpp:157] Top shape: 1 2048 1 1 (2048)
I0701 23:43:24.158433  7938 net.cpp:165] Memory required for data: 4517904
I0701 23:43:24.158447  7938 layer_factory.hpp:77] Creating layer scale5a_branch1
I0701 23:43:24.158460  7938 net.cpp:106] Creating Layer scale5a_branch1
I0701 23:43:24.158468  7938 net.cpp:454] scale5a_branch1 <- res5a_branch1
I0701 23:43:24.158479  7938 net.cpp:397] scale5a_branch1 -> res5a_branch1 (in-place)
I0701 23:43:24.158500  7938 layer_factory.hpp:77] Creating layer scale5a_branch1
I0701 23:43:24.158532  7938 net.cpp:150] Setting up scale5a_branch1
I0701 23:43:24.158541  7938 net.cpp:157] Top shape: 1 2048 1 1 (2048)
I0701 23:43:24.158550  7938 net.cpp:165] Memory required for data: 4526096
I0701 23:43:24.158565  7938 layer_factory.hpp:77] Creating layer res5a_branch2a
I0701 23:43:24.158582  7938 net.cpp:106] Creating Layer res5a_branch2a
I0701 23:43:24.158591  7938 net.cpp:454] res5a_branch2a <- res4f_res4f_relu_0_split_1
I0701 23:43:24.158601  7938 net.cpp:411] res5a_branch2a -> res5a_branch2a
I0701 23:43:24.169183  7938 net.cpp:150] Setting up res5a_branch2a
I0701 23:43:24.169198  7938 net.cpp:157] Top shape: 1 512 1 1 (512)
I0701 23:43:24.169209  7938 net.cpp:165] Memory required for data: 4528144
I0701 23:43:24.169219  7938 layer_factory.hpp:77] Creating layer bn5a_branch2a
I0701 23:43:24.169230  7938 net.cpp:106] Creating Layer bn5a_branch2a
I0701 23:43:24.169239  7938 net.cpp:454] bn5a_branch2a <- res5a_branch2a
I0701 23:43:24.169250  7938 net.cpp:397] bn5a_branch2a -> res5a_branch2a (in-place)
I0701 23:43:24.169275  7938 net.cpp:150] Setting up bn5a_branch2a
I0701 23:43:24.169282  7938 net.cpp:157] Top shape: 1 512 1 1 (512)
I0701 23:43:24.169303  7938 net.cpp:165] Memory required for data: 4530192
I0701 23:43:24.169318  7938 layer_factory.hpp:77] Creating layer scale5a_branch2a
I0701 23:43:24.169333  7938 net.cpp:106] Creating Layer scale5a_branch2a
I0701 23:43:24.169343  7938 net.cpp:454] scale5a_branch2a <- res5a_branch2a
I0701 23:43:24.169353  7938 net.cpp:397] scale5a_branch2a -> res5a_branch2a (in-place)
I0701 23:43:24.169373  7938 layer_factory.hpp:77] Creating layer scale5a_branch2a
I0701 23:43:24.169400  7938 net.cpp:150] Setting up scale5a_branch2a
I0701 23:43:24.169410  7938 net.cpp:157] Top shape: 1 512 1 1 (512)
I0701 23:43:24.169420  7938 net.cpp:165] Memory required for data: 4532240
I0701 23:43:24.169431  7938 layer_factory.hpp:77] Creating layer res5a_branch2a_relu
I0701 23:43:24.169443  7938 net.cpp:106] Creating Layer res5a_branch2a_relu
I0701 23:43:24.169450  7938 net.cpp:454] res5a_branch2a_relu <- res5a_branch2a
I0701 23:43:24.169459  7938 net.cpp:397] res5a_branch2a_relu -> res5a_branch2a (in-place)
I0701 23:43:24.169469  7938 net.cpp:150] Setting up res5a_branch2a_relu
I0701 23:43:24.169476  7938 net.cpp:157] Top shape: 1 512 1 1 (512)
I0701 23:43:24.169483  7938 net.cpp:165] Memory required for data: 4534288
I0701 23:43:24.169490  7938 layer_factory.hpp:77] Creating layer res5a_branch2b
I0701 23:43:24.169508  7938 net.cpp:106] Creating Layer res5a_branch2b
I0701 23:43:24.169517  7938 net.cpp:454] res5a_branch2b <- res5a_branch2a
I0701 23:43:24.169526  7938 net.cpp:411] res5a_branch2b -> res5a_branch2b
I0701 23:43:24.216964  7938 net.cpp:150] Setting up res5a_branch2b
I0701 23:43:24.216980  7938 net.cpp:157] Top shape: 1 512 1 1 (512)
I0701 23:43:24.216990  7938 net.cpp:165] Memory required for data: 4536336
I0701 23:43:24.217006  7938 layer_factory.hpp:77] Creating layer bn5a_branch2b
I0701 23:43:24.217021  7938 net.cpp:106] Creating Layer bn5a_branch2b
I0701 23:43:24.217031  7938 net.cpp:454] bn5a_branch2b <- res5a_branch2b
I0701 23:43:24.217039  7938 net.cpp:397] bn5a_branch2b -> res5a_branch2b (in-place)
I0701 23:43:24.217067  7938 net.cpp:150] Setting up bn5a_branch2b
I0701 23:43:24.217075  7938 net.cpp:157] Top shape: 1 512 1 1 (512)
I0701 23:43:24.217084  7938 net.cpp:165] Memory required for data: 4538384
I0701 23:43:24.217098  7938 layer_factory.hpp:77] Creating layer scale5a_branch2b
I0701 23:43:24.217109  7938 net.cpp:106] Creating Layer scale5a_branch2b
I0701 23:43:24.217116  7938 net.cpp:454] scale5a_branch2b <- res5a_branch2b
I0701 23:43:24.217125  7938 net.cpp:397] scale5a_branch2b -> res5a_branch2b (in-place)
I0701 23:43:24.217145  7938 layer_factory.hpp:77] Creating layer scale5a_branch2b
I0701 23:43:24.217175  7938 net.cpp:150] Setting up scale5a_branch2b
I0701 23:43:24.217185  7938 net.cpp:157] Top shape: 1 512 1 1 (512)
I0701 23:43:24.217195  7938 net.cpp:165] Memory required for data: 4540432
I0701 23:43:24.217206  7938 layer_factory.hpp:77] Creating layer res5a_branch2b_relu
I0701 23:43:24.217216  7938 net.cpp:106] Creating Layer res5a_branch2b_relu
I0701 23:43:24.217222  7938 net.cpp:454] res5a_branch2b_relu <- res5a_branch2b
I0701 23:43:24.217231  7938 net.cpp:397] res5a_branch2b_relu -> res5a_branch2b (in-place)
I0701 23:43:24.217241  7938 net.cpp:150] Setting up res5a_branch2b_relu
I0701 23:43:24.217247  7938 net.cpp:157] Top shape: 1 512 1 1 (512)
I0701 23:43:24.217255  7938 net.cpp:165] Memory required for data: 4542480
I0701 23:43:24.217262  7938 layer_factory.hpp:77] Creating layer res5a_branch2c
I0701 23:43:24.217280  7938 net.cpp:106] Creating Layer res5a_branch2c
I0701 23:43:24.217289  7938 net.cpp:454] res5a_branch2c <- res5a_branch2b
I0701 23:43:24.217299  7938 net.cpp:411] res5a_branch2c -> res5a_branch2c
I0701 23:43:24.238435  7938 net.cpp:150] Setting up res5a_branch2c
I0701 23:43:24.238451  7938 net.cpp:157] Top shape: 1 2048 1 1 (2048)
I0701 23:43:24.238464  7938 net.cpp:165] Memory required for data: 4550672
I0701 23:43:24.238476  7938 layer_factory.hpp:77] Creating layer bn5a_branch2c
I0701 23:43:24.238487  7938 net.cpp:106] Creating Layer bn5a_branch2c
I0701 23:43:24.238503  7938 net.cpp:454] bn5a_branch2c <- res5a_branch2c
I0701 23:43:24.238513  7938 net.cpp:397] bn5a_branch2c -> res5a_branch2c (in-place)
I0701 23:43:24.238543  7938 net.cpp:150] Setting up bn5a_branch2c
I0701 23:43:24.238554  7938 net.cpp:157] Top shape: 1 2048 1 1 (2048)
I0701 23:43:24.238561  7938 net.cpp:165] Memory required for data: 4558864
I0701 23:43:24.238579  7938 layer_factory.hpp:77] Creating layer scale5a_branch2c
I0701 23:43:24.238590  7938 net.cpp:106] Creating Layer scale5a_branch2c
I0701 23:43:24.238598  7938 net.cpp:454] scale5a_branch2c <- res5a_branch2c
I0701 23:43:24.238607  7938 net.cpp:397] scale5a_branch2c -> res5a_branch2c (in-place)
I0701 23:43:24.238628  7938 layer_factory.hpp:77] Creating layer scale5a_branch2c
I0701 23:43:24.238662  7938 net.cpp:150] Setting up scale5a_branch2c
I0701 23:43:24.238672  7938 net.cpp:157] Top shape: 1 2048 1 1 (2048)
I0701 23:43:24.238680  7938 net.cpp:165] Memory required for data: 4567056
I0701 23:43:24.238692  7938 layer_factory.hpp:77] Creating layer res5a
I0701 23:43:24.238703  7938 net.cpp:106] Creating Layer res5a
I0701 23:43:24.238709  7938 net.cpp:454] res5a <- res5a_branch1
I0701 23:43:24.238718  7938 net.cpp:454] res5a <- res5a_branch2c
I0701 23:43:24.238730  7938 net.cpp:411] res5a -> res5a
I0701 23:43:24.238744  7938 net.cpp:150] Setting up res5a
I0701 23:43:24.238751  7938 net.cpp:157] Top shape: 1 2048 1 1 (2048)
I0701 23:43:24.238760  7938 net.cpp:165] Memory required for data: 4575248
I0701 23:43:24.238766  7938 layer_factory.hpp:77] Creating layer res5a_relu
I0701 23:43:24.238775  7938 net.cpp:106] Creating Layer res5a_relu
I0701 23:43:24.238782  7938 net.cpp:454] res5a_relu <- res5a
I0701 23:43:24.238793  7938 net.cpp:397] res5a_relu -> res5a (in-place)
I0701 23:43:24.238803  7938 net.cpp:150] Setting up res5a_relu
I0701 23:43:24.238811  7938 net.cpp:157] Top shape: 1 2048 1 1 (2048)
I0701 23:43:24.238818  7938 net.cpp:165] Memory required for data: 4583440
I0701 23:43:24.238826  7938 layer_factory.hpp:77] Creating layer res5a_res5a_relu_0_split
I0701 23:43:24.238834  7938 net.cpp:106] Creating Layer res5a_res5a_relu_0_split
I0701 23:43:24.238840  7938 net.cpp:454] res5a_res5a_relu_0_split <- res5a
I0701 23:43:24.238849  7938 net.cpp:411] res5a_res5a_relu_0_split -> res5a_res5a_relu_0_split_0
I0701 23:43:24.238860  7938 net.cpp:411] res5a_res5a_relu_0_split -> res5a_res5a_relu_0_split_1
I0701 23:43:24.238871  7938 net.cpp:150] Setting up res5a_res5a_relu_0_split
I0701 23:43:24.238878  7938 net.cpp:157] Top shape: 1 2048 1 1 (2048)
I0701 23:43:24.238890  7938 net.cpp:157] Top shape: 1 2048 1 1 (2048)
I0701 23:43:24.238898  7938 net.cpp:165] Memory required for data: 4599824
I0701 23:43:24.238904  7938 layer_factory.hpp:77] Creating layer res5b_branch2a
I0701 23:43:24.238924  7938 net.cpp:106] Creating Layer res5b_branch2a
I0701 23:43:24.238931  7938 net.cpp:454] res5b_branch2a <- res5a_res5a_relu_0_split_0
I0701 23:43:24.238943  7938 net.cpp:411] res5b_branch2a -> res5b_branch2a
I0701 23:43:24.260010  7938 net.cpp:150] Setting up res5b_branch2a
I0701 23:43:24.260027  7938 net.cpp:157] Top shape: 1 512 1 1 (512)
I0701 23:43:24.260036  7938 net.cpp:165] Memory required for data: 4601872
I0701 23:43:24.260047  7938 layer_factory.hpp:77] Creating layer bn5b_branch2a
I0701 23:43:24.260059  7938 net.cpp:106] Creating Layer bn5b_branch2a
I0701 23:43:24.260067  7938 net.cpp:454] bn5b_branch2a <- res5b_branch2a
I0701 23:43:24.260076  7938 net.cpp:397] bn5b_branch2a -> res5b_branch2a (in-place)
I0701 23:43:24.260099  7938 net.cpp:150] Setting up bn5b_branch2a
I0701 23:43:24.260107  7938 net.cpp:157] Top shape: 1 512 1 1 (512)
I0701 23:43:24.260115  7938 net.cpp:165] Memory required for data: 4603920
I0701 23:43:24.260129  7938 layer_factory.hpp:77] Creating layer scale5b_branch2a
I0701 23:43:24.260140  7938 net.cpp:106] Creating Layer scale5b_branch2a
I0701 23:43:24.260148  7938 net.cpp:454] scale5b_branch2a <- res5b_branch2a
I0701 23:43:24.260161  7938 net.cpp:397] scale5b_branch2a -> res5b_branch2a (in-place)
I0701 23:43:24.260180  7938 layer_factory.hpp:77] Creating layer scale5b_branch2a
I0701 23:43:24.260218  7938 net.cpp:150] Setting up scale5b_branch2a
I0701 23:43:24.260228  7938 net.cpp:157] Top shape: 1 512 1 1 (512)
I0701 23:43:24.260237  7938 net.cpp:165] Memory required for data: 4605968
I0701 23:43:24.260249  7938 layer_factory.hpp:77] Creating layer res5b_branch2a_relu
I0701 23:43:24.260262  7938 net.cpp:106] Creating Layer res5b_branch2a_relu
I0701 23:43:24.260269  7938 net.cpp:454] res5b_branch2a_relu <- res5b_branch2a
I0701 23:43:24.260277  7938 net.cpp:397] res5b_branch2a_relu -> res5b_branch2a (in-place)
I0701 23:43:24.260288  7938 net.cpp:150] Setting up res5b_branch2a_relu
I0701 23:43:24.260294  7938 net.cpp:157] Top shape: 1 512 1 1 (512)
I0701 23:43:24.260303  7938 net.cpp:165] Memory required for data: 4608016
I0701 23:43:24.260309  7938 layer_factory.hpp:77] Creating layer res5b_branch2b
I0701 23:43:24.260332  7938 net.cpp:106] Creating Layer res5b_branch2b
I0701 23:43:24.260339  7938 net.cpp:454] res5b_branch2b <- res5b_branch2a
I0701 23:43:24.260349  7938 net.cpp:411] res5b_branch2b -> res5b_branch2b
I0701 23:43:24.307675  7938 net.cpp:150] Setting up res5b_branch2b
I0701 23:43:24.307693  7938 net.cpp:157] Top shape: 1 512 1 1 (512)
I0701 23:43:24.307703  7938 net.cpp:165] Memory required for data: 4610064
I0701 23:43:24.307714  7938 layer_factory.hpp:77] Creating layer bn5b_branch2b
I0701 23:43:24.307726  7938 net.cpp:106] Creating Layer bn5b_branch2b
I0701 23:43:24.307734  7938 net.cpp:454] bn5b_branch2b <- res5b_branch2b
I0701 23:43:24.307744  7938 net.cpp:397] bn5b_branch2b -> res5b_branch2b (in-place)
I0701 23:43:24.307766  7938 net.cpp:150] Setting up bn5b_branch2b
I0701 23:43:24.307775  7938 net.cpp:157] Top shape: 1 512 1 1 (512)
I0701 23:43:24.307782  7938 net.cpp:165] Memory required for data: 4612112
I0701 23:43:24.307796  7938 layer_factory.hpp:77] Creating layer scale5b_branch2b
I0701 23:43:24.307812  7938 net.cpp:106] Creating Layer scale5b_branch2b
I0701 23:43:24.307822  7938 net.cpp:454] scale5b_branch2b <- res5b_branch2b
I0701 23:43:24.307832  7938 net.cpp:397] scale5b_branch2b -> res5b_branch2b (in-place)
I0701 23:43:24.307849  7938 layer_factory.hpp:77] Creating layer scale5b_branch2b
I0701 23:43:24.307879  7938 net.cpp:150] Setting up scale5b_branch2b
I0701 23:43:24.307889  7938 net.cpp:157] Top shape: 1 512 1 1 (512)
I0701 23:43:24.307898  7938 net.cpp:165] Memory required for data: 4614160
I0701 23:43:24.307910  7938 layer_factory.hpp:77] Creating layer res5b_branch2b_relu
I0701 23:43:24.307920  7938 net.cpp:106] Creating Layer res5b_branch2b_relu
I0701 23:43:24.307926  7938 net.cpp:454] res5b_branch2b_relu <- res5b_branch2b
I0701 23:43:24.307938  7938 net.cpp:397] res5b_branch2b_relu -> res5b_branch2b (in-place)
I0701 23:43:24.307948  7938 net.cpp:150] Setting up res5b_branch2b_relu
I0701 23:43:24.307955  7938 net.cpp:157] Top shape: 1 512 1 1 (512)
I0701 23:43:24.307963  7938 net.cpp:165] Memory required for data: 4616208
I0701 23:43:24.307971  7938 layer_factory.hpp:77] Creating layer res5b_branch2c
I0701 23:43:24.307988  7938 net.cpp:106] Creating Layer res5b_branch2c
I0701 23:43:24.307996  7938 net.cpp:454] res5b_branch2c <- res5b_branch2b
I0701 23:43:24.308013  7938 net.cpp:411] res5b_branch2c -> res5b_branch2c
I0701 23:43:24.329061  7938 net.cpp:150] Setting up res5b_branch2c
I0701 23:43:24.329077  7938 net.cpp:157] Top shape: 1 2048 1 1 (2048)
I0701 23:43:24.329087  7938 net.cpp:165] Memory required for data: 4624400
I0701 23:43:24.329097  7938 layer_factory.hpp:77] Creating layer bn5b_branch2c
I0701 23:43:24.329109  7938 net.cpp:106] Creating Layer bn5b_branch2c
I0701 23:43:24.329118  7938 net.cpp:454] bn5b_branch2c <- res5b_branch2c
I0701 23:43:24.329129  7938 net.cpp:397] bn5b_branch2c -> res5b_branch2c (in-place)
I0701 23:43:24.329159  7938 net.cpp:150] Setting up bn5b_branch2c
I0701 23:43:24.329167  7938 net.cpp:157] Top shape: 1 2048 1 1 (2048)
I0701 23:43:24.329176  7938 net.cpp:165] Memory required for data: 4632592
I0701 23:43:24.329190  7938 layer_factory.hpp:77] Creating layer scale5b_branch2c
I0701 23:43:24.329213  7938 net.cpp:106] Creating Layer scale5b_branch2c
I0701 23:43:24.329223  7938 net.cpp:454] scale5b_branch2c <- res5b_branch2c
I0701 23:43:24.329232  7938 net.cpp:397] scale5b_branch2c -> res5b_branch2c (in-place)
I0701 23:43:24.329257  7938 layer_factory.hpp:77] Creating layer scale5b_branch2c
I0701 23:43:24.329286  7938 net.cpp:150] Setting up scale5b_branch2c
I0701 23:43:24.329296  7938 net.cpp:157] Top shape: 1 2048 1 1 (2048)
I0701 23:43:24.329305  7938 net.cpp:165] Memory required for data: 4640784
I0701 23:43:24.329318  7938 layer_factory.hpp:77] Creating layer res5b
I0701 23:43:24.329334  7938 net.cpp:106] Creating Layer res5b
I0701 23:43:24.329340  7938 net.cpp:454] res5b <- res5a_res5a_relu_0_split_1
I0701 23:43:24.329349  7938 net.cpp:454] res5b <- res5b_branch2c
I0701 23:43:24.329357  7938 net.cpp:411] res5b -> res5b
I0701 23:43:24.329371  7938 net.cpp:150] Setting up res5b
I0701 23:43:24.329378  7938 net.cpp:157] Top shape: 1 2048 1 1 (2048)
I0701 23:43:24.329386  7938 net.cpp:165] Memory required for data: 4648976
I0701 23:43:24.329393  7938 layer_factory.hpp:77] Creating layer res5b_relu
I0701 23:43:24.329402  7938 net.cpp:106] Creating Layer res5b_relu
I0701 23:43:24.329408  7938 net.cpp:454] res5b_relu <- res5b
I0701 23:43:24.329422  7938 net.cpp:397] res5b_relu -> res5b (in-place)
I0701 23:43:24.329433  7938 net.cpp:150] Setting up res5b_relu
I0701 23:43:24.329439  7938 net.cpp:157] Top shape: 1 2048 1 1 (2048)
I0701 23:43:24.329447  7938 net.cpp:165] Memory required for data: 4657168
I0701 23:43:24.329454  7938 layer_factory.hpp:77] Creating layer res5b_res5b_relu_0_split
I0701 23:43:24.329463  7938 net.cpp:106] Creating Layer res5b_res5b_relu_0_split
I0701 23:43:24.329470  7938 net.cpp:454] res5b_res5b_relu_0_split <- res5b
I0701 23:43:24.329479  7938 net.cpp:411] res5b_res5b_relu_0_split -> res5b_res5b_relu_0_split_0
I0701 23:43:24.329490  7938 net.cpp:411] res5b_res5b_relu_0_split -> res5b_res5b_relu_0_split_1
I0701 23:43:24.329501  7938 net.cpp:150] Setting up res5b_res5b_relu_0_split
I0701 23:43:24.329509  7938 net.cpp:157] Top shape: 1 2048 1 1 (2048)
I0701 23:43:24.329516  7938 net.cpp:157] Top shape: 1 2048 1 1 (2048)
I0701 23:43:24.329524  7938 net.cpp:165] Memory required for data: 4673552
I0701 23:43:24.329530  7938 layer_factory.hpp:77] Creating layer res5c_branch2a
I0701 23:43:24.329548  7938 net.cpp:106] Creating Layer res5c_branch2a
I0701 23:43:24.329558  7938 net.cpp:454] res5c_branch2a <- res5b_res5b_relu_0_split_0
I0701 23:43:24.329568  7938 net.cpp:411] res5c_branch2a -> res5c_branch2a
I0701 23:43:24.350670  7938 net.cpp:150] Setting up res5c_branch2a
I0701 23:43:24.350685  7938 net.cpp:157] Top shape: 1 512 1 1 (512)
I0701 23:43:24.350695  7938 net.cpp:165] Memory required for data: 4675600
I0701 23:43:24.350706  7938 layer_factory.hpp:77] Creating layer bn5c_branch2a
I0701 23:43:24.350721  7938 net.cpp:106] Creating Layer bn5c_branch2a
I0701 23:43:24.350728  7938 net.cpp:454] bn5c_branch2a <- res5c_branch2a
I0701 23:43:24.350739  7938 net.cpp:397] bn5c_branch2a -> res5c_branch2a (in-place)
I0701 23:43:24.350762  7938 net.cpp:150] Setting up bn5c_branch2a
I0701 23:43:24.350770  7938 net.cpp:157] Top shape: 1 512 1 1 (512)
I0701 23:43:24.350781  7938 net.cpp:165] Memory required for data: 4677648
I0701 23:43:24.350795  7938 layer_factory.hpp:77] Creating layer scale5c_branch2a
I0701 23:43:24.350808  7938 net.cpp:106] Creating Layer scale5c_branch2a
I0701 23:43:24.350816  7938 net.cpp:454] scale5c_branch2a <- res5c_branch2a
I0701 23:43:24.350823  7938 net.cpp:397] scale5c_branch2a -> res5c_branch2a (in-place)
I0701 23:43:24.350845  7938 layer_factory.hpp:77] Creating layer scale5c_branch2a
I0701 23:43:24.350875  7938 net.cpp:150] Setting up scale5c_branch2a
I0701 23:43:24.350885  7938 net.cpp:157] Top shape: 1 512 1 1 (512)
I0701 23:43:24.350894  7938 net.cpp:165] Memory required for data: 4679696
I0701 23:43:24.350905  7938 layer_factory.hpp:77] Creating layer res5c_branch2a_relu
I0701 23:43:24.350915  7938 net.cpp:106] Creating Layer res5c_branch2a_relu
I0701 23:43:24.350929  7938 net.cpp:454] res5c_branch2a_relu <- res5c_branch2a
I0701 23:43:24.350939  7938 net.cpp:397] res5c_branch2a_relu -> res5c_branch2a (in-place)
I0701 23:43:24.350950  7938 net.cpp:150] Setting up res5c_branch2a_relu
I0701 23:43:24.350956  7938 net.cpp:157] Top shape: 1 512 1 1 (512)
I0701 23:43:24.350965  7938 net.cpp:165] Memory required for data: 4681744
I0701 23:43:24.350971  7938 layer_factory.hpp:77] Creating layer res5c_branch2b
I0701 23:43:24.350992  7938 net.cpp:106] Creating Layer res5c_branch2b
I0701 23:43:24.351006  7938 net.cpp:454] res5c_branch2b <- res5c_branch2a
I0701 23:43:24.351018  7938 net.cpp:411] res5c_branch2b -> res5c_branch2b
I0701 23:43:24.398373  7938 net.cpp:150] Setting up res5c_branch2b
I0701 23:43:24.398391  7938 net.cpp:157] Top shape: 1 512 1 1 (512)
I0701 23:43:24.398406  7938 net.cpp:165] Memory required for data: 4683792
I0701 23:43:24.398417  7938 layer_factory.hpp:77] Creating layer bn5c_branch2b
I0701 23:43:24.398429  7938 net.cpp:106] Creating Layer bn5c_branch2b
I0701 23:43:24.398437  7938 net.cpp:454] bn5c_branch2b <- res5c_branch2b
I0701 23:43:24.398447  7938 net.cpp:397] bn5c_branch2b -> res5c_branch2b (in-place)
I0701 23:43:24.398470  7938 net.cpp:150] Setting up bn5c_branch2b
I0701 23:43:24.398478  7938 net.cpp:157] Top shape: 1 512 1 1 (512)
I0701 23:43:24.398486  7938 net.cpp:165] Memory required for data: 4685840
I0701 23:43:24.398500  7938 layer_factory.hpp:77] Creating layer scale5c_branch2b
I0701 23:43:24.398514  7938 net.cpp:106] Creating Layer scale5c_branch2b
I0701 23:43:24.398520  7938 net.cpp:454] scale5c_branch2b <- res5c_branch2b
I0701 23:43:24.398530  7938 net.cpp:397] scale5c_branch2b -> res5c_branch2b (in-place)
I0701 23:43:24.398550  7938 layer_factory.hpp:77] Creating layer scale5c_branch2b
I0701 23:43:24.398579  7938 net.cpp:150] Setting up scale5c_branch2b
I0701 23:43:24.398588  7938 net.cpp:157] Top shape: 1 512 1 1 (512)
I0701 23:43:24.398598  7938 net.cpp:165] Memory required for data: 4687888
I0701 23:43:24.398609  7938 layer_factory.hpp:77] Creating layer res5c_branch2b_relu
I0701 23:43:24.398619  7938 net.cpp:106] Creating Layer res5c_branch2b_relu
I0701 23:43:24.398627  7938 net.cpp:454] res5c_branch2b_relu <- res5c_branch2b
I0701 23:43:24.398636  7938 net.cpp:397] res5c_branch2b_relu -> res5c_branch2b (in-place)
I0701 23:43:24.398648  7938 net.cpp:150] Setting up res5c_branch2b_relu
I0701 23:43:24.398654  7938 net.cpp:157] Top shape: 1 512 1 1 (512)
I0701 23:43:24.398663  7938 net.cpp:165] Memory required for data: 4689936
I0701 23:43:24.398669  7938 layer_factory.hpp:77] Creating layer res5c_branch2c
I0701 23:43:24.398686  7938 net.cpp:106] Creating Layer res5c_branch2c
I0701 23:43:24.398694  7938 net.cpp:454] res5c_branch2c <- res5c_branch2b
I0701 23:43:24.398706  7938 net.cpp:411] res5c_branch2c -> res5c_branch2c
I0701 23:43:24.419728  7938 net.cpp:150] Setting up res5c_branch2c
I0701 23:43:24.419744  7938 net.cpp:157] Top shape: 1 2048 1 1 (2048)
I0701 23:43:24.419754  7938 net.cpp:165] Memory required for data: 4698128
I0701 23:43:24.419764  7938 layer_factory.hpp:77] Creating layer bn5c_branch2c
I0701 23:43:24.419776  7938 net.cpp:106] Creating Layer bn5c_branch2c
I0701 23:43:24.419783  7938 net.cpp:454] bn5c_branch2c <- res5c_branch2c
I0701 23:43:24.419792  7938 net.cpp:397] bn5c_branch2c -> res5c_branch2c (in-place)
I0701 23:43:24.419818  7938 net.cpp:150] Setting up bn5c_branch2c
I0701 23:43:24.419826  7938 net.cpp:157] Top shape: 1 2048 1 1 (2048)
I0701 23:43:24.419834  7938 net.cpp:165] Memory required for data: 4706320
I0701 23:43:24.419852  7938 layer_factory.hpp:77] Creating layer scale5c_branch2c
I0701 23:43:24.419864  7938 net.cpp:106] Creating Layer scale5c_branch2c
I0701 23:43:24.419872  7938 net.cpp:454] scale5c_branch2c <- res5c_branch2c
I0701 23:43:24.419880  7938 net.cpp:397] scale5c_branch2c -> res5c_branch2c (in-place)
I0701 23:43:24.419903  7938 layer_factory.hpp:77] Creating layer scale5c_branch2c
I0701 23:43:24.419935  7938 net.cpp:150] Setting up scale5c_branch2c
I0701 23:43:24.419945  7938 net.cpp:157] Top shape: 1 2048 1 1 (2048)
I0701 23:43:24.419962  7938 net.cpp:165] Memory required for data: 4714512
I0701 23:43:24.419975  7938 layer_factory.hpp:77] Creating layer res5c
I0701 23:43:24.419991  7938 net.cpp:106] Creating Layer res5c
I0701 23:43:24.419998  7938 net.cpp:454] res5c <- res5b_res5b_relu_0_split_1
I0701 23:43:24.420012  7938 net.cpp:454] res5c <- res5c_branch2c
I0701 23:43:24.420022  7938 net.cpp:411] res5c -> res5c
I0701 23:43:24.420035  7938 net.cpp:150] Setting up res5c
I0701 23:43:24.420042  7938 net.cpp:157] Top shape: 1 2048 1 1 (2048)
I0701 23:43:24.420050  7938 net.cpp:165] Memory required for data: 4722704
I0701 23:43:24.420058  7938 layer_factory.hpp:77] Creating layer res5c_relu
I0701 23:43:24.420069  7938 net.cpp:106] Creating Layer res5c_relu
I0701 23:43:24.420076  7938 net.cpp:454] res5c_relu <- res5c
I0701 23:43:24.420085  7938 net.cpp:397] res5c_relu -> res5c (in-place)
I0701 23:43:24.420095  7938 net.cpp:150] Setting up res5c_relu
I0701 23:43:24.420102  7938 net.cpp:157] Top shape: 1 2048 1 1 (2048)
I0701 23:43:24.420110  7938 net.cpp:165] Memory required for data: 4730896
I0701 23:43:24.420116  7938 layer_factory.hpp:77] Creating layer pool5
I0701 23:43:24.420127  7938 net.cpp:106] Creating Layer pool5
I0701 23:43:24.420135  7938 net.cpp:454] pool5 <- res5c
I0701 23:43:24.420147  7938 net.cpp:411] pool5 -> pool5
I0701 23:43:24.420164  7938 net.cpp:150] Setting up pool5
I0701 23:43:24.420171  7938 net.cpp:157] Top shape: 1 2048 1 1 (2048)
I0701 23:43:24.420179  7938 net.cpp:165] Memory required for data: 4739088
I0701 23:43:24.420186  7938 layer_factory.hpp:77] Creating layer fc10
I0701 23:43:24.420200  7938 net.cpp:106] Creating Layer fc10
I0701 23:43:24.420207  7938 net.cpp:454] fc10 <- pool5
I0701 23:43:24.420217  7938 net.cpp:411] fc10 -> fc10
I0701 23:43:24.420473  7938 net.cpp:150] Setting up fc10
I0701 23:43:24.420485  7938 net.cpp:157] Top shape: 1 10 (10)
I0701 23:43:24.420498  7938 net.cpp:165] Memory required for data: 4739128
I0701 23:43:24.420511  7938 layer_factory.hpp:77] Creating layer fc10_fc10_0_split
I0701 23:43:24.420522  7938 net.cpp:106] Creating Layer fc10_fc10_0_split
I0701 23:43:24.420529  7938 net.cpp:454] fc10_fc10_0_split <- fc10
I0701 23:43:24.420538  7938 net.cpp:411] fc10_fc10_0_split -> fc10_fc10_0_split_0
I0701 23:43:24.420553  7938 net.cpp:411] fc10_fc10_0_split -> fc10_fc10_0_split_1
I0701 23:43:24.420567  7938 net.cpp:411] fc10_fc10_0_split -> fc10_fc10_0_split_2
I0701 23:43:24.420578  7938 net.cpp:150] Setting up fc10_fc10_0_split
I0701 23:43:24.420585  7938 net.cpp:157] Top shape: 1 10 (10)
I0701 23:43:24.420593  7938 net.cpp:157] Top shape: 1 10 (10)
I0701 23:43:24.420603  7938 net.cpp:157] Top shape: 1 10 (10)
I0701 23:43:24.420609  7938 net.cpp:165] Memory required for data: 4739248
I0701 23:43:24.420616  7938 layer_factory.hpp:77] Creating layer loss
I0701 23:43:24.420625  7938 net.cpp:106] Creating Layer loss
I0701 23:43:24.420632  7938 net.cpp:454] loss <- fc10_fc10_0_split_0
I0701 23:43:24.420640  7938 net.cpp:454] loss <- label_data_1_split_0
I0701 23:43:24.420652  7938 net.cpp:411] loss -> loss
…
