…
I0521 15:32:03.845445 27357 net.cpp:322] The NetState phase (0) differed from the phase (1) specified by a rule in layer mnist
I0521 15:32:03.845512 27357 net.cpp:322] The NetState phase (0) differed from the phase (1) specified by a rule in layer accuracy
I0521 15:32:03.845530 27357 net.cpp:49] Initializing net from parameters: 
name: "LeNet"
state {
  phase: TRAIN
}
layer {
  name: "mnist"
  type: "Data"
  top: "data"
  top: "label"
  include {
    phase: TRAIN
  }
  transform_param {
    scale: 0.00390625
  }
  data_param {
    source: "examples/mnist/mnist_train_lmdb"
    batch_size: 64
    backend: LMDB
  }
}
layer {
  name: "conv1"
  type: "Convolution"
  bottom: "data"
  top: "conv1"
  param {
    lr_mult: 1
  }
  param {
    lr_mult: 2
  }
  convolution_param {
    num_output: 20
    kernel_size: 5
    stride: 1
    weight_filler {
      type: "xavier"
    }
    bias_filler {
      type: "constant"
    }
  }
}
layer {
  name: "pool1"
  type: "Pooling"
  bottom: "conv1"
  top: "pool1"
  pooling_param {
    pool: MAX
    kernel_size: 2
    stride: 2
  }
}
layer {
  name: "conv2"
  type: "Convolution"
  bottom: "pool1"
  top: "conv2"
  param {
    lr_mult: 1
  }
  param {
    lr_mult: 2
  }
  convolution_param {
    num_output: 50
    kernel_size: 5
    stride: 1
    weight_filler {
      type: "xavier"
    }
    bias_filler {
      type: "constant"
    }
  }
}
layer {
  name: "pool2"
  type: "Pooling"
  bottom: "conv2"
  top: "pool2"
  pooling_param {
    pool: MAX
    kernel_size: 2
    stride: 2
  }
}
layer {
  name: "ip1"
  type: "InnerProduct"
  bottom: "pool2"
  top: "ip1"
  param {
    lr_mult: 1
  }
  param {
    lr_mult: 2
  }
  inner_product_param {
    num_output: 500
    weight_filler {
      type: "xavier"
    }
    bias_filler {
      type: "constant"
    }
  }
}
layer {
  name: "relu1"
  type: "ReLU"
  bottom: "ip1"
  top: "ip1"
}
layer {
  name: "ip2"
  type: "InnerProduct"
  bottom: "ip1"
  top: "ip2"
  param {
    lr_mult: 1
  }
  param {
    lr_mult: 2
  }
  inner_product_param {
    num_output: 10
    weight_filler {
      type: "xavier"
    }
    bias_filler {
      type: "constant"
    }
  }
}
layer {
  name: "loss"
  type: "SoftmaxWithLoss"
  bottom: "ip2"
  bottom: "label"
  top: "loss"
}
I0521 15:32:03.846182 27357 layer_factory.hpp:77] Creating layer mnist
I0521 15:32:03.848708 27357 net.cpp:106] Creating Layer mnist
I0521 15:32:03.848732 27357 net.cpp:411] mnist -> data
I0521 15:32:03.848824 27357 net.cpp:411] mnist -> label
I0521 15:32:03.971840 27359 db_lmdb.cpp:38] Opened lmdb examples/mnist/mnist_train_lmdb
I0521 15:32:04.004554 27357 data_layer.cpp:41] output data size: 64,1,28,28
I0521 15:32:04.005213 27357 net.cpp:150] Setting up mnist
I0521 15:32:04.005300 27357 net.cpp:157] Top shape: 64 1 28 28 (50176)
I0521 15:32:04.005384 27357 net.cpp:157] Top shape: 64 (64)
I0521 15:32:04.005396 27357 net.cpp:165] Memory required for data: 200960
I0521 15:32:04.005414 27357 layer_factory.hpp:77] Creating layer conv1
I0521 15:32:04.005486 27357 net.cpp:106] Creating Layer conv1
I0521 15:32:04.005517 27357 net.cpp:454] conv1 <- data
I0521 15:32:04.005539 27357 net.cpp:411] conv1 -> conv1
I0521 15:32:04.007704 27357 net.cpp:150] Setting up conv1
I0521 15:32:04.007721 27357 net.cpp:157] Top shape: 64 20 24 24 (737280)
I0521 15:32:04.007733 27357 net.cpp:165] Memory required for data: 3150080
I0521 15:32:04.007879 27357 layer_factory.hpp:77] Creating layer pool1
I0521 15:32:04.007944 27357 net.cpp:106] Creating Layer pool1
I0521 15:32:04.007959 27357 net.cpp:454] pool1 <- conv1
I0521 15:32:04.007972 27357 net.cpp:411] pool1 -> pool1
I0521 15:32:04.008184 27357 net.cpp:150] Setting up pool1
I0521 15:32:04.008210 27357 net.cpp:157] Top shape: 64 20 12 12 (184320)
I0521 15:32:04.008222 27357 net.cpp:165] Memory required for data: 3887360
I0521 15:32:04.008245 27357 layer_factory.hpp:77] Creating layer conv2
I0521 15:32:04.008263 27357 net.cpp:106] Creating Layer conv2
I0521 15:32:04.008271 27357 net.cpp:454] conv2 <- pool1
I0521 15:32:04.008283 27357 net.cpp:411] conv2 -> conv2
I0521 15:32:04.008622 27357 net.cpp:150] Setting up conv2
I0521 15:32:04.008637 27357 net.cpp:157] Top shape: 64 50 8 8 (204800)
I0521 15:32:04.008648 27357 net.cpp:165] Memory required for data: 4706560
I0521 15:32:04.008669 27357 layer_factory.hpp:77] Creating layer pool2
I0521 15:32:04.008684 27357 net.cpp:106] Creating Layer pool2
I0521 15:32:04.008695 27357 net.cpp:454] pool2 <- conv2
I0521 15:32:04.008708 27357 net.cpp:411] pool2 -> pool2
I0521 15:32:04.008728 27357 net.cpp:150] Setting up pool2
I0521 15:32:04.008739 27357 net.cpp:157] Top shape: 64 50 4 4 (51200)
I0521 15:32:04.008749 27357 net.cpp:165] Memory required for data: 4911360
I0521 15:32:04.008759 27357 layer_factory.hpp:77] Creating layer ip1
I0521 15:32:04.008824 27357 net.cpp:106] Creating Layer ip1
I0521 15:32:04.008841 27357 net.cpp:454] ip1 <- pool2
I0521 15:32:04.008855 27357 net.cpp:411] ip1 -> ip1
I0521 15:32:04.009781 27360 blocking_queue.cpp:50] Waiting for data
I0521 15:32:04.013790 27357 net.cpp:150] Setting up ip1
I0521 15:32:04.013809 27357 net.cpp:157] Top shape: 64 500 (32000)
I0521 15:32:04.013861 27357 net.cpp:165] Memory required for data: 5039360
I0521 15:32:04.013881 27357 layer_factory.hpp:77] Creating layer relu1
I0521 15:32:04.013932 27357 net.cpp:106] Creating Layer relu1
I0521 15:32:04.013944 27357 net.cpp:454] relu1 <- ip1
I0521 15:32:04.013955 27357 net.cpp:397] relu1 -> ip1 (in-place)
I0521 15:32:04.013968 27357 net.cpp:150] Setting up relu1
I0521 15:32:04.013975 27357 net.cpp:157] Top shape: 64 500 (32000)
I0521 15:32:04.013984 27357 net.cpp:165] Memory required for data: 5167360
I0521 15:32:04.013991 27357 layer_factory.hpp:77] Creating layer ip2
I0521 15:32:04.014003 27357 net.cpp:106] Creating Layer ip2
I0521 15:32:04.014009 27357 net.cpp:454] ip2 <- ip1
I0521 15:32:04.014019 27357 net.cpp:411] ip2 -> ip2
I0521 15:32:04.014106 27357 net.cpp:150] Setting up ip2
I0521 15:32:04.014117 27357 net.cpp:157] Top shape: 64 10 (640)
I0521 15:32:04.014125 27357 net.cpp:165] Memory required for data: 5169920
I0521 15:32:04.014137 27357 layer_factory.hpp:77] Creating layer loss
I0521 15:32:04.014191 27357 net.cpp:106] Creating Layer loss
I0521 15:32:04.014202 27357 net.cpp:454] loss <- ip2
I0521 15:32:04.014211 27357 net.cpp:454] loss <- label
I0521 15:32:04.014222 27357 net.cpp:411] loss -> loss
I0521 15:32:04.015877 27357 layer_factory.hpp:77] Creating layer loss
…
I0521 15:32:04.017936 27357 solver.cpp:181] Creating test net (#0) specified by net file: examples/mnist/lenet_train_test.prototxt
I0521 15:32:04.017992 27357 net.cpp:322] The NetState phase (1) differed from the phase (0) specified by a rule in layer mnist
I0521 15:32:04.018026 27357 net.cpp:49] Initializing net from parameters: 
name: "LeNet"
state {
  phase: TEST
}
layer {
  name: "mnist"
  type: "Data"
  top: "data"
  top: "label"
  include {
    phase: TEST
  }
  transform_param {
    scale: 0.00390625
  }
  data_param {
    source: "examples/mnist/mnist_test_lmdb"
    batch_size: 100
    backend: LMDB
  }
}
layer {
  name: "conv1"
  type: "Convolution"
  bottom: "data"
  top: "conv1"
  param {
    lr_mult: 1
  }
  param {
    lr_mult: 2
  }
  convolution_param {
    num_output: 20
    kernel_size: 5
    stride: 1
    weight_filler {
      type: "xavier"
    }
    bias_filler {
      type: "constant"
    }
  }
}
layer {
  name: "pool1"
  type: "Pooling"
  bottom: "conv1"
  top: "pool1"
  pooling_param {
    pool: MAX
    kernel_size: 2
    stride: 2
  }
}
layer {
  name: "conv2"
  type: "Convolution"
  bottom: "pool1"
  top: "conv2"
  param {
    lr_mult: 1
  }
  param {
    lr_mult: 2
  }
  convolution_param {
    num_output: 50
    kernel_size: 5
    stride: 1
    weight_filler {
      type: "xavier"
    }
    bias_filler {
      type: "constant"
    }
  }
}
layer {
  name: "pool2"
  type: "Pooling"
  bottom: "conv2"
  top: "pool2"
  pooling_param {
    pool: MAX
    kernel_size: 2
    stride: 2
  }
}
layer {
  name: "ip1"
  type: "InnerProduct"
  bottom: "pool2"
  top: "ip1"
  param {
    lr_mult: 1
  }
  param {
    lr_mult: 2
  }
  inner_product_param {
    num_output: 500
    weight_filler {
      type: "xavier"
    }
    bias_filler {
      type: "constant"
    }
  }
}
layer {
  name: "relu1"
  type: "ReLU"
  bottom: "ip1"
  top: "ip1"
}
layer {
  name: "ip2"
  type: "InnerProduct"
  bottom: "ip1"
  top: "ip2"
  param {
    lr_mult: 1
  }
  param {
    lr_mult: 2
  }
  inner_product_param {
    num_output: 10
    weight_filler {
      type: "xavier"
    }
    bias_filler {
      type: "constant"
    }
  }
}
layer {
  name: "accuracy"
  type: "Accuracy"
  bottom: "ip2"
  bottom: "label"
  top: "accuracy"
  include {
    phase: TEST
  }
}
layer {
  name: "loss"
  type: "SoftmaxWithLoss"
  bottom: "ip2"
  bottom: "label"
  top: "loss"
}
I0521 15:32:04.018296 27357 layer_factory.hpp:77] Creating layer mnist
I0521 15:32:04.018474 27357 net.cpp:106] Creating Layer mnist
I0521 15:32:04.018496 27357 net.cpp:411] mnist -> data
I0521 15:32:04.018515 27357 net.cpp:411] mnist -> label
I0521 15:32:04.133790 27361 db_lmdb.cpp:38] Opened lmdb examples/mnist/mnist_test_lmdb
I0521 15:32:04.134165 27357 data_layer.cpp:41] output data size: 100,1,28,28
I0521 15:32:04.135006 27357 net.cpp:150] Setting up mnist
I0521 15:32:04.135025 27357 net.cpp:157] Top shape: 100 1 28 28 (78400)
I0521 15:32:04.135061 27357 net.cpp:157] Top shape: 100 (100)
I0521 15:32:04.135073 27357 net.cpp:165] Memory required for data: 314000
I0521 15:32:04.135084 27357 layer_factory.hpp:77] Creating layer label_mnist_1_split
I0521 15:32:04.135165 27357 net.cpp:106] Creating Layer label_mnist_1_split
I0521 15:32:04.135182 27357 net.cpp:454] label_mnist_1_split <- label
I0521 15:32:04.135201 27357 net.cpp:411] label_mnist_1_split -> label_mnist_1_split_0
I0521 15:32:04.135228 27357 net.cpp:411] label_mnist_1_split -> label_mnist_1_split_1
I0521 15:32:04.135306 27357 net.cpp:150] Setting up label_mnist_1_split
I0521 15:32:04.135323 27357 net.cpp:157] Top shape: 100 (100)
I0521 15:32:04.135334 27357 net.cpp:157] Top shape: 100 (100)
I0521 15:32:04.135344 27357 net.cpp:165] Memory required for data: 314800
I0521 15:32:04.135354 27357 layer_factory.hpp:77] Creating layer conv1
I0521 15:32:04.135377 27357 net.cpp:106] Creating Layer conv1
I0521 15:32:04.135388 27357 net.cpp:454] conv1 <- data
I0521 15:32:04.135403 27357 net.cpp:411] conv1 -> conv1
I0521 15:32:04.135464 27357 net.cpp:150] Setting up conv1
I0521 15:32:04.135478 27357 net.cpp:157] Top shape: 100 20 24 24 (1152000)
I0521 15:32:04.135488 27357 net.cpp:165] Memory required for data: 4922800
I0521 15:32:04.135506 27357 layer_factory.hpp:77] Creating layer pool1
I0521 15:32:04.135524 27357 net.cpp:106] Creating Layer pool1
I0521 15:32:04.135542 27357 net.cpp:454] pool1 <- conv1
I0521 15:32:04.135556 27357 net.cpp:411] pool1 -> pool1
I0521 15:32:04.135578 27357 net.cpp:150] Setting up pool1
I0521 15:32:04.135589 27357 net.cpp:157] Top shape: 100 20 12 12 (288000)
I0521 15:32:04.135601 27357 net.cpp:165] Memory required for data: 6074800
I0521 15:32:04.135610 27357 layer_factory.hpp:77] Creating layer conv2
I0521 15:32:04.135627 27357 net.cpp:106] Creating Layer conv2
I0521 15:32:04.135639 27357 net.cpp:454] conv2 <- pool1
I0521 15:32:04.135656 27357 net.cpp:411] conv2 -> conv2
I0521 15:32:04.136005 27357 net.cpp:150] Setting up conv2
I0521 15:32:04.136023 27357 net.cpp:157] Top shape: 100 50 8 8 (320000)
I0521 15:32:04.136035 27357 net.cpp:165] Memory required for data: 7354800
I0521 15:32:04.136059 27357 layer_factory.hpp:77] Creating layer pool2
I0521 15:32:04.136075 27357 net.cpp:106] Creating Layer pool2
I0521 15:32:04.136091 27357 net.cpp:454] pool2 <- conv2
I0521 15:32:04.136113 27357 net.cpp:411] pool2 -> pool2
I0521 15:32:04.136133 27357 net.cpp:150] Setting up pool2
I0521 15:32:04.136143 27357 net.cpp:157] Top shape: 100 50 4 4 (80000)
I0521 15:32:04.136171 27357 net.cpp:165] Memory required for data: 7674800
I0521 15:32:04.136185 27357 layer_factory.hpp:77] Creating layer ip1
I0521 15:32:04.136200 27357 net.cpp:106] Creating Layer ip1
I0521 15:32:04.136209 27357 net.cpp:454] ip1 <- pool2
I0521 15:32:04.136227 27357 net.cpp:411] ip1 -> ip1
I0521 15:32:04.141181 27357 net.cpp:150] Setting up ip1
I0521 15:32:04.141198 27357 net.cpp:157] Top shape: 100 500 (50000)
I0521 15:32:04.141209 27357 net.cpp:165] Memory required for data: 7874800
I0521 15:32:04.141224 27357 layer_factory.hpp:77] Creating layer relu1
I0521 15:32:04.141235 27357 net.cpp:106] Creating Layer relu1
I0521 15:32:04.141243 27357 net.cpp:454] relu1 <- ip1
I0521 15:32:04.141261 27357 net.cpp:397] relu1 -> ip1 (in-place)
I0521 15:32:04.141274 27357 net.cpp:150] Setting up relu1
I0521 15:32:04.141280 27357 net.cpp:157] Top shape: 100 500 (50000)
I0521 15:32:04.141289 27357 net.cpp:165] Memory required for data: 8074800
I0521 15:32:04.141296 27357 layer_factory.hpp:77] Creating layer ip2
I0521 15:32:04.141307 27357 net.cpp:106] Creating Layer ip2
I0521 15:32:04.141314 27357 net.cpp:454] ip2 <- ip1
I0521 15:32:04.141327 27357 net.cpp:411] ip2 -> ip2
I0521 15:32:04.141409 27357 net.cpp:150] Setting up ip2
I0521 15:32:04.141422 27357 net.cpp:157] Top shape: 100 10 (1000)
I0521 15:32:04.141432 27357 net.cpp:165] Memory required for data: 8078800
I0521 15:32:04.141443 27357 layer_factory.hpp:77] Creating layer ip2_ip2_0_split
I0521 15:32:04.141455 27357 net.cpp:106] Creating Layer ip2_ip2_0_split
I0521 15:32:04.141463 27357 net.cpp:454] ip2_ip2_0_split <- ip2
I0521 15:32:04.141472 27357 net.cpp:411] ip2_ip2_0_split -> ip2_ip2_0_split_0
I0521 15:32:04.141484 27357 net.cpp:411] ip2_ip2_0_split -> ip2_ip2_0_split_1
I0521 15:32:04.141496 27357 net.cpp:150] Setting up ip2_ip2_0_split
I0521 15:32:04.141504 27357 net.cpp:157] Top shape: 100 10 (1000)
I0521 15:32:04.141511 27357 net.cpp:157] Top shape: 100 10 (1000)
I0521 15:32:04.141520 27357 net.cpp:165] Memory required for data: 8086800
I0521 15:32:04.141525 27357 layer_factory.hpp:77] Creating layer accuracy
I0521 15:32:04.141536 27357 net.cpp:106] Creating Layer accuracy
I0521 15:32:04.141543 27357 net.cpp:454] accuracy <- ip2_ip2_0_split_0
I0521 15:32:04.141551 27357 net.cpp:454] accuracy <- label_mnist_1_split_0
I0521 15:32:04.141559 27357 net.cpp:411] accuracy -> accuracy
…
