…
I0521 14:37:28.969961 27700 net.cpp:322] The NetState phase (0) differed from the phase (1) specified by a rule in layer mnist
I0521 14:37:28.970032 27700 net.cpp:322] The NetState phase (0) differed from the phase (1) specified by a rule in layer accuracy
I0521 14:37:28.970050 27700 net.cpp:49] Initializing net from parameters: 
name: "LeNet"
state {
  phase: TRAIN
}
layer {
  name: "mnist"
  type: "Data"
  top: "data"
  top: "label"
  include {
    phase: TRAIN
  }
  transform_param {
    scale: 0.00390625
  }
  data_param {
    source: "examples/mnist/mnist_train_lmdb"
    batch_size: 64
    backend: LMDB
  }
}
layer {
  name: "conv1"
  type: "Convolution"
  bottom: "data"
  top: "conv1"
  param {
    lr_mult: 1
  }
  param {
    lr_mult: 2
  }
  convolution_param {
    num_output: 20
    kernel_size: 5
    stride: 1
    weight_filler {
      type: "xavier"
    }
    bias_filler {
      type: "constant"
    }
  }
}
layer {
  name: "pool1"
  type: "Pooling"
  bottom: "conv1"
  top: "pool1"
  pooling_param {
    pool: MAX
    kernel_size: 2
    stride: 2
  }
}
layer {
  name: "conv2"
  type: "Convolution"
  bottom: "pool1"
  top: "conv2"
  param {
    lr_mult: 1
  }
  param {
    lr_mult: 2
  }
  convolution_param {
    num_output: 50
    kernel_size: 5
    stride: 1
    weight_filler {
      type: "xavier"
    }
    bias_filler {
      type: "constant"
    }
  }
}
layer {
  name: "pool2"
  type: "Pooling"
  bottom: "conv2"
  top: "pool2"
  pooling_param {
    pool: MAX
    kernel_size: 2
    stride: 2
  }
}
layer {
  name: "ip1"
  type: "InnerProduct"
  bottom: "pool2"
  top: "ip1"
  param {
    lr_mult: 1
  }
  param {
    lr_mult: 2
  }
  inner_product_param {
    num_output: 500
    weight_filler {
      type: "xavier"
    }
    bias_filler {
      type: "constant"
    }
  }
}
layer {
  name: "relu1"
  type: "ReLU"
  bottom: "ip1"
  top: "ip1"
}
layer {
  name: "ip2"
  type: "InnerProduct"
  bottom: "ip1"
  top: "ip2"
  param {
    lr_mult: 1
  }
  param {
    lr_mult: 2
  }
  inner_product_param {
    num_output: 10
    weight_filler {
      type: "xavier"
    }
    bias_filler {
      type: "constant"
    }
  }
}
layer {
  name: "loss"
  type: "SoftmaxWithLoss"
  bottom: "ip2"
  bottom: "label"
  top: "loss"
}
I0521 14:37:28.970629 27700 layer_factory.hpp:77] Creating layer mnist
I0521 14:37:28.973495 27700 net.cpp:106] Creating Layer mnist
I0521 14:37:28.973525 27700 net.cpp:411] mnist -> data
I0521 14:37:28.988468 27700 net.cpp:411] mnist -> label
I0521 14:37:29.087617 27702 db_lmdb.cpp:38] Opened lmdb examples/mnist/mnist_train_lmdb
I0521 14:37:29.099246 27700 data_layer.cpp:41] output data size: 64,1,28,28
I0521 14:37:29.099848 27700 net.cpp:150] Setting up mnist
I0521 14:37:29.099910 27700 net.cpp:157] Top shape: 64 1 28 28 (50176)
I0521 14:37:29.099995 27700 net.cpp:157] Top shape: 64 (64)
I0521 14:37:29.100006 27700 net.cpp:165] Memory required for data: 200960
I0521 14:37:29.100023 27700 layer_factory.hpp:77] Creating layer conv1
I0521 14:37:29.100150 27700 net.cpp:106] Creating Layer conv1
I0521 14:37:29.100168 27700 net.cpp:454] conv1 <- data
I0521 14:37:29.100190 27700 net.cpp:411] conv1 -> conv1
I0521 14:37:29.102421 27700 net.cpp:150] Setting up conv1
I0521 14:37:29.102447 27700 net.cpp:157] Top shape: 64 20 24 24 (737280)
I0521 14:37:29.102458 27700 net.cpp:165] Memory required for data: 3150080
I0521 14:37:29.102592 27700 layer_factory.hpp:77] Creating layer pool1
I0521 14:37:29.102649 27700 net.cpp:106] Creating Layer pool1
I0521 14:37:29.102661 27700 net.cpp:454] pool1 <- conv1
I0521 14:37:29.102675 27700 net.cpp:411] pool1 -> pool1
I0521 14:37:29.102803 27700 net.cpp:150] Setting up pool1
I0521 14:37:29.102818 27700 net.cpp:157] Top shape: 64 20 12 12 (184320)
I0521 14:37:29.102828 27700 net.cpp:165] Memory required for data: 3887360
I0521 14:37:29.102835 27700 layer_factory.hpp:77] Creating layer conv2
I0521 14:37:29.102855 27700 net.cpp:106] Creating Layer conv2
I0521 14:37:29.102862 27700 net.cpp:454] conv2 <- pool1
I0521 14:37:29.102876 27700 net.cpp:411] conv2 -> conv2
I0521 14:37:29.103252 27700 net.cpp:150] Setting up conv2
I0521 14:37:29.103268 27700 net.cpp:157] Top shape: 64 50 8 8 (204800)
I0521 14:37:29.103278 27700 net.cpp:165] Memory required for data: 4706560
I0521 14:37:29.103293 27700 layer_factory.hpp:77] Creating layer pool2
I0521 14:37:29.103305 27700 net.cpp:106] Creating Layer pool2
I0521 14:37:29.103312 27700 net.cpp:454] pool2 <- conv2
I0521 14:37:29.103325 27700 net.cpp:411] pool2 -> pool2
I0521 14:37:29.103341 27700 net.cpp:150] Setting up pool2
I0521 14:37:29.103348 27700 net.cpp:157] Top shape: 64 50 4 4 (51200)
I0521 14:37:29.103358 27700 net.cpp:165] Memory required for data: 4911360
I0521 14:37:29.103364 27700 layer_factory.hpp:77] Creating layer ip1
I0521 14:37:29.103418 27700 net.cpp:106] Creating Layer ip1
I0521 14:37:29.103432 27700 net.cpp:454] ip1 <- pool2
I0521 14:37:29.103446 27700 net.cpp:411] ip1 -> ip1
I0521 14:37:29.108110 27700 net.cpp:150] Setting up ip1
I0521 14:37:29.108126 27700 net.cpp:157] Top shape: 64 500 (32000)
I0521 14:37:29.108173 27700 net.cpp:165] Memory required for data: 5039360
I0521 14:37:29.108191 27700 layer_factory.hpp:77] Creating layer relu1
I0521 14:37:29.108239 27700 net.cpp:106] Creating Layer relu1
I0521 14:37:29.108250 27700 net.cpp:454] relu1 <- ip1
I0521 14:37:29.108260 27700 net.cpp:397] relu1 -> ip1 (in-place)
I0521 14:37:29.108273 27700 net.cpp:150] Setting up relu1
I0521 14:37:29.108280 27700 net.cpp:157] Top shape: 64 500 (32000)
I0521 14:37:29.108289 27700 net.cpp:165] Memory required for data: 5167360
I0521 14:37:29.108296 27700 layer_factory.hpp:77] Creating layer ip2
I0521 14:37:29.108306 27700 net.cpp:106] Creating Layer ip2
I0521 14:37:29.108314 27700 net.cpp:454] ip2 <- ip1
I0521 14:37:29.108325 27700 net.cpp:411] ip2 -> ip2
I0521 14:37:29.108409 27700 net.cpp:150] Setting up ip2
I0521 14:37:29.108419 27700 net.cpp:157] Top shape: 64 10 (640)
I0521 14:37:29.108429 27700 net.cpp:165] Memory required for data: 5169920
I0521 14:37:29.108440 27700 layer_factory.hpp:77] Creating layer loss
I0521 14:37:29.108494 27700 net.cpp:106] Creating Layer loss
I0521 14:37:29.108505 27700 net.cpp:454] loss <- ip2
I0521 14:37:29.108512 27700 net.cpp:454] loss <- label
I0521 14:37:29.108523 27700 net.cpp:411] loss -> loss
I0521 14:37:29.110146 27700 layer_factory.hpp:77] Creating layer loss
…
I0521 14:37:29.112036 27700 solver.cpp:181] Creating test net (#0) specified by net file: examples/mnist/lenet_train_test.prototxt
I0521 14:37:29.112088 27700 net.cpp:322] The NetState phase (1) differed from the phase (0) specified by a rule in layer mnist
I0521 14:37:29.112119 27700 net.cpp:49] Initializing net from parameters: 
name: "LeNet"
state {
  phase: TEST
}
layer {
  name: "mnist"
  type: "Data"
  top: "data"
  top: "label"
  include {
    phase: TEST
  }
  transform_param {
    scale: 0.00390625
  }
  data_param {
    source: "examples/mnist/mnist_test_lmdb"
    batch_size: 100
    backend: LMDB
  }
}
layer {
  name: "conv1"
  type: "Convolution"
  bottom: "data"
  top: "conv1"
  param {
    lr_mult: 1
  }
  param {
    lr_mult: 2
  }
  convolution_param {
    num_output: 20
    kernel_size: 5
    stride: 1
    weight_filler {
      type: "xavier"
    }
    bias_filler {
      type: "constant"
    }
  }
}
layer {
  name: "pool1"
  type: "Pooling"
  bottom: "conv1"
  top: "pool1"
  pooling_param {
    pool: MAX
    kernel_size: 2
    stride: 2
  }
}
layer {
  name: "conv2"
  type: "Convolution"
  bottom: "pool1"
  top: "conv2"
  param {
    lr_mult: 1
  }
  param {
    lr_mult: 2
  }
  convolution_param {
    num_output: 50
    kernel_size: 5
    stride: 1
    weight_filler {
      type: "xavier"
    }
    bias_filler {
      type: "constant"
    }
  }
}
layer {
  name: "pool2"
  type: "Pooling"
  bottom: "conv2"
  top: "pool2"
  pooling_param {
    pool: MAX
    kernel_size: 2
    stride: 2
  }
}
layer {
  name: "ip1"
  type: "InnerProduct"
  bottom: "pool2"
  top: "ip1"
  param {
    lr_mult: 1
  }
  param {
    lr_mult: 2
  }
  inner_product_param {
    num_output: 500
    weight_filler {
      type: "xavier"
    }
    bias_filler {
      type: "constant"
    }
  }
}
layer {
  name: "relu1"
  type: "ReLU"
  bottom: "ip1"
  top: "ip1"
}
layer {
  name: "ip2"
  type: "InnerProduct"
  bottom: "ip1"
  top: "ip2"
  param {
    lr_mult: 1
  }
  param {
    lr_mult: 2
  }
  inner_product_param {
    num_output: 10
    weight_filler {
      type: "xavier"
    }
    bias_filler {
      type: "constant"
    }
  }
}
layer {
  name: "accuracy"
  type: "Accuracy"
  bottom: "ip2"
  bottom: "label"
  top: "accuracy"
  include {
    phase: TEST
  }
}
layer {
  name: "loss"
  type: "SoftmaxWithLoss"
  bottom: "ip2"
  bottom: "label"
  top: "loss"
}
I0521 14:37:29.112383 27700 layer_factory.hpp:77] Creating layer mnist
I0521 14:37:29.112542 27700 net.cpp:106] Creating Layer mnist
I0521 14:37:29.112562 27700 net.cpp:411] mnist -> data
I0521 14:37:29.112607 27700 net.cpp:411] mnist -> label
I0521 14:37:29.195379 27704 db_lmdb.cpp:38] Opened lmdb examples/mnist/mnist_test_lmdb
I0521 14:37:29.195749 27700 data_layer.cpp:41] output data size: 100,1,28,28
I0521 14:37:29.196434 27700 net.cpp:150] Setting up mnist
I0521 14:37:29.196452 27700 net.cpp:157] Top shape: 100 1 28 28 (78400)
I0521 14:37:29.196491 27700 net.cpp:157] Top shape: 100 (100)
I0521 14:37:29.196508 27700 net.cpp:165] Memory required for data: 314000
I0521 14:37:29.196521 27700 layer_factory.hpp:77] Creating layer label_mnist_1_split
I0521 14:37:29.196604 27700 net.cpp:106] Creating Layer label_mnist_1_split
I0521 14:37:29.196621 27700 net.cpp:454] label_mnist_1_split <- label
I0521 14:37:29.196635 27700 net.cpp:411] label_mnist_1_split -> label_mnist_1_split_0
I0521 14:37:29.196663 27700 net.cpp:411] label_mnist_1_split -> label_mnist_1_split_1
I0521 14:37:29.196759 27700 net.cpp:150] Setting up label_mnist_1_split
I0521 14:37:29.196774 27700 net.cpp:157] Top shape: 100 (100)
I0521 14:37:29.196784 27700 net.cpp:157] Top shape: 100 (100)
I0521 14:37:29.196792 27700 net.cpp:165] Memory required for data: 314800
I0521 14:37:29.196804 27700 layer_factory.hpp:77] Creating layer conv1
I0521 14:37:29.196822 27700 net.cpp:106] Creating Layer conv1
I0521 14:37:29.196831 27700 net.cpp:454] conv1 <- data
I0521 14:37:29.196859 27700 net.cpp:411] conv1 -> conv1
I0521 14:37:29.196919 27700 net.cpp:150] Setting up conv1
I0521 14:37:29.196933 27700 net.cpp:157] Top shape: 100 20 24 24 (1152000)
I0521 14:37:29.196943 27700 net.cpp:165] Memory required for data: 4922800
I0521 14:37:29.196964 27700 layer_factory.hpp:77] Creating layer pool1
I0521 14:37:29.196976 27700 net.cpp:106] Creating Layer pool1
I0521 14:37:29.196983 27700 net.cpp:454] pool1 <- conv1
I0521 14:37:29.197007 27700 net.cpp:411] pool1 -> pool1
I0521 14:37:29.197034 27700 net.cpp:150] Setting up pool1
I0521 14:37:29.197044 27700 net.cpp:157] Top shape: 100 20 12 12 (288000)
I0521 14:37:29.197078 27700 net.cpp:165] Memory required for data: 6074800
I0521 14:37:29.197087 27700 layer_factory.hpp:77] Creating layer conv2
I0521 14:37:29.197103 27700 net.cpp:106] Creating Layer conv2
I0521 14:37:29.197111 27700 net.cpp:454] conv2 <- pool1
I0521 14:37:29.197132 27700 net.cpp:411] conv2 -> conv2
I0521 14:37:29.197482 27700 net.cpp:150] Setting up conv2
I0521 14:37:29.197499 27700 net.cpp:157] Top shape: 100 50 8 8 (320000)
I0521 14:37:29.197511 27700 net.cpp:165] Memory required for data: 7354800
I0521 14:37:29.197530 27700 layer_factory.hpp:77] Creating layer pool2
I0521 14:37:29.197541 27700 net.cpp:106] Creating Layer pool2
I0521 14:37:29.197551 27700 net.cpp:454] pool2 <- conv2
I0521 14:37:29.197561 27700 net.cpp:411] pool2 -> pool2
I0521 14:37:29.197579 27700 net.cpp:150] Setting up pool2
I0521 14:37:29.197594 27700 net.cpp:157] Top shape: 100 50 4 4 (80000)
I0521 14:37:29.197605 27700 net.cpp:165] Memory required for data: 7674800
I0521 14:37:29.197613 27700 layer_factory.hpp:77] Creating layer ip1
I0521 14:37:29.197643 27700 net.cpp:106] Creating Layer ip1
I0521 14:37:29.197654 27700 net.cpp:454] ip1 <- pool2
I0521 14:37:29.197666 27700 net.cpp:411] ip1 -> ip1
I0521 14:37:29.202311 27700 net.cpp:150] Setting up ip1
I0521 14:37:29.202327 27700 net.cpp:157] Top shape: 100 500 (50000)
I0521 14:37:29.202337 27700 net.cpp:165] Memory required for data: 7874800
I0521 14:37:29.202353 27700 layer_factory.hpp:77] Creating layer relu1
I0521 14:37:29.202368 27700 net.cpp:106] Creating Layer relu1
I0521 14:37:29.202378 27700 net.cpp:454] relu1 <- ip1
I0521 14:37:29.202389 27700 net.cpp:397] relu1 -> ip1 (in-place)
I0521 14:37:29.202399 27700 net.cpp:150] Setting up relu1
I0521 14:37:29.202405 27700 net.cpp:157] Top shape: 100 500 (50000)
I0521 14:37:29.202414 27700 net.cpp:165] Memory required for data: 8074800
I0521 14:37:29.202419 27700 layer_factory.hpp:77] Creating layer ip2
I0521 14:37:29.202435 27700 net.cpp:106] Creating Layer ip2
I0521 14:37:29.202442 27700 net.cpp:454] ip2 <- ip1
I0521 14:37:29.202452 27700 net.cpp:411] ip2 -> ip2
I0521 14:37:29.202536 27700 net.cpp:150] Setting up ip2
I0521 14:37:29.202548 27700 net.cpp:157] Top shape: 100 10 (1000)
I0521 14:37:29.202558 27700 net.cpp:165] Memory required for data: 8078800
I0521 14:37:29.202569 27700 layer_factory.hpp:77] Creating layer ip2_ip2_0_split
I0521 14:37:29.202579 27700 net.cpp:106] Creating Layer ip2_ip2_0_split
I0521 14:37:29.202585 27700 net.cpp:454] ip2_ip2_0_split <- ip2
I0521 14:37:29.202594 27700 net.cpp:411] ip2_ip2_0_split -> ip2_ip2_0_split_0
I0521 14:37:29.202607 27700 net.cpp:411] ip2_ip2_0_split -> ip2_ip2_0_split_1
I0521 14:37:29.202620 27700 net.cpp:150] Setting up ip2_ip2_0_split
I0521 14:37:29.202627 27700 net.cpp:157] Top shape: 100 10 (1000)
I0521 14:37:29.202636 27700 net.cpp:157] Top shape: 100 10 (1000)
I0521 14:37:29.202643 27700 net.cpp:165] Memory required for data: 8086800
I0521 14:37:29.202649 27700 layer_factory.hpp:77] Creating layer accuracy
I0521 14:37:29.202662 27700 net.cpp:106] Creating Layer accuracy
I0521 14:37:29.202670 27700 net.cpp:454] accuracy <- ip2_ip2_0_split_0
I0521 14:37:29.202682 27700 net.cpp:454] accuracy <- label_mnist_1_split_0
I0521 14:37:29.202692 27700 net.cpp:411] accuracy -> accuracy
…
