…
I0517 14:50:18.217752  3373 net.cpp:322] The NetState phase (0) differed from the phase (1) specified by a rule in layer mnist
I0517 14:50:18.217818  3373 net.cpp:322] The NetState phase (0) differed from the phase (1) specified by a rule in layer accuracy
I0517 14:50:18.217834  3373 net.cpp:49] Initializing net from parameters: 
name: "LeNet"
state {
  phase: TRAIN
}
layer {
  name: "mnist"
  type: "Data"
  top: "data"
  top: "label"
  include {
    phase: TRAIN
  }
  transform_param {
    scale: 0.00390625
  }
  data_param {
    source: "examples/mnist/mnist_train_lmdb"
    batch_size: 64
    backend: LMDB
  }
}
layer {
  name: "conv1"
  type: "Convolution"
  bottom: "data"
  top: "conv1"
  param {
    lr_mult: 1
  }
  param {
    lr_mult: 2
  }
  convolution_param {
    num_output: 20
    kernel_size: 5
    stride: 1
    weight_filler {
      type: "xavier"
    }
    bias_filler {
      type: "constant"
    }
  }
}
layer {
  name: "pool1"
  type: "Pooling"
  bottom: "conv1"
  top: "pool1"
  pooling_param {
    pool: MAX
    kernel_size: 2
    stride: 2
  }
}
layer {
  name: "conv2"
  type: "Convolution"
  bottom: "pool1"
  top: "conv2"
  param {
    lr_mult: 1
  }
  param {
    lr_mult: 2
  }
  convolution_param {
    num_output: 50
    kernel_size: 5
    stride: 1
    weight_filler {
      type: "xavier"
    }
    bias_filler {
      type: "constant"
    }
  }
}
layer {
  name: "pool2"
  type: "Pooling"
  bottom: "conv2"
  top: "pool2"
  pooling_param {
    pool: MAX
    kernel_size: 2
    stride: 2
  }
}
layer {
  name: "ip1"
  type: "InnerProduct"
  bottom: "pool2"
  top: "ip1"
  param {
    lr_mult: 1
  }
  param {
    lr_mult: 2
  }
  inner_product_param {
    num_output: 500
    weight_filler {
      type: "xavier"
    }
    bias_filler {
      type: "constant"
    }
  }
}
layer {
  name: "relu1"
  type: "ReLU"
  bottom: "ip1"
  top: "ip1"
}
layer {
  name: "ip2"
  type: "InnerProduct"
  bottom: "ip1"
  top: "ip2"
  param {
    lr_mult: 1
  }
  param {
    lr_mult: 2
  }
  inner_product_param {
    num_output: 10
    weight_filler {
      type: "xavier"
    }
    bias_filler {
      type: "constant"
    }
  }
}
layer {
  name: "loss"
  type: "SoftmaxWithLoss"
  bottom: "ip2"
  bottom: "label"
  top: "loss"
}
I0517 14:50:18.218499  3373 layer_factory.hpp:77] Creating layer mnist
I0517 14:50:18.221154  3373 net.cpp:106] Creating Layer mnist
I0517 14:50:18.221182  3373 net.cpp:411] mnist -> data
I0517 14:50:18.221287  3373 net.cpp:411] mnist -> label
I0517 14:50:18.280719  3375 db_lmdb.cpp:38] Opened lmdb examples/mnist/mnist_train_lmdb
I0517 14:50:18.315420  3373 data_layer.cpp:41] output data size: 64,1,28,28
I0517 14:50:18.315996  3373 net.cpp:150] Setting up mnist
I0517 14:50:18.316063  3373 net.cpp:157] Top shape: 64 1 28 28 (50176)
I0517 14:50:18.316156  3373 net.cpp:157] Top shape: 64 (64)
I0517 14:50:18.316167  3373 net.cpp:165] Memory required for data: 200960
I0517 14:50:18.316637  3376 blocking_queue.cpp:50] Waiting for data
I0517 14:50:18.319121  3373 layer_factory.hpp:77] Creating layer conv1
I0517 14:50:18.319234  3373 net.cpp:106] Creating Layer conv1
I0517 14:50:18.319254  3373 net.cpp:454] conv1 <- data
I0517 14:50:18.319284  3373 net.cpp:411] conv1 -> conv1
I0517 14:50:18.321449  3373 net.cpp:150] Setting up conv1
I0517 14:50:18.321475  3373 net.cpp:157] Top shape: 64 20 24 24 (737280)
I0517 14:50:18.321487  3373 net.cpp:165] Memory required for data: 3150080
I0517 14:50:18.321635  3373 layer_factory.hpp:77] Creating layer pool1
I0517 14:50:18.321702  3373 net.cpp:106] Creating Layer pool1
I0517 14:50:18.321714  3373 net.cpp:454] pool1 <- conv1
I0517 14:50:18.321740  3373 net.cpp:411] pool1 -> pool1
I0517 14:50:18.321871  3373 net.cpp:150] Setting up pool1
I0517 14:50:18.321884  3373 net.cpp:157] Top shape: 64 20 12 12 (184320)
I0517 14:50:18.321894  3373 net.cpp:165] Memory required for data: 3887360
I0517 14:50:18.321902  3373 layer_factory.hpp:77] Creating layer conv2
I0517 14:50:18.321925  3373 net.cpp:106] Creating Layer conv2
I0517 14:50:18.321934  3373 net.cpp:454] conv2 <- pool1
I0517 14:50:18.321949  3373 net.cpp:411] conv2 -> conv2
I0517 14:50:18.322279  3373 net.cpp:150] Setting up conv2
I0517 14:50:18.322299  3373 net.cpp:157] Top shape: 64 50 8 8 (204800)
I0517 14:50:18.322309  3373 net.cpp:165] Memory required for data: 4706560
I0517 14:50:18.322324  3373 layer_factory.hpp:77] Creating layer pool2
I0517 14:50:18.322337  3373 net.cpp:106] Creating Layer pool2
I0517 14:50:18.322345  3373 net.cpp:454] pool2 <- conv2
I0517 14:50:18.322355  3373 net.cpp:411] pool2 -> pool2
I0517 14:50:18.322371  3373 net.cpp:150] Setting up pool2
I0517 14:50:18.322377  3373 net.cpp:157] Top shape: 64 50 4 4 (51200)
I0517 14:50:18.322407  3373 net.cpp:165] Memory required for data: 4911360
I0517 14:50:18.322414  3373 layer_factory.hpp:77] Creating layer ip1
I0517 14:50:18.322476  3373 net.cpp:106] Creating Layer ip1
I0517 14:50:18.322489  3373 net.cpp:454] ip1 <- pool2
I0517 14:50:18.322504  3373 net.cpp:411] ip1 -> ip1
I0517 14:50:18.327353  3373 net.cpp:150] Setting up ip1
I0517 14:50:18.327370  3373 net.cpp:157] Top shape: 64 500 (32000)
I0517 14:50:18.327421  3373 net.cpp:165] Memory required for data: 5039360
I0517 14:50:18.327440  3373 layer_factory.hpp:77] Creating layer relu1
I0517 14:50:18.327491  3373 net.cpp:106] Creating Layer relu1
I0517 14:50:18.327502  3373 net.cpp:454] relu1 <- ip1
I0517 14:50:18.327517  3373 net.cpp:397] relu1 -> ip1 (in-place)
I0517 14:50:18.327530  3373 net.cpp:150] Setting up relu1
I0517 14:50:18.327538  3373 net.cpp:157] Top shape: 64 500 (32000)
I0517 14:50:18.327548  3373 net.cpp:165] Memory required for data: 5167360
I0517 14:50:18.327554  3373 layer_factory.hpp:77] Creating layer ip2
I0517 14:50:18.327565  3373 net.cpp:106] Creating Layer ip2
I0517 14:50:18.327572  3373 net.cpp:454] ip2 <- ip1
I0517 14:50:18.327589  3373 net.cpp:411] ip2 -> ip2
I0517 14:50:18.327687  3373 net.cpp:150] Setting up ip2
I0517 14:50:18.327699  3373 net.cpp:157] Top shape: 64 10 (640)
I0517 14:50:18.327708  3373 net.cpp:165] Memory required for data: 5169920
I0517 14:50:18.327721  3373 layer_factory.hpp:77] Creating layer loss
I0517 14:50:18.327778  3373 net.cpp:106] Creating Layer loss
I0517 14:50:18.327790  3373 net.cpp:454] loss <- ip2
I0517 14:50:18.327798  3373 net.cpp:454] loss <- label
I0517 14:50:18.327811  3373 net.cpp:411] loss -> loss
I0517 14:50:18.329668  3373 layer_factory.hpp:77] Creating layer loss
…
I0517 14:50:18.331619  3373 solver.cpp:181] Creating test net (#0) specified by net file: examples/mnist/lenet_train_test.prototxt
I0517 14:50:18.331689  3373 net.cpp:322] The NetState phase (1) differed from the phase (0) specified by a rule in layer mnist
I0517 14:50:18.331728  3373 net.cpp:49] Initializing net from parameters: 
name: "LeNet"
state {
  phase: TEST
}
layer {
  name: "mnist"
  type: "Data"
  top: "data"
  top: "label"
  include {
    phase: TEST
  }
  transform_param {
    scale: 0.00390625
  }
  data_param {
    source: "examples/mnist/mnist_test_lmdb"
    batch_size: 100
    backend: LMDB
  }
}
layer {
  name: "conv1"
  type: "Convolution"
  bottom: "data"
  top: "conv1"
  param {
    lr_mult: 1
  }
  param {
    lr_mult: 2
  }
  convolution_param {
    num_output: 20
    kernel_size: 5
    stride: 1
    weight_filler {
      type: "xavier"
    }
    bias_filler {
      type: "constant"
    }
  }
}
layer {
  name: "pool1"
  type: "Pooling"
  bottom: "conv1"
  top: "pool1"
  pooling_param {
    pool: MAX
    kernel_size: 2
    stride: 2
  }
}
layer {
  name: "conv2"
  type: "Convolution"
  bottom: "pool1"
  top: "conv2"
  param {
    lr_mult: 1
  }
  param {
    lr_mult: 2
  }
  convolution_param {
    num_output: 50
    kernel_size: 5
    stride: 1
    weight_filler {
      type: "xavier"
    }
    bias_filler {
      type: "constant"
    }
  }
}
layer {
  name: "pool2"
  type: "Pooling"
  bottom: "conv2"
  top: "pool2"
  pooling_param {
    pool: MAX
    kernel_size: 2
    stride: 2
  }
}
layer {
  name: "ip1"
  type: "InnerProduct"
  bottom: "pool2"
  top: "ip1"
  param {
    lr_mult: 1
  }
  param {
    lr_mult: 2
  }
  inner_product_param {
    num_output: 500
    weight_filler {
      type: "xavier"
    }
    bias_filler {
      type: "constant"
    }
  }
}
layer {
  name: "relu1"
  type: "ReLU"
  bottom: "ip1"
  top: "ip1"
}
layer {
  name: "ip2"
  type: "InnerProduct"
  bottom: "ip1"
  top: "ip2"
  param {
    lr_mult: 1
  }
  param {
    lr_mult: 2
  }
  inner_product_param {
    num_output: 10
    weight_filler {
      type: "xavier"
    }
    bias_filler {
      type: "constant"
    }
  }
}
layer {
  name: "accuracy"
  type: "Accuracy"
  bottom: "ip2"
  bottom: "label"
  top: "accuracy"
  include {
    phase: TEST
  }
}
layer {
  name: "loss"
  type: "SoftmaxWithLoss"
  bottom: "ip2"
  bottom: "label"
  top: "loss"
}
I0517 14:50:18.332011  3373 layer_factory.hpp:77] Creating layer mnist
I0517 14:50:18.332157  3373 net.cpp:106] Creating Layer mnist
I0517 14:50:18.332178  3373 net.cpp:411] mnist -> data
I0517 14:50:18.332196  3373 net.cpp:411] mnist -> label
I0517 14:50:18.385004  3377 db_lmdb.cpp:38] Opened lmdb examples/mnist/mnist_test_lmdb
I0517 14:50:18.385175  3373 data_layer.cpp:41] output data size: 100,1,28,28
I0517 14:50:18.386128  3373 net.cpp:150] Setting up mnist
I0517 14:50:18.386153  3373 net.cpp:157] Top shape: 100 1 28 28 (78400)
I0517 14:50:18.386193  3373 net.cpp:157] Top shape: 100 (100)
I0517 14:50:18.386210  3373 net.cpp:165] Memory required for data: 314000
I0517 14:50:18.386220  3373 layer_factory.hpp:77] Creating layer label_mnist_1_split
I0517 14:50:18.386299  3373 net.cpp:106] Creating Layer label_mnist_1_split
I0517 14:50:18.386317  3373 net.cpp:454] label_mnist_1_split <- label
I0517 14:50:18.386330  3373 net.cpp:411] label_mnist_1_split -> label_mnist_1_split_0
I0517 14:50:18.386351  3373 net.cpp:411] label_mnist_1_split -> label_mnist_1_split_1
I0517 14:50:18.386423  3373 net.cpp:150] Setting up label_mnist_1_split
I0517 14:50:18.386438  3373 net.cpp:157] Top shape: 100 (100)
I0517 14:50:18.386448  3373 net.cpp:157] Top shape: 100 (100)
I0517 14:50:18.386469  3373 net.cpp:165] Memory required for data: 314800
I0517 14:50:18.386479  3373 layer_factory.hpp:77] Creating layer conv1
I0517 14:50:18.386502  3373 net.cpp:106] Creating Layer conv1
I0517 14:50:18.386512  3373 net.cpp:454] conv1 <- data
I0517 14:50:18.386535  3373 net.cpp:411] conv1 -> conv1
I0517 14:50:18.386591  3373 net.cpp:150] Setting up conv1
I0517 14:50:18.386610  3373 net.cpp:157] Top shape: 100 20 24 24 (1152000)
I0517 14:50:18.386631  3373 net.cpp:165] Memory required for data: 4922800
I0517 14:50:18.386656  3373 layer_factory.hpp:77] Creating layer pool1
I0517 14:50:18.386670  3373 net.cpp:106] Creating Layer pool1
I0517 14:50:18.386689  3373 net.cpp:454] pool1 <- conv1
I0517 14:50:18.386706  3373 net.cpp:411] pool1 -> pool1
I0517 14:50:18.386725  3373 net.cpp:150] Setting up pool1
I0517 14:50:18.386734  3373 net.cpp:157] Top shape: 100 20 12 12 (288000)
I0517 14:50:18.386751  3373 net.cpp:165] Memory required for data: 6074800
I0517 14:50:18.386760  3373 layer_factory.hpp:77] Creating layer conv2
I0517 14:50:18.386780  3373 net.cpp:106] Creating Layer conv2
I0517 14:50:18.386790  3373 net.cpp:454] conv2 <- pool1
I0517 14:50:18.386806  3373 net.cpp:411] conv2 -> conv2
I0517 14:50:18.387179  3373 net.cpp:150] Setting up conv2
I0517 14:50:18.387197  3373 net.cpp:157] Top shape: 100 50 8 8 (320000)
I0517 14:50:18.387215  3373 net.cpp:165] Memory required for data: 7354800
I0517 14:50:18.387230  3373 layer_factory.hpp:77] Creating layer pool2
I0517 14:50:18.387248  3373 net.cpp:106] Creating Layer pool2
I0517 14:50:18.387257  3373 net.cpp:454] pool2 <- conv2
I0517 14:50:18.387295  3373 net.cpp:411] pool2 -> pool2
I0517 14:50:18.387317  3373 net.cpp:150] Setting up pool2
I0517 14:50:18.387326  3373 net.cpp:157] Top shape: 100 50 4 4 (80000)
I0517 14:50:18.387337  3373 net.cpp:165] Memory required for data: 7674800
I0517 14:50:18.387344  3373 layer_factory.hpp:77] Creating layer ip1
I0517 14:50:18.387362  3373 net.cpp:106] Creating Layer ip1
I0517 14:50:18.387372  3373 net.cpp:454] ip1 <- pool2
I0517 14:50:18.387384  3373 net.cpp:411] ip1 -> ip1
I0517 14:50:18.392316  3373 net.cpp:150] Setting up ip1
I0517 14:50:18.392333  3373 net.cpp:157] Top shape: 100 500 (50000)
I0517 14:50:18.392350  3373 net.cpp:165] Memory required for data: 7874800
I0517 14:50:18.392365  3373 layer_factory.hpp:77] Creating layer relu1
I0517 14:50:18.392376  3373 net.cpp:106] Creating Layer relu1
I0517 14:50:18.392383  3373 net.cpp:454] relu1 <- ip1
I0517 14:50:18.392393  3373 net.cpp:397] relu1 -> ip1 (in-place)
I0517 14:50:18.392405  3373 net.cpp:150] Setting up relu1
I0517 14:50:18.392410  3373 net.cpp:157] Top shape: 100 500 (50000)
I0517 14:50:18.392418  3373 net.cpp:165] Memory required for data: 8074800
I0517 14:50:18.392426  3373 layer_factory.hpp:77] Creating layer ip2
I0517 14:50:18.392439  3373 net.cpp:106] Creating Layer ip2
I0517 14:50:18.392446  3373 net.cpp:454] ip2 <- ip1
I0517 14:50:18.392457  3373 net.cpp:411] ip2 -> ip2
I0517 14:50:18.392542  3373 net.cpp:150] Setting up ip2
I0517 14:50:18.392554  3373 net.cpp:157] Top shape: 100 10 (1000)
I0517 14:50:18.392562  3373 net.cpp:165] Memory required for data: 8078800
I0517 14:50:18.392575  3373 layer_factory.hpp:77] Creating layer ip2_ip2_0_split
I0517 14:50:18.392583  3373 net.cpp:106] Creating Layer ip2_ip2_0_split
I0517 14:50:18.392590  3373 net.cpp:454] ip2_ip2_0_split <- ip2
I0517 14:50:18.392599  3373 net.cpp:411] ip2_ip2_0_split -> ip2_ip2_0_split_0
I0517 14:50:18.392611  3373 net.cpp:411] ip2_ip2_0_split -> ip2_ip2_0_split_1
I0517 14:50:18.392628  3373 net.cpp:150] Setting up ip2_ip2_0_split
I0517 14:50:18.392637  3373 net.cpp:157] Top shape: 100 10 (1000)
I0517 14:50:18.392645  3373 net.cpp:157] Top shape: 100 10 (1000)
I0517 14:50:18.392652  3373 net.cpp:165] Memory required for data: 8086800
I0517 14:50:18.392659  3373 layer_factory.hpp:77] Creating layer accuracy
I0517 14:50:18.392678  3373 net.cpp:106] Creating Layer accuracy
I0517 14:50:18.392688  3373 net.cpp:454] accuracy <- ip2_ip2_0_split_0
I0517 14:50:18.392696  3373 net.cpp:454] accuracy <- label_mnist_1_split_0
I0517 14:50:18.392706  3373 net.cpp:411] accuracy -> accuracy
…
